examples/carla_scenic/Carla_Challenge/agent_speed/target_net_150.pt (torch, 4511 bytes, 4 tensors)

fc1.weight f4 [64, 2]
00000000: 540b debe cd89 e9be fe72 46bf e603 72bd
00000010: d0a6 e9be ac1e edbe 9655 d4c0 70a4 98be
00000020: 874f 59bd 6dc1 363d c7c8 953d 6233 103d
00000030: f548 bac0 7c1d 2841 3ce3 1841 9bce acc0
00000040: b9f2 ac3c 9935 40bd 78fb 23bf 8aa2 06bf
00000050: d873 abc0 545c 1c41 01d8 08c0 3f08 423f
00000060: 8b5c c9c0 b0ae 9d3c 18e8 0ebe 6017 f4bc
00000070: 8177 2f41 8657 3f41 823b 193f 7cf1 9b3e
00000080: 9c99 5e3d 8c0e 0abe 4492 b2bd 5619 80bd
00000090: 6328 4a3d 8aba 2dbe 56d0 3541 ffc8 b6c0
000000a0: 1702 95bd 5ecf 8a3d 8cf0 09c0 cf11 89bf
000000b0: 3e66 b2c0 467b 1c41 0202 b9c0 73ab 86bc
000000c0: 5b4b e23f ca98 bdbf 25e4 70bc 0f6c 2d3d
000000d0: 1765 89c0 13c1 4f40 2b3d e3c0 3c73 9ec1
000000e0: 1f9f d4c0 fe28 f140 3983 b7c0 e599 1841
000000f0: 7d04 4441 bbbc 52c1 eb6e ebbd 5f19 50bd
00000100: 7c05 8640 b572 adbf 9e55 8840 a5bc 1ec0
00000110: 9110 d940 9b2f 19bf 4d7d 7dbd 87e2 6dbd
00000120: 339a 0c3d fe89 a7bd 95fb 9dbf 1a49 f83c
00000130: 9147 6bc0 1f49 0ac0 7c25 10bd 90be 19bc
00000140: 330b 803d 46b0 37bc e980 9fbe 5633 f6bd
00000150: bb73 ae40 29a5 46bf 1bb8 d83d 8329 12bc
00000160: 9b3f 0e3e afbe 2cbe 389e 47bd 3452 b6bd
00000170: 8c06 6cc0 c30f 91bf 104e 35bc 2520 7bbe
00000180: e34b 03bf 650a 81bf 3bab 0ac0 cbbd 9f3f
00000190: 5772 35bd 6c0d 2c3d eab4 8940 6ce0 25c0
000001a0: 4305 12bd 1406 84bc 2627 3140 1153 5a40
000001b0: 6815 f83f 0271 9d3e 8a2f 383e 423d 44be
000001c0: 2398 30bc 5773 b1bd a0f0 f5bd 67b8 0cbe
000001d0: a15c 1bbe f8b5 e4bd 63c8 a13d ff34 9f3c
000001e0: acfd 1941 4902 b0c0 28ae 9ec0 1b89 1c41
000001f0: 83a8 ac3d ccd1 00bd 3c4b 3741 4b1c 4c41
-0.43368018 -0.45612946 -0.77519214 -0.05908575 -0.4563508 -0.46312463 -6.6354475 -0.29812956
-0.05305436 0.04461806 0.07313686 0.035205252 -5.821406 10.507198 9.555477 -5.4002204
0.021111833 -0.046926115 -0.64055586 -0.52591765 -5.357891 9.772541 -2.1381838 0.7579383
-6.2925467 0.019248337 -0.13955724 -0.029796302 10.966676 11.958868 0.59856427 0.30457675
0.054345712 -0.13482112 -0.08719304 -0.062548324 0.049354922 -0.1696569 11.363363 -5.7120357
-0.07275789 0.067778334 -2.1553068 -1.070856 -5.5749807 9.780096 -5.781495 -0.016439175
1.7679247 -1.4812253 -0.014702831 0.04233938 -4.29359 3.2461593 -7.101217 -19.806267
-6.644424 7.536254 -5.7347684 9.537572 12.251096 -13.171077 -0.11495765 -0.050805446
4.1881695 -1.3550631 4.2604513 -2.480264 6.7832723 -0.59838265 -0.061887074 -0.05807736
0.034326743 -0.08180617 -1.2342402 0.030308295 -3.676243 -2.160713 -0.035191998 -0.009383813
0.06252136 -0.01121146 -0.31153038 -0.1202151 5.4516273 -0.77595764 0.1058199 -0.00892103
0.13891451 -0.16869615 -0.048734874 -0.08902398 -3.6878996 -1.1332935 -0.011065975 -0.24523981
-0.5128767 -1.0081297 -2.166701 1.2479795 -0.044298496 0.042004988 4.303334 -2.5918226
-0.03564955 -0.01611618 2.7680144 3.41132 1.9381533 0.3075028 0.17986885 -0.19163993
-0.01077846 -0.086645775 -0.12008786 -0.13742219 -0.15172054 -0.1116752 0.07899549 0.01943445
9.624432 -5.500279 -4.9587593 9.783473 0.084305786 -0.031450078 11.455868 12.756907

fc1.bias f4 [64]
00000000: 68af 6940 cfe9 5240 2836 4b40 1466 793e
00000010: 104e 2dbf 4605 14bf db3c 403e c5cb 053f
00000020: 9be0 0abf 0705 4b40 65e2 633e a7af 4a40
00000030: 8748 6c3f d96a 1abf e04a a33d a389 99be
00000040: 72fe 92be 71f2 e7be 1fc1 6240 aa0a 1d3f
00000050: 0cda acbe bafe 4340 42c6 563e 9536 683f
00000060: 35d7 6940 e12c 8dbe f20f 383f 1067 603e
00000070: 7428 523e 339f 543e 1077 b53d e552 c0be
00000080: 05ba 7640 d044 7c40 33bf 8040 4960 ffbe
00000090: f21d 8ebe e3f8 6140 2079 e73f 103c 78bd
000000a0: fe25 73be 266f 5440 fb88 7c40 6576 2ebf
000000b0: 398b f2be 62f6 f0be 0b1d b13f da49 05bf
000000c0: 6960 5b40 9378 4040 b0b0 1fbe 6bef 3940
000000d0: 948c f0be 2e24 3840 e51d d53e 0db6 19bf
000000e0: ac57 16be d91c cebe 8e49 9fbe fa4b babe
000000f0: 0298 053f 1691 583e 3e01 20bf 1fe5 803d
3.651331 3.2955205 3.1751804 0.24355346 -0.6769724 -0.57820547 0.18773215 0.5226405
-0.5424897 3.1721818 0.22254331 3.166971 0.9229817 -0.60319287 0.07973266 -0.2998782
-0.2870975 -0.45302156 3.5430372 0.613444 -0.33760107 3.0624223 0.20974067 0.90708286
3.6537602 -0.27573302 0.7189933 0.21914315 0.20523244 0.20763855 0.088606 -0.37563244
3.8551037 3.9417 4.0233397 -0.49878147 -0.2775722 3.5308158 1.808384 -0.060604155
-0.23744962 3.319284 3.9458606 -0.68149406 -0.47371843 -0.47062975 1.3836988 -0.52065814
3.4277594 3.0073593 -0.15594745 2.905238 -0.46982253 2.8772082 0.4162437 -0.6004341
-0.14681882 -0.40256384 -0.31110805 -0.3638609 0.5218507 0.21149096 -0.62501895 0.062937014

fc2.weight f4 [9, 64]
00000000: cc5e ad3f 308d b33f 381a c33f 14bb cd3f
00000010: c609 9e3c 774c 18be a94f 8b40 fefc c8bf
00000020: a787 f6bc 24b8 bf3f 9223 5140 3a6c c23f
00000030: 76b0 d03f 9b2c 883d 3638 0441 c7c5 163e
00000040: bb0d 1f3c 47de 533d 4bb9 c33f f169 c1bf
00000050: c84e 643d 9268 a23f c64b 7440 edd8 d33f
00000060: f5c6 ab3f 07aa 073c e6ba d43f 84b1 c540
00000070: 89c4 5f40 d54e 6e40 60c6 2141 2f88 a33d
00000080: 6642 9d3f 58b5 953f 1bdb 4d3f 8d2d 933d
00000090: b28e f4bd 8f72 be3f 0dda 7a3f a436 4abe
000000a0: 1bdf 42bb 5fd0 b83f 0af9 8b3f 7ed3 123e
000000b0: aa96 813d e9d9 123e 86bb 9a3f 57e3 8e3d
000000c0: 9241 aa3f 37a2 d63f 735b 463d 7e1e 6f3f
000000d0: a21d b3bd e684 953f 1279 183f 4445 413d
000000e0: 0b9d a93c dd8f 75bd 7846 063d 6b28 81bd
000000f0: 555c b8bf e489 4f40 4797 a3bd d795 ff40
00000100: 7ebc d63f b7a7 ba3f ef74 b93f fce9 b03f
00000110: d5a4 7b3c 6d11 2f3e c5c7 8540 27e4 b3bf
00000120: 03ff cf3c 6e7f b63f 8825 5440 4e34 ce3f
00000130: b44a cd3f 881a f23d c91e 0f41 609e 13bd
00000140: ca5d 49be 5d6a 943d 0c85 bc3f 0f11 96bf
00000150: 86dd c2bb 2776 b43f 0cc2 6940 acbb a73f
00000160: 97ce 8e3f 3713 8ebc 7d3b a83f 86fb cb40
00000170: 4d1d 3d40 33cd 6040 b458 1c41 c47d cbbd
00000180: fb24 723f 5c5a 833f dc4a 453f f32e 68bd
00000190: 35b2 00be d1af b33f b8dd 8c3f 5ffb 323e
000001a0: 88be d93d 03c2 bb3f ac87 873f eef3 1bbd
000001b0: b771 9e3c 0b33 173e 4d6b 783f 1840 01bd
000001c0: 7297 a53f 9cfb bc3f 52ee a23d 4718 563f
000001d0: 12b6 d2bd 0ade bb3f 008a 2b3f 1e89 08be
000001e0: 6fee 133d 3bff db3d 8b96 f0bb 10cf 653c
000001f0: 49ef afbf a8b0 4c40 cc60 9c3c e35b 0c41
00000200: 12ea c13f 0793 e53f c7d7 d43f db9f 973f
00000210: fd3d 983c d4e1 26bc 08cf 8540 7ead 88bf
00000220: 22ea f13d 01f9 c63f 93d2 5240 742e c23f
00000230: b84d 9b3f 0429 b23b f876 0841 9122 a3be
00000240: 2e97 83bd 4a93 d13d 054c d53f 1210 77bf
00000250: 40c6 553d 2bbe aa3f 1e90 6840 f0ed 9f3f
00000260: 6e7b ac3f bea7 2c3e 9b3b af3f 9612 cc40
00000270: 586e 5140 eb1c 6940 d64b 1e41 be40 a03d
00000280: a6b0 493f 83d3 3d3f 56e5 b13e d9d9 30be
00000290: f372 433d 561a c63f 94d3 813f 7ba3 9c3d
000002a0: 6c84 a63c 186b b43f 46cc 313f 4bdf 353c
000002b0: 1180 233e 0273 0abe f816 9a3f 5b3d 2f3b
000002c0: baee ca3f 6e73 d03f 7de5 c83d 6de6 893f
000002d0: 317f 24bd 4a8d 8f3f 0069 b73e f724 7abe
000002e0: 88f3 df3c cfcc cd3d a4fc 9abc 7094 c93d
000002f0: 8bab 87bf 81b9 5140 23c1 f2bd afdb 0341
00000300: ed6c bd3f 7a39 ac3f f0de 9d3f 6ccf af3f
00000310: 8956 46bd 1364 193c e882 9640 5a34 50c0
00000320: c83f b6bd 985d ad3f 7760 6240 3e95 ba3f
00000330: d805 bb3f 11ab 043e a269 2341 8091 893f
00000340: e064 bebc 4d83 48bd 1251 b73f 3f27 88c0
00000350: 8b7c 2bbe f0a4 ad3f 6486 8240 f9d8 b03f
00000360: ea75 c13f e8df f23b df76 8d3f 99a7 f440
00000370: fa68 6a40 c85f 8a40 4c71 4b41 4b8a 73bc
00000380: 46f7 b43f 260a aa3f 65e4 a93f 9280 423d
00000390: 72cf 67bb 1785 b73f 823c 8d3f e313 893d
000003a0: bb8c 7ebd 6107 ae3f c419 a53f 1f8c bdbd
000003b0: e1d0 22be f78e 913d 1001 a83f fdfa 3abe
000003c0: 5ea5 b23f 46c7 c13f 57dd 823b fe61 af3f
000003d0: 6676 373d 264f c33f 9ef2 f43f 83ce 15bd
000003e0: 73ed 1fbe 0883 3cbd 8375 78be 9b80 f93d
000003f0: fb59 5dc0 7c61 5440 7c38 9dbd 867b 2741
1.3544555 1.4027462 1.5242376 1.6072717 0.01929177 -0.14872919 4.353474 -1.5702207
-0.030093981 1.497807 3.267796 1.5189278 1.6303852 0.06649133 8.263723 0.14723884
0.009707863 0.051725652 1.5290922 -1.5110456 0.055739194 1.2688162 3.8171248 1.6550575
1.3420092 0.008280284 1.6619537 6.1779194 3.4963706 3.7235615 10.110931 0.07984959
1.2285888 1.1695967 0.80412453 0.071864225 -0.119412795 1.487871 0.9798897 -0.19747406
-0.0029735032 1.443859 1.0935376 0.1433849 0.06327565 0.14340939 1.2088478 0.069769554
1.330126 1.6768254 0.048427057 0.934059 -0.087458864 1.1681182 0.5955974 0.047185197
0.020704767 -0.05995165 0.032782048 -0.06306537 -1.4403177 3.2427912 -0.07987838 7.987041
1.6776273 1.4582433 1.448881 1.3821406 0.015359123 0.17096491 4.180636 -1.4054002
0.025390154 1.4257638 3.3147907 1.6109712 1.6038423 0.11821467 8.945016 -0.03603971
-0.19664684 0.0724685 1.4728103 -1.1723956 -0.005946818 1.4098557 3.6524687 1.3104148
1.1156796 -0.017343147 1.3143154 6.3744535 2.9549134 3.5125244 9.771656 -0.09936097
0.9458768 1.026195 0.7706735 -0.0566854 -0.1256798 1.403803 1.1005163 0.17478703
0.10632044 1.4668583 1.0588279 -0.038074426 0.019341333 0.14765565 0.9703873 -0.031555265
1.2936842 1.4764285 0.07955612 0.83630794 -0.102886334 1.4677136 0.67007446 -0.13333556
0.03611606 0.10742041 -0.007342165 0.014026418 -1.3744899 3.1982822 0.019089125 8.772433
1.5149558 1.7935494 1.662835 1.1845659 0.018584246 -0.010185678 4.1815224 -1.0677946
0.118122354 1.554474 3.2941024 1.5170426 1.2133093 0.0054370183 8.529045 -0.3186231
-0.064253196 0.10233171 1.6663824 -0.96508896 0.05219102 1.3339285 3.6337962 1.2494488
1.3475168 0.16860864 1.3690065 6.377269 3.2723598 3.64239 9.893515 0.078248486
0.7878517 0.74150866 0.34745282 -0.17270602 0.047717046 1.5476787 1.0142694 0.07648369
0.020326816 1.4095182 0.6945232 0.0111006005 0.15966822 -0.13520434 1.203826 0.0026739452
1.5854104 1.6285226 0.098093964 1.0773445 -0.04016036 1.1214993 0.35822296 -0.24428163
0.027337804 0.1004883 -0.018919297 0.09842765 -1.0599226 3.2769473 -0.11853244 8.241134
1.4798867 1.345504 1.233366 1.3735175 -0.04842237 0.009362238 4.70348 -3.2531953
-0.08898884 1.3544188 3.5371377 1.4576795 1.4611158 0.12955882 10.213289 1.0747528
-0.02324146 -0.048953343 1.4321616 -4.254791 -0.16746728 1.356596 4.078905 1.3816215
1.511411 0.0074119456 1.1051902 7.6454587 3.6626573 4.324192 12.71516 -0.014864515
1.4137962 1.3284347 1.3272825 0.047485895 -0.003537145 1.4337491 1.103409 0.06693246
-0.06214593 1.3596002 1.2898488 -0.092552416 -0.15899993 0.071073465 1.3125324 -0.18259807
1.3956716 1.5138938 0.003993671 1.370178 0.044790648 1.5258529 1.9136541 -0.036573898
-0.15617923 -0.0460234 -0.24263577 0.12182733 -3.458617 3.31845 -0.07676789 10.467657

fc2.bias f4 [9]
00000000: abe6 7e3f 54db 8e3f 73de 753f a900 a63f
00000010: 7518 0540 7be6 e93f a1ba 0b40 a32b 923f
00000020: 7274 b93f
0.9957072 1.1160684 0.96042556 1.2968951 2.0796177 1.8273462 2.183266 1.1419567
1.4488661
