examples/carla_scenic/Carla_Challenge/agent_collision/policy_net_0.pt (torch, 71511 bytes, 6 tensors)

fc1.weight f4 [64, 3]
-0.009299261 -0.0074958764 0.032080982 0.17236185 -0.01564961 -0.08723604 0.17085503 -0.12279991
-0.23709695 -0.28728375 0.09711527 -0.097992495 -0.077037126 -0.17718653 0.047665253 0.0063518086
0.010271224 0.074291304 -0.010938319 0.03168296 -0.0456783 0.013368919 0.18365695 -0.029036237
-0.090799995 0.029605448 0.17102106 -0.0011579491 -0.13080966 0.043695536 0.17619558 0.05583557
0.0047907587 -0.045063324 -0.045031264 -0.24818932 0.11981994 0.12837142 0.105973504 0.17467423
0.010449584 0.11128203 -0.014688718 0.037459128 0.019322328 -0.14789328 0.07644505 -0.1550617
-0.098352015 -0.105449975 0.0059183934 -0.09899999 0.0008447811 0.05730304 -0.33034006 0.053828996
0.2138789 0.1626806 -0.023747936 -0.11604933 0.013564008 0.03142708 -0.026032288 0.14938603
0.052627187 -0.08546902 0.050124295 -0.1100133 -0.025473898 -0.13048019 0.015680918 -0.07325299
0.021876963 -0.042621024 -0.044558745 0.04314291 0.072029226 -0.10597545 0.091993734 -0.075578265
-0.0052479343 0.008814235 -0.108752586 -0.17203568 -0.060842663 -0.07644372 -0.07180692 0.030354727
-0.04784767 0.20040904 -0.14311408 0.13980933 0.015821364 0.039277393 -0.115070775 -0.16785406
0.17104515 0.057236947 0.097158514 0.09064302 0.15807232 0.025721947 0.09497464 0.12733494
0.0017424914 -0.07126413 -0.12084184 0.029658943 0.17978291 -0.06476518 0.05655312 0.07810748
-0.05925597 0.009648676 0.21359561 -0.0468578 -0.046382565 0.08725836 -0.00050107524 0.010383572
-0.016325833 0.24924567 -0.00016903423 0.02782453 -0.19308446 0.052042514 0.0010285351 -0.17031728
-0.0076533817 -0.11206025 -0.091383584 -0.27674767 -0.09189856 0.09773882 0.107229225 -0.07534266
-0.15845166 -0.057766415 0.15539724 -0.002262524 -0.3246432 0.019938909 -0.055059772 -0.039738987
-0.026945729 -0.0033169077 -0.18105645 -0.043616902 -0.008296932 -0.018429253 -0.016240347 -0.0060909875
0.045877036 0.05792234 -0.14747912 -0.16078153 0.23605068 0.10380731 -0.031211067 0.01932115
-0.22490664 0.006914492 -0.0170364 -0.035095472 0.11982162 -0.09850965 0.004427788 -0.03636698
0.040913023 -0.020355769 -0.16237001 0.21655086 0.07587918 0.1410876 -0.16484964 0.10816355
0.01990485 0.08311671 -0.073144294 0.03866006 0.19294104 -0.14813249 0.023357876 0.08226273
-0.005285395 0.018861948 0.010215432 -0.1956906 -0.113381006 0.104932845 -0.086884044 -0.13141723
00000000: ed5b 18bc f89f f5bb 5967 033d a07f 303e
00000010: 9c33 80bc cfa8 b2bd 9ff4 2e3e 857e fbbd
00000020: 8bc9 72be db16 93be 5fe4 c63d 4ab0 c8bd
00000030: a4c5 9dbd 6370 35be a43c 433d d522 d03b
00000040: a348 283c 0a26 983d a336 33bc fec5 013d
00000050: 2b19 3bbd 4f09 5b3c 9110 3c3e 67dd edbc
00000060: 59f5 b9bd 2087 f23c 2520 2f3e 53c6 97ba
00000070: f8f2 05be 17fa 323d 9d6c 343e d7b3 643d
00000080: ccfb 9c3b 5294 38bd b472 38bd 5725 7ebe
00000090: 2864 f53d cc73 033e a308 d93d cddd 323e
000000a0: bb34 2b3c d5e7 e33d f3a8 70bc be6e 193d
000000b0: dc49 9e3c 5671 17be 398f 9c3d 7fc8 1ebe
000000c0: c86c c9bd 28f6 d7bd 15ef c13b 82c0 cabd
000000d0: 4d74 5d3a 98b6 6a3d 5522 a9be cb7b 5c3d
000000e0: 1203 5b3e be95 263e 088b c2bc 45ab edbd
000000f0: 933b 5e3c afb9 003d aa41 d5bc a7f8 183e
00000100: 9b8f 573d 620a afbd 224f 4d3d a74e e1bd
00000110: a3ae d0bc 999c 05be 4575 803c aa05 96bd
00000120: 5137 b33c 6293 2ebd 3b83 36bd 9fb6 303d
00000130: 0f84 933d a809 d9bd 3667 bc3d c7c8 9abd
00000140: ddf6 abbb 9569 103c adb9 debd 1f2a 30be
00000150: 2836 79bd 868e 9cbd 820f 93bd 7aaa f83c
00000160: ebfb 43bd 0738 4d3e 7f8c 12be 2d2a 0f3e
00000170: ce9b 813c 55e1 203d 3aaa ebbd efe1 2bbe
00000180: 7626 2f3e 4a71 6a3d 0bfb c63d 0ca3 b93d
00000190: b6dd 213e d5b6 d23c 1082 c23d 1764 023e
000001a0: 4f64 e43a eef2 91bd ed7b f7bd 50f7 f23c
000001b0: 0319 383e 9ba3 84bd 3fa4 673d d1f6 9f3d
000001c0: 63b6 72bd 7b15 1e3c cfb8 5a3e f7ed 3fbd
000001d0: a5fb 3dbd 83b4 b23d 975a 03ba dc1f 2a3c
000001e0: c1bd 85bc 423a 7f3e c83e 31b9 45f0 e33c
000001f0: efb7 45be 882a 553d e9cf 863a a767 2ebe
00000200: 38c9 fabb d87f e5bd 5127 bbbd dfb1 8dbe
00000210: 5035 bcbd 4a2b c83d ff9a db3d 414d 9abd
00000220: 2741 22be 7a9c 6cbd 7420 1f3e db46 14bb
00000230: a237 a6be ec56 a33c 5b86 61bd 59c5 22bd
00000240: 4abd dcbc 7a60 59bb dd66 39be a3a7 32bd
00000250: dbef 07bc f2f8 96bc 7a0a 85bc e896 c7bb
00000260: 8fe9 3b3d fa3f 6d3d c404 17be eaa3 24be
00000270: 45b7 713e ed98 d43d 5aae ffbc 6347 9e3c
00000280: ed4d 66be f792 e23b ec8f 8bbc 45c0 0fbd
00000290: 0a65 f53d 6dbf c9bd fa16 913b 8bf5 14bd
000002a0: 6a94 273d 24c1 a6bc 5344 26be 82bf 5d3e
000002b0: 8b66 9b3d 4579 103e 58ce 28be da84 dd3d
000002c0: 7f0f a33c 1839 aa3d adcc 95bd 035a 1e3d
000002d0: 5692 453e 0bb0 17be 0459 bf3c 5d79 a83d
000002e0: 1b31 adbb 5f84 9a3c a15e 273c 1e63 48be
000002f0: 4d34 e8bd 08e7 d63d 43f0 b1bd 3d92 06be

fc1.bias f4 [64]
0.30296412 -0.27183402 -0.36464196 0.48254058 -0.4540711 -0.23632279 -0.08615702 0.5292614
0.42196655 0.15845767 -0.38768566 0.23172125 -0.47530162 -0.45448893 0.2757532 -0.07169994
-0.11480179 0.18558787 0.23924829 0.5598749 -0.1404585 0.12815112 0.5626959 -0.52791655
0.042094097 -0.4192886 -0.3388315 -0.0022862458 -0.01984508 -0.16247295 0.13535212 0.15266559
0.0549474 -0.46779072 -0.3232047 -0.3903896 0.24621488 0.5388993 0.3507198 -0.22938539
0.15241802 0.4570679 -0.44534037 -0.5298068 -0.47269136 -0.56975216 -0.2422473 0.48884505
0.5061304 -0.35314977 -0.18596922 -0.34094453 -0.5522804 -0.5535096 0.4433827 -0.48049107
-0.26266742 -0.24245887 0.03670086 0.35000086 0.41632023 0.17717002 0.18947437 0.3562127
00000000: 1d1e 9b3e d42d 8bbe 5ab2 babe 8f0f f73e
00000010: 027c e8be 9afe 71be 1773 b0bd ad7d 073f
00000020: 000c d83e ba42 223e bc7e c6be 5648 6d3e
00000030: bc5a f3be c6b2 e8be 862f 8d3e 6bd7 92bd
00000040: 331d ebbd bf0a 3e3e 81fd 743e f653 0f3f
00000050: 5ad4 0fbe 0c3a 033e d70c 103f 8a25 07bf
00000060: dc6a 2c3d ffac d6be 537b adbe d7d4 15bb
00000070: 2692 a2bc 4f5f 26be bf99 0a3e 5e54 1c3e
00000080: 8610 613d 4482 efbe 167b a5be 25e1 c7be
00000090: c11f 7c3e 4ef5 093f 8c91 b33e 01e4 6abe
000000a0: 7813 1c3e ce04 ea3e a703 e4be 6ba1 07bf
000000b0: 9a04 f2be 47db 11bf ad0f 78be e649 fa3e
000000c0: c391 013f 0cd0 b4be b76e 3ebe 4890 aebe
000000d0: 4062 0dbf ceb2 0dbf 0f03 e33e ed02 f6be
000000e0: 587c 86be 2347 78be a453 163d 5033 b33e
000000f0: ed27 d53e 0f6c 353e 9205 423e 8361 b63e

fc2.weight f4 [256, 64]
-0.14466347 0.068298966 0.016538214 0.12519525 -0.25816402 -0.064215265 -0.11951317 -0.02760982
0.1776049 -0.05013466 0.042979464 -0.0641253 -0.212497 0.13889916 -0.056739505 -0.12262678
0.049409937 0.04841226 -0.030353243 -0.043734293 0.033450853 -0.08697707 0.057680964 -0.06625163
0.014645598 0.013214272 0.06734518 0.0020680346 0.1492958 0.027673075 0.01665469 0.054860193
0.0711826 0.009752155 0.025715237 0.03051503 0.055036753 -0.007668156 -0.05143733 0.028680092
-0.07429924 0.018187663 -0.113624886 -0.048952635 -0.07280272 -0.11734783 0.0008520635 0.028789757
-0.042960983 0.0382539 0.054542255 -0.061235696 0.06850513 -0.210945 0.219993 -0.010538103
-0.06518518 -0.1785015 0.016939174 0.059336793 0.23585582 0.13372868 0.019369366 0.17951177
-0.08606186 -0.13206078 -0.05756349 -0.04828222 0.07717519 -0.01617246 0.02076422 -0.18044508
0.073381074 0.05810343 -0.062086236 0.12535565 0.19516462 -0.06849869 0.020292904 0.015849523
0.03222393 -0.016734915 -0.094538994 -0.11999165 0.043984786 -0.05395604 0.027229855 -0.01707857
-0.07922786 -0.06393916 -0.03392193 -0.15825735 0.018113082 -0.042298507 -0.180896 -0.0072766705
-0.027952073 0.08007614 0.0074503454 -0.14092325 -0.050857812 -0.028168788 0.022741051 0.09287178
-0.0055239736 -0.021458406 0.035558138 -0.22584212 0.082805686 -0.0024241707 0.025602518 0.084533535
-0.0116426805 -0.111860454 0.04057647 -0.12790196 0.04665808 -0.19522141 0.10336443 -0.055944663
-0.050571866 -0.019233836 0.14254318 0.22108567 -0.1018756 -0.11149692 0.02594979 0.022347022
-0.036733788 0.05800831 0.20972955 0.13561241 -0.06441062 -0.05897906 0.05495986 0.1834209
-0.20789003 0.0111328205 0.08302418 0.12043017 0.051297452 0.047281574 0.26441136 0.08388285
0.20891349 0.04132733 -0.08873673 -0.00072393613 -0.044577867 -0.07360681 -0.08621275 0.023119483
0.010125232 0.00754848 -0.05105089 0.1810266 0.123316124 -0.17255941 0.012500972 -0.05013674
-0.06062379 0.083871685 -0.042385153 0.060796972 -0.15445666 -0.023584496 0.09050086 -0.003580223
-0.14580151 -0.07278752 0.06280547 0.22573169 -0.11372081 0.14252551 0.094830126 -0.0021173507
-0.10102635 0.024795145 -0.0052561904 -0.05326825 -0.1214137 0.014620709 0.00598993 0.052815657
-0.11884295 -0.038464684 0.006938198 0.24323626 0.053735908 0.0046642427 -0.20676146 0.14920239
-0.06710146 0.14103849 0.065426886 0.14343639 0.05094067 0.07627832 -0.17229484 -0.08446295
0.12701665 0.06953478 0.05677644 0.038858727 -0.14420462 -0.13006839 -0.026805311 -0.062939934
-0.04039184 -0.010711926 0.05136772 0.10555416 -0.07545014 0.04939803 0.023631945 0.025096674
-0.06333074 0.044789087 -0.0005500256 0.0705673 -0.018104648 -0.08665432 0.0824958 0.07706576
0.23860501 -0.18353313 0.13860177 -0.12317993 -0.050750893 0.10280595 0.13707562 0.0513114
-0.035028614 0.122695446 -0.016317269 0.0067863287 -0.04562703 -0.12494333 0.051630896 0.0007094792
0.10085124 -0.19327182 -0.03599338 -0.0087273745 -0.05898097 0.20829773 -0.0056591467 0.039960865
0.006869877 0.071780995 -0.006434861 0.049892347 0.09792809 0.18230899 -0.0062445956 -0.010339433
00000000: a922 14be 54e0 8b3d 267b 873c 2f33 003e
00000010: 132e 84be 4b83 83bd 52c3 f4bd fd2d e2bc
00000020: 0fde 353e 005a 4dbd 3c0b 303d 2054 83bd
00000030: d098 59be 953b 0e3e af67 68bd c023 fbbd
00000040: 1362 4a3d ef4b 463d 5da7 f8bc bb22 33bd
00000050: c303 093d 0921 b2bd e042 6c3d efae 87bd
00000060: 17f4 6f3c ad80 583c 45ec 893d dd87 073b
00000070: 00e1 183e a5b2 e23c 6b6f 883c 15b5 603d
00000080: 2fc8 913d 81c7 1f3c c3a8 d23c a8fa f93c
00000090: 386e 613d 2845 fbbb f3af 52bd 83f2 ea3c
000000a0: 332a 98bd 4bfe 943c 2ab4 e8bd 8f82 48bd
000000b0: 9819 95bd 0f54 f0bd 035d 5f3a 7fd8 eb3c
000000c0: dbf7 2fbd 1fb0 1c3d b367 5f3d 48d2 7abd
000000d0: 6b4c 8c3d f701 58be d845 613e 02a8 2cbc
000000e0: cf7f 85bd 19c9 36be 06c4 8a3c 230b 733d
000000f0: 3084 713e 2cf0 083e 81ac 9e3c efd1 373e
00000100: 3341 b0bd f13a 07be b2c7 6bbd 94c3 45bd
00000110: 070e 9e3d 1b7c 84bc ba19 aa3c 98c6 38be
00000120: d148 963d ddfd 6d3d 234e 7ebd 3b5d 003e
00000130: 3cd9 473e 0b49 8cbd 4e3d a63c dcd6 813c
00000140: 3dfd 033d a917 89bc a99d c1bd 2fbe f5bd
00000150: 6429 343d 0201 5dbd 2511 df3c 5be8 8bbc
00000160: 3742 a2bd 89f2 82bd b9f1 0abd 370e 22be
00000170: e361 943c 3341 2dbd cd3c 39be 2371 eebb
00000180: bffb e4bc f6fe a33d 0722 f43b 2f4e 10be
00000190: 4850 50bd 3bc2 e6bc 714b ba3c 8f33 be3d
000001a0: 7302 b5bb 8ac9 afbc 69a5 113d 2843 67be
000001b0: 0796 a93d d6de 1ebb 5fbc d13c eb1f ad3d
000001c0: f1c0 3ebc 1817 e5bd 8333 263d bbf8 02be
000001d0: 8b1c 3f3d 1fe8 47be bbb0 d33d 3b26 65bd
000001e0: 7224 4fbd 4790 9dbc d7f6 113e 4864 623e
000001f0: 28a4 d0bd 7f58 e4bd a794 d43c 1a11 b73c
00000200: 2b76 16bd 1f9a 6d3d 58c3 563e fbdd 0a3e
00000210: b7e9 83bd 0794 71bd 971d 613d b0d2 3b3e
00000220: 20e1 54be 6f66 363c 9508 aa3d 18a4 f63d
00000230: 471d 523d 53aa 413d ed60 873e c6ca ab3d
00000240: 6bed 553e d946 293d 9abb b5bd 88c6 3dba
00000250: 4897 36bd 2bbf 96bd 4f90 b0bd 1265 bd3c
00000260: 4de4 253c 3d59 f73b bd1a 51bd 095f 393e
00000270: 2a8d fc3d 6ab3 30be e0d0 4c3c 2f5c 4dbd
00000280: a750 78bd ebc4 ab3d 0e9c 2dbd 3f06 793d
00000290: e329 1ebe 4634 c1bc 8458 b93d 2da2 6abb
000002a0: fe4c 15be a011 95bd 27a0 803d 3526 673e
000002b0: 75e6 e8bd 35f2 113e 4c36 c23d 40c3 0abb
000002c0: e7e6 cebd 301f cb3c 1f3c acbb cf2f 5abd
000002d0: bfa7 f8bd b38b 6f3c 2d47 c43b 3b55 583d
000002e0: ef63 f3bd 258d 1dbd d359 e33b ed12 793e
000002f0: 2f1a 5c3d 81d6 983b 47b9 53be 83c8 183e
00000300: 7e6c 89bd 656c 103e 88fe 853d fde0 123e
00000310: 2aa7 503d cf37 9c3d 0f6e 30be e9fa acbd
00000320: a710 023e 4068 8e3d 6a8e 683d 542a 1f3d
00000330: 60aa 13be a630 05be d096 dbbc a7e6 80bd
00000340: ea71 25bd 1381 2fbc f566 523d c82c d83d
00000350: 9a85 9abd 9755 4a3d c897 c13c 8a97 cd3c
00000360: 8cb3 81bd c374 373d 982f 10ba 9785 903d
00000370: 3350 94bc d277 b1bd 8ff3 a83d a7d4 9d3d
00000380: df54 743e 1cf0 3bbe 9fed 0d3e c245 fcbd
00000390: 2be0 4fbd ed8b d23d 8d5d 0c3e e72b 523d
000003a0: 2a7a 0fbd c047 fb3d cbab 85bc da5f de3b
000003b0: 69e3 3abd 4ae2 ffbd eb7a 533d 58fc 393a
000003c0: 188b ce3d 0ce9 45be cb6d 13bd 43fd 0ebc
000003d0: 0896 71bd 004c 553e 5d70 b9bb 01ae 233d
000003e0: b51c e13b ea01 933d 87db d2bb eb5b 4c3d
000003f0: 868e c83d 35af 3a3e 779f ccbb ba66 29bc

fc2.bias f4 [256]
0.025814265 -0.08644514 0.07998338 0.0032807887 0.009732246 -0.04663621 -0.08504149 0.04494819
0.07559207 0.031281218 -0.09980826 0.054238573 -0.0774356 0.10731393 -0.09219761 0.12269126
-0.024986073 0.041472614 0.0022283494 0.04861954 -0.11753239 -0.058817312 0.097874135 -0.11737318
0.06586054 -0.029999197 0.097898245 -0.11198208 -0.0030178279 0.066234544 0.06653063 -0.10011394
0.09465104 -0.03810954 -0.081545025 0.012284577 -0.087825134 0.11775251 -0.05808738 0.01497452
0.074976504 -0.09657976 -0.11152439 0.081437245 -0.06602268 0.08544472 0.09428908 0.12001233
-0.08689903 0.08361822 -0.05732201 0.101827055 0.10529405 -0.008878037 -0.08474678 -0.06557657
0.06886615 0.033700302 -0.11139554 -0.0401562 0.11581172 -0.075628564 -0.07552612 0.050204024
-0.057474896 -0.030725181 0.035674587 -0.06838313 -0.09355527 -0.019440413 -0.03777638 -0.04686007
-0.043928966 -0.02404885 0.087155804 -0.016829103 -0.09754002 -0.016015619 -0.10489133 -0.075103104
-0.044872507 -0.0058394372 -0.11222419 0.07189931 -0.004433885 0.05761701 -0.012396321 0.04253447
0.06022224 0.08953813 -0.005820185 -0.048026487 0.0068840384 -0.09032163 0.102504686 -0.08655465
0.0078070164 0.0392503 -0.0077356547 0.10425705 0.06811176 0.043239355 0.09053992 -0.042079225
-0.034110576 -0.081738144 0.08436613 0.12286681 -0.09276216 -0.113368556 -0.077277064 -0.0010073781
-0.0067964345 0.095280096 -0.025944084 -0.02628456 0.03987448 0.08095886 -0.046722308 -0.032989636
0.055079192 -0.10561131 0.0020923167 0.123824015 0.07296193 0.0023294091 -0.06480792 -0.09711759
0.07373625 -0.12386826 -0.024156675 0.023648232 0.078435004 0.06953408 0.11735098 0.11620854
0.11896622 0.026845694 -0.1154699 -0.029978842 0.08818063 -0.025230736 -0.026222825 0.047647744
-0.03550963 -0.11887212 -0.06663945 0.040418983 -0.12249267 -0.1190394 -0.07233286 -0.12089005
-0.06944814 0.07659745 0.005270481 0.015873939 -0.012984261 -0.05986391 0.030199662 -0.041012704
-0.07387361 -0.023479402 -0.021631628 0.0076241195 -0.02026394 -0.0661668 0.0917656 0.102650344
0.06268719 0.06835866 -0.057461724 -0.050485447 0.037471622 -0.0917148 -0.029066995 0.09932122
-0.014454305 0.09029585 -0.10523148 0.09957555 -0.008445695 -0.015170574 -0.08918545 0.050619647
-0.020761311 -0.09913713 -0.04235795 0.10029125 -0.09422991 -0.028430462 -0.07750909 0.075498894
0.08696462 0.038805723 -0.07158077 0.032271802 0.053447023 0.062375113 -0.05336611 -0.12180114
0.039850682 -0.054291517 -0.08356826 -0.11459759 -0.09786163 -0.028286308 0.022883028 -0.10950494
0.07240589 0.022490978 0.04456134 0.03328222 -0.04946062 0.059020966 0.09637219 0.024697572
-0.11873202 -0.11142111 0.0020774454 0.03510207 0.017061532 -0.04807219 0.07236867 0.056789547
0.10388535 -0.08373107 0.0087585 0.05833985 -0.042678982 -0.022667155 0.12452729 -0.08827661
0.07518907 0.10866186 -0.050802678 0.12121387 0.08574784 0.0030059814 0.014136776 -0.031736284
0.100516394 0.046942547 -0.06977686 0.1174712 0.007498175 -0.10573058 0.042112544 -0.107430324
0.011322841 0.026635721 0.034675136 -0.00024102628 -0.114135 0.019326806 -0.054505482 0.12278934
00000000: 7078 d33c 260a b1bd 54ce a33d 8002 573b
00000010: 0074 1f3c 9c05 3fbd 3c2a aebd 981b 383d
00000020: 04d0 9a3d bc20 003d 4668 ccbd 4429 5e3d
00000030: 8e96 9ebd 68c7 db3d 1ad2 bcbd 8e45 fb3d
00000040: 98af ccbc 30df 293d 8009 123b 4825 473d
00000050: d2b4 f0bd 6cea 70bd 3c72 c83d 5a61 f0bd
00000060: e4e1 863d e0c0 f5bc e07e c83d dc56 e5bd
00000070: c0c6 45bb faa5 873d 3641 883d 8a08 cdbd
00000080: 68d8 c13d c018 1cbd 1401 a7bd 4045 493c
00000090: aadd b3bd 3a28 f13d 08ed 6dbd b057 753c
000000a0: 488d 993d 9ccb c5bd e666 e4bd 92c8 a63d
000000b0: e636 87bd a4fd ae3d a21a c13d 06c9 f53d
000000c0: 1ef8 b1bd 0840 ab3d 7cca 6abd b48a d03d
000000d0: 68a4 d73d 3075 11bc b88f adbd 024d 86bd
000000e0: b209 8d3d 5409 0a3d 5823 e4bd d47a 24bd
000000f0: b22e ed3d 26e3 9abd 70ad 9abd bca2 4d3d
00000100: cc6a 6bbd 60b3 fbbc 841f 123d 740c 8cbd
00000110: e899 bfbd 8041 9fbc 68bb 1abd 58f0 3fbd
00000120: dcee 33bd 1802 c5bc be7e b23d 30dd 89bc
00000130: 10c3 c7bd 3033 83bc 44d1 d6bd a8cf 99bd
00000140: 3ccc 37bd c058 bfbb ccd5 e5bd f23f 933d
00000150: 204a 91bb d0ff 6b3d f019 4bbc a038 2e3d
00000160: 98ab 763d c45f b73d 40b7 bebb 6cb7 44bd
00000170: 8093 e13b 8cfa b8bd faed d13d 9043 b1bd
00000180: 00d2 ff3b ecc4 203d 607b fdbb b884 d53d
00000190: 2e7e 8b3d c01b 313d fe6c b93d 445b 2cbd
000001a0: 88b7 0bbd 5466 a7bd 26c8 ac3d 98a1 fb3d
000001b0: 16fa bdbd c62d e8bd 7043 9ebd 000a 84ba
000001c0: a0b4 debb 3622 c33d b088 d4bc b852 d7bc
000001d0: 6c53 233d c2cd a53d e45f 3fbd 2420 07bd
000001e0: b89a 613d be4a d8bd 401f 093b 7297 fd3d
000001f0: 106d 953d 00a9 183b 04ba 84bd 96e5 c6bd
00000200: 0803 973d a4ae fdbd 38e4 c5bc f0b9 c13c
00000210: 88a2 a03d e267 8e3d b655 f03d befe ed3d
00000220: 90a4 f33d 80eb db3c 7c7b ecbd 3096 f5bc
00000230: 0c98 b43d b0b0 cebc 40d1 d6bc 482a 433d
00000240: 8c72 11bd 3a73 f3bd 447a 88bd 608e 253d
00000250: 70dd fabd eeca f3bd 4023 94bd 3495 f7bd
00000260: d43a 8ebd 20df 9c3d 00b4 ac3b 100a 823c
00000270: f0bb 54bc dc33 75bd 4865 f73c f0fc 27bd
00000280: 0c4b 97bd e057 c0bc d034 b1bc c0d3 f93b
00000290: 9000 a6bc 7682 87bd 9aef bb3d 583a d23d
000002a0: 2462 803d a0ff 8b3d fc5c 6bbd d4c9 4ebd
000002b0: d87b 193d f8d4 bbbd e81d eebc ec68 cb3d
000002c0: c0d1 6cbc 08ed b83d 9a83 d7bd 44ee cb3d
000002d0: d05f 0abc 008e 78bc dca6 b6bd 8c56 4f3d
000002e0: a013 aabc 6808 cbbd 887f 2dbd 8065 cd3d
000002f0: 9cfb c0bd 00e7 e8bc 16bd 9ebd 2a9f 9a3d
00000300: 821a b23d c0f2 1e3d f098 92bd 702f 043d
00000310: 44eb 5a3d 0c7d 7f3d 6c96 5abd e072 f9bd
00000320: 783a 233d c860 5ebd d625 abbd 24b2 eabd
00000330: ae6b c8bd b0b8 e7bc 3075 bb3c 2044 e0bd
00000340: 8a49 943d 003f b83c f485 363d f052 083d
00000350: 3897 4abd f8bf 713d c85e c53d 9052 ca3c
00000360: c629 f3bd c030 e4bd c025 083b 30c7 0f3d
00000370: a0c4 8b3c 58e7 44bd 0636 943d 289c 683d
00000380: d8c1 d43d 327b abbd d07f 0f3c c4f5 6e3d
00000390: 28d0 2ebd 78b0 b9bc 2a08 ff3d 5eca b4bd
000003a0: bafc 993d 1c8a de3d 7816 50bd fa3e f83d
000003b0: 909c af3d 0000 453b f09d 673c e8fd 01bd
000003c0: 8adb cd3d d446 403d 2ce7 8ebd be94 f03d
000003d0: 40b3 f53b 4689 d8bd 347e 2c3d 6e04 dcbd
000003e0: 7083 393c 2833 da3c 8407 0e3d 00bc 7cb9
000003f0: 9cbf e9bd 4053 9e3c 2441 5fbd fa78 fb3d

fc3.weight f4 [2, 256]
-0.15521607 -0.09734058 -0.035915688 -0.028138924 0.10914441 -0.03107734 -0.015509506 -0.16366987
0.047883764 -0.022884361 0.041206446 -0.038236268 0.077445455 -0.1416452 0.054061707 -0.010634881
-0.05978477 0.056663252 0.094828 0.08304147 0.11711764 -0.22520433 0.025628984 -0.025702728
0.18469211 0.36357293 -0.024283977 -0.10062108 0.05042335 0.038297337 0.1269053 0.05189326
0.16264567 -0.22804494 0.012513106 0.007781374 -0.034007188 -0.11311676 -0.14211014 -0.06350993
-0.12830596 -0.039685074 0.09944238 -0.08472556 -0.022930825 0.14641483 -0.08579915 -0.04269837
0.07347479 -0.16222899 -0.073275596 0.12848623 -0.08661969 0.13523386 0.20743692 -0.014657042
-0.0888321 0.07242497 -0.09431928 -0.03919458 0.17605978 -0.032562196 0.12763642 0.07272462
0.041422166 0.11367269 -5.111162e-05 0.015544754 0.12928109 0.09331109 0.15023313 0.12076669
-0.035102163 0.1230811 -0.05559657 0.007640108 0.10168832 0.003848194 0.07549926 0.09772391
-0.13112223 0.07663948 -0.021209214 0.0057985745 -0.105247036 -0.082665764 0.087455384 -0.013379926
0.11540147 0.06909751 0.03749814 -0.013861142 -0.00021402638 -0.047207747 0.19118403 0.005822385
0.101322226 0.098218136 0.087609455 -0.028312081 -0.15379302 0.16276537 -0.15383041 -0.035866607
-0.0736065 -0.09430716 0.057359308 -0.05078726 0.0060767606 0.16483751 0.0044405595 -0.053466886
0.017916156 0.0782746 -5.4672593e-05 -0.109493054 -0.12207931 -0.18676484 0.19964837 0.09207077
-0.092132695 -0.050561585 -0.08018093 0.078393266 0.11928159 0.15072323 0.08238277 0.011677722
-0.0011069266 0.1632693 -0.036431085 0.0015988054 -0.0007524044 0.067709476 -0.003448428 0.062879786
0.08377319 -0.030619506 -0.037683923 -0.028639127 0.039341215 0.18744427 0.042895578 -0.07491358
0.122169495 -0.042888884 0.12447377 0.01455659 0.13943973 0.13074718 -0.072843425 0.10973882
0.017318895 -0.02673598 0.13166809 -0.0048802225 -0.045567807 -0.029967425 -0.0963728 0.03151941
-0.040327873 -0.088214554 -0.027886668 -0.03536239 -0.034927677 -0.08688288 -0.16685857 0.001971185
-0.044079762 0.033473443 0.011304933 0.07777681 0.059202917 0.05598111 0.060940694 -0.054610174
0.00155697 -0.08781063 -0.03924613 -0.0025830173 -0.13372932 0.09005226 -0.0069651366 -0.16130218
0.031080991 -0.0011839296 0.08779513 -0.06846842 -0.23977943 -0.13778362 0.112772636 -0.09007246
-0.074037075 0.08868518 -0.015874676 0.25485352 -0.005655372 0.078414105 -0.016983116 -0.009053232
0.20330182 0.0068350495 -0.09577545 0.060709406 0.0762178 0.028283311 0.09955349 0.05551802
0.02717016 -0.01830138 0.012736033 0.28409216 0.027883885 -0.12775247 -0.033414762 -0.2213039
-0.073916 -0.022005271 -0.09765305 0.03481996 0.0028706074 0.07903194 0.05450673 0.18523444
-0.01597616 -0.10307001 0.017189773 0.037384804 -0.12115754 0.06921427 0.065354 -0.037225533
-0.15610276 -0.18253373 -0.09820121 0.039456345 -0.16312899 0.048888568 -0.012244416 0.0067271227
0.0018131251 0.22652562 -0.059460666 0.03745578 -0.057493564 -0.05268031 0.0546121 0.012306221
0.00077560445 -0.05920595 0.15943569 0.049546525 -0.09866072 -0.101057015 -0.12575741 0.077472396
00000000: f6f0 1ebe 7f5a c7bd 541c 13bd 9a83 e6bc
00000010: 1b87 df3d e895 febc 951b 7ebc 1399 27be
00000020: c421 443d fc77 bbbc 17c8 283d a29d 1cbd
00000030: b99b 9e3d 700b 11be cf6f 5d3d ed3d 2ebc
00000040: e0e0 74bd ba17 683d 2f35 c23d a511 aa3d
00000050: 60db ef3d f79b 66be e0f3 d13c 878e d2bc
00000060: ee1f 3d3e 3b26 ba3e 31ef c6bc 6d12 cebd
00000070: b788 4e3d abdd 1c3d 77f3 013e 078e 543d
00000080: 968c 263e 9d84 69be c503 4d3c e5fa fe3b
00000090: 1f4b 0bbd c3a9 e7bd 5285 11be 7f11 82bd
000000a0: a362 03be d18c 22bd 72a8 cb3d 9884 adbd
000000b0: 6dd9 bbbc c5ed 153e 77b7 afbd 7ce4 2ebd
000000c0: f379 963d 5b1f 26be 8411 96bd e591 033e
000000d0: aa65 b1bd bf7a 0a3e 586a 543e 1724 70bc
000000e0: 9bed b5bd 8b53 943d 772a c1bd 7f8a 20bd
000000f0: 0449 343e f05f 05bd 1fb3 023e a5f0 943d
00000100: 4aaa 293d 3acd e83d af60 56b8 6daf 7e3c
00000110: 4362 043e e219 bf3d b7d6 193e 8754 f73d
00000120: 49c7 0fbd f211 fc3d 3bb9 63bd df59 fa3b
00000130: f741 d03d fb31 7c3b 5b9f 9a3d 7923 c83d
00000140: e844 06be 29f5 9c3d f2be adbc f801 be3b
00000150: c28b d7bd ab4c a9bd cf1b b33d 7a37 5bbc
00000160: 9b57 ec3d ff82 8d3d a697 193d d819 63bc
00000170: 456c 60b9 e95c 41bd bfc5 433e b5c9 be3b
00000180: 0782 cf3d 9726 c93d 966c b33d bdee e7bc
00000190: eb7b 1dbe f7ab 263e b885 1dbe dde8 12bd
000001a0: 01bf 96bd 1d24 c1bd 98f1 6a3d 4d06 50bd
000001b0: 901f c73b 2acb 283e 1d82 913b 1800 5bbd
000001c0: e7c4 923c 6f4e a03d 4050 65b8 e53d e0bd
000001d0: b804 fabd 483f 3fbe 9f70 4c3e 9a8f bc3d
000001e0: 11b0 bcbd aa19 4fbd e635 a4bd a68c a03d
000001f0: e849 f43d 3157 1a3e 4cb8 a83d eb53 3f3c
00000200: 4b16 91ba 1130 273e c338 15bd 028f d13a
00000210: 013d 45ba 44ab 8a3d 05ff 61bb 1ec7 803d
00000220: 4791 ab3d c2d5 fabc 755a 1abd 9a9c eabc
00000230: 4124 213d 64f1 3f3e 46b3 2f3d 4b6c 99bd
00000240: 0034 fa3d 41ac 2fbd 1bec fe3d c37e 6e3c
00000250: 4ac9 0e3e 97e2 053e ef2e 95bd bfbe e03d
00000260: 5be0 8d3c 6a05 dbbc 00d4 063e 46ea 9fbb
00000270: 4fa5 3abd 3f7e f5bc 1a5f c5bd 7f1a 013d
00000280: d72e 25bd d5a9 b4bd 9572 e4bc 27d8 10bd
00000290: 5310 0fbd a7ef b1bd f9dc 2abe ff2e 013b
000002a0: fb8c 34bd 731b 093d 5338 393c 7349 9f3d
000002b0: c27e 723d 734c 653d f39c 793d ebae 5fbd
000002c0: 3e13 cc3a 0fd6 b3bd 8dc0 20bd d747 29bb
000002d0: 57f0 08be 526d b83d cd3b e4bb 662c 25be
000002e0: 909d fe3c 162e 9bba efcd b33d 2c39 8cbd
000002f0: bd88 75be 2617 0dbe 57f5 e63d e977 b8bd
00000300: c0a0 97bd 93a0 b53d 9c0b 82bc 297c 823e
00000310: b350 b9bb 9397 a03d 2d20 8bbc 0254 14bc
00000320: 5a2e 503e 8df8 df3b eb25 c4bd 6daa 783d
00000330: 1418 9c3d 67b2 e73c b3e2 cb3d dd66 633d
00000340: f593 de3c c7ec 95bc cbaa 503c 8774 913e
00000350: bf6c e43c 8bd1 02be ebdd 08bd 7d9d 62be
00000360: 4661 97bd 6644 b4bc 53fe c7bd 609f 0e3d
00000370: cd20 3c3b 7fdb a13d 7342 5f3d 19ae 3d3e
00000380: 70e0 82bc 5f16 d3bd 91d1 8c3c cf20 193d
00000390: 7221 f8bd 36c0 8d3d 51d8 853d cd79 18bd
000003a0: 67d9 1fbe 1fea 3abe b71d c9bd fa9c 213d
000003b0: 490b 27be 613f 483d ce9c 48bc 326f dc3b
000003c0: 62a6 ed3a 55f6 673e 078d 73bd 3b6b 193d
000003d0: 5f7e 6bbd 4fc7 57bd f0b0 5f3d 08a0 493c
000003e0: ef51 4b3a f081 72bd 1c43 233e 4cf1 4a3d
000003f0: a20e cabd fbf6 cebd 8dc6 00be d9a9 9e3d

fc3.bias f4 [2]
-0.04119134 -0.037958525
00000000: 40b8 28bd 667a 1bbd
