examples/carla_scenic/Carla_Challenge/agent_collision/target_net_0.pt (torch, 71511 bytes, 6 tensors)

fc1.weight f4 [64, 3]
00000000: 56e0 f13d efb7 1abe 4617 32be 3df4 053c
00000010: 0162 c93d 2bb0 f2be 1e38 18bc 07f5 183c
00000020: 9303 04be a482 65bd 9995 b3bd c6d3 13bf
00000030: cc11 8d3d 871c b4bc 1252 53bf a9a3 123e
00000040: 4d48 3ebe ba64 0ebf f890 9ebe bd44 2a3e
00000050: eba1 31bf a271 48bd 100e 853f f785 8b3d
00000060: 61e0 143e deea 4f3d 7b9a b8be 5a9b ce3d
00000070: 47a6 f43e 36b3 f0bd bedb e7bc cbe3 ae3d
00000080: 90a2 e1bd 8390 81be dc12 a43c 47ab 69be
00000090: cbc3 fc3c aba7 6bbd 1747 a1be 29c3 0bbe
000000a0: fbe2 75bd 9524 02be 8d1e eb3d 44a3 c5be
000000b0: 9f49 b0bd 77ec 6bbd a98f e43d 4f68 1cbf
000000c0: 117d 5abe 1c44 eb3d ede4 53be 4e1a 02be
000000d0: 71a9 89bd e8bc 3cbe 5f08 d3bd 5261 8dbd
000000e0: ee48 c73d f231 0dbe e9eb 86bd dce7 9dbe
000000f0: 78d7 07be 67ef 64be 3635 223e 0019 bf3d
00000100: 6908 08bd 2b38 af3c 3fae 67bd 455d 063c
00000110: ce84 e5be e347 0cbe 03d4 99bd e115 b4bf
00000120: 7014 28bd 1f34 283f e2a0 17bc a6ee abbd
00000130: bf1f eabc 942b 44be d3c9 5b3d a2c3 e13d
00000140: 5138 adbf 2a87 2fbe 4d4b 10be cab9 12be
00000150: 5b11 993d b518 713d 408f 76be bc40 023e
00000160: b981 e6bc 79e1 fa3c e5d0 b0be 03e1 8e3d
00000170: 30b3 343e e3be 173e f553 16be fea1 67be
00000180: 72fd 01be 337c 893e 3cb9 8bbe a241 47be
00000190: 2fa4 363e 2bc7 28bd 149d 96bd fe2c 32be
000001a0: 81f4 8fbf 39e3 3ebb 879d 663b 9b85 97bd
000001b0: 4fae ac3b 5ac5 37ba 37bc 3abd 978d bf3d
000001c0: cbcb 0c3e 2271 93be b4ed ee3d ecee b2bd
000001d0: 280c d2bc 5fec 713c a0c4 3b3d 10e8 04bf
000001e0: 05b1 93bd 096f 56bd 171a 31bf 338a 44be
000001f0: a902 ba3e 1fe3 a6bd f9ab 133e 669a 9f3e
00000200: 6c73 04bf 2330 44bd 7e85 b6bd 6f16 9ebc
00000210: 4067 2abe 2945 073f 5e4e 0ebf 72bf 993d
00000220: 150f 11be 9b07 96bd 652e babd 0e71 4d3e
00000230: f909 93be 58cb 6fbb 36bb 21bb 9bcd 0ebd
00000240: 4e0d b7bd 77e2 96bd 1771 00be dbfa 143e
00000250: 2f5f 05bd 78b3 a2bd e797 1dbe c0cb ba3e
00000260: 0486 34be 0e2d 43be c6b1 f53c 83b2 33be
00000270: 6d35 99bc a747 913c 9187 8fbd fa89 88bc
00000280: eee6 623b ccff a8bd 5059 b6be 6c7f 3c3e
00000290: 3751 7abe 7747 b83d 6898 31be 7783 c3bd
000002a0: 1e03 2abe 5339 413e a993 a6bc d80d d8bd
000002b0: d5cf 29be b621 18bf c73f 173c 079a 303e
000002c0: 62bc 16be 59af 61bc e386 223c f66c 11be
000002d0: d8bc aabe 7069 373e 3647 b3bd 6493 d4bc
000002e0: 1315 99be 3f22 ddbd 3d67 b83d 415c 40be
000002f0: 336d 2b3d 3994 45bd c35b 39be 153f ff3a
0.11810367 -0.15109228 -0.1739169 0.008175907 0.09833146 -0.4740003 -0.009290723 0.009335763
-0.12891988 -0.05603279 -0.08768768 -0.57745016 0.0688816 -0.02198626 -0.82547104 0.14320244
-0.18582268 -0.55622447 -0.30969977 0.16627784 -0.6938769 -0.048936494 1.0394917 0.06812661
0.14538719 0.050761096 -0.3605536 0.10088225 0.4778311 -0.11752932 -0.028303023 0.08539542
-0.110173345 -0.25305566 0.020028524 -0.22819243 0.03085508 -0.057532948 -0.3149955 -0.13648666
-0.06003092 -0.12709267 0.114804365 -0.38601124 -0.08607792 -0.057598557 0.111602135 -0.6109666
-0.21336772 0.114876 -0.20692797 -0.12705347 -0.067217715 -0.18431437 -0.10304331 -0.06903328
0.09730707 -0.13788584 -0.06587965 -0.30840957 -0.13265789 -0.2235695 0.15840611 0.0933094
-0.033211146 0.021389088 -0.05656266 0.008200948 -0.44827884 -0.13699298 -0.07511141 -1.4069177
-0.041035116 0.6570453 -0.009254666 -0.08395128 -0.02857959 -0.19157249 0.05365927 0.11023642
-1.3532811 -0.17141405 -0.14091225 -0.14328685 0.074740134 0.058861453 -0.24078083 0.12720007
-0.028138028 0.030625092 -0.34534374 0.06976511 0.1764648 0.14818911 -0.14680465 -0.22620389
-0.12694338 0.2685257 -0.2728976 -0.1945863 0.17836069 -0.041205566 -0.07354179 -0.17399976
-1.1246492 -0.0029127134 0.0035189108 -0.0739853 0.0052698026 -0.00070103037 -0.045589652 0.09353178
0.13749616 -0.2879725 0.11666432 -0.08736977 -0.025640562 0.014765828 0.045841813 -0.519166
-0.07211498 -0.052351985 -0.69180435 -0.19193344 0.36330155 -0.08148789 0.14421071 0.31172484
-0.5173862 -0.04789747 -0.0891218 -0.019297807 -0.16640949 0.52839905 -0.5558833 0.075072184
-0.1416591 -0.073256694 -0.0909088 0.20062658 -0.28718546 -0.0036589708 -0.0024678237 -0.03486405
-0.089380845 -0.073674135 -0.1254314 0.14548819 -0.032561477 -0.07944387 -0.15389977 0.36483574
-0.17629248 -0.19060156 0.029991996 -0.17548566 -0.018702233 0.017734362 -0.07008279 -0.016667355
0.0034622508 -0.082519144 -0.35615015 0.18407983 -0.24445044 0.08998006 -0.17343295 -0.09546559
-0.16602752 0.18869524 -0.020334082 -0.105495155 -0.16583188 -0.5942644 0.009231514 0.17246257
-0.147203 -0.013774716 0.009919855 -0.14201722 -0.333472 0.17911315 -0.08753817 -0.025949188
-0.2989889 -0.107975475 0.09004066 -0.18785192 0.041852187 -0.04823706 -0.1810141 0.0019473756

fc1.bias f4 [64]
00000000: 3f0f aebf 4005 0b3f 39fa 7abe c90d e13e
00000010: 9d94 893e 2ba8 5fbf 9719 103f 5ee7 14bf
00000020: a019 57bf 4a0b 79bf 0984 a73e 13cc c83e
00000030: 8a08 0f3f fb88 3e3f 6290 0dbf f7a9 f53e
00000040: ffca 97bf 943c 0a3f 6d9c 9dbf dea3 8fbf
00000050: a122 933e 1513 eb3e ea61 923e 464a 5cbf
00000060: 97dc 053e 5782 063f 7172 1ebe 561a 62bf
00000070: 591f 17bf fff1 2f3f 60fd f73d fcca a2bf
00000080: 8e63 98bf a475 6abe d282 2b3e 1d32 13bf
00000090: 0986 62be 83e6 d23d 796a a3bf 27ae 383f
000000a0: a4d1 8cbf 5096 253f e0d7 153f 7e7c 1f3f
000000b0: 634d 0c3f d777 b5bf 123a 063f 21a7 32be
000000c0: b721 8cbf e1a8 993e 3aae 88bf e447 053f
000000d0: 5c2c 2b3f 3327 243f a4f6 80be 224e 61bf
000000e0: fa30 563f 34ba 313e c574 1b3f f09b 91be
000000f0: 952a 1fbf 0804 503f 4e98 d73e dff5 473f
-1.3598403 0.54304886 -0.24509515 0.4395583 0.26871195 -0.8736598 0.56289047 -0.5816554
-0.84023476 -0.9728285 0.32717922 0.39218196 0.55872405 0.74427766 -0.55298436 0.47981235
-1.1858824 0.53998685 -1.2313362 -1.1221883 0.28737357 0.45912996 0.28590328 -0.8605083
0.1307243 0.5254263 -0.15473343 -0.88321435 -0.5903221 0.6872863 0.12108874 -1.2718196
-1.1905382 -0.22896439 0.16749123 -0.5749834 -0.22121443 0.10297873 -1.2766868 0.72140735
-1.1001477 0.64682484 0.58532524 0.62299335 0.5480558 -1.4177197 0.5243236 -0.17446567
-1.0947789 0.30011657 -1.067817 0.5206282 0.6686456 0.64122313 -0.25188172 -0.88009846
0.8366848 0.17356187 0.6072505 -0.28439283 -0.6217435 0.8125615 0.42108387 0.78109545

fc2.weight f4 [256, 64]
00000000: 3531 7b3e 6ad1 173d e55d 073d f728 07be
00000010: 1b5d 3c3d 43fe 373e 9906 4e3e a729 f0be
00000020: 3005 8e3e 9f39 223d 86f8 a3bd ad5e 093d
00000030: 983b 853d 76b5 c5be ed65 b23c 5008 8b3e
00000040: 4f05 33bc 92e6 9e3b b9f0 7e3c 6780 8d3e
00000050: 8983 3dbf c582 8cbc 91bc 66be a4b6 11be
00000060: f492 cdbe 8b45 fdbe e73e 60be c61a 93be
00000070: b1bc 70be 8dc1 d6ba be31 a53d ef3f f93d
00000080: b4bf 883e 99ae cfbd 68b0 c53d 103f a0be
00000090: 2c4e 38bd 9724 9e3c d26e f9bd b59a 3fbf
000000a0: 473c 37be d81d 043d 73ea 3bbf a5ce f93d
000000b0: ae93 cd3c 252b aabe 5a6e 1bbe 0b8b 303e
000000c0: 698a fbbe 165f 933e 3d9d b8bd a173 cf3b
000000d0: cd7c f13b 9688 00bf e487 b2bd 457d 8abd
000000e0: c866 03bf e631 c23d b08f e8be 1ab3 ce3d
000000f0: 72af 853d 9bde 2dbf b032 25be 7af4 acbe
00000100: 61ec 1f3d 8a92 f8bc 4a68 24bc e660 10be
00000110: 55f4 90bd 2283 053e df5a 35bd 22c1 b3bd
00000120: b53a f7bd f313 65be 9843 623e b118 023e
00000130: 37c7 c4bd a3ec 183e 52ea 36be c82b f73d
00000140: 0e6f 2e3e 76a7 c5bd edea 843e 2ead 403e
00000150: 2eb5 de3c 7d51 bdbd d7ac 8dbe 79f1 8c3d
00000160: 1139 80be dbdb 56be 0dd8 01bb 79ea a23e
00000170: ff17 d7bd 1104 723d 7bad c8bd bb91 b23d
00000180: e137 0bbe 675c 32be ef13 31be 23b9 bebc
00000190: ca38 d73d d153 403d 745a 023e 0b05 32bd
000001a0: fd17 8e3e cc9c 3d3d a99b 99bd cab5 f0bd
000001b0: c0f7 25be 0643 933c fb5a 223e b616 0cbe
000001c0: 4180 bcbd 3e0a 6ebe c826 d33d a08a 5ebe
000001d0: ead6 8e3c 101b f2bd c2b3 39bd a164 16bc
000001e0: 6720 883c 2a34 41bd f61c 5cbd a5a7 da3d
000001f0: 8207 91bd f8a6 82bd 1958 49be 32b5 bcbd
00000200: a98c 8fbd 000e b23d c924 103e 27b9 7c3b
00000210: 3db1 19be b4c2 3ebd de21 9dbd e320 7ebc
00000220: 9778 90bd ebca 23be bfb9 4bbd c31e 773d
00000230: f9d4 bfbd 5c7c 09be b16e 0abd 183d 7b3d
00000240: 79c5 7ebd 2ac2 25be 75f8 01be 4962 70bd
00000250: 7951 9a3d 3b58 f4bd 3ce5 40be 60ba aabc
00000260: bae4 82bd 7034 49bd d4a3 b8bd a0f0 f0bb
00000270: 0c79 6bbc d4b8 3dbe db56 24bd 700a 6b3c
00000280: eb21 bbbd e020 91bd 5e93 34bb 8929 a8bd
00000290: 820f a63d ef73 1fbd 88c9 59bd ad90 6ebe
000002a0: 385d dcbc 8def 05be 51af 873d d84c bfbd
000002b0: f417 01be 0abb 693d acb3 06be 15a1 c43d
000002c0: 92d3 96bc 2cb9 db3d 5354 743e b422 a33d
000002d0: 3968 09bd b9a5 e0bb f9a2 62bd c54b 983d
000002e0: 880a d3bd 200e 0ebd f2bc bdbd e173 703d
000002f0: 966e c53d 97c6 c23d fdba 5cbd 6cd7 40bd
00000300: 4e87 57bd a638 d4bc 2576 f8bc 8d03 563d
00000310: ae83 03bd 4049 d33d 0958 18be 662e f6bd
00000320: 5eee dc3d 70bf 3e3d c155 e4bc f4ea 1bbd
00000330: c874 53bd 5e56 8cbd e06f 0bbe bbca cb3d
00000340: 620e 44bd b92b 31bd cd5b 73bd 3841 a1bd
00000350: b19e 1abe c5a9 bf3c 004d 84be 0f35 09be
00000360: 77f4 483e 7867 22bd ce3c 503d f0c2 44bd
00000370: ac10 2f3d 4cc1 a2bb ce29 a93d 99bb bd3d
00000380: 7fb6 20be e489 94bb 2557 093b d43b e5bd
00000390: c93a dc3d 1bd0 ccbd 9187 99bb 6d63 b0bd
000003a0: e045 8b3c ecd6 edbd 21c9 8d3c d5a1 b4bd
000003b0: 3482 9f3c dbbe 603d eada ebbd cd1d 653e
000003c0: 27a3 133e 9681 12be 0db3 46be 8cf6 5c3c
000003d0: b590 5d3c 2fd6 84bb e8c2 af3d cd0b 57bc
000003e0: 4721 d6bc cc54 9abd 1741 a5bb 19c2 ccbd
000003f0: bfd4 f0bd 1bc2 3ebd 95eb b7bd 50b8 a1bd
0.2453049 0.037064947 0.03304853 -0.1319922 0.04598723 0.17968087 0.20119704 -0.46906778
0.27738333 0.039605733 -0.080063865 0.033537555 0.06505507 -0.38615006 0.021777118 0.2715478
-0.010926559 0.0048492635 0.015560322 0.27637026 -0.7402883 -0.0171522 -0.2253287 -0.14229828
-0.4015118 -0.4946712 -0.21898995 -0.28731364 -0.2350948 -0.0016384587 0.08066128 0.121703975
0.26708758 -0.10140724 0.096527874 -0.31298113 -0.044996426 0.019304557 -0.121793404 -0.7484544
-0.17894088 0.032255024 -0.73404616 0.121976174 0.025094833 -0.33236042 -0.15178815 0.1724054
-0.49129036 0.28783482 -0.09014366 0.0063309227 0.0073696137 -0.50208414 -0.08717325 -0.067621745
-0.51328707 0.094821736 -0.45422125 0.10092755 0.06527604 -0.67917794 -0.16132617 -0.3378027
0.039043788 -0.030343313 -0.01003463 -0.14099464 -0.07077853 0.13038304 -0.044276115 -0.087770715
-0.12071744 -0.22370891 0.22096097 0.12704732 -0.0960831 0.1493402 -0.17862824 0.120688975
0.17034552 -0.09651081 0.25960484 0.18816063 0.027186003 -0.09244058 -0.2767093 0.06881995
-0.25043538 -0.20982306 -0.0019812614 0.31819513 -0.10502624 0.05908591 -0.09798714 0.08719202
-0.13595535 -0.17418061 -0.1729276 -0.02328164 0.105088785 0.046954934 0.12729818 -0.04346184
0.27752677 0.04629211 -0.07500393 -0.117534235 -0.1620779 0.017976295 0.15855019 -0.13680539
-0.0920415 -0.23246095 0.10310131 -0.21732569 0.017436463 -0.11821568 -0.045337446 -0.009179265
0.016617013 -0.04716889 -0.053738557 0.10676507 -0.0708151 -0.06379503 -0.19662513 -0.09214248
-0.07009251 0.086940765 0.14076532 0.0038562508 -0.15009017 -0.046572402 -0.07672475 -0.0155107705
-0.07054251 -0.15995376 -0.04973769 0.06033207 -0.09366793 -0.13426346 -0.03379697 0.06133756
-0.062200043 -0.16187349 -0.12692435 -0.058687482 0.07535071 -0.11930891 -0.18837446 -0.020840824
-0.063912824 -0.049122274 -0.09015623 -0.0073529035 -0.014372122 -0.18527538 -0.040121894 0.01434575
-0.09137329 -0.070863485 -0.0027553658 -0.08211047 0.08108427 -0.038928922 -0.05317071 -0.23297377
-0.026899919 -0.13079663 0.06625236 -0.09340829 -0.12606794 0.05706314 -0.13154477 0.096010365
-0.018411431 0.10728678 0.23860292 0.079656035 -0.03354666 -0.006855693 -0.055331204 0.07436327
-0.10304743 -0.03468144 -0.09264554 0.05870426 0.09640233 0.09510534 -0.053889263 -0.047080442
-0.05261927 -0.025905918 -0.030329773 0.05224948 -0.032108 0.10316706 -0.14877333 -0.120205685
0.107876524 0.046569288 -0.027872922 -0.038065866 -0.051625043 -0.06852411 -0.13616896 0.09950777
-0.04786528 -0.043254588 -0.05941372 -0.078737676 -0.15099598 0.023396382 -0.25839996 -0.13399146
0.19624506 -0.039649457 0.050839238 -0.04803747 0.04274051 -0.0049668904 0.08259927 0.09264297
-0.15694617 -0.0045330394 0.0020956483 -0.11193052 0.107534 -0.100006305 -0.00468535 -0.08612714
0.017001092 -0.11613259 0.01730782 -0.088199295 0.019471265 0.054869514 -0.11516364 0.2237465
0.14417706 -0.14307246 -0.1940424 0.013486516 0.01352327 -0.004053853 0.08582097 -0.013125372
-0.026138915 -0.07535705 -0.0050431597 -0.09997959 -0.11759328 -0.046571832 -0.089804806 -0.07896483

fc2.bias f4 [256]
00000000: e54b b8be d7d2 2ebe a348 05be 0eec 86bd
00000010: 94a0 ddbe b429 9abd 6c54 903e d27a 48be
00000020: a839 09be 1cf7 d93e 9c66 313e 543b 3a3d
00000030: dcbf 2ebd 48c9 983e 5e3e 943d c86c f8bc
00000040: 4f84 193b b554 37be 3a9e b7bd 1e2d c8bd
00000050: fd11 2ebe 8ee8 35be 96d5 d33e 4035 c2bd
00000060: 99f1 1ebe dfcf ae3e 69d9 883e d0e9 a7bd
00000070: c634 b83e 37c1 35be 0356 1bbe c1ad 9e3e
00000080: f588 ec3e 84bb 793e 996d 9c3d 1444 a6bc
00000090: 6d33 babd 4fe6 163c 9067 a53e 1ba5 dbbd
000000a0: ab63 ddbd 004f a2bd 7f04 233c a9b2 dfbd
000000b0: 077b 0abe 191c 89bd f4f6 07bd a574 183e
000000c0: c8cd 87bd 4b66 2bbd 9357 543d 1b09 b8bc
000000d0: dd16 9dbd 2c4c 43be 6e12 ad3e cb94 58bd
000000e0: 20d9 253e e6c8 cdbd a8a7 cb3d c16f 933d
000000f0: 066a 53bc 2b22 03be 442d 0cbd e507 1d3e
00000100: 0c81 b33d 9ef6 d83e 795d 7e3d 2c78 af3d
00000110: 34e3 153e 7aaf d63e b18f 39bd 89c3 663d
00000120: d558 85be d86b 5a3e 3f0c 22be 981e 9dbd
00000130: 986b a8bd c968 dfbd 8046 0cbe 3e01 2cbe
00000140: 3429 acbd dc38 dabd e724 19bf c1bf df3e
00000150: 29ad bdbe ee5e aebd 8826 8e3c 531c d2ba
00000160: 6f74 fcbd 5f56 133d 1621 8e3d e1ad 603e
00000170: 4071 e9bc e9ad cf3d 001b 233d 5034 b3be
00000180: 2c0f 693d 1304 f7bd f547 edbd 7c13 633e
00000190: 59db e7bd 6e74 533e e4a2 013c 6012 193d
000001a0: d245 06be c654 d0bd 58bd 9abd 9c1e 40be
000001b0: c629 a3be 8dc8 d33e 8da3 e4be 38ca 583e
000001c0: b6a1 ac3d 838b 5d3e 2986 043f fc30 3dbe
000001d0: 4e3c 763e 2020 3a3d d90e c8bd d874 253e
000001e0: e5df 1d3e 187d dcbd 43d6 a2bd a0de 39be
000001f0: 9edc acbd ba75 893b 8b26 8dbd dfa7 05be
00000200: 1f37 d43e 1dbe 11be 1575 6fbe dacc 7b3e
00000210: 5453 edbc 97ba 7b3e 9b3b a6bd 35c4 b53d
00000220: 055a 44be cd2d e0bb 5948 0d3e 4d30 0bbe
00000230: 81e0 cdbd 977b de3e 6314 973e af67 883e
00000240: 51be d63c 2800 883d c8d7 4d3e 1bc9 b6bd
00000250: c6f9 6bbd 2176 4cbf f087 06bd 9ed2 a5bc
00000260: 43f8 a0bd 3b22 cbbc 5e9a b8bd 8e31 b53c
00000270: cc53 be3e 8533 42bd 5e92 babd 8284 0dbd
00000280: ec1e 9a3e bbc7 143e 58d9 57bd 73eb 6cbd
00000290: e9a0 53bd 8e6e 82bd c80e 403e 65b4 c2bd
000002a0: 3c38 f6bd 8533 5b3e 6cd9 1abe 91d6 423e
000002b0: d479 c7bc 6336 433e 1a01 e1be 698b 083f
000002c0: 62e8 b03d 790b c13e f1c0 073e 048c 19be
000002d0: 78e8 eabe 33bc d3bd b9a0 06be c11b d43d
000002e0: 2b2a 213e 8f22 cc3e cefd dbbd f294 873e
000002f0: 5e51 c2be 3b30 0fbe 827e b03e fc1f b33d
00000300: f551 0abe c59a 3cbd 9218 98be 081a 96bd
00000310: db8c ae3d 1ac2 dcbc b449 77bd e816 cabb
00000320: 7bd0 c0bd f2b4 103e 3707 913d 420d 933e
00000330: 1ff8 1cbe 60d0 083c ce4b c73e 5fe9 54be
00000340: 484f 7b3e 3b62 8a3e 27e0 d6bd 49ba 8fbd
00000350: c018 bebd 03c2 0abe 816e 05bd 0593 a33e
00000360: abb1 a5bd 7f87 b4be ae7e 673b 3a08 43bd
00000370: e789 47be a9ec 61be d2f6 e13d ca35 bbbd
00000380: dda9 2ebd fcfa 043d 8442 22be ebb8 903e
00000390: 65ce 053c b962 2f3e 92a7 61bc 12f0 81bd
000003a0: 4e4b 8bbe 1f4a b53c 8a7b a2bc 1386 933d
000003b0: a324 12be 698f 10bf c39a 303e 0756 493e
000003c0: 581a fd3e e533 ba3e 6fec cf3e 32b5 333d
000003d0: 8ecb 0b3e 4f79 ed3d 2ba5 45be f7a7 033d
000003e0: 43d4 d1bd ad47 cc3e a05e 1f3d d223 68be
000003f0: 3788 42bc 9175 153d 731a 93bd 7d4d 95bd
-0.35995403 -0.17072617 -0.1301599 -0.065879926 -0.43286574 -0.075274855 0.2818941 -0.19578102
-0.134009 0.42571342 0.17324299 0.045466736 -0.04266344 0.29841065 0.07238458 -0.030325308
0.002342481 -0.17903407 -0.08965726 -0.097742304 -0.1699905 -0.17764494 0.4137389 -0.09482813
-0.1552185 0.34142968 0.2672837 -0.08198893 0.35977763 -0.17749487 -0.1516953 0.3099194
0.4619824 0.24387938 0.076380916 -0.020296134 -0.0909184 0.009210183 0.32305574 -0.10724851
-0.10810026 -0.07925224 0.009949802 -0.109227486 -0.13523494 -0.06694812 -0.033194497 0.14888246
-0.066310465 -0.0418456 0.05184133 -0.02246528 -0.076703764 -0.19072026 0.33803123 -0.052876275
0.16196108 -0.10048084 0.09944087 0.0719905 -0.012903696 -0.12806003 -0.034222856 0.15335043
0.08764848 0.42375654 0.06210086 0.08567843 0.14637452 0.41930753 -0.04530305 0.05633882
-0.26044336 0.21330202 -0.15824984 -0.07671851 -0.08223647 -0.10908658 -0.13698769 -0.16797349
-0.08406296 -0.10655376 -0.59821934 0.43700984 -0.37046173 -0.085142 0.017352358 -0.001603017
-0.123268954 0.03597104 0.069399044 0.2194133 -0.028496385 0.101405926 0.03982067 -0.3500085
0.056899235 -0.12061324 -0.1158599 0.22175401 -0.11321134 0.20649883 0.007912371 0.03737104
-0.13112572 -0.10172419 -0.07555646 -0.18761677 -0.31867808 0.41363946 -0.4465603 0.2117089
0.084292814 0.21635251 0.5176721 -0.18475717 0.24046442 0.045440793 -0.09768457 0.16157854
0.1541744 -0.10766047 -0.079510234 -0.18151331 -0.08440517 0.0041949423 -0.06892117 -0.13052319
0.41448304 -0.14232679 -0.23384507 0.24589863 -0.028970398 0.24582897 -0.081168376 0.08875314
-0.19174965 -0.0068413974 0.1379713 -0.13592644 -0.10052586 0.43453667 0.2950774 0.26641604
0.026213797 0.06640655 0.20101845 -0.089250766 -0.05761125 -0.7986775 -0.032844484 -0.020242032
-0.07859852 -0.024796596 -0.09013818 0.022118356 0.37173307 -0.047412414 -0.091099486 -0.034550197
0.30101717 0.14529316 -0.05269751 -0.05784173 -0.051667128 -0.06368743 0.18755639 -0.09507064
-0.120224446 0.21406372 -0.15122002 0.19027163 -0.024350084 0.19063716 -0.43946153 0.53337723
0.086380735 0.37704065 0.13257195 -0.14994818 -0.45880485 -0.103386305 -0.13147248 0.10356856
0.15738742 0.39870116 -0.10741769 0.26480824 -0.37952703 -0.13983242 0.34471518 0.08746335
-0.13507827 -0.046046037 -0.29706246 -0.07329184 0.0852296 -0.026948024 -0.060373023 -0.0061672814
-0.094147645 0.14131525 0.07081454 0.28721052 -0.15329026 0.008350462 0.38925022 -0.20792149
0.24541962 0.2702807 -0.104919724 -0.07017953 -0.092820644 -0.13550572 -0.032576088 0.31948105
-0.08090528 -0.35259625 0.003532331 -0.047615267 -0.194862 -0.22062935 0.11033405 -0.09141119
-0.042642463 0.03246592 -0.15845686 0.2826608 0.008166884 0.17127503 -0.013772862 -0.06344618
-0.2720589 0.02213007 -0.019834299 0.07203307 -0.14271788 -0.56468827 0.17246537 0.19661723
0.4943416 0.36367717 0.40610072 0.043873973 0.13651869 0.115954034 -0.19301288 0.032142606
-0.10245564 0.39898434 0.0389086 -0.22669914 -0.011873296 0.036489073 -0.07182779 -0.0729017

fc3.weight f4 [2, 256]
00000000: a48d fabc e2b5 8fbc 8a98 cc3a f4c7 d1bc
00000010: ce23 16be 89db a93d 0bb2 9cbf 8afe 4d3c
00000020: 5e7f d23c f32b 983e d7eb aebe ee48 3e3e
00000030: e586 e63c c1d3 933d b1c2 a43b e76c 9b3d
00000040: 6c9a 573d dd7c 0fbc cb86 1dbd 1154 12be
00000050: 5d7e 133e a754 65bd 378a ba3d e636 4cbc
00000060: ef92 b9bc 7ef7 e83d f29c 003e 8e95 02bb
00000070: 05da acbc 2ae1 333c 68ef 7ebe fe1b d53d
00000080: 7431 883e 70a1 6c3e dc9a 833b 9d76 8e3e
00000090: 44a8 0ebe 12fe fe3e 887f 893d 2d4c b5bc
000000a0: fc3d dc3d 06c3 f3bb 2ec1 673c def7 abbe
000000b0: 5096 f5bd e91b 443d d5d5 a9bc 6ed2 c3be
000000c0: 52a9 abbd 3248 783e afb6 a5bc 0e0c b63e
000000d0: c05b 913b 1826 24bd 05d0 463e 0153 9d3d
000000e0: 4efe b03d 2c10 143b accf 8bbf 29cc ae3c
000000f0: 7fc6 7bba 6d87 e53b b546 24be fda6 23be
00000100: 76ed 223d e2e6 2f3e 11cd 2b3c cae4 c93d
00000110: f6d0 913e 15b9 673c 826f 1c3e 8b23 4cbc
00000120: f7b2 01bd 5ec0 4a3e bf4a 5d3d 2c1d 32bc
00000130: b3bb 9fbe 1e49 40be 48b7 d4be a433 74bd
00000140: 6248 b53d ec0e d6bc 7a7e fdbe 5b53 453e
00000150: c8a8 bbbd ddb5 0ebd d7bb 70bc 78d7 26be
00000160: 22e4 c2bc 6958 8b3c ae97 b7bc 4a89 18be
00000170: f917 7ebd a1ad 6d3e 2d78 3f3f c1d1 2abd
00000180: 55f9 88be df69 623c 4fe9 43be c03a cf3e
00000190: 33ad 7abc 5031 2b3e 2498 123e 8021 cdbd
000001a0: 7374 9abc cd03 863d 87a1 173d 54e7 c1bc
000001b0: 2e37 883e 56b9 183e 82c1 6ebd bb05 a1bf
000001c0: 8af0 91be 47f4 253f 15c8 323e 446b d7ba
000001d0: c21e da3d 6204 f2bd 0056 af3c 2cb1 c9bd
000001e0: 685d 963b b116 56bc e575 5bbe b8bc 6dbd
000001f0: 3690 973d 0d4a 72bd cee1 ac3c 4341 8e3c
00000200: 01c9 403e b4fe 26be 0165 0dbf a007 a73e
00000210: 992e d2bc e3e8 c33d eb87 1f3d b51f 263e
00000220: 51d9 bd3d de15 73bd fa12 bb3e 31b9 f73c
00000230: dc41 433d b12f 493e faf3 e03d 2541 2c3e
00000240: b903 0c3d c7db f5bd 64f1 f43d 5ac1 cdbd
00000250: 2d93 523c 6b4d 11bf 82aa 44bb 5634 513b
00000260: b34d 4cbc 4d18 c7bc 81fb 8fbf 2a19 a2bc
00000270: 86e5 9e3e 290e 61bd a1c9 dbbe 616c d53b
00000280: 5f30 053e 7072 983e a58b 3c3e 73d9 9a3e
00000290: 4195 4bbd 611c f83c 06fb 543e ba82 423e
000002a0: f03a 3abc 61c3 bf3d 88f2 dcbc ff6b c93e
000002b0: 321c d7bc f428 983e c927 9abe 92e9 9c3e
000002c0: fcf0 b33e 7150 d73e f096 be3e 7d5a 83bc
000002d0: 88e1 b2be 5916 293c ace7 843c a161 453e
000002e0: 5530 373e 8475 8d3e c9ba 5cbd f195 223e
000002f0: 8101 59bd 75ff b9bc b4cb 81bf f2f9 3fbc
00000300: c977 abbd f813 08bd 345b debb edba 723e
00000310: 4562 f2bc d15e 893b fcbc 5c3d cdbf b7bd
00000320: d211 3bbc 8644 f83e 3ce5 7fbe 9e31 4fbe
00000330: c471 3e3a f1c2 0f3d 2721 193f b7c2 47be
00000340: 960a 293e 2011 1abe 1783 4f3c 89a3 31bd
00000350: 3784 0e3d d8a5 bf3c 9a14 6bbf 0e2f 403e
00000360: 83a2 9f3d a62f 89bd a7b5 8bbd 047c dbbb
00000370: 7ae4 ac3b 2ff4 863d f1fa c83e dbf7 4e3d
00000380: 40b3 023b 626c 3c3e ca70 133c 4aa1 4a3e
00000390: c801 a9bc 2aea d93d 31e6 a0be ce01 833c
000003a0: 321b e4bd a984 a13d 8f64 0b3e 2117 1cbb
000003b0: cc11 c2bc 0214 d8be 63e0 603e c5ad d83e
000003c0: 41ba adbf 7351 8e3e ab4c a03d d7cb e6bc
000003d0: 783a 8abb bdc2 09bc 10f7 42be 7311 183e
000003e0: 2c50 533c 2bdc d03e bb88 433d f59b 083c
000003f0: c374 cbbb b4a2 7b3e c43b d03d 7e70 1dbf
-0.030585118 -0.017542783 0.0015609425 -0.02560804 -0.14662096 0.08293826 -1.2241834 0.012572894
0.025695499 0.2972103 -0.34164307 0.18582508 0.028140495 0.07218123 0.005028092 0.07589131
0.052637503 -0.008757797 -0.038458627 -0.14289881 0.14403673 -0.055988934 0.09108394 -0.012464261
-0.022653071 0.113753304 0.1255987 -0.0019925567 -0.021100054 0.010978976 -0.24896014 0.1040573
0.2660023 0.23108459 0.0040162634 0.2782487 -0.13931376 0.49803215 0.06713778 -0.02213105
0.1075401 -0.00743902 0.014145179 -0.33587545 -0.119915605 0.04787818 -0.020731846 -0.38246483
-0.08381905 0.2424629 -0.020228712 0.35556072 0.0044359863 -0.04007539 0.1941529 0.07681847
0.08642255 0.0022592647 -1.0922751 0.021337586 -0.00096044684 0.0070046694 -0.16042598 -0.1598167
0.03977724 0.17177919 0.010485903 0.09858091 0.28479737 0.014143248 0.15276912 -0.012459646
-0.031664815 0.19799945 0.05402636 -0.010871213 -0.3119789 -0.18777892 -0.41546082 -0.05961956
0.088516966 -0.026130162 -0.49510556 0.19270079 -0.09163052 -0.034841407 -0.014693222 -0.16293132
-0.023790423 0.01700993 -0.022411194 -0.14896122 -0.06203458 0.23210765 0.7479275 -0.041703943
-0.26752725 0.013819187 -0.19131969 0.4047451 -0.015300083 0.1671803 0.1431585 -0.10016155
-0.018854355 0.06543694 0.03701928 -0.023669876 0.266046 0.1491445 -0.058290012 -1.2579874
-0.2850383 0.6482586 0.17459138 -0.0016435166 0.10650398 -0.11817242 0.021403313 -0.09848246
0.0045887716 -0.0130669335 -0.21431692 -0.058041304 0.07400553 -0.05915265 0.021103766 0.017365104
0.18826677 -0.16308099 -0.55232245 0.32623005 -0.025656985 0.09565904 0.03894798 0.16223033
0.092699654 -0.059347026 0.36537915 0.030239673 0.04767023 0.19647099 0.10984035 0.16821726
0.034183238 -0.1200481 0.11960104 -0.100466445 0.012852472 -0.56758755 -0.0030008857 0.0031922064
-0.012469697 -0.02430358 -1.1248628 -0.01978739 0.31034487 -0.054945145 -0.42927268 0.006513164
0.13006733 0.2977481 0.18412645 0.30244026 -0.049702886 0.03028697 0.20798883 0.1899518
-0.011366591 0.093634374 -0.026971117 0.39340207 -0.026258562 0.29718745 -0.3010848 0.3064695
0.35144794 0.4205356 0.3722453 -0.01603436 -0.34937692 0.0103202695 0.016223751 0.19275524
0.17889531 0.2762872 -0.05388907 0.1587751 -0.05297995 -0.02270482 -1.014029 -0.011717306
-0.083724566 -0.03322217 -0.0067857746 0.23704119 -0.029587874 0.004192211 0.053891167 -0.0897213
-0.011417823 0.4848978 -0.2498979 -0.20233771 0.0007264877 0.03509802 0.5981621 -0.19507872
0.16507944 -0.15045595 0.012665532 -0.04336885 0.03479406 0.02339451 -0.9182831 0.1876795
0.077946685 -0.06698541 -0.06821757 -0.0066981334 0.00527626 0.06589543 0.39253953 0.050529342
0.0019943267 0.1840072 0.008999059 0.1978809 -0.020630732 0.106403664 -0.31425622 0.015992071
-0.111379996 0.07886631 0.13612579 -0.0023817497 -0.023690127 -0.42202765 0.21960597 0.42320076
-1.3572465 0.27796516 0.07827123 -0.02817337 -0.004218396 -0.008408246 -0.1903956 0.14850406
0.012897532 0.40792975 0.04773782 0.008337964 -0.0062089874 0.24573785 0.101676494 -0.61499774

fc3.bias f4 [2]
00000000: 154b c93e b366 0c3f
0.39315096 0.54844207
