examples/carla_scenic/Carla_Challenge/agent_collision/target_net_0.pt (torch, 95383 bytes, 6 tensors)

fc1.weight f4 [64, 4]
000000 ff a6 06 bf 4a 3a 95 bf 31 13 33 c0 21 60 cd bd
       -0.52598566 -1.1658413 -2.7980464 -0.10028101
000010 70 97 44 bf 1d 29 f2 3e f5 c5 7d bf b6 3a ec bf
       -0.76793575 0.47296992 -0.99130183 -1.8455417
000020 a5 c9 3f 3f c4 ec 1d bf a4 ae d5 c0 c5 6a 9a 3d
       0.7491706 -0.616894 -6.6775684 0.07539896
000030 0c ea a2 bf 7a 66 5a 3e 97 b8 96 be 93 62 bb bf
       -1.2727675 0.21328154 -0.29437706 -1.4639457
000040 3b bc 7a 3e 5d bb 44 bf 63 1e d7 be 8b 74 0c c0
       0.24485867 -0.76848394 -0.4201537 -2.1946132
000050 25 16 4d 3d 79 f5 67 3f ff 11 f4 3e cf cf 92 bf
       0.050069947 0.90608937 0.4766998 -1.1469668
000060 95 19 8f 3f f6 9d 7b be 2e d4 18 be 8b 7d 9a 3d
       1.1179682 -0.24571976 -0.1492469 0.07543477
000070 de d5 b0 3e 68 96 82 3e 97 8c 8a 3d a2 54 fb be
       0.34538168 0.25505376 0.06765097 -0.49088007
000080 46 79 73 bd 3c c4 d8 3f 13 a0 00 c1 e4 14 83 3f
       -0.059441827 1.6934886 -8.039081 1.024075
000090 bf 82 9e 3e 9b 66 36 bf 29 54 e7 bd d0 72 19 c0
       0.30959126 -0.71250314 -0.11295349 -2.3976326
0000a0 89 2e 66 3e 32 5b 8c bd 31 4a 25 c0 be 1c bc bd
       0.22478689 -0.068533316 -2.5826533 -0.0918517
0000b0 1d fe 23 3f 56 0d 25 3f 07 1c 88 bf 97 63 cc bf
       0.6405962 0.64473474 -1.0633553 -1.5967892
0000c0 6a 3d 84 be e2 43 b2 3d 22 24 9c bf 8a 0a 91 bf
       -0.25828105 0.08704354 -1.2198527 -1.1331341
0000d0 41 9c 9c 3e 0c 40 d6 be 95 c3 17 c0 fe af 9a be
       0.30587962 -0.4184574 -2.3713124 -0.30212396
0000e0 d5 e3 7e be f9 9a a6 bf 4c fe f6 bf 10 e7 9e bf
       -0.24891599 -1.3016044 -1.9296355 -1.2414265
0000f0 71 51 ff be 4f 89 47 3f 69 4a 66 bf c0 03 f0 bf
       -0.49866822 0.7794389 -0.8995729 -1.8751144
000100 5e 35 96 bd 54 7b e3 bb 89 eb a3 bf 27 5f 6b bf
       -0.07334398 -0.006942192 -1.2806255 -0.91942066
000110 23 1d 4b bf 22 ad 98 3e 02 14 ae c0 b4 3b b6 3e
       -0.79341334 0.2981959 -5.4399424 0.35592425
000120 9d 20 34 bf 8e 30 ed bf b7 73 54 bf f1 7b 44 bf
       -0.70362264 -1.8530443 -0.82989067 -0.7675162
000130 64 5d 2d 3f 3a 62 02 bf 81 b9 35 c0 ff 49 69 be
       0.6772063 -0.5093113 -2.8394473 -0.22782134
000140 61 7e 7e 3d 3d 15 97 3f 29 08 66 3e 56 5c 4e bf
       0.062132243 1.1803356 0.2246405 -0.80609643
000150 9f 6e 4a 3e ef ef 1b 3f 3f 19 47 bf be d9 a1 bf
       0.19768761 0.60912985 -0.777729 -1.2644575
000160 3b be 13 be c6 36 1a 3f 3e cf 92 c0 5c 29 57 be
       -0.14428036 0.6023983 -4.587798 -0.21011871
000170 5f 42 19 bf 22 c4 f0 be e0 e1 a8 3f 7e d3 28 3e
       -0.598669 -0.47024637 1.3193932 0.16486928
000180 80 d8 f9 bd 9e d9 b5 3f a3 90 b1 bd ba 9f c9 bf
       -0.12199497 1.4207036 -0.086701654 -1.575187
000190 80 d2 11 3f 6a 1f 03 3d d1 e0 93 be c4 95 6f bf
       0.5696182 0.03201238 -0.2888246 -0.935879
0001a0 07 85 ae 3e f7 25 4c 3f f8 d5 05 c0 68 be 59 bf
       0.34085867 0.7974543 -2.0911846 -0.8505616
0001b0 b7 18 d4 bd 1d c3 96 3f 71 57 78 be c5 8c be bf
       -0.103562765 1.1778294 -0.24252106 -1.488671
0001c0 e6 31 30 3f 35 1f b5 be ad f0 28 c0 5f bd 59 bf
       0.6882614 -0.35375372 -2.6396897 -0.8505458
0001d0 1e f9 08 3e ef 00 11 bf ac 00 8a bf a6 46 81 bf
       0.1337628 -0.5664205 -1.0781455 -1.0099685
0001e0 7a e1 0b bf 90 75 3f 3d 08 4f dc 3f 2d 8a a3 3f
       -0.54640925 0.046742976 1.7211618 1.2776543
0001f0 1e f4 d8 3e b9 cf 0a c0 32 3a 61 bf f9 09 83 3f
       0.42373747 -2.1689284 -0.87979424 1.0237418
000200 2c 7c cc bd ea d5 ad 3f 99 dc a0 c0 d4 ef 49 3e
       -0.099846214 1.3580906 -5.0269284 0.19720393
000210 14 2d 2d bf e1 3a 6f 3f d5 83 2b c0 56 85 65 3f
       -0.6764691 0.9344922 -2.6799214 0.8965658
000220 f6 ab 37 be c1 98 3a 3f 0a a7 31 be e8 3a dc bf
       -0.17936692 0.72889334 -0.17348877 -1.7205477
000230 b5 dd 8a be f2 51 78 bf 20 86 74 bd ff 1a 3c 3f
       -0.27122274 -0.9700004 -0.059698224 0.7347869
000240 0f d9 1e 3f 77 d3 19 3f 75 a0 b4 bf 74 06 aa bf
       0.62049955 0.60088295 -1.4111468 -1.3283219
000250 d3 11 19 3e ec b5 f5 bd b8 2d 44 3f a6 99 23 c0
       0.14948206 -0.119975895 0.7663226 -2.556253
000260 01 5d 13 3f 74 4c 08 be 21 d3 d2 bf 69 5c 0f be
       0.5756379 -0.13310415 -1.6470681 -0.14000095
000270 e3 1e 10 bf 64 ab b1 3f 08 98 a8 bf 76 03 d8 bf
       -0.5629713 1.3880429 -1.3171396 -1.6876056
000280 b7 3f 1a bf 55 fd c3 bf 32 28 80 bf 56 2b e2 bf
       -0.6025347 -1.5311686 -1.0012267 -1.7669475
000290 29 eb eb bd 87 cb 3f 3f 28 86 99 c0 50 6a 3a 3f
       -0.115194626 0.74919933 -4.7976265 0.7281847
0002a0 c6 2a 95 bf 3e 4f 4c 3e d8 37 3e bf cc 46 ea bf
       -1.1653678 0.19952103 -0.7430396 -1.8302855
0002b0 7a bf cb 3e 9d ea eb 3d c3 02 8d bf f1 7f d1 bf
       0.39794523 0.11519358 -1.1016468 -1.636717
0002c0 55 c6 49 3f 65 5f 82 bf b3 a2 65 3f b8 6d 01 c0
       0.78818256 -1.0185362 0.89701384 -2.0223217
0002d0 70 38 14 be c9 eb 58 3e bd 1f 81 bd 0e 14 ab bf
       -0.14474654 0.21183695 -0.06304882 -1.3365495
0002e0 9a 7b 85 3e a7 f0 90 3e f9 9e 2b bf 94 94 c6 bf
       0.26070863 0.28308603 -0.6703945 -1.5514092
0002f0 41 7b ba bf a1 05 69 be b0 90 57 3f 37 7f 0b c0
       -1.4568864 -0.22756054 0.8420515 -2.1796396
000300 e3 49 98 3e 98 e2 43 3e 1f c7 47 3e de 48 ee bf
       0.2974387 0.19129407 0.19509552 -1.8615987
000310 31 6b 79 3e ae bf aa be 83 bb 9a bf 7f d0 f3 bf
       0.24357297 -0.33349365 -1.2088474 -1.9048003
000320 87 cc 04 3f d0 68 81 3e 10 ba ba bf 2e fa b4 bf
       0.51874584 0.25275278 -1.4588032 -1.4138849
000330 e5 07 99 3e d6 e5 09 bf 31 04 e4 ba 80 3f dd bf
       0.29888836 -0.53866327 -0.0017396269 -1.7285004
000340 e5 c1 92 3e 56 38 4c be 46 a3 4c 3f 0c 91 0a bf
       0.28663555 -0.19943365 0.79936635 -0.54127574
000350 fd 2e b4 3e a0 76 9a 3f 31 2a 63 c0 3c 54 c8 3f
       0.351921 1.2067451 -3.5494502 1.5650706
000360 2e 50 83 be 3b 1f 98 3c 96 d5 e4 bd 37 9c 09 c0
       -0.2564711 0.01856958 -0.11173551 -2.1501596
000370 23 8d e8 bf 48 e8 8d be 42 7d 27 3f eb db 4c bc
       -1.8168072 -0.2771628 0.65425503 -0.012503604
000380 83 8c 03 3d 84 9f c9 3d c4 cc 1f 3e aa c0 5f bf
       0.032116424 0.09844878 0.15605456 -0.8740336
000390 3f 9c fe 3e a2 4d 1e 3d 0a 4d b5 bf cf b5 63 bf
       0.4972858 0.038648255 -1.4164135 -0.8894929
0003a0 b3 31 26 3e f4 3a cf 3e 9b a6 1c bf 65 d6 93 bf
       0.16229896 0.40474665 -0.6119172 -1.1549803
0003b0 3a 15 1b 3e 98 ab 35 3f 45 31 a8 c0 71 42 8d 3d
       0.15144816 0.70964956 -5.2560143 0.06897438
0003c0 34 33 1e 3f f6 32 e7 3e 44 50 e5 bf 9d bc 9a bf
       0.6179688 0.45156068 -1.791512 -1.208881
0003d0 51 cf 56 bd 78 e1 5d 3f 43 70 7b 3e c9 27 03 c0
       -0.052443806 0.86672163 0.24554543 -2.0493033
0003e0 c6 68 a3 3e 62 2f 8c 3e 6a 97 ee bf a1 99 28 bf
       0.31915873 0.273799 -1.8639958 -0.6585942
0003f0 72 bd 0b 40 37 f8 e0 3e c2 67 ae 3e 58 79 79 3e
       2.1834378 0.43939373 0.34063536 0.24362695

fc1.bias f4 [64]
000000 ab b9 27 40 c5 9e 44 3f 60 5b a7 bf 32 dd c2 bc
       2.6207073 0.76804763 -1.307476 -0.023787115
000010 48 a5 29 3f 1b ab ba 3f 4e 3d 91 3f 9d ff 35 3f
       0.66267824 1.4583467 1.1346834 0.7109316
000020 1f 4d 06 be 48 5a ac 3f a2 ac ef be 88 1b 81 3e
       -0.13115357 1.3465052 -0.46811396 0.25216317
000030 83 d5 b3 3f 91 9d 0b 3f 86 4e e8 3e fd 44 0b 3f
       1.4049534 0.545373 0.4537241 0.5440214
000040 5f 52 c1 3f 62 16 30 bf 2a 38 91 bf 48 ec d5 3e
       1.5103263 -0.68784153 -1.1345265 0.4178183
000050 55 a1 1b 3f ba ae d4 3d a3 83 04 c0 d5 49 2c 3f
       0.6079305 0.10384889 -2.0705345 0.6730016
000060 7d be 40 3f 50 d6 2d 3f 07 b6 7d 3f 0b be 98 3f
       0.7529066 0.6790514 0.99105877 1.1932997
000070 60 ab 12 bf f0 6e bf 3f bb 3a 9c 3f 86 31 ff 3e
       -0.5729275 1.495573 1.2205423 0.4984247
000080 61 2b ab bf e4 83 bb 3f 98 7e c6 3f da 3e 35 3f
       -1.3372613 1.4649625 1.5507383 0.7079903
000090 ed e6 87 3e 68 08 e5 3f 29 ce 4d 3f 19 df 20 3f
       0.2654337 1.789319 0.803927 0.6284042
0000a0 ee b8 34 bf 54 d2 6b 3f d9 42 ba 3e 10 46 ba 3f
       -0.7059468 0.9211781 0.36379126 1.4552631
0000b0 d2 ee 94 3f 6d ca 2b bf a7 a6 7d 3f 09 7f 9f 3e
       1.1635382 -0.6710575 0.99082416 0.31151608
0000c0 bb 66 6b 3f fb 03 8e 3f a7 54 26 bd 2a 4f a9 3e
       0.9195363 1.1094965 -0.040608075 0.3306821
0000d0 ab 49 9c 3e 2b c3 ae 3e 1f 67 be 3f 85 66 cf bd
       0.30524954 0.34133276 1.487522 -0.10126976
0000e0 3b 91 97 3e d3 81 f8 3e 11 cd 42 be c7 28 e6 be
       0.2960299 0.48536548 -0.19023539 -0.44952986
0000f0 7b 60 c6 bd 1a 26 ce 3f 10 f3 c0 3c f1 08 57 3e
       -0.09686371 1.6105378 0.023553401 0.20999505

fc2.weight f4 [256, 64]
000000 cf 94 ba bd 7a 5f 7b bd cf f4 a8 bc a6 83 39 3d
       -0.09110414 -0.06137035 -0.020624546 0.045291565
000010 51 c6 73 3d b1 6b 21 bd 2a e7 a2 3d 79 d6 b4 3c
       0.0595153 -0.039409343 0.07954247 0.022074925
000020 68 76 48 3d c0 ed c7 bb 06 fb 20 bc 2b 8f 4e be
       0.048941046 -0.00610134 -0.009825474 -0.20171802
000030 91 1f 2e bd dd df 19 bc c4 12 18 be 77 34 91 3d
       -0.042510573 -0.009391752 -0.14850909 0.07090085
000040 3b 7f e0 bd 68 73 a2 bd 8e be bf 3c 2b fa 3e bc
       -0.10961767 -0.07932168 0.023406293 -0.011656324
000050 a0 df 0e be 78 58 3b 3d d3 f6 95 bd 9b e0 e4 bd
       -0.13952494 0.045738667 -0.073224686 -0.111756526
000060 de 67 0e be bd 87 b4 bc 0d fa e0 bd b9 be b8 bb
       -0.1390681 -0.022037381 -0.109851934 -0.0056379703
000070 ba 2e fe 3d 81 bf 51 bd 25 e8 35 3c 47 7f 7f 3c
       0.12411256 -0.051208023 0.011102711 0.01559431
000080 6d e4 e6 bc 19 44 1e bc 03 48 1b bb 0d 4e f6 3b
       -0.028185094 -0.00965979 -0.0023694045 0.0075166286
000090 60 02 00 be b0 44 27 3e 4d c9 08 be 83 6b 1a bd
       -0.12500906 0.16334796 -0.1335804 -0.037700187
0000a0 5d 9b dc bc 5b ff b6 3c de e0 a2 bd 6f 61 b3 3d
       -0.026929552 0.02233856 -0.07953046 0.08758818
0000b0 99 d7 29 bd 5d 0e f4 3c ab 89 c9 3d ad 6c e7 bd
       -0.041465376 0.029792005 0.09840711 -0.11300025
0000c0 97 95 6c bd 14 e9 df bc 36 22 f5 ba 7d ab be 3c
       -0.057759847 -0.02733282 -0.0018702212 0.023275131
0000d0 96 ba 2e be d9 84 de 3d bd e6 88 3d 15 39 17 be
       -0.17063364 0.108651824 0.06684635 -0.14767869
0000e0 eb 0f 46 3c 71 6f 75 3d 16 4d 4b be ea 82 e2 bc
       0.012088756 0.059920732 -0.19853625 -0.027650315
0000f0 60 b8 f6 bd 3d 68 2b bc cf 6d a6 3d ee 2c ae bd
       -0.120468855 -0.010461864 0.08126413 -0.085046634
000100 71 df 5f 3d db d4 a7 bd 98 d6 cb bc da e8 67 be
       0.05465645 -0.08194896 -0.0248826 -0.2264742
000110 6b 10 0b bd 28 cc 22 3c 04 b2 c4 bd 46 1e 1f be
       -0.033951204 0.00993637 -0.09604266 -0.15538892
000120 a0 ce 17 bd 62 89 fd bc fb a6 91 bd 30 2d 90 be
       -0.037062287 -0.030949298 -0.07111927 -0.28159475
000130 b6 4a 01 3c 2d 7e 1b be 97 39 4a 3c 27 ed ad bc
       0.007891348 -0.15184851 0.012342832 -0.021231247
000140 fb f7 cb bd b1 7a 8c bd 73 e9 e2 bc 84 1a d5 3d
       -0.09959408 -0.06859339 -0.027699208 0.10405448
000150 c4 b0 2c bc ae 80 ae 3d f7 ae 73 bd fd 2f b6 3d
       -0.010540191 0.085206375 -0.05949303 0.08895872
000160 21 9f 16 3d a2 f4 84 bc 0f cb 6c bd ff 84 06 bd
       0.03677285 -0.016229931 -0.05781084 -0.03284168
000170 31 d4 1a bd 68 c0 00 be 30 b7 28 be f3 fb 45 bd
       -0.037800018 -0.12573397 -0.1647613 -0.04833598
000180 e8 53 68 be e7 f6 5f 3c 92 64 7a 3d 1f b5 ae 3d
       -0.22688258 0.013669706 0.061131068 0.0853064
000190 47 cf 34 be c0 14 be bd 82 ca 07 be 32 cc 8a 3d
       -0.17657195 -0.092813015 -0.13260844 0.067772284
0001a0 82 8b 74 be 0b c4 f4 bc 7b 24 c9 3c e2 aa 54 be
       -0.23881343 -0.029878637 0.024553528 -0.20768312
0001b0 cb 9e 4b 3c b9 c8 49 bd 0d 91 19 3c c2 9b 24 be
       0.012427996 -0.04926369 0.009372962 -0.16075042
0001c0 e5 4c 07 be 9d be 61 be 11 23 1c be 6e f4 c1 bd
       -0.13212927 -0.2204537 -0.15247752 -0.094704494
0001d0 0b 2e d4 bd dd f3 8d bd f7 19 11 3d 47 c4 fc bd
       -0.103603445 -0.06931279 0.035425153 -0.123421244
0001e0 38 e3 66 3e 2d 3b 6b 3e a5 e7 57 3d 0f 6c 02 be
       0.22547615 0.22971793 0.052711148 -0.12736534
0001f0 8e fe c2 3c 80 7f 3d 3d 87 62 53 bb aa 24 5f bd
       0.023803022 0.04626417 -0.0032254772 -0.054478325
000200 78 ba e3 be b3 29 76 3d 57 36 86 bd 0b d6 aa be
       -0.44478202 0.06009836 -0.06553333 -0.33366427
000210 0e d3 0f bd 5b 92 a0 3e 87 9a 0d 3e 3b 4b e7 3e
       -0.035113387 0.3136166 0.13828479 0.45174584
000220 78 98 28 3e b1 cd 0c be ec 3e b8 3e 2a 3d ef 3e
       0.16464412 -0.1375034 0.35985506 0.46726352
000230 24 6e d4 3e 53 c1 83 3f 54 38 3e bf a0 52 a9 bc
       0.4149028 1.0293373 -0.743047 -0.020669281
000240 6a 27 bb 3f 66 af 09 bd e6 ba 7a bf 57 16 aa 3e
       1.4621403 -0.03361454 -0.97941434 0.3322017
000250 1d 98 26 bd a4 cf 8a 3e e0 1e da be c3 2d 15 bf
       -0.04067241 0.27111542 -0.4260168 -0.5827295
000260 cf 8c 06 be ac d1 a9 3e e5 9d d5 be 45 7e 8f 3c
       -0.13139652 0.3316778 -0.41722026 0.017516265
000270 1c 3a f5 3d 47 7c e8 3e 57 cf 2b bf a0 94 8a bf
       0.11973974 0.45407316 -0.6711325 -1.0826607
000280 2c 5e 3e bf 4c 76 a7 be da d3 6a bf 05 33 14 bf
       -0.74362445 -0.3270744 -0.9172951 -0.5789035
000290 db 52 0f 3f 29 d1 5e 3e de b1 f7 3e 8c 22 df 3e
       0.559858 0.21759476 0.4837789 0.43581045
0002a0 1c 79 d5 be 3b ff 7d 3f 84 16 e4 be 3b 7a 1a 3f
       -0.41693962 0.99217576 -0.44548428 0.6034276
0002b0 e2 81 c7 be b0 37 f6 be 0a 94 ba 3e 64 47 a8 bf
       -0.3896628 -0.4808936 0.3644107 -1.3146787
0002c0 90 80 88 3e 8b 90 60 3e 5a c3 11 3f 40 5b ec 3d
       0.26660585 0.21930139 0.5693871 0.11540842
0002d0 08 4f b9 bf 3d 58 25 bf a4 7c 64 3e 18 84 1a bf
       -1.4477243 -0.64587766 0.22313172 -0.6035781
0002e0 27 d0 12 3f f6 9e 05 3f 85 b3 97 3e 28 7d 0a 3f
       0.57348865 0.5219568 0.2962915 0.54097223
0002f0 e4 e7 d3 3e 0e 64 85 3f e8 82 63 3f eb cf e3 be
       0.41387856 1.0421159 0.8887162 -0.44494566
000300 ef a4 f8 3b a6 c2 23 c0 c0 73 c7 be 7a 2b 60 be
       0.007588021 -2.5587554 -0.38955498 -0.21891585
000310 7c 08 e6 3d 7c 4d 2b 3e 72 9e b1 3e 3e 3c e6 3e
       0.11232087 0.16728777 0.34691197 0.44967836
000320 51 a2 80 bf 17 87 d0 bd be e1 3b bd a9 5d 41 3c
       -1.0049535 -0.10182016 -0.04586958 0.0118021155
000330 73 46 81 be 13 f3 b2 3e ea 88 23 bf 4b 37 3b 3f
       -0.2524906 0.34951076 -0.6388079 0.73131245
000340 6b 05 49 bd 61 51 e2 3e fd 6f 02 3e 7d 50 0c 3f
       -0.049077433 0.44202712 0.12738033 0.54810315
000350 4a bf da 3e 38 8e 27 3f 15 52 05 be 38 65 2b 3d
       0.42724067 0.65451384 -0.13019593 0.041844577
000360 a3 1c 4b bf 85 bf 58 bd fe 35 75 bf 8a d6 fa bf
       -0.7934057 -0.052917022 -0.9578551 -1.9596722
000370 40 8e 48 be da 15 d5 3e 7d 98 a0 bd c9 0f f8 be
       -0.19585514 0.41618234 -0.07841585 -0.48449543
000380 cd a4 ac be 15 f8 66 bf 42 0b 33 c0 11 27 07 c0
       -0.33719483 -0.90222293 -2.7975621 -2.1117594
000390 1b 98 a4 3d 5d 8c 01 3f 1e bc 00 3f 73 2d 43 be
       0.08036824 0.506048 0.50287044 -0.19060306
0003a0 8f cd 1a 3e 06 1b c9 3e ab 0e c7 3e 97 c2 c4 3e
       0.15117477 0.3927843 0.38878378 0.3842971
0003b0 fd 7d 2b 3f e8 14 bd bf a0 e8 2a 3f 0d 43 94 3e
       0.6698912 -1.4772005 0.6676121 0.28957406
0003c0 82 73 e1 3e 1e dc 34 3f f8 02 6e 3e c4 6f c5 be
       0.44033438 0.7064837 0.2324332 -0.38561833
0003d0 a2 39 2b bf d6 16 5a bf b8 a9 87 3f 9c b9 bd 3e
       -0.66884816 -0.85191095 1.0598669 0.3705567
0003e0 3c f7 5f 3e d2 b6 ff bd 9e c8 c2 3d 89 e1 65 3e
       0.21871656 -0.12486042 0.09510921 0.22449316
0003f0 5f bc 47 3e 72 41 20 3f 97 ac 38 3f fc c6 c1 3d
       0.19505452 0.6259986 0.7213835 0.094617814

fc2.bias f4 [256]
000000 5e 02 84 bd de 0e 21 bc 06 64 c6 3f f2 ff aa 3e
       -0.06445764 -0.009830205 1.5499275 0.33398396
000010 84 d2 fd bd e8 21 a1 3c 20 94 e1 bd 19 7d f7 3e
       -0.12393668 0.019669488 -0.11014581 0.4833763
000020 32 c2 d1 bd f0 23 5d 3f 4c 96 c9 bd 95 41 11 3f
       -0.10242118 0.8638296 -0.0984312 0.56740695
000030 27 bf 0a 3f 15 ed 89 bd a9 76 e7 3f 92 ce 92 3d
       0.54197925 -0.06734673 1.8083087 0.071683064
000040 8c cb 29 3f cd 28 58 bf 97 03 0c bc ea b2 43 3f
       0.6632621 -0.8443726 -0.008545778 0.76444876
000050 b5 10 9d 3f 7b 97 c0 3f c9 92 5e 3f f9 b0 84 bb
       1.2270724 1.5046228 0.86942726 -0.004049417
000060 1f d6 eb 3b c3 0c 92 3f 6a 05 d1 be e0 a4 85 3f
       0.007197156 1.1410145 -0.40824443 1.0440941
000070 a9 20 2f 3f 4c df b5 3e ed dd 82 3f ad ac 5a 3f
       0.6840921 0.35521924 1.0223976 0.8541973
000080 b6 ff 5d bf 0f 44 af 3d a4 8a 2b bd e4 9c 16 bf
       -0.8671831 0.08557903 -0.041880265 -0.58833146
000090 37 77 14 3f a1 43 eb bd 1a 1a fd 3d 3e 0c 2e 3e
       0.5799441 -0.114875086 0.12358494 0.16996858
0000a0 e7 b8 98 3f de 1c 39 3e a0 32 9a 3f dc 1f 8f be
       1.1931428 0.18077418 1.20467 -0.27953994
0000b0 66 1d 85 3e d4 ec c0 3f 5a 81 83 3f cc 3c 07 40
       0.25998992 1.5072274 1.027385 2.1130857
0000c0 6a ce c8 be 0c 54 c2 3f eb 09 32 3f b0 e5 f6 3e
       -0.3921998 1.5181899 0.69546384 0.48222113
0000d0 76 21 0b bc 13 27 7f 3e 53 2f 2c bf f4 49 33 be
       -0.008491864 0.2491725 -0.6725971 -0.1750868
0000e0 52 eb 08 be 49 5b 32 be 3c 74 13 be 68 37 e0 3d
       -0.13371018 -0.17417635 -0.14399809 0.10948068
0000f0 7f a9 23 3f 1a 45 52 3f 1f da ac 3e 5d 5b b5 3f
       0.63930506 0.8213669 0.33760163 1.4168507
000100 b3 bd da bc 44 7b 0c be 2d b4 01 3f 8c 46 38 3d
       -0.026701784 -0.13718897 0.5066555 0.044989154
000110 a7 38 36 3f 28 51 05 3e 7d 29 a0 3f 48 00 a7 3d
       0.71180195 0.1301924 1.2512661 0.081543505
000120 ce 2f af be 4c 7d 3f be 4c e9 47 3f f1 c6 87 bc
       -0.3421616 -0.1870014 0.7809036 -0.016574355
000130 a0 e5 f2 3e f7 f9 84 3f ce e1 15 bd 14 b8 44 bd
       0.47440815 1.0388783 -0.036592297 -0.048027113
000140 02 ce c1 bf 45 4b b1 3f 31 7f 8d 3e 8d a5 dc be
       -1.5140994 1.3851095 0.27636102 -0.43095055
000150 5a 6b 56 3f 18 23 df 3d f7 03 e3 3f ff db c2 be
       0.83757555 0.108953655 1.7735585 -0.3805847
000160 e8 e5 26 be 96 90 ae bc 26 bf 79 3f 95 92 6c bd
       -0.1629864 -0.021309178 0.97557294 -0.05775698
000170 91 7b a7 3e c7 06 3d 3f dd 8e 7a 3e fa af 1b bf
       0.3271146 0.73838466 0.2446856 -0.60815394
000180 67 f8 02 3f 4d 7b a5 3f ea dd 49 3f 6d 75 5b 3f
       0.5116028 1.2928253 0.7885424 0.8572605
000190 66 7b 15 3f d0 2d a0 3f 51 f9 aa 3d 46 ab f6 3d
       0.58391416 1.2513981 0.083483346 0.120443866
0001a0 7f 03 24 bf 34 69 06 be 5d 50 9f 3e 89 23 eb 3e
       -0.64067835 -0.1312607 0.31116 0.4592555
0001b0 5d 98 81 bd 3c 00 c3 bd 06 85 81 be ce fe be 3f
       -0.06327889 -0.09521529 -0.252968 1.492151
0001c0 d3 f3 18 3e 24 de 85 3f 06 b7 c0 3e e1 fa 6b 3f
       0.14936762 1.0458417 0.37639636 0.92179686
0001d0 bf eb 47 be 41 d9 b9 3f 91 61 57 3f 54 fb 56 3f
       -0.19523524 1.4519426 0.8413325 0.83977246
0001e0 b4 fa 86 bd e3 a2 6e 3f fc 95 b4 bd 27 23 8d 3f
       -0.065907866 0.93217295 -0.0881767 1.1026353
0001f0 4d 03 fb bd 15 ec 38 bf a7 48 e8 3f 39 e5 46 3e
       -0.12256489 -0.7223523 1.8147172 0.19423379
000200 da 78 74 3f 52 26 35 3f 74 7c cb bd 6b 8e 21 be
       0.95496905 0.707616 -0.09935847 -0.15776984
000210 b8 0a 7b be 5f 75 4e bc 96 78 a2 3d 72 e7 b7 bd
       -0.24515808 -0.012601226 0.07933156 -0.089796916
000220 3d c1 29 3d db 5b 7a bd 24 83 5c 3f 66 99 10 3f
       0.041444052 -0.061122756 0.86137605 0.5648407
000230 9d fa 69 3f 3a 24 1a be 03 ae 88 3f 52 0e 11 3f
       0.9139803 -0.15052882 1.0678104 0.56662476
000240 41 47 f5 3e 8e ba 47 3d 32 88 50 3f f1 c8 68 3f
       0.47905925 0.048761897 0.8145782 0.9093161
000250 7b bb 7c 3f 58 80 5e 3e c3 ec 19 be 10 50 b4 3e
       0.9872357 0.21728647 -0.15031724 0.35217333
000260 8f e7 57 3f 92 0e 87 3f 81 b0 12 3f a5 5d 47 3f
       0.84337705 1.0551322 0.57300574 0.77877265
000270 4d e0 c0 3e 9a 4c 8a 3f 14 22 4c 3f d7 af 7e 3f
       0.37671128 1.0804627 0.797395 0.9948706
000280 f3 f6 5c 3f ad 9c 4d 3f a1 66 dd 3e c5 af 80 3e
       0.86314315 0.80317193 0.43242362 0.25134102
000290 a9 e9 cf 3d 64 44 83 3c cd ca 86 3f dd 66 94 bc
       0.10151989 0.016023822 1.053064 -0.018115455
0002a0 7f 8e 38 3d ee c3 30 3d 8c 99 ad 3f 8f c6 84 3f
       0.04505777 0.043155603 1.3562484 1.0373095
0002b0 8f b6 83 be 41 d2 08 3f 8d 01 54 be 92 8b 90 3f
       -0.2572522 0.5344582 -0.20703717 1.1292593
0002c0 20 ec 8f bd 0b 9c c5 3f 78 40 c4 3e 35 80 18 be
       -0.07027459 1.5438246 0.38330436 -0.14892657
0002d0 56 ed 14 3f 0a ed af 3f 22 34 cf 3f 39 e8 c3 3f
       0.58174646 1.3744214 1.6187785 1.5305244
0002e0 cd 2f c5 3d 87 a0 50 3f ec ea 0a 3f 41 6d b1 be
       0.09628258 0.81494945 0.5426471 -0.34653667
0002f0 e3 82 17 be c2 c3 e1 3d db 49 79 3e 2e d2 8a be
       -0.14796023 0.11023666 0.2434458 -0.2711348
000300 05 35 b2 3e c7 60 79 3f 9c 0a ac 3f 43 09 fa 3e
       0.34806076 0.97413296 1.3440738 0.4883519
000310 2c 64 76 3f 77 56 a1 3f eb 0d 47 3f f9 29 b0 3d
       0.962466 1.2604512 0.7775561 0.08601756
000320 e9 d1 1e 3f f2 49 70 3f 89 d3 24 3f a7 16 b2 3f
       0.6203905 0.9386283 0.6438528 1.3913163
000330 2e de 02 3e 96 aa d1 bd e7 dd 4a bd 12 b8 30 3e
       0.12780067 -0.10237615 -0.04952803 0.17257717
000340 2e d5 20 3f 88 9e 34 3f 03 19 0c 3f ad 69 96 3f
       0.62825286 0.705544 0.54725665 1.1751
000350 67 41 20 be 42 91 8a 3d 2d cc 3e 3f 20 08 63 3f
       -0.15649949 0.06765987 0.745303 0.8868427
000360 db 0a 09 3f b3 28 53 3f f6 e9 3b 3d b1 c6 6c be
       0.5353219 0.8248398 0.04587742 -0.2312267
000370 f9 9c 4c 3f 70 d5 1c 3f 74 5c a9 3f a1 43 89 3f
       0.7992702 0.6126318 1.323134 1.0723764
000380 a8 d6 ae 3f 12 a9 2e bf 76 56 4e 3f 04 21 a8 bd
       1.3659258 -0.6822673 0.8060068 -0.08209422
000390 f1 fb 12 3e 00 ed b1 3a 91 82 a6 3f 89 92 c2 3e
       0.1435392 0.001357466 1.3008596 0.38002422
0003a0 0e 43 2d 3e 3d ca 63 3f 54 9f a3 3e fa ad a0 3f
       0.1692011 0.88980466 0.31957495 1.2553093
0003b0 26 fa 84 3f 5f 3f 2d bf e6 4d a7 3f 25 0f 73 3f
       1.0388839 -0.6767482 1.3070648 0.94944984
0003c0 ba c9 65 3f ff 84 a8 bd e4 1d 57 3e fa b1 53 be
       0.89760935 -0.08228492 0.21007496 -0.20673361
0003d0 75 a2 8b 3f 20 f6 bd bd bb fd b7 3f af 9d 11 bd
       1.0908953 -0.0927546 1.4374307 -0.03555077
0003e0 34 ec 86 3f c3 03 21 3e 5e bb c7 3e 11 83 0d 3f
       1.0540833 0.15724091 0.39010137 0.55278116
0003f0 fd db 4e be 61 07 97 3f 36 44 59 3f 3e 04 79 3f
       -0.20201106 1.1799127 0.84869707 0.972721

fc3.weight f4 [25, 256]
000000 50 1b 8f 3b 33 e2 3c 3d 62 a2 f5 3e 68 d6 fa 3e
       0.0043672696 0.046114158 0.4797545 0.48991704
000010 ea 67 34 3e a1 4f 38 be 1f 8b 21 3f de c6 55 3e
       0.17617765 -0.17999126 0.63102907 0.20876643
000020 23 05 62 3e 6d 8c 58 3f 9b bc 93 3e ad 5f 33 3f
       0.22072272 0.8458927 0.28854832 0.70067865
000030 17 8d 24 bf 63 b0 fe 3d e0 7a 4f 3f ed 01 a2 bd
       -0.64277786 0.12435987 0.8104687 -0.079105236
000040 8b 91 2e 3f a5 11 00 3f bc 30 a8 3d b5 27 f1 3e
       0.6819083 0.50026923 0.0821242 0.47100607
000050 1c ea 50 3f 22 3b f7 3d 7a a6 cb 3e 93 cc 4e 3f
       0.8160722 0.120718256 0.3977545 0.80780905
000060 3e 2a 0e 3f 6c 98 43 3e b5 98 7f 3e 1e 0d d3 3e
       0.55533206 0.19101113 0.24960597 0.41220945
000070 62 ec 8b be 42 3a 47 3f 43 f4 d1 3d 1f b6 8a 3e
       -0.27328783 0.7782327 0.10251667 0.27092072
000080 f4 27 a5 be 47 a1 01 3f a7 b7 d5 bc 5b 9a 7a 3e
       -0.32257044 0.50636715 -0.026088549 0.24472944
000090 94 a3 46 3f 57 63 32 3d 2c 0f 34 3e 9c 32 0d bb
       0.7759335 0.04355177 0.17583913 -0.0021545058
0000a0 23 15 4c be 7f d0 ab 3e e2 cd 6e 3f 22 c9 ae bf
       -0.19929938 0.33557507 0.932829 -1.3655131
0000b0 8a c0 1c 3f 99 e2 3f 3f 6e bb 8f 3f 73 78 20 3e
       0.6123129 0.74955136 1.1229074 0.15670948
0000c0 a8 9e 51 be 5a 46 4d 3e 20 8f 98 3f d8 77 55 3e
       -0.20470679 0.20046368 1.1918678 0.20846498
0000d0 e4 b7 ea bd 20 5b eb be 30 62 32 3f 4f 34 8e 3d
       -0.114608556 -0.4596796 0.6968107 0.06943571
0000e0 97 26 89 3d 8a aa 20 3b 2a b8 46 3d 78 0f bf 3e
       0.066968136 0.0024515712 0.048515476 0.3731649
0000f0 e9 68 28 3f 3e 24 e7 3e d4 f5 24 3f e4 b7 a9 3d
       0.6578508 0.45144838 0.64437604 0.082870275
000100 e7 2b 3d 3e 56 a9 ae bd f2 6d 11 3f 8f 5f 81 3f
       0.18473779 -0.08528392 0.5680839 1.0107287
000110 cb 78 cb 3e 16 c9 67 3f 66 a4 d1 3f 78 2d e3 be
       0.39740595 0.9054121 1.6378295 -0.44370627
000120 60 50 c5 bd fc 35 a8 be aa 23 8a be e2 c2 21 3f
       -0.09634471 -0.32853687 -0.26980335 0.6318799
000130 b6 99 6e 3e b3 26 47 3f 0f 7b 86 3d f8 d1 16 be
       0.23300824 0.77793425 0.0656644 -0.14728534
000140 b9 26 b3 bd 21 20 11 3f e8 55 8f be 4e 7a 29 3f
       -0.0874762 0.5668965 -0.2799523 0.6620225
000150 69 b8 73 3f 13 0e 1b bf 68 66 bc 3e 35 9b 46 3d
       0.9520326 -0.6056835 0.3679688 0.04848786
000160 10 ea 7b 3d 2f cb 2d 3f 11 9a 32 3f b3 38 40 3d
       0.061502516 0.6788816 0.69766337 0.046929073
000170 3a 47 71 3e 9d f4 f4 3e 2c 1c 5d 3e c7 8a 50 3e
       0.23562327 0.47842875 0.21592778 0.2036544
000180 55 da 26 3f e5 f2 0d 3f 9e 89 96 3f b6 82 49 3e
       0.651769 0.5544875 1.1760747 0.19678769
000190 85 75 9d 3f 19 c7 a2 3e 52 60 e1 3b 5f bd 29 3f
       1.2301489 0.31792524 0.0068779374 0.6630458
0001a0 0d ec aa bd 53 8d f3 3d 27 86 f1 3d 08 a3 b8 3e
       -0.08345804 0.1189219 0.11793166 0.36061883
0001b0 0f de d3 be a4 ee ec bd da 05 25 3e 72 ca 42 3e
       -0.41380355 -0.115689546 0.16115513 0.1902254
0001c0 7a c9 b4 3e a6 0a 77 3f 90 72 25 3f 5f ff 9e be
       0.35309964 0.96500623 0.64627934 -0.31054208
0001d0 42 8e f6 3c 1d 86 b0 3f 78 98 3b 3f 38 e7 1d 3f
       0.03009713 1.3790928 0.73279524 0.61680937
0001e0 c1 80 7d bd 35 9e 1b 3f 5e eb b5 3d 11 ff 7a 3f
       -0.061890367 0.6078828 0.08882783 0.9804545
0001f0 00 e0 aa be 07 24 24 bf 60 ce ed 3c dc c1 b2 bd
       -0.33374023 -0.64117473 0.029029071 -0.08728382
000200 94 de 8b bf 8e 84 a1 3e 63 98 15 3e d9 ab 94 3d
       -1.09273 0.31546444 0.14608912 0.0725934
000210 a1 3d 08 3d ef 7a 48 3e 0e e4 8e be 35 75 cf bb
       0.0332619 0.19578145 -0.27908367 -0.006331111
000220 c7 4f 9e 3d 44 de 35 bf ee f7 6d 3f 81 eb 0e 3f
       0.0773006 -0.71042275 0.92956436 0.558281
000230 e9 42 97 3f c4 43 a8 bc 29 4e a5 3e 8e eb c7 3e
       1.1817294 -0.020540126 0.32286194 0.390469
000240 8d d7 27 3f f3 a2 d2 bc cd d2 37 3f 6d ac 5d 3e
       0.6556328 -0.025712466 0.7180603 0.21647806
000250 22 f4 a4 bf 93 bb 08 3f f6 df 2f 3e 05 84 59 3f
       -1.2887003 0.53411216 0.17175278 0.8496707
000260 c6 c2 57 be dc 99 3c 3f c8 2b da 3e 02 cb 2e 3e
       -0.21070394 0.7367227 0.42611527 0.17069629
000270 67 6e 4f be 5a 9e 3a be 73 7f 09 3f 86 48 19 3f
       -0.20256959 -0.18224469 0.537101 0.59876287
000280 f7 d5 b0 3e 02 6a 18 3f a4 77 0b 3f 5f d2 34 3f
       0.34538242 0.59536755 0.5447943 0.706335
000290 3d 1e da 3e 6f d8 b2 3e b3 3a 0b 3f e8 e2 33 bd
       0.42601195 0.3493075 0.5438644 -0.043917567
0002a0 e8 9a 09 3c 8d f9 a5 bd da 75 80 3f 28 73 5f 3d
       0.008398749 -0.08104239 1.0035965 0.05455318
0002b0 72 f6 64 3b 70 1e f3 3e d1 35 63 3f aa aa 85 3f
       0.0034936932 0.4748416 0.8875399 1.0442708
0002c0 1a b2 53 3f 35 4a d1 3e c9 05 7e 3f 44 e8 31 3e
       0.82693636 0.40876928 0.9922758 0.17373759
0002d0 ba ad 97 3e 45 dd 5e 3f 29 9a 4e 3f e8 d9 09 3f
       0.2962473 0.8705638 0.8070398 0.53848124
0002e0 bb 38 18 3e df ed 96 bd 7c 81 2a 3e e3 bf 3c be
       0.14865391 -0.07369589 0.16650957 -0.18432574
0002f0 9f 34 74 bd da 12 e5 3e 8d 1a 37 3d 0a 27 be be
       -0.059620496 0.44740945 0.044703055 -0.3713916
000300 de e4 8f bd 1c 7c 87 3e 67 60 c5 be 40 25 5c 3f
       -0.07026075 0.26461875 -0.38550112 0.8599434
000310 50 9c 41 3e f8 15 11 3f fb 67 95 3f a3 a2 80 bf
       0.18907285 0.56674147 1.1672357 -1.0049633
000320 0a db 80 3f 47 ec c1 be 85 f5 a1 3d 61 ad f1 3e
       1.0066845 -0.37875578 0.07908157 0.4720259
000330 70 99 e5 be a2 fe a5 3e c6 24 3a 3d d1 4e 49 be
       -0.44843626 0.32420832 0.045445226 -0.19658972
000340 c8 eb c6 3e b0 fb f9 3e 71 63 f5 3f 68 cc 5a 3f
       0.38851762 0.48824835 1.9170972 0.8546815
000350 54 a5 0b bd 05 4b 5e 3f bc 4b 07 3d 44 e6 8b 3c
       -0.034093216 0.8683322 0.03303121 0.017077573
000360 c0 5d 7c 3f e5 a4 4a 3f 17 ae 04 3f 69 0b 9b bd
       0.9858055 0.7915786 0.5182814 -0.07570536
000370 5c de 0c 3f 68 cf bd be 70 c2 14 3f 97 2f 49 3f
       0.55026793 -0.370723 0.5810919 0.7858824
000380 b1 a0 42 3f 7c c5 3b be c3 cd ab 3f 37 a6 6e 3e
       0.76026446 -0.18337053 1.3422168 0.23305593
000390 4a a8 20 3f 18 00 da bd 6d e4 85 3f 77 dd 15 3e
       0.6275679 -0.10644549 1.0460335 0.14635263
0003a0 33 39 54 3f 93 7c 8a 3e 9e 3c 8e 3e 66 af 72 3f
       0.8289978 0.27048168 0.27780622 0.94798887
0003b0 20 13 a5 3e 9c 22 01 3e 12 cc f7 3e 5f b0 4d 3f
       0.32241154 0.12610859 0.4839788 0.80347246
0003c0 12 74 e7 3e 6b 64 41 bb 33 cb a2 3f 9b 99 95 3f
       0.45205742 -0.0029509317 1.2718261 1.1687502
0003d0 f9 41 d0 3e 84 a2 cb be 80 1d 65 3f dd ea 02 be
       0.40675333 -0.39772427 0.8949814 -0.12784906
0003e0 b5 e7 16 3f d3 02 89 3f 26 a8 c7 bf b5 2a 3f 3f
       0.58947307 1.0703987 -1.559819 0.7467454
0003f0 bc f1 a4 bd 4d 0f 8c 3a 7b b0 39 3e ec 2c 4d 3f
       -0.0805392 0.0010685712 0.18133728 0.8014667

fc3.bias f4 [25]
000000 35 88 4c be 69 a8 0d be ad 7d 63 bd 9e 9e 85 3d
       -0.19973834 -0.13833775 -0.055539776 0.065243945
000010 2e 91 52 bf cd 11 37 bd 6c 92 d1 3d 3d 44 c4 bd
       -0.82252777 -0.04469471 0.10233006 -0.09583328
000020 cb c1 c2 3e b8 75 83 bf 8b 57 86 bd 0c 28 81 3e
       0.38038477 -1.02703 -0.06559666 0.25225866
000030 6b 40 26 3f 7f e3 a9 3e 19 4d 29 be 6c 9e 85 be
       0.64942044 0.33181378 -0.16533317 -0.2609743
000040 ef 96 b3 be 0a 92 f1 be ae eb 54 3d 14 56 db 3d
       -0.3507609 -0.4718173 0.051982574 0.107097775
000050 3a 83 26 3d 0f 08 b3 bd 52 36 d1 be d0 c4 4c 3f
       0.04065249 -0.087417714 -0.40861756 0.7998781
000060 54 c5 84 3e
       0.259318
