examples/carla_scenic/Carla_Challenge/agent_collision/target_net_0.pt (torch, 71511 bytes, 6 tensors)

fc1.weight f4 [64, 3]
-0.03274153 0.12392272 0.11888162 0.025402594 -0.07717051 0.06511354 0.02319061 -0.05716473
-0.012599786 -0.21641302 -0.0111015 0.09524708 -0.02660651 0.10680709 -0.107573666 0.034295652
0.06164909 -0.3279483 -0.046634797 -0.19875778 -0.08154666 0.1406265 0.0924891 -0.1533136
-0.00018380657 -0.052557852 -0.08904099 0.040260836 0.027553448 0.016835203 -0.04639002 0.05970482
-0.098492086 -0.025706483 0.030073015 0.000549357 -0.061898883 0.110487975 0.1310448 0.08175132
-0.18233864 0.18202466 -0.008493341 -0.023907883 0.09047626 0.06188109 0.09069549 -0.07179063
0.074692234 -0.048835117 -0.13660589 -0.061059035 -0.06357055 0.08990573 0.06215995 -0.15273201
0.022042546 0.14616366 0.020161202 0.058671754 0.04534544 0.0009986358 -0.1307592 0.11003864
0.12780508 -0.042225234 0.09176276 0.10095582 0.0083161155 -0.102410816 0.13396 -0.1127396
-0.05015843 0.07117518 0.0659908 0.084433846 -0.061421942 0.17978866 0.14255862 0.077490255
0.004317293 -0.1068517 0.020670576 0.08349018 0.12445461 0.046436425 -0.13773875 0.016292121
0.08773033 0.073887765 0.07562606 -0.020314856 0.14658575 -0.0065757385 0.02862602 0.052011836
0.08318793 0.04019848 0.20525391 0.14351158 0.013705388 -0.07432721 -0.009261965 -0.008879282
-0.04911174 -0.17942399 0.11215424 -0.054639608 -0.063355975 -0.0074766227 0.017361792 -0.13964973
0.2030838 0.019201843 0.12835182 0.10830065 0.08634686 -0.08933913 0.084943034 0.028611604
-0.03131125 -0.07818418 0.21928714 0.00014897462 0.029858658 0.08392253 -0.10343597 -0.1668312
0.09102376 0.0834501 -0.04222315 0.10648707 0.013810687 -0.026681004 -0.015525882 0.024847828
0.11000967 0.08312994 -0.15640096 -0.057945818 -0.075118974 0.1598184 -0.0675625 0.003434229
-0.06416572 0.09016403 0.019306282 -0.148273 -0.017515836 0.0072429017 -0.08183045 -0.050662458
0.4109961 0.23383331 -0.1646221 0.034758072 -0.08818284 0.036279798 0.053035565 -0.04521845
0.04598536 0.036767725 0.0034467578 -0.100245014 0.096331544 -0.010304406 -0.03863867 -0.024868583
-0.02457457 0.08308648 0.08775497 0.06365852 -0.12180145 0.0033420247 -0.20786826 -0.14898454
-0.099198945 0.04450239 -0.031697616 0.10132054 0.12956277 -0.048137616 -0.03379224 0.07586705
-0.09896921 0.07144543 -0.10891813 -0.079577655 -0.16812538 -0.030880759 0.07086464 0.10029918
00000000: fc1b 06bd 32cb fd3d 3578 f33d 1a19 d03c
00000010: 930b 9ebd 3f5a 853d 3cfa bd3c 9025 6abd
00000020: 556f 4ebc 609b 5dbe 11e3 35bc e710 c33d
00000030: e5f5 d9bc adbd da3d 954f dcbd 9979 0c3d
00000040: c283 7c3d d7e8 a7be 2104 3fbd 2987 4bbe
00000050: ef01 a7bd 6500 103e ed6a bd3d 3efe 1cbe
00000060: 33bc 40b9 e746 57bd 1f5b b6bd 8ce8 243d
00000070: c5b7 e13c fbe9 893c 7603 3ebd 0b8d 743d
00000080: 38b6 c9bd 6796 d2bc af5b f63c b902 103a
00000090: af89 7dbd 8547 e23d 9c30 063e 3c6d a73d
000000a0: fbb6 3abe ac64 3a3e a727 0bbc 77da c3bc
000000b0: 9e4b b93d 0777 7d3d 8fbe b93d f706 93bd
000000c0: 3ef8 983d 5507 48bd 6ae2 0bbe 0a19 7abd
000000d0: 4731 82bd 7f20 b83d 6f9b 7e3d c865 1cbe
000000e0: 9292 b43c edab 153e 1b29 a53c cb51 703d
000000f0: 24bc 393d a8e4 823a bde5 05be f05b e13d
00000100: 56df 023e 5ef4 2cbd 1dee bb3d edc1 ce3d
00000110: 5140 083c c3bc d1bd cf2c 093e 05e4 e6bd
00000120: ed72 4dbd 4bc4 913d 2f26 873d a7eb ac3d
00000130: 9395 7bbd 851a 383e e3fa 113e 36b3 9e3d
00000140: 1478 8d3b 10d5 dabd 5755 a93c e6fc aa3d
00000150: 0fe2 fe3d 1f34 3e3d 630b 0dbe 0e77 853c
00000160: f6ab b33d 7852 973d d6e1 9a3d 576b a6bc
00000170: 931a 163e 4b79 d7bb 1d81 ea3c 5d0a 553d
00000180: 6f5e aa3d 29a7 243d 152e 523e b3f4 123e
00000190: 908c 603c dd38 98bd 7fbf 17bc 687a 11bc
000001a0: 6429 49bd ecba 37be 1fb1 e53d c8cd 5fbd
000001b0: c7c0 81bd 75fe f4bb 513a 8e3c 5700 0fbe
000001c0: 33f5 4f3e 2f4d 9d3c a96e 033e bbcc dd3d
000001d0: 9fd6 b03d 6ff7 b6bd 9df6 ad3d e262 ea3c
000001e0: 3a40 00bd 071f a0bd cf8c 603e 1236 1c39
000001f0: 259a f43c 93df ab3d 3dd6 d3bd ccd5 2abe
00000200: aa6a ba3d e3e7 aa3d 2ff2 2cbd e515 da3d
00000210: 3846 623c 1f92 dabc 4560 7ebc ac8d cb3c
00000220: c04c e13d 0840 aa3d 9327 20be 9858 6dbd
00000230: fad7 99bd 6fa7 233e 355e 8abd cd10 613b
00000240: 5169 83bd eba7 b83d 3528 9e3c e1d4 17be
00000250: 5f7d 8fbc dd55 ed3b b996 a7bd 7083 4fbd
00000260: 156e d23e 0072 6f3e b292 28be 7b5e 0e3d
00000270: 3499 b4bd 209a 143d d23b 593d fb36 39bd
00000280: 255b 3c3d c199 163d 00e3 613b 424d cdbd
00000290: 7949 c53d d0d3 28bc 9543 1ebd 33b9 cbbc
000002a0: 9c50 c9bc 3f29 aa3d e1b8 b33d 665f 823d
000002b0: 0a73 f9bd df05 5b3b 6bdb 54be 678f 18be
000002c0: d128 cbbd 2348 363d 5cd5 01bd 2581 cf3d
000002d0: 1aac 043e f32b 45bd bb69 0abd 2f60 9b3d
000002e0: 5fb0 cabd fb51 923d 7810 dfbd 9cf9 a2bd
000002f0: 0f29 2cbe a5f9 fcbc 7b21 913d a869 cd3d

fc1.bias f4 [64]
0.10638477 -0.33660144 -0.15048444 0.26757377 0.04164749 -0.40743226 -0.13663013 -0.009593038
0.4571134 -0.12273351 0.18041466 0.42440814 -0.032400094 0.4855318 0.18297607 -0.50143486
0.12682904 0.22028735 -0.50575995 -0.12526175 -0.42470104 0.5215098 0.40858003 0.34759796
-0.26251626 -0.41192463 0.3578002 -0.44909343 -0.41845176 0.48217958 -0.27728802 0.34899202
0.15897813 0.3323262 0.24673733 0.11573065 -0.04229961 0.42340037 0.15072581 0.0020368912
0.07755851 -0.48210946 -0.2913175 0.125272 0.36390197 -0.22159551 0.48216566 0.54208505
0.36932054 0.23606092 -0.32126683 -0.2983789 -0.17123918 -0.16187128 0.5004313 -0.5449807
-0.14213136 -0.4632655 0.1030607 -0.5705126 0.13662869 -0.14723332 0.09207663 0.5093139
00000000: 42e0 d93d 0657 acbe 9818 1abe 6eff 883e
00000010: 8f96 2a3d f69a d0be c5e8 0bbe 1e2c 1dbc
00000020: c40a ea3e b55b fbbd 9fbe 383e 064c d93e
00000030: f6b5 04bd a097 f83e 145e 3b3e 095e 00bf
00000040: 79df 013e 0293 613e 7c79 01bf 9e44 00be
00000050: 6a72 d9be ab81 053f 6731 d13e 5cf8 b13e
00000060: 8868 86be c9e7 d2be 9631 b73e 93ef e5be
00000070: 4f3f d6be 3ee0 f63e b2f8 8dbe 15af b23e
00000080: 2acb 223e a926 aa3e b6a8 7c3e 3104 ed3d
00000090: 5b42 2dbd efc7 d83e de57 1a3e 5d7d 053b
000000a0: ffd6 9e3d 0dd7 f6be 9127 95be 4e47 003e
000000b0: 5c51 ba3e efe9 62be 6bde f63e 16c6 0a3f
000000c0: 9517 bd3e f4b9 713e 167d a4be 1fc5 98be
000000d0: 5359 2fbe 96c1 25be 441c 003f db83 0bbf
000000e0: e28a 11be 2331 edbe 7d11 d33d 1d0d 12bf
000000f0: 64e8 0b3e 55c4 16be ac92 bc3d 6562 023f

fc2.weight f4 [256, 64]
0.13279384 -0.051238116 0.18986565 -0.049101364 -0.0004477809 0.046901833 0.19935422 -0.0770151
0.030725515 -0.049076874 -0.07637886 -0.11052549 0.093379624 0.013281815 -0.14779702 0.013216689
-0.104615666 0.05550124 0.0861628 -0.024137815 -0.041336123 -0.04614316 -0.0017578704 -0.005144024
-0.10500038 0.11005833 -0.03647433 -0.086726084 0.01072295 -0.01706977 0.051969588 0.16695754
0.23233505 0.0035340548 -0.21106716 0.030708233 0.05234797 -0.0037732495 -0.172177 0.04963547
-0.079317264 -0.03663191 0.13356386 0.10266107 0.06066517 -0.056777637 -0.051484592 -0.12671815
-0.12610671 -0.08279695 -0.022144679 0.17125027 -0.16919443 0.14724775 0.111349516 0.16496657
0.019306244 0.070778504 -0.07757901 0.022805823 -0.02999467 0.11360095 -0.20707479 -0.066409744
0.018750703 -0.075702995 0.0013936716 -0.038919404 0.0075306767 0.036895134 0.063508235 -0.09851618
-0.030208334 0.0018742596 0.12737851 0.063600115 -0.08470355 0.033857517 0.253469 -0.01992759
-0.045208704 0.008237368 0.023201292 0.008395007 -0.07082333 0.050533295 0.028119443 -0.042399164
0.031346757 0.17735225 0.07663089 -0.09582486 -0.18483196 -0.14081964 -0.14129409 -0.05848546
0.031408165 -0.07962615 0.030372908 -0.026308388 -0.050357174 0.07663652 0.21330833 -0.23633365
0.1922174 0.018848522 -0.11064249 -0.14206766 0.07865785 -0.07544001 0.060577035 -0.047896206
-0.054065 -0.03828072 0.062040806 -0.07751247 0.10122889 0.19761296 0.055556666 0.044298556
0.022984536 -0.16291335 0.10375287 0.014967558 0.11859123 0.15579973 -0.054488447 -0.009083173
0.1701154 -0.0043268977 -0.026051212 0.07541864 -0.02689612 0.04164516 0.029307185 -0.15606838
0.15699424 -0.040219966 -0.05403311 -0.03005392 -0.04852767 -0.09933518 0.049548563 0.019504052
-0.13015905 -0.09136584 0.024733504 0.14598559 0.01099544 -0.02810641 0.013171153 0.22266713
0.22196923 -0.12610188 0.09026431 -0.1480361 0.0060069948 0.032323655 -0.08024009 -0.16344556
0.05442037 -0.11762377 0.0013405262 -0.10211815 0.023788968 -0.08535586 -0.14993349 0.07552061
0.07478735 -0.23177552 -0.24851957 -0.043450806 0.017838346 -0.028425539 -0.097443156 0.08481874
-0.13792242 0.123802066 0.014672003 0.14153829 0.11220562 -0.040781114 0.05125326 0.05136739
-0.050995827 -0.23237486 0.12335195 -0.00020089524 -0.024956739 0.04394798 -0.060442664 -0.0028119243
-0.022613311 0.06539508 -0.08857411 -0.06765389 0.015459782 0.0004914011 0.015941964 0.035869967
-0.09930451 -0.054999705 0.14595024 0.2094246 -0.075052805 0.07116326 -0.1175795 0.20373297
-0.108251266 0.033950493 -0.0119281 -0.19737002 0.039237816 0.0864467 0.010271591 0.17298321
0.007869095 0.0046547926 0.08717421 0.1446313 -0.03874364 0.02666308 -0.06722637 0.035436716
-0.11336261 -0.010576147 0.05494395 -0.07689067 -0.1872232 -0.015168816 -0.028556976 -0.017726112
-0.082095526 0.12512809 0.13785407 -0.066532716 0.035516538 0.113011256 -0.08984753 0.07583987
0.036024544 0.033633213 0.2584793 -0.13584946 -0.17549099 -0.010701249 -0.07897971 -0.028986666
0.01214582 -0.017438812 -0.08730217 -0.030810801 -0.10310415 -0.12670782 0.17116486 0.1316407
00000000: 1cfb 073e 0fdf 51bd 246c 423e 831e 49bd
00000010: 23c4 eab9 231c 403d 8323 4c3e 18ba 9dbd
00000020: 13b4 fb3c d504 49bd 856c 9cbd 305b e2bd
00000030: d13d bf3d f89b 593c 1a58 17be d08a 583c
00000040: bd40 d6bd 4555 633d 1f76 b03d abbc c5bc
00000050: 1150 29bd 9c00 3dbd 5868 e6ba 338f a8bb
00000060: 700a d7bd 4366 e13d 1b66 15bd 729d b1bd
00000070: 50af 2f3c e7d5 8bbc 10de 543d ebf6 2a3e
00000080: 3de9 6d3e 9a9b 673b fd21 58be d58f fb3c
00000090: d36a 563d 9f48 77bb 2b4f 30be 904e 4b3d
000000a0: 1771 a2bd 570b 16bd f7c4 083e f83f d23d
000000b0: 0b7c 783d ab8f 68bd 82e1 52bd 67c2 01be
000000c0: 1e22 01be 7391 a9bd c268 b5bc 3b5c 2f3e
000000d0: 4e41 2dbe 1dc8 163e 370b e43d ffec 283e
000000e0: 2128 9e3c 52f4 903d bee1 9ebd 47d3 ba3c
000000f0: 62b7 f5bc 9da7 e83d 6a0b 54be d501 88bd
00000100: 139b 993c 2c0a 9bbd dcab b63a f469 1fbd
00000110: e5c3 f63b 5a1f 173d 9b10 823d dac2 c9bd
00000120: 7877 f7bc b7a9 f53a 836f 023e c740 823d
00000130: 0e79 adbd 2eae 0a3d b0c6 813e 2f3f a3bc
00000140: c32c 39bd 07f6 063c a310 be3c 368b 093c
00000150: d20b 91bd 00fc 4e3d bf5a e63c bfaa 2dbd
00000160: 7565 003d d49b 353e a8f0 9c3d d33f c4bd
00000170: 9744 3dbe 0633 10be 66af 10be 738e 6fbd
00000180: d9a5 003d 0913 a3bd 9bd0 f83c b084 d7bc
00000190: 5343 4ebd 9cf3 9c3d 806d 5a3e 7301 72be
000001a0: a3d4 443e 3768 9a3c 8898 e2bd 2f7a 11be
000001b0: 5e17 a13d 4b80 9abd a01f 783d d02e 44bd
000001c0: 4373 5dbd 3fcc 1cbd 801e 7e3d dcbe 9ebd
000001d0: 1851 cf3d 0d5b 4a3e 638f 633d 6772 353d
000001e0: 114a bc3c c2d2 26be 627c d43d 7d3a 753c
000001f0: f5df f23d f789 1f3e 472f 5fbd 97d1 14bc
00000200: bb32 2e3e a6c8 8dbb 5a69 d5bc 1775 9a3d
00000210: 4055 dcbc 1e94 2a3d 9f15 f03c 64d0 1fbe
00000220: 19c3 203e b1bd 24bd d351 5dbd a333 f6bc
00000230: f3c4 46bd 3e70 cbbd 6ff3 4a3d f6c6 9f3c
00000240: 6a48 05be 031e bbbd eb9d ca3c 3f7d 153e
00000250: 3826 343c 6a3f e6bc d2cb 573c da02 643e
00000260: e74b 633e da20 01be 7fdc b83d c796 17be
00000270: 53d6 c43b cf65 043d eb54 a4bd 465e 27be
00000280: e5e7 5e3d bbe4 f0bd 98b4 af3a 5223 d1bd
00000290: 15e1 c23c 0ecf aebd 2a88 19be 8daa 9a3d
000002a0: 1c2a 993d 9056 6dbe ea7b 7ebe 79f9 31bd
000002b0: b921 923c addc e8bc 4790 c7bd 73b5 ad3d
000002c0: 893b 0dbe f08b fd3d d762 703c 6aef 103e
000002d0: 0fcc e53d 190a 27bd f0ee 513d 9d66 523d
000002e0: 00e1 50bd adf3 6dbe f29f fc3d 68a7 52b9
000002f0: 1372 ccbc cc02 343d ba92 77bd 4348 38bb
00000300: 8d3f b9bc dbed 853d 5866 b5bd 1f8e 8abd
00000310: 074b 7d3c 5fd1 003a b998 823c 63ec 123d
00000320: 2a60 cbbd 5f47 61bd fb73 153e 6773 563e
00000330: 49b5 99bd 0bbe 913d 85cd f0bd 609f 503e
00000340: d7b2 ddbd ac0f 0b3d 146e 43bc 5e1b 4abe
00000350: d5b7 203d f80a b13d 2d4a 283c 8322 313e
00000360: 60ed 003c 3b87 983b 6488 b23d 3a1a 143e
00000370: a7b1 1ebd 886c da3c fbad 89bd 1726 113d
00000380: a82a e8bd 9347 2dbc e80c 613d db78 9dbd
00000390: 70b7 3fbe a086 78bc 52f0 e9bc 5a36 91bc
000003a0: b321 a8bd 9421 003e 9e29 0d3e 4e42 88bd
000003b0: ca79 113d 7272 e73d fb01 b8bd ef51 9b3d
000003c0: 798e 133d fbc2 093d 6657 843e 1f1c 0bbe
000003d0: e9b3 33be 4b54 2fbc 1dc0 a1bd 7275 edbc
000003e0: 43ff 463c d7db 8ebc 7bcb b2bd ef66 fcbc
000003f0: 4528 d3bd b2bf 01be d745 2f3e d2cc 063e

fc2.bias f4 [256]
0.060587645 -0.08284719 -0.09661977 -0.11200668 -0.0648904 0.021395087 0.09647098 0.10893583
0.033015832 0.11538176 0.06617704 -0.008571923 -0.030773714 -0.11723173 0.1228579 -0.087134615
0.00619103 0.0103812665 -0.107256964 -0.046059072 0.010762125 -0.10487135 -0.014056638 -0.01767382
-0.06762166 0.0047647357 -0.117195636 0.103951275 -0.0025158674 0.12416342 0.09357898 -0.09643002
-0.081360534 -0.06740993 -0.052008837 -0.0641194 -0.057447687 0.10975918 -0.058631197 0.11562671
0.021808863 0.061324596 -0.11313358 -0.016199484 -0.10091752 -0.10573873 -0.10781331 0.007782355
0.12247668 0.09095478 -0.07184821 0.0705128 0.09255883 -0.08456287 0.005646676 0.07539289
0.09859194 -0.104301274 0.056733802 -0.11275178 0.02565755 -0.045610964 0.12374483 -0.07177429
-0.088319615 -0.05516988 0.007925749 0.01669766 0.002186209 -0.11176345 -0.06885609 0.09980583
-0.052045748 -0.0012199879 -0.033604816 0.004537776 -0.008032814 0.035474792 0.0035697222 -0.068066925
0.049474567 0.0469722 0.0785553 0.011035427 -0.062411636 0.12408733 -0.09367718 -0.108634144
-0.023375154 -0.09637362 -0.04733503 -0.024603963 0.04923743 0.11086115 0.07308805 -0.1220984
0.10552344 0.074480325 -0.07799502 0.061360925 -0.057809174 -0.06959869 -0.10587986 -0.031438008
0.12073706 -0.015924573 -0.024570256 0.08375117 -0.049248576 0.06873956 0.08589837 -0.09016891
-0.108918935 -0.09624234 -0.066274 0.060432076 -0.028745562 0.09909263 0.01999347 -0.0484924
0.05956909 0.04236965 0.058731973 0.040699422 0.06319612 -0.0513037 -0.108285874 0.0072380304
-0.024938136 -0.10351507 0.022479072 0.109945 0.11116895 -0.017917335 -0.102388054 -0.005608186
0.080271736 -0.0011772364 -0.06386861 0.046558976 0.11173849 -0.057701647 0.0015362054 -0.058720335
-0.011400729 0.092844665 -0.0026026815 0.090728804 0.11415067 -0.09516108 0.046334043 -0.02361752
-0.08606157 -0.11567992 0.12127814 -0.029350221 0.025369689 0.08079125 0.045598 0.07631546
0.0682078 -0.11838661 -0.07418871 -0.08466031 0.09310208 0.11868411 -0.09571859 0.053779006
0.09921196 0.119668886 0.058422595 -0.025935113 -0.03550802 0.0025966018 0.064854905 0.04452479
0.085599974 0.017892987 0.1111176 -0.02580294 0.11904712 -0.07702276 0.12446682 0.12441313
0.051725775 0.12080471 0.045939818 0.08553553 0.05355738 -0.10786332 0.04006678 -0.02986823
-0.060492977 -0.12498796 0.044885978 0.096062854 -0.048426643 -0.003550768 0.100032866 0.10581525
-0.020011142 -0.03533341 -0.11725125 0.11971916 -0.061575428 -0.0921254 -0.009290084 0.07855116
0.04827681 0.08603269 -0.058157593 -0.029319406 0.02752164 -0.023876369 0.009712771 -0.1040813
-0.06068112 -0.05514027 0.058305636 -0.10571168 0.022372663 0.12383667 -0.016418755 -0.030497223
-0.034448415 -0.020688683 -0.085546926 -0.07387735 -0.07667698 -0.08854622 -0.04440172 0.09727135
0.11986539 -0.052993372 0.009158522 -0.009196714 0.03577803 0.0063467026 0.099908486 -0.12382619
0.010330588 0.0050929785 -0.089818925 0.023970038 -0.092253536 0.04573953 -0.1224027 -0.037745357
0.035548985 0.045384258 0.046645984 0.051360548 -0.021818414 0.008983448 0.09168048 -0.059220836
00000000: c02a 783d caab a9bd 96e0 c5bd c263 e5bd
00000010: 42e5 84bd c044 af3c 9492 c53d c019 df3d
00000020: 9c3b 073d 464d ec3d d487 873d 4071 0cbc
00000030: 2819 fcbc 3017 f0bd ec9c fb3d a273 b2bd
00000040: 20de ca3b 3016 2a3c 8aa9 dbbd 70a8 3cbd
00000050: a053 303c cac6 d6bd d04d 66bc b0c8 90bc
00000060: 3a7d 8abd 8021 9c3b 4404 f0bd 68e4 d43d
00000070: 40e1 24bb 6449 fe3d 56a6 bf3d 1a7d c5bd
00000080: 5aa0 a6bd 380e 8abd 3807 55bd 0851 83bd
00000090: 444e 6bbd 6cc9 e03d 4427 70bd b2cd ec3d
000000a0: 80a8 b23c 802f 7b3d 94b2 e7bd c8b4 84bc
000000b0: d8ad cebd 8c8d d8bd 3acd dcbd 2003 ff3b
000000c0: 0ed5 fa3d 8046 ba3d 2825 93bd 0469 903d
000000d0: 7c8f bd3d 4c2f adbd c007 b93b 9667 9a3d
000000e0: 92ea c93d e89b d5bd b461 683d 68ea e6bd
000000f0: c82f d23c 90d2 3abd ee6d fd3d 66fe 92bd
00000100: eae0 b4bd d0f9 61bd 00db 013c 88c9 883c
00000110: 8046 0f3b 3ce4 e4bd 6c04 8dbd 0067 cc3d
00000120: ec2d 55bd 00e8 9fba 34a5 09bd a0b1 943b
00000130: 109c 03bc 044e 113d 00f2 693b ac66 8bbd
00000140: d8a5 4a3d ec65 403d 9ae1 a03d f0cd 343c
00000150: 58a3 7fbd 8021 fe3d d2d9 bfbd 947b debd
00000160: 407d bfbc 885f c5bd 60e2 41bd 408e c9bc
00000170: 30ad 493d 2c0b e33d 30af 953d ba0e fabd
00000180: ac1c d83d 2489 983d dabb 9fbd 9855 7b3d
00000190: 50c9 6cbd c289 8ebd 8ad7 d8bd 24c5 00bd
000001a0: fe44 f73d 4074 82bc 9047 c9bc bc85 ab3d
000001b0: e0b8 49bd 54c7 8c3d 7ceb af3d 7aaa b8bd
000001c0: e410 dfbd b41a c5bd aaba 87bd a087 773d
000001d0: d07b ebbc 14f1 ca3d 58c9 a33c f89f 46bd
000001e0: b8fe 733d cc8b 2d3d f090 703d 70b4 263d
000001f0: f86c 813d d423 52bd fcc4 ddbd 002d ed3b
00000200: 104b ccbc b6ff d3bd 0826 b83c d82a e13d
00000210: 8cac e33d 60c7 92bc d4b0 d1bd e0c4 b7bb
00000220: 8265 a43d 804d 9aba 8ccd 82bd a0b4 3e3d
00000230: 26d7 e43d 9058 6cbd 805a c93a bc84 70bd
00000240: 20ca 3abc 5825 be3d c091 2abb 06d0 b93d
00000250: d4c7 e93d d0e3 c2bd c4c8 3d3d 8879 c1bc
00000260: 0c41 b0bd 98e9 ecbd ac60 f83d e06f f0bc
00000270: 18d4 cf3c e275 a53d f8c4 3a3d 484b 9c3d
00000280: 88b0 8b3d ae74 f2bd 40f0 97bd 6262 adbd
00000290: 4eac be3d a810 f33d 1c08 c4bd 6047 5c3d
000002a0: a42f cb3d f614 f53d 884c 6f3d e075 d4bc
000002b0: dc70 11bd c02b 2a3b a6d2 843d a05f 363d
000002c0: 0a4f af3d 5094 923c a091 e33d b060 d3bc
000002d0: face f33d 1cbe 9dbd 76e8 fe3d 50cc fe3d
000002e0: 68de 533d 7668 f73d 642b 3c3d 402d af3d
000002f0: fc5e 5b3d 72e7 dcbd 101d 243d 38ae f4bc
00000300: 7cc7 77bd b0f9 ffbd 5cda 373d 9abc c43d
00000310: 045b 46bd 00b4 68bb 08de cc3d aab5 d83d
00000320: 68ee a3bc c4b9 10bd 6c21 f0bd 522f f53d
00000330: 8436 7cbd 3eac bcbd 7035 18bc 6edf a03d
00000340: e8bd 453d e831 b03d a836 6ebd 402f f0bc
00000350: 1075 e13c 6098 c3bc 5022 1f3c 9428 d5bd
00000360: c48c 78bd c4da 61bd e4d1 6e3d 5e7f d8bd
00000370: e046 b73c 149e fd3d a080 86bc 50d5 f9bc
00000380: c819 0dbd 507b a9bc 3a33 afbd 024d 97bd
00000390: d208 9dbd b857 b5bd 94de 35bd 3436 c73d
000003a0: fc7b f53d 940f 59bd a00d 163c d0ad 16bc
000003b0: fc8b 123d 00f8 cf3b d29c cc3d 9698 fdbd
000003c0: a041 293c 00e3 a63b fcf2 b7bd d05c c43c
000003d0: 6cef bcbd 6059 3b3d 44ae fabd e09a 1abd
000003e0: d09b 113d d8e4 393d dc0f 3f3d 705f 523d
000003f0: 88bc b2bc 502f 133c fac2 bb3d 8c91 72bd

fc3.weight f4 [2, 256]
-0.04043213 0.08287548 -0.09677296 -0.005638965 -0.07685436 0.21245058 -0.010937573 0.10948705
0.07204722 0.08331453 -0.015809594 0.058118075 0.12119442 -0.15242906 0.01801089 0.15733482
0.21404219 0.089283496 -0.018337948 -0.09717149 -0.030954529 -0.13937038 0.004709708 -0.10959896
0.02283717 0.10883448 0.03997079 -0.18366192 0.015820188 -0.025118453 0.12430058 -0.18497442
0.07515639 -0.049568236 -0.051180314 -0.015327664 0.13359119 0.029017061 -0.021625524 -0.05044819
0.17158072 0.03754599 0.04270869 -0.0930245 -0.1273959 0.002942433 0.07457298 0.012983899
-0.075139515 -0.018830957 0.072160915 0.08094026 0.010769994 -0.029865151 0.066085294 0.089395784
-0.04643476 0.011515829 0.046618912 0.10763202 0.15610702 -0.077154465 -0.036368992 -0.008219822
0.05356848 0.08402876 0.10070198 0.051421314 0.01916281 -0.005982835 -0.052225765 -0.052608736
-0.075716175 -0.08528073 -0.13918366 0.042351525 0.0040250686 -0.051938828 0.07993929 -0.047999907
-0.08527492 -0.060173403 -0.052045833 0.0019375831 0.046920564 0.10234194 0.021144059 0.19906294
-0.09683471 -0.26371798 0.1451592 0.15821885 -0.15343638 -0.010506897 0.06024608 -0.009983339
0.11334761 0.030622557 0.07336444 -0.16064344 -0.20177536 -0.04971911 0.08361925 0.11782103
0.010638779 0.08081233 -0.011244504 0.14252377 -0.14916788 -0.010190873 0.051513225 -0.029745901
-0.02559268 -0.024949053 -0.067655064 0.14076409 0.08659365 0.25587723 0.032853965 -0.043160718
0.08004346 -0.09111076 -0.0283139 -0.10868032 0.08132021 -0.11667901 0.19734585 0.09467857
0.09591359 0.062171638 -0.1142733 -0.16911013 0.0055915355 0.048393384 0.03492773 -0.022648469
0.022125011 -0.17312227 -0.040052053 -0.03728297 0.011540045 -0.02620194 0.093675606 0.07069114
0.024138859 0.024920462 -0.11119318 0.1256486 0.017259484 -0.114657186 -0.021192688 -0.15897618
-0.0061730267 0.043323938 -0.055125047 0.2860303 -0.019360876 0.028697893 -0.06594237 0.06536399
-0.055558648 0.11079736 0.08140501 -0.19421855 0.04784548 -0.014136456 -0.1303685 -0.08558252
-0.061769504 0.025932938 -0.10492474 0.049306285 0.010878514 -0.058656037 -0.010946572 -0.0995526
0.02700657 0.097128555 0.06604814 0.14741442 0.1001815 -0.05051711 -0.031876963 0.076912515
0.11547523 0.030820025 -0.017137153 -0.0859231 0.0079480605 -0.022240749 -0.034079533 -0.0777009
-0.12593763 0.033731118 0.017319707 0.048643876 0.010002958 0.089021765 0.004352967 -0.026739767
-0.011454633 0.16163467 -0.03803438 -0.098993555 0.19491543 0.11396741 -0.012985274 -0.044021506
-0.11233898 0.049548015 0.019795608 -0.0088559585 -0.017371824 0.014915056 0.15889792 -0.05460126
-0.09371819 0.05820642 0.023490118 0.14859764 -0.07688058 0.0592066 0.1004565 -0.003572857
0.1721686 -0.06257973 0.11077815 0.1202484 -0.048325725 -0.09139179 -0.01150698 0.029804438
0.13777871 0.03801043 -0.0020184703 -0.017394878 -0.025212396 0.0467445 -0.19100979 0.11634773
0.063108705 0.16177382 0.05322454 0.15651034 -0.08433701 -0.012123051 -0.040517233 -0.1840515
-0.014008418 -0.011238675 0.008532821 -0.02223884 -0.009791733 0.12355127 -0.09979226 -0.004606364
00000000: 299c 25bd 9fba a93d e730 c6bd 11c7 b8bb
00000010: d265 9dbd a58c 593e 8233 33bc bf3a e03d
00000020: 7e8d 933d cfa0 aa3d 1f83 81bc 380d 6e3d
00000030: c834 f83d 5d16 1cbe 938b 933c 611c 213e
00000040: e02d 5b3e 44da b63d 7739 96bc d901 c7bd
00000050: 5a94 fdbc 1cb7 0ebe e553 9a3b 6b75 e0bd
00000060: 0415 bb3c 9de4 de3d 69b8 233d df11 3cbe
00000070: 5799 813c 37c5 cdbc 4d91 fe3d ef69 3dbe
00000080: 98eb 993d 1008 4bbd 73a2 51bd e220 7bbc
00000090: 21cc 083e 30b5 ed3c 0328 b1bc c3a2 4ebd
000000a0: dbb2 2f3e d3c9 193d 4fef 2e3d a183 bebd
000000b0: 1274 02be d6d5 403b b8b9 983d 6bba 543c
000000c0: bfe2 99bd 6143 9abc 1ac9 933d 02c4 a53d
000000d0: a174 303c c3a7 f4bc ba57 873d 2315 b73d
000000e0: 6032 3ebd e3ac 3c3c 79f3 3e3d 2d6e dc3d
000000f0: 85da 1f3e 2903 9ebd a7f7 14bd 6fac 06bc
00000100: 9f6a 5b3d 4517 ac3d d73c ce3d 289f 523d
00000110: 53fb 9c3c a80b c4bb afea 55bd 427c 57bd
00000120: 1511 9bbd aaa7 aebd 2986 0ebe cb78 2d3d
00000130: b9e4 833b cfbd 54bd 36b7 a33d 8d9b 44bd
00000140: 9ea4 aebd 6378 76bd 032e 55bd 80f6 fd3a
00000150: c72f 403d a798 d13d 4e36 ad3c 28d7 4b3e
00000160: 4751 c6bd 0b06 87be 9da4 143e 1f04 223e
00000170: 6d1e 1dbe 1f25 2cbc 98c4 763d 2991 23bc
00000180: cb22 e83d 28dc fa3c 1840 963d b77f 24be
00000190: 339e 4ebe 44a6 4bbd 9240 ab3d 274c f13d
000001a0: 464e 2e3c ef80 a53d de3a 38bc c0f1 113e
000001b0: 77bf 18be 9ff7 26bc 88ff 523d adad f3bc
000001c0: bda7 d1bc f561 ccbc bd8e 8abd 7624 103e
000001d0: 0358 b13d 5702 833e e191 063d 4bc9 30bd
000001e0: d3ed a33d 4798 babd 8df2 e7bc ca93 debd
000001f0: 368b a63d 68f5 eebd 0815 4a3e d7e6 c13d
00000200: 586e c43d b0a7 7e3d 1f08 eabd 352b 2dbe
00000210: 3339 b73b 2438 463d 6110 0f3d 4889 b9bc
00000220: 833f b53c f746 31be 9f0d 24bd 07b6 18bd
00000230: 7512 3d3c 73a5 d6bc ffd8 bf3d 84c6 903d
00000240: dbbe c53c ff25 cc3c 40b9 e3bd 07aa 003e
00000250: c363 8d3c 63d1 eabd 4a9c adbc a7ca 22be
00000260: 1a47 cabb 7174 313d cdca 61bd 9072 923e
00000270: b39a 9ebc d817 eb3c cb0c 87bd 8edd 853d
00000280: 7791 63bd bae9 e23d abb7 a63d 3ae1 46be
00000290: 9ff9 433d 989c 67bc 527f 05be e345 afbd
000002a0: 0502 7dbd 5071 d43c c8e2 d6bd 63f5 493d
000002b0: cb3b 323c 5041 70bd 4059 33bc 3ce2 cbbd
000002c0: e23c dd3c 56eb c63d 3f44 873d cef3 163e
000002d0: f52b cd3d 07eb 4ebd 6b91 02bd 4f84 9d3d
000002e0: 477e ec3d 477a fc3c 3763 8cbc 73f8 afbd
000002f0: 9538 023c 3b32 b6bc fb96 0bbd a621 9fbd
00000300: cbf5 00be a429 0a3d 0fe2 8d3c cd3e 473d
00000310: 72e3 233c 0b51 b63d 55a3 8e3b 5b0d dbbc
00000320: 37ac 3bbc 8f83 253e f0c9 1bbd 22bd cabd
00000330: e997 473e bf67 e93d 30c0 54bc e54f 34bd
00000340: fb11 e6bd dcf2 4a3d 662a a23c 9518 11bc
00000350: 5b4f 8ebc 475e 743c 23b6 223e 92a5 5fbd
00000360: 53ef bfbd db69 6e3d 596e c03c fb29 183e
00000370: 9173 9dbd 9f82 723d 23bc cd3d 9826 6abb
00000380: f74c 303e cd29 80bd a8df e23d cb44 f63d
00000390: 32f1 45bd 9e2b bbbd c687 3cbc 7028 f43c
000003a0: dd15 0d3e d3b0 1b3d 5048 04bb b47f 8ebc
000003b0: 3a8a cebc 2977 3f3d 1298 43be b847 ee3d
000003c0: 233f 813d 09a8 253e fa01 5a3d 3f44 203e
000003d0: e2b8 acbd c39f 46bc 66f5 25bd ff77 3cbe
000003e0: 9083 65bc 6b22 38bc 3fcd 0b3c 3a2e b6bc
000003f0: 816d 20bc 7308 fd3d e25f ccbd fbf0 96bb

fc3.bias f4 [2]
-0.053378314 0.029332854
00000000: 38a3 5abd 744b f03c
