examples/carla_scenic/Carla_Challenge/agent_scalar/policy_net_1400.pt (torch, 96407 bytes, 6 tensors)

fc1.weight f4 [64, 8]
00000000: 475b 2f3f e01a b1be 712b 6cbf 38b7 b4bd
00000010: 6564 babc f784 72bf e318 d53e 2a78 86be
00000020: ebef 6dbf aa97 47bf 073a aabe 9963 9b3d
00000030: ac94 1e3e 7792 16c0 bd6f d3be f190 81be
00000040: 7cb8 76bd 093b 0fbd 8193 80bd 695c 72bb
00000050: b53d 553b 2ac4 77be 8c0a 26be 4613 a1bd
00000060: 771a 09bf 246f c3bf d80c ea3f 98ba 9cbd
00000070: a030 963d b5d6 10c0 87cb 23bc 1ca7 123e
00000080: 16fd 663f 70a9 f4be 8c7a 55bf fcac f8bc
00000090: 9969 ae3c d151 6240 abaf 40be 2c73 bdbe
000000a0: 9ed4 c33d 23a2 7e3c ab0f 16be d078 fb3b
000000b0: a12a d3bb 4c90 73bd 10bf 11bd 58ca adbe
000000c0: 7fd3 88bd e074 72bf 6628 fdbe 11d3 e7bd
000000d0: 3a2a 253e 0f6d 463f 2b2b 193e 4b48 99bc
000000e0: 4835 b63f 5efe 213d 9def e13c 532a 103e
000000f0: a1d4 a53d 9931 a13f 27d9 36bf a918 e6be
00000100: 5e9c 93be fcac a93e db03 78bd b8b8 0a3e
00000110: 3178 6f3c e221 46c0 b9b4 1d3f bada 0dbf
00000120: adf8 ba3f c1d8 98bf 6c43 14bf b987 9cbd
00000130: 21ad 2f3a 8017 983f 537e 393d 3c20 853e
00000140: bb8c e83d 2316 6e3d c1d4 55bd ec77 0cbd
00000150: 3854 093d b849 1dbf a3cf d7bd 96e0 18bf
00000160: 59df ac3d 59c5 07bc b1f7 58be eea6 983b
00000170: bdc4 1abc 1ebb c73d d453 39bd 5efe 6dbe
00000180: 2462 d9bf 1a8d ba3e 1526 1a3e ed53 023d
00000190: cd95 363d babb a5bf a30e 62be da5e a4be
000001a0: a4d9 5c3f a51b dabe ade8 d5bf a6c4 1dbc
000001b0: 5617 febd f20a 553e 2409 83bf 9926 1cbd
000001c0: 1b04 af3d be3c 29be 7dab c9be 5bde 9ebc
000001d0: 329a a83c 79b6 8b3e aaaf e6be 2b16 7abe
000001e0: d946 093e 4953 0ebe 7f9e 5ebe 97a4 913b
000001f0: 77ae 89bc 77c3 01be 966e 74bc 5517 13be
00000200: cc68 0440 bfc6 59be 75d4 c13e 71e9 3a3b
00000210: 9898 323c df95 06c0 d89a 9a3c 2c84 b6bd
00000220: 7373 8b3f 830f e03e 82dd cdbe 7bc4 66bd
00000230: b582 c63c aae9 813f 5deb b0bf 2ca6 d13c
00000240: d5e7 6abd 044d 92bd c126 68be 03fc 83bb
00000250: 6dde c53c 46ab e7be 734f 00bf c23c 43be
00000260: a3a1 f6be 4c32 823e 932f a2bd de68 7d3d
00000270: c8c2 a1bd 3d3f 89c0 1844 bcbd 1951 b53c
00000280: 158a 2bbf 1c0c 80bf 824b 223e 0835 1b3d
00000290: d4df a3bc 38af 883f 304d dc3e a0cd 69bd
000002a0: d942 3dbe b065 64bd 0f64 cfbf a9ee 5e3d
000002b0: 864d 0dbc d808 d5c0 d8ec 9e3e acfb c1bd
000002c0: a215 babe 7cc5 9abe 3912 06bf 54d6 1bbc
000002d0: d4a1 343e d600 7440 0ad2 d03d c7e5 6abe
000002e0: ee42 1f3e 0470 f0bd be75 94be 9a3e 3fbc
000002f0: 937d 183b 0bac 053e 404c 253c b4a0 34be
00000300: 86c9 bb3e 7676 9ebe 6af1 9abd 1957 043d
00000310: 018b debb 172e 9abf 36bc bb3b ff61 edbe
00000320: 203a 033e 7b0f c5bd b0de 6fbe c11e 28bc
00000330: d79b d53b 94b3 003d f8e9 d33c 1d77 2fbe
00000340: 65fb bf3f 7de8 52bf e955 96bf 5efc a7bd
00000350: 1930 c4bb c4e5 8b40 8e5e 003e 5383 90bd
00000360: 9f0a 163e a4aa b0be d724 7fbf f15d 62bd
00000370: 8b15 b03b 1f2c 9fbf b61a 85c0 b895 71be
00000380: 777e f83f c6c6 07bf 2151 983f 10f5 233d
00000390: a51c 71bd 2748 803e 6d10 b4bd 4534 393a
000003a0: bd09 513c c79f 11be c248 12be b891 2fba
000003b0: 4b57 753c 771d 74bc d2b8 19bd 7658 39be
000003c0: 9693 883d 5d20 8b3e 570d 1fbe 6d27 0e3c
000003d0: 1ce8 4b3c 1bec 263f 6d4d 1dbf 846e e0be
000003e0: 2404 4bbf b735 afbf caee 7ec0 2248 9b3d
000003f0: 575b b3bc 8b3f 8f3e 2e2c d73d 5d5c 493e
0.68498653 -0.34590816 -0.92253786 -0.08824009 -0.02275295 -0.9473414 0.4162055 -0.26263553
-0.9294421 -0.77965796 -0.33247396 0.07587356 0.15486401 -2.3526895 -0.41296187 -0.25305894
-0.06023453 -0.03496841 -0.06278134 -0.003698135 0.0032538 -0.24195924 -0.16214961 -0.07865004
-0.5355601 -1.5268292 1.828517 -0.076527774 0.07333493 -2.2631047 -0.009997255 0.1432156
0.9022993 -0.4778552 -0.83390117 -0.030355923 0.021290587 3.5362437 -0.18817012 -0.37001932
0.09562038 0.015541586 -0.14654414 0.007674314 -0.0064442907 -0.059463784 -0.035582602 -0.3394344
-0.06680965 -0.9470959 -0.49444884 -0.113195546 0.1612939 0.7751016 0.14957874 -0.01871123
1.423501 0.039549224 0.027580077 0.14078645 0.08097196 1.2593261 -0.714251 -0.4494069
-0.28830236 0.3313979 -0.06055055 0.13547027 0.014616058 -3.095818 0.61603886 -0.55411875
1.460714 -1.1941148 -0.5791538 -0.076430745 0.00067015184 1.1882172 0.045286488 0.26001155
0.11354967 0.05812658 -0.05220485 -0.034294054 0.033527583 -0.6144061 -0.105376504 -0.5971769
0.08441038 -0.008286797 -0.21188237 0.0046585714 -0.00944632 0.09752487 -0.04524596 -0.23241565
-1.6983075 0.36435777 0.1505359 0.03181832 0.044576455 -1.2947915 -0.22075896 -0.32103616
0.86269593 -0.42599216 -1.6711632 -0.009629404 -0.12406795 0.20804957 -1.0237164 -0.038122747
0.08545705 -0.16527078 -0.39388648 -0.019393137 0.020581339 0.27287653 -0.45055896 -0.24422519
0.13405932 -0.13898958 -0.21740149 0.0044446695 -0.016806824 -0.1267222 -0.014918944 -0.14364369
2.0688963 -0.21267222 0.37857404 0.002852049 0.010900639 -2.1028974 0.018872663 -0.089119285
1.0894607 0.43761835 -0.4020806 -0.056339722 0.024232248 1.0149434 -1.3821827 0.025591932
-0.05735 -0.07143596 -0.22671033 -0.004027845 0.024153912 -0.4524786 -0.5012123 -0.19066146
-0.48170194 0.25428998 -0.0791923 0.061867587 -0.0789848 -4.2889695 -0.09192675 0.022133397
-0.6700757 -1.0003695 0.15849116 0.03789237 -0.02000419 1.0678473 0.4302764 -0.057080865
-0.18482532 -0.05576104 -1.620241 0.054426823 -0.00862444 -6.6573296 0.31040072 -0.09471831
-0.3634463 -0.30228794 -0.52371556 -0.009511549 0.17639858 3.812551 0.10196312 -0.22939216
0.15552875 -0.11740115 -0.2899608 -0.01167264 0.0023268207 0.1305391 0.01008898 -0.17639428
0.36677188 -0.30949754 -0.07565577 0.032309625 -0.006791473 -1.2045316 0.0057292236 -0.46363828
0.12815142 -0.09622093 -0.23424792 -0.010261239 0.0065188217 0.03142126 0.025868401 -0.17135282
1.4998595 -0.82386 -1.1744968 -0.08202432 -0.005987179 4.3717976 0.1253607 -0.07056298
0.14652489 -0.34505188 -0.9966559 -0.05526537 0.005373662 -1.243534 -4.1595106 -0.2359227
1.9413594 -0.5303768 1.1899759 0.04002863 -0.05886521 0.25055048 -0.087921955 0.00070649787
0.012758669 -0.14221106 -0.14285567 -0.0006697434 0.014974426 -0.014899603 -0.037529774 -0.18100151
0.06668775 0.2717313 -0.15532432 0.008676392 0.012445476 0.6520402 -0.6144627 -0.43834317
-0.79303193 -1.3688267 -3.9833245 0.075821176 -0.02189414 0.27978167 0.105064735 0.1966414

fc1.bias f4 [64]
00000000: d134 a3be e27a d9be 0c5a fcbd be16 7f3e
00000010: 164f b0be dc67 c4be 8b6c b4be bab7 93be
00000020: 3007 13bf 40e1 023f adfb 45bd 9bb4 933d
00000030: 7e26 17bf 76cf 1ebe 7420 fbbd 35cb d0be
00000040: 32e0 843e 1afd 133e 7375 21be 2a3a 803e
00000050: b9bf 683e 4bc5 a9bd e575 5b3c df39 8b3c
00000060: 42b3 403d 3e8d e2bd a6bf 383e 8b88 82be
00000070: 152c 84be aadb e9bd eaaa 00bf d0ec 7a3e
00000080: 9114 8e3e b345 14bf 2340 70be d54b abbe
00000090: c392 80bf 151e 633d 85d1 e3be bb5c 603e
000000a0: 61e9 61bf 83b2 a3be ddc6 07bf 3d66 7fbe
000000b0: fbb7 03be 35e6 a43c 18aa 29be 4c5c fbbd
000000c0: 8659 09be 72c8 00bc 7301 46be 75b6 28be
000000d0: 9541 6ebe 10da 7dbe e99f 693e 304b 623e
000000e0: ac26 0f3b 5470 453e 2858 1dbf 06ce 6fbe
000000f0: e6a5 f8be 28b1 753e f7ab a2be 8f65 3ebe
-0.31876233 -0.42476565 -0.123218626 0.24911019 -0.34435338 -0.38360488 -0.35239062 -0.2885111
-0.5743284 0.51124954 -0.04833572 0.07212182 -0.5904311 -0.15508828 -0.12262049 -0.40780035
0.25952297 0.1445202 -0.1576746 0.25044376 0.22729386 -0.08289584 0.013394807 0.016995369
0.047045954 -0.11062096 0.18041858 -0.254948 -0.25814882 -0.11418851 -0.50260794 0.245044
0.27750066 -0.5791885 -0.23461966 -0.33456293 -1.0044788 0.05544861 -0.44495788 0.21910374
-0.8824673 -0.3197213 -0.53037816 -0.24941345 -0.12863152 0.020129303 -0.16568792 -0.122734636
-0.13413057 -0.00786029 -0.1933649 -0.16475852 -0.23267205 -0.24790215 0.22814907 0.22098994
0.0021843119 0.19281131 -0.6146264 -0.23418435 -0.4856407 0.23993361 -0.31771824 -0.18593429

fc2.weight f4 [256, 64]
00000000: be27 9bbd df6c 75be 53ae 87bd c7eb 0bbf
00000010: fb4e 07bf 8d6c 5dbc a08d 59be 2dd5 49be
00000020: dd4b 963d 6cda 8abe 02a0 313d 5cdf b53d
00000030: 0119 26be b5c7 48bf e00f afbd 11c6 2fbe
00000040: f607 55be 58ce 69be 51e1 edbe 4e67 1d3e
00000050: a32c ac3d 691c 7b3e 7c0f f0bd 0116 25be
00000060: 3b74 103d 4d5a 023e e188 15bf 5790 58bf
00000070: 9a06 eabe 9223 9abd f64f acbe 797e 503f
00000080: 1f4e 873d aa42 e2bb 3454 b9be ddc1 5a3e
00000090: 9f26 19bf 9d87 57be 8f29 1d3e fc33 70be
000000a0: 2da5 ad3e af9e 19be e40d cabe a400 ad3c
000000b0: 0bc6 bcbe 1fa8 68bd ffb8 40bd 34d1 073e
000000c0: 7a52 56bd 82fe 483f 5f60 b2bd 7579 d83c
000000d0: f50a d3bd 9fb0 82be b730 09be 251c 82be
000000e0: fc0f 40be bb83 0f3e 5aa5 18bd 703b 463e
000000f0: 6985 4dbc d36f cc3b 7b55 11bf 0cbd 11bf
00000100: cf8a 42bd 0104 13be 418c c53d 4d15 0a3d
00000110: f224 cf3d a4d9 603d 75d1 03be b656 44be
00000120: 2bf7 06be 295a 943d 676f 293d 0a25 1ebe
00000130: 8c0f d63b 3634 51be 56f9 d2bc cba9 f0b9
00000140: 3f09 92be bdb3 58bc f7db 2ebd 4357 8fbd
00000150: a8cd b7bc 3ec5 3abf 024b cebd ca68 0d3e
00000160: c27f 9ebd ba3f 0c3d b445 c9be d399 2c3e
00000170: fd69 acbd 3185 103e 8ebe 543e 2fc9 1f3e
00000180: b656 d6bc 035a 0cbd f8f0 8dbe 1cf2 fc3c
00000190: 41a5 9cbd 0eca 193e f678 e43c 076d d4bb
000001a0: f156 9e3c 7488 443e 9e95 20be 209f d23d
000001b0: ba1b fbbd 5fbb 9c3d 6a24 7abd 2a6b e03d
000001c0: 997c b73d b785 bdbb f666 21be dea7 1abc
000001d0: d248 b2bd 99ee d8bd d594 52bd e4ec 96be
000001e0: b460 993e 0086 e33c d3cd 1dbe d489 96bd
000001f0: 78bc 78bd 5b60 2b3d be1a 833d f168 79bd
00000200: a959 4bbe 0c1c d83d bd22 903d c765 41bd
00000210: 5b1c 8f3d af00 e8bd 273f abbd b23b a7bd
00000220: a7f5 22be 820c 14bd 7cdc 883d 7209 0c3d
00000230: d638 12bd 9b15 b0bd 1de4 093c e773 d23d
00000240: 2e9c a6be 42a2 d2bd 1ba9 d53d 4b9a 4abd
00000250: 3275 84be b435 8fbd 4920 2dbd 092c bd3d
00000260: e4c1 69bc 121e f03d 7d2f 16be eda8 e33c
00000270: d44f 81bd e927 7abd 99a4 5bbd 1dd1 afbd
00000280: b641 f5bd 73d2 44bd d2e6 d03c 8220 2e3d
00000290: 165a 26be 36ac 5a3e f091 2e3d 23d5 75bd
000002a0: 8f4b fcbd 7f1f c53b 0bc7 2bbe 57f3 423c
000002b0: 8319 db3c b5a0 6a3d a997 3ebc 6271 32be
000002c0: 28b7 223e dd6d a03d bb1f c53c cc25 bb3c
000002d0: e343 0fbe e5bd 03bd 8e0b 373c eb5a b9be
000002e0: 018c 5ebe 82f8 233e 64ce 4abe d5cd 4cbe
000002f0: b342 40be 231c 38be eefd 4abe 5237 68bd
00000300: e0cb dbbd 12c9 adbd d1be 24bd 60da 18bc
00000310: 21d8 03be 308e ecbd 6e81 75be b127 84bc
00000320: e4ca 9bbe 18c2 c7bd 742f 97be d446 8abe
00000330: 48a2 b83a 63ab e23c ec55 20be 4320 673d
00000340: 7f8b 86be 751e 31be 6377 fb3d 2aae d43c
00000350: 68a5 b8bd f7c5 18be b523 4bbe 5c2c 32bd
00000360: 82b9 02be 75ce 78be a92e e33d af9d 9cbd
00000370: 4bdb 94be 307d 203c 3848 01be 21ba b1be
00000380: 0b5b f03d 2be8 1ebd 35fc 94bc 814d 38bd
00000390: d28b db3c 1f2b 4abd 4906 d33d 94c4 f5bc
000003a0: 8f4f 2fbd d7aa 03be 1cc4 cfbd 2263 1d3e
000003b0: 05aa 7fbd 876f 0cbc 8c44 a7bd 45ef 10be
000003c0: 716d 83bc 712c 44be b568 b5bd cd69 3d3d
000003d0: c8f1 b4bc d506 3fbe dbdb 6dbd 7549 f8bd
000003e0: ed5a b33c e940 253d c69e 70be e8fc 21be
000003f0: 6e98 b5bc a6ab 8abc 617c 82be 4ca8 4bbd
-0.075759396 -0.23967312 -0.066250466 -0.5465664 -0.5285489 -0.01351465 -0.21245432 -0.19710226
0.073386885 -0.27119768 0.043365486 0.08880493 -0.16220476 -0.7842973 -0.0854795 -0.171654
-0.20803818 -0.2283262 -0.46460965 0.15371439 0.08406951 0.24522556 -0.117217034 -0.16121675
0.035267096 0.1272976 -0.58411986 -0.84595245 -0.45708162 -0.07526316 -0.33654755 0.8144298
0.06606697 -0.0069049196 -0.36197054 0.21363015 -0.59824556 -0.21047826 0.15347885 -0.2345733
0.33915082 -0.15001939 -0.39463723 0.02111847 -0.36869845 -0.056800958 -0.047051426 0.13263398
-0.05232475 0.7851335 -0.087097876 0.026425103 -0.10304824 -0.25525376 -0.1339749 -0.25412098
-0.18756098 0.14015095 -0.037267067 0.19358611 -0.0125440145 0.0062389164 -0.5677106 -0.5692909
-0.04749566 -0.14356996 0.09645892 0.03371172 0.10114469 0.05489506 -0.1287287 -0.19173703
-0.13180225 0.07243759 0.041366007 -0.15443817 0.006532615 -0.20430073 -0.025753658 -0.00045902873
-0.2852268 -0.013226447 -0.042690244 -0.06999066 -0.022436932 -0.7295722 -0.100729 0.13809505
-0.077392116 0.034240462 -0.39310992 0.16855554 -0.08418653 0.14113308 0.20775816 0.15604089
-0.026164394 -0.03426553 -0.27722907 0.030877165 -0.07648707 0.15018484 0.02788971 -0.0064827236
0.019328566 0.19192678 -0.15682074 0.10284257 -0.12261148 0.07652926 -0.061069883 0.1095794
0.08959312 -0.0057837623 -0.15761933 -0.009439437 -0.087052956 -0.10592384 -0.05141147 -0.29477608
0.2995659 0.027773857 -0.15410547 -0.073505074 -0.060726613 0.04183994 0.06401585 -0.060891096
-0.19858421 0.105522245 0.07037876 -0.047216203 0.0698783 -0.113282554 -0.08361655 -0.08165683
-0.15914021 -0.03614474 0.06682679 0.034188695 -0.035698734 -0.08597871 0.008416203 0.10276013
-0.3254103 -0.102848545 0.10432645 -0.04946355 -0.25870663 -0.06992665 -0.042267118 0.09236915
-0.0142674185 0.117244855 -0.14666553 0.027790511 -0.06314054 -0.061073218 -0.05362377 -0.08584807
-0.11975424 -0.048052263 0.025500689 0.04251147 -0.16245303 0.21354756 0.042619646 -0.060017716
-0.12319099 0.0060157175 -0.16775148 0.011898837 0.026745563 0.05728217 -0.011632838 -0.17426065
0.15890181 0.07833455 0.024062982 0.022845171 -0.1399074 -0.03216352 0.011172188 -0.36202177
-0.21733095 0.16012767 -0.19805294 -0.20000394 -0.18775444 -0.17979483 -0.19823429 -0.056693383
-0.107322454 -0.08485617 -0.04022104 -0.009329408 -0.12875415 -0.115505576 -0.23975155 -0.016132208
-0.3042823 -0.09753817 -0.2952839 -0.27007163 0.001408645 0.027669614 -0.15657777 0.05642725
-0.26278302 -0.17296775 0.122786306 0.025961954 -0.09015924 -0.14919268 -0.1983784 -0.043499336
-0.12766078 -0.24297507 0.11092884 -0.07647263 -0.29073557 0.009795472 -0.12625206 -0.34712318
0.11736115 -0.03879563 -0.018186668 -0.04499579 0.02680007 -0.04935753 0.10303933 -0.030000962
-0.042800482 -0.12858139 -0.10144827 0.15369847 -0.062418003 -0.008571512 -0.08167371 -0.14153774
-0.016043397 -0.19157578 -0.08857862 0.046243478 -0.022087947 -0.1865495 -0.058071 -0.12123386
0.021893943 0.040345106 -0.23498067 -0.15819132 -0.02216741 -0.016927551 -0.2548552 -0.049721047

fc2.bias f4 [256]
00000000: d41d 8cbe c5d7 b1be 497f 74be 5dc8 99bc
00000010: c17e 9ebe 7cb0 debe fee7 dcbc c1a1 31be
00000020: adba 3abf 4d9b 44be 8657 d63e 881e 21bc
00000030: d852 35be 2cd8 bdbd 20c0 223e 1dfd 27be
00000040: 653d 66be ae6e 8dbd 0b5e 68bc 314d d8be
00000050: 969d 4bbb b821 d6be f457 5dbe c84a ddbe
00000060: 5ecc c23d 66ca 36be 7869 95bd 723e 46be
00000070: c162 89bd 74ea 43be fb6c 90be 1d75 3dbe
00000080: 52b0 02be c02b 64bf 14be 73be 8e79 0bbd
00000090: c1c6 10be f103 41bf 497a f63e 704d adbd
000000a0: 2ebf 3a3f 68af 5fbe 5d72 1cbf 6a39 d1be
000000b0: 76a9 ed3c a9e7 013c 6e2a c73e 3d87 9ebe
000000c0: 0f7a 9bbe 49c4 a1be fd4d babb 0c77 2fbe
000000d0: e970 72be 5d19 53bd df86 58be c19c 8abd
000000e0: c317 51bc 7381 883e a1af b2bd b8c3 9a3e
000000f0: 17ce 3bbe 9e6b 41be c39a 81be c8de 0c3f
00000100: aee8 ddbe a2ff adbe c6b7 01bf 9b65 d3bd
00000110: 2772 57be cb37 a0bd f7df 9fbd d903 12bf
00000120: 50be 32be bcf1 553f 478e 90be 7896 74be
00000130: 7e8e 0dbe 69a7 0d3c 7396 70be f84d 913e
00000140: ea3b 4ebd 2262 9dbe fec3 e4bd e381 16be
00000150: 7c18 08be fb07 69be ea9f 98be 59e4 d8bd
00000160: 60e2 23bf eb08 d6bd 8320 2c3f 4a6c 52be
00000170: 86f6 8ebe 7e85 80be 290e 21be 6c74 79be
00000180: 581b 38be 1ad5 62be 53c9 b6be 0d73 16bf
00000190: 356a 51be b3c2 04be 9eca 16be b4e8 22be
000001a0: cf56 b33d d240 44be b462 90be 7ec0 ae3e
000001b0: e3eb 93bd fc0e 3f3e 7862 86be e576 2fbe
000001c0: af56 d5be 3ec5 b7ba cc3f acbe 7c7b 81be
000001d0: 654a 64be 7ad1 91be bc32 7cbe 9461 6fbe
000001e0: 0f5f 003d b4d7 98be 581f 1ebe ff2a 48be
000001f0: dc36 64be b390 97be 08c4 853e b081 01be
00000200: 4d6a b3bd 539a 2fbe fbc6 0fbe e1fa 9f3d
00000210: 24ee eebd 19a8 bbbe aa04 d0be 63cf 853d
00000220: 1fee e2be 9af1 56be d0bd 84bd f1c5 97be
00000230: 79a1 4cbe 3fc3 40be d430 95be a8a9 86be
00000240: dccd 34be 612f 77be 4a3d 803e 5c3b 33be
00000250: 27d9 4abe 2237 15bd 3920 85be 09ff f8bd
00000260: e94e 1f3e 20bf 4f3f d129 e93c 2fbe 00bc
00000270: 8768 31be 79b6 0cbe 6bcd b1be 0858 4e3c
00000280: e750 8cbe 1ddb 7abd 50a9 0bbd 714f 78be
00000290: 6037 31bf 12cb 36be 5f04 b4be da16 2fbe
000002a0: b64d 1dbe 9fc2 26bf f222 cebd 12b4 e4be
000002b0: 4a5b 47bd d183 1fbd 9556 21be 4d52 e2be
000002c0: d05e ef3d 47fd cdbe 4351 113f 2dad 63be
000002d0: fecf 10be c5ae 24be 515c 8abe dd28 28be
000002e0: e284 6abe 75c5 fbbd 791f 63be 8e1f febd
000002f0: 1740 a4be f8d4 06bf 961b 79be 48f0 82be
00000300: e2f3 883e b646 e4be 81d7 96bd a01f 4bbe
00000310: 53ac 7ebe f770 34be 5021 72be bd35 64be
00000320: 13af b8be 342e fd3d 56a1 81be 1265 44be
00000330: a06b 5ebe 1bd3 85be e9f1 02bf 9866 41be
00000340: 9371 5c3f 8eac 9fbe a160 85be 55fd aabe
00000350: 2e67 7fbe 6292 99be 50b0 c0bd 283d aebe
00000360: 256a 143d 75ce 9abe 539a 853c 6213 b23d
00000370: 33e1 a93e e137 403e f6b2 f8be d3fb 60be
00000380: 9dee 49bf 2451 9abe 9fe9 77be b651 10be
00000390: 355f 943d 971f 64be 3475 433c 3a5c 67be
000003a0: 16eb 93be 661f 0e3c 717c 38be 0a83 e8bd
000003b0: 05f2 7ebe 6ec9 6ebd e61b e1bd b073 eabd
000003c0: abf6 29bf 11ca 9bbe 2fb6 8dbe 6158 b7bd
000003d0: be75 23bc 6e60 6cbd 6c40 79be b596 75be
000003e0: 5b1e e7be bf2d 0ebf 919e dbbe bdd3 29be
000003f0: cc54 1ebd 861b 08be eea6 c3bd 6842 b53d
-0.27366507 -0.34734932 -0.2387668 -0.018772298 -0.3095608 -0.43494022 -0.026966091 -0.1734686
-0.72941095 -0.19199868 0.4186365 -0.009833939 -0.17707384 -0.09269747 0.15893602 -0.16405149
-0.22484358 -0.06905876 -0.014182578 -0.42246392 -0.003106927 -0.418226 -0.21615583 -0.43221116
0.09511636 -0.17850646 -0.07295507 -0.19359758 -0.06708289 -0.19132406 -0.28208145 -0.18501706
-0.12762573 -0.8912926 -0.23802978 -0.03405147 -0.14138319 -0.7539664 0.4814017 -0.08462036
0.7294797 -0.21844256 -0.61112005 -0.40864116 0.02901147 0.007928767 0.3889956 -0.30962554
-0.3036656 -0.31595066 -0.0056855665 -0.17135257 -0.23675884 -0.05153786 -0.21145199 -0.0676818
-0.012762013 0.26661262 -0.08724905 0.30227447 -0.18340336 -0.18888709 -0.25313386 0.5502744
-0.43341583 -0.33984095 -0.5067104 -0.10322114 -0.2103964 -0.07823142 -0.0780639 -0.5703712
-0.17455411 0.8357198 -0.2823355 -0.23885524 -0.13823888 0.008645871 -0.23494892 0.28379798
-0.050350107 -0.30738932 -0.11170195 -0.14697985 -0.1329059 -0.2275695 -0.29809505 -0.10590429
-0.64017296 -0.1045092 0.6723711 -0.20549121 -0.27922457 -0.25101846 -0.15728058 -0.24360818
-0.17979181 -0.22151604 -0.35700473 -0.58769304 -0.20450671 -0.12964897 -0.1472573 -0.15909082
0.08756792 -0.19165352 -0.28200305 0.34131235 -0.07222726 0.1865806 -0.26247 -0.17135198
-0.41667697 -0.0014020575 -0.33642423 -0.25289524 -0.22294004 -0.2848013 -0.24628729 -0.23377067
0.031340655 -0.29852068 -0.15441644 -0.19547652 -0.22286552 -0.29602584 0.26126122 -0.12647128
-0.0876051 -0.17148714 -0.14040749 0.07811523 -0.116665155 -0.36651686 -0.40628558 0.065336965
-0.44322297 -0.20990601 -0.06481516 -0.29643205 -0.19983472 -0.1882448 -0.29138815 -0.26301312
-0.17656654 -0.24139167 0.2504676 -0.17503113 -0.198094 -0.036429532 -0.26001146 -0.12158019
0.15557446 0.8115101 0.028462322 -0.007857843 -0.1732503 -0.13741483 -0.34727034 0.0125942305
-0.27405474 -0.06124412 -0.034097016 -0.24249054 -0.6922512 -0.17850903 -0.35159585 -0.17098561
-0.15361676 -0.6514072 -0.10065259 -0.44668633 -0.048671044 -0.03894407 -0.15755685 -0.44203416
0.11688006 -0.40232298 0.5676462 -0.2223403 -0.14141843 -0.16082294 -0.27023557 -0.16421838
-0.22902253 -0.12293521 -0.22179975 -0.12408362 -0.32080147 -0.52668715 -0.2432693 -0.25573945
0.26748568 -0.44585198 -0.07365323 -0.19836283 -0.24870424 -0.17621218 -0.2364552 -0.22286125
-0.3607107 0.12362328 -0.25318402 -0.1917918 -0.21720743 -0.26137623 -0.51150376 -0.18886793
0.861108 -0.31186336 -0.26050285 -0.33396402 -0.24941704 -0.29994494 -0.09408629 -0.34031034
0.03623404 -0.3023564 0.01630894 0.08695103 0.33179626 0.18771316 -0.48574036 -0.21971063
-0.7887972 -0.3014003 -0.24210213 -0.1409367 0.07244722 -0.22277676 0.011929799 -0.22593775
-0.28890294 0.008674478 -0.1801622 -0.11353119 -0.2489701 -0.058297567 -0.10991649 -0.11447847
-0.6639201 -0.30427602 -0.27678058 -0.08952404 -0.009976802 -0.05770915 -0.24340981 -0.23983271
-0.45140347 -0.55538553 -0.42894414 -0.16584678 -0.038655087 -0.1329175 -0.09553324 0.088505566

fc3.weight f4 [25, 256]
00000000: bc38 183e 4cd4 c3bd 7103 5c3d ad0c 0abd
00000010: af86 20be 69ca f1bd 6ecc 08be 3a9b 53be
00000020: fd50 46be a266 02be b94a a33e 65e2 573e
00000030: e3c2 953b 86d4 243e 1800 543e 79e3 7abd
00000040: 128d 05be 3cc5 3c3d f40d 96bc 2e91 8fbd
00000050: 4e9c 96bd c026 943e 3df5 f63c 04d2 973c
00000060: b68a 053f dc3a 29be b6d8 fd3d f29c 063f
00000070: 5d63 9dbd 67b6 a1bd 2b5f 08be f957 193e
00000080: 5491 603e 435e c53b c921 68bd 88b0 4fbe
00000090: 6180 ffbc 472f 8c3e 2e59 d83e b00d 3d3d
000000a0: 1eb9 5c3e 6e10 603e f5db 60be 1a5b bbba
000000b0: 4d9d 01bf a8f4 21be 5a02 cf3e 42d5 60be
000000c0: 2b1c d03e c934 b4be 4188 1f3e 5713 fa3d
000000d0: 5379 e5bc 10e9 9dbd 02fe 1a3e 6277 61bb
000000e0: e5ed c83e 0a17 2b3f fea6 863e 84c2 123f
000000f0: f6c8 a1bd d83c a1ba f9a6 63be bccc 723e
00000100: c186 3c3d 31e0 53bd 1bf6 093d 16b1 de3d
00000110: 6d55 a63e 7e41 613e 313d d83e 42f3 8b3e
00000120: 4680 85be 9b60 dd3e 3afa 3f3e 6184 0c3f
00000130: d069 24bd a596 cd3e 4f72 41bd 1f06 ec3e
00000140: 7afe 68bd 552f 353e 0db4 923b 0f1f 70be
00000150: 27b0 cebd df30 023e 676a 49be e2dd a63e
00000160: 6431 80bd 2202 ef3c ec94 983e 7831 723e
00000170: bbf1 67bc 60f8 c93e acf2 90bd 31b8 d8bd
00000180: d49b bebd 23f3 43bc f70f 613e 7312 043e
00000190: 8f60 593d 3245 2bbd 19dd 6a3e b57f 1c3e
000001a0: 3995 7f3e 61ff 653d 3e56 843e 55e4 613e
000001b0: 8bed f3bd c30e e93e 78ff 89bb 53ea 2cbd
000001c0: a70b e0bc ef99 f93e 722a e13d 7562 1e3e
000001d0: c2fe 28be 83be 853e bf5e 413d f82d b0bc
000001e0: 59f1 723d f49d 943d d062 80bd 0f13 9bbe
000001f0: 9712 013c 2421 00be 47f8 123d 2ad3 8cbe
00000200: 4127 133e 5ea4 ef3d cad8 b8be f8f1 ec3e
00000210: 1e6e 483d b95d 913c 1d88 73bc 2608 4f3e
00000220: d56a 843e 87ea 93bd 0a4a 93bc abce c5bd
00000230: 76a2 553e f5ad 0d3b e07e 143d 164f 96be
00000240: 544c 0a3d 5f18 fcbc f8a7 ffbd c266 6f3e
00000250: 9b18 a93e 72d7 a53e 0686 d4bd b1a8 3e3e
00000260: a744 7dbe 3125 583e afa6 a43e 9ac7 973e
00000270: 12f8 883d 8c24 143e 6c9d b5be e765 bdbe
00000280: 2245 013e e428 75bd 45eb 6abd e631 a63d
00000290: 9dc6 83bb b302 013e 82f8 603d d8c8 143d
000002a0: ded3 763e 1cf7 66bc a234 e93c c278 8f3e
000002b0: bd81 90be ea72 33be 304c 1d3e 6c3f a1bd
000002c0: cead 543e 6711 2abe 6b17 9d3e 2578 80be
000002d0: e231 d43d 0593 9b3c 799c d8bd 0ea4 d2bc
000002e0: 2af8 a1bd 80ed 263f fe51 87be 5264 13bd
000002f0: 3fb5 253e b649 a7be 2c5b acbd 55f9 2b3d
00000300: 786b a1bd a02a 18be 2249 d5bc f28c 3abe
00000310: 7257 753e 7a1f 043e 8f44 42bd bc5d 383e
00000320: 5793 1e3d 8767 95be 6338 04be 4189 c83d
00000330: 709f 00bd 2d76 fa3d 0b77 00bc 5227 beba
00000340: 79f5 933e 1edc efbd 195b 823d 1c88 853d
00000350: 49d0 61be bbe5 7e3d 15b3 013e 0043 f4bc
00000360: f059 97bd da0e 613d 6f75 babd 7446 edbd
00000370: e709 87be 1391 d13e 6b32 7bbe 6fc4 b2bd
00000380: 9d8f 5c3e 2cd6 d8bd 6f3b 7fbe b923 ac3e
00000390: 2494 b13e 9af5 a63c 9a37 973e d033 33be
000003a0: 1c81 5a3d 97f3 2dbd 365b 7d3d 57ca c33e
000003b0: 7842 633e 5c61 f83e c899 223f e0ea f13b
000003c0: 91d2 00be 9da7 c1bc 7e7d 083d 969a b83c
000003d0: 7389 77be 3b66 553d 713d 843d b259 883d
000003e0: 8928 38be 2410 bebe 77a1 22be 96b1 ca3e
000003f0: d51f 3ebe e29f 383d a517 26be 32bf 083e
0.14865392 -0.09561977 0.05371422 -0.033703495 -0.15676378 -0.11806185 -0.13359234 -0.20664683
-0.19366832 -0.12734464 0.31892946 0.21082456 0.0045703514 0.16096696 0.20703161 -0.06125209
-0.13042095 0.046086535 -0.0183172 -0.07010113 -0.073540315 0.28935814 0.030146236 0.01853276
0.5216478 -0.1652636 0.1239485 0.5258323 -0.07684968 -0.078961186 -0.13317554 0.14974965
0.21930438 0.0060231998 -0.056672845 -0.20282185 -0.031189146 0.2737982 0.4225554 0.04615563
0.21554992 0.21881267 -0.21958907 -0.0014294118 -0.50630647 -0.15815985 0.40431482 -0.21956351
0.4064649 -0.35196522 0.1557932 0.1221072 -0.028011953 -0.07710469 0.15135959 -0.0034403433
0.39244 0.6683203 0.2629928 0.5732806 -0.078996584 -0.0012301458 -0.22231664 0.23710912
0.04602695 -0.051727477 0.03368197 0.1087362 0.3248705 0.2199764 0.42234185 0.27334028
-0.26074427 0.43237767 0.18747798 0.54889494 -0.040139973 0.40153995 -0.047228154 0.4609842
-0.056883313 0.17693837 0.00447703 -0.23449348 -0.10092192 0.12713955 -0.19669496 0.32591158
-0.062594205 0.029175822 0.29801118 0.23651683 -0.014156754 0.39447308 -0.07077536 -0.10582007
-0.093070656 -0.011959824 0.21978746 0.12897663 0.0530706 -0.041814037 0.22935905 0.15283091
0.24959268 0.05615175 0.25847048 0.22059758 -0.11910542 0.45519075 -0.0042113625 -0.042215656
-0.027349306 0.48750255 0.10994424 0.15467246 -0.16503432 0.2612191 0.047209498 -0.021506295
0.0593122 0.0725669 -0.06268847 -0.30287978 0.007877967 -0.12512642 0.035881307 -0.27504855
0.14370443 0.117012724 -0.36102897 0.46278358 0.04893314 0.017744886 -0.014863995 0.20217952
0.25862756 -0.07222467 -0.01797964 -0.096585594 0.20862755 0.002161858 0.03625381 -0.29357213
0.0337642 -0.03077334 -0.12483209 0.23379043 0.33026585 0.32390934 -0.103771254 0.18619038
-0.2473322 0.21107937 0.3215842 0.2964447 0.06687941 0.14467067 -0.35471666 -0.36991808
0.12624028 -0.05985345 -0.057353277 0.08114986 -0.0040214793 0.12598686 0.054924496 0.036324352
0.24104258 -0.014097001 0.02846748 0.28021818 -0.28223982 -0.17524305 0.15361094 -0.07873425
0.20769426 -0.16608201 0.3068193 -0.25091663 0.10361077 0.018991003 -0.1057672 -0.025712993
-0.07908662 0.65206146 -0.26429743 -0.035984345 0.16182421 -0.32673424 -0.08415827 0.04198583
-0.07881826 -0.1486001 -0.026035849 -0.18217829 0.23959139 0.12902632 -0.047428664 0.18004507
0.038714733 -0.29180548 -0.12912135 0.09791804 -0.03140205 0.122295715 -0.007840882 -0.0014507568
0.28898218 -0.11711906 0.06365032 0.065201014 -0.2205211 0.062230807 0.1266597 -0.029817104
-0.07390201 0.054945804 -0.0910443 -0.115857035 -0.26374742 0.40930995 -0.24530952 -0.08728873
0.21539159 -0.10587725 -0.24925016 0.33621004 0.34683335 0.020380784 0.29534608 -0.17500234
0.053345785 -0.042468634 0.061854564 0.3824031 0.22193325 0.4851178 0.635159 0.0073827356
-0.12580325 -0.023639495 0.033322804 0.02253465 -0.24173526 0.052099448 0.064570315 0.06657733
-0.17984213 -0.3712169 -0.15881906 0.39588612 -0.1856683 0.04507435 -0.16219957 0.13354185

fc3.bias f4 [25]
00000000: f95a ff3e 87d4 a53e 0faa 893e 634c 653d
00000010: 241b a23e 7bfe 6f3e d56d 823e a5f8 c73d
00000020: 7b2d be3d b969 c83c 0cb9 533e 205e 923e
00000030: 3018 e13e 90db 10bd 6fdc af3e 56d6 e33c
00000040: ae92 853d bdab a43e 5b42 893e f03c e03d
00000050: f266 683e c379 be3e b293 883e 37b9 9d3d
00000060: ae3c a7bd
0.49874094 0.32388708 0.26887557 0.05598105 0.31661332 0.2343692 0.2547442 0.09764222
0.092860185 0.024464475 0.20676059 0.28587437 0.43963766 -0.03536564 0.34347865 0.027812164
0.065221176 0.32162276 0.26808438 0.10949123 0.2269552 0.37202272 0.26675183 0.077013426
-0.081658706
