examples/carla_scenic/Carla_Challenge/agent_scalar/policy_net_1100.pt (torch, 96407 bytes, 6 tensors)

fc1.weight f4 [64, 8]
0	0x3dc1870f	0.094495885
1	0x3ac33866	0.0014894127
2	0xbefdfd34	-0.4960724
3	0x3d3cf4e3	0.04613198
4	0xbd794e2e	-0.060865574
5	0xbf329149	-0.6975294
6	0x3ece92be	0.4034633
7	0xbe04801b	-0.12939493
8	0xbe8a93e9	-0.27065971
9	0xbe4edd57	-0.20201622
10	0xbea781f9	-0.3271635
11	0x3d421f5a	0.04739318
12	0x3d8d2d40	0.068933964
13	0xbeb41657	-0.35173294
14	0xbf377e71	-0.7167731
15	0xbe8ff71a	-0.2811821
16	0xbd76b87c	-0.06023453
17	0xbd0f3b09	-0.03496841
18	0xbd809381	-0.06278134
19	0xbb725c69	-0.003698135
20	0x3b553db5	0.0032538
21	0xbe77c42a	-0.24195924
22	0xbe260a8c	-0.16214961
23	0xbda11346	-0.07865004
24	0x3f1b4694	0.6065457
25	0xbf3b682e	-0.7320584
26	0x3ee3d2e1	0.44496825
27	0xbd296281	-0.041353706
28	0x3cb104a6	0.021608662
29	0xbf4956e5	-0.78648216
30	0x3dafd187	0.08584886
31	0x3ddd248e	0.10797988
32	0x3eb70caf	0.35751864
33	0xbebb180d	-0.36541787
34	0xbec0fc90	-0.3769269
35	0xbcfee90b	-0.031116983
36	0x3b5d4306	0.0033761873
37	0x4017421a	2.3634095
38	0x3d0b1749	0.033957753
39	0x3c922ed8	0.017844602
40	0x3e19f0f9	0.1503333
41	0x3d903f19	0.07043285
42	0xbdbc39f9	-0.09190745
43	0x3c3ef44f	0.011654927
44	0xbb04a024	-0.0020237053
45	0xbde9acb6	-0.11409895
46	0xb8a3f8e5	-7.818806e-05
47	0xbe91d0e7	-0.28479692
48	0xbe0d959f	-0.13826607
49	0x3c6e17b5	0.014532019
50	0xbe211e0e	-0.15734121
51	0xbd15e51f	-0.03659546
52	0xbd48a1bc	-0.048982367
53	0x3ef09347	0.46987364
54	0xbc3b5e18	-0.011436008
55	0x3cfc5f31	0.03080711
56	0x3f2b326c	0.6687381
57	0xbcb42e8e	-0.021994855
58	0xbe91bd35	-0.28464666
59	0xbbe8c34e	-0.0071033603
60	0xbd0df91e	-0.034661405
61	0x3ea82114	0.32837737
62	0xbe1dede0	-0.15422773
63	0xbe7ac776	-0.24490151
64	0xbe68a820	-0.22720385
65	0x3e76237b	0.24036972
66	0xbd3a17c2	-0.045432813
67	0xbcbe0943	-0.023197776
68	0x3d3c2309	0.04593185
69	0xbf13006f	-0.57422537
70	0xbdb0409d	-0.08606074
71	0xbe76bf17	-0.24096332
72	0x3e406b53	0.18790941
73	0xbf544851	-0.82922846
74	0xbde0260c	-0.10944757
75	0xbd7f10d0	-0.062271893
76	0x3d0d9b90	0.034572184
77	0xbd887c74	-0.066643625
78	0x3eb5b0a1	0.3548632
79	0x3c92570d	0.017863775
80	0x3e201c61	0.15635826
81	0x3de8ace1	0.11361099
82	0x3cc4b39c	0.024011426
83	0x3cc683cf	0.024232773
84	0x3ddace79	0.10683913
85	0xbf1cea2a	-0.61294806
86	0xbd27cb4b	-0.04096536
87	0xbf01f59d	-0.507654
88	0x3dacdf59	0.08441038
89	0xbc07c559	-0.008286797
90	0xbe58f7b1	-0.21188237
91	0x3b98a6ee	0.0046585714
92	0xbc1ac4bd	-0.00944632
93	0x3dc7bb1e	0.09752487
94	0xbd3953d4	-0.04524596
95	0xbe6dfe5e	-0.23241565
96	0xbf1b0528	-0.6055474
97	0x3db875ae	0.090068206
98	0xbd676706	-0.056494735
99	0x39647075	0.00021785668
100	0x3bfea4bc	0.0077711027
101	0x3cb830b0	0.022484154
102	0xbdc5c5ee	-0.09656893
103	0xbdfbb5ef	-0.122905605
104	0x3e63f556	0.22261557
105	0x3b265f1b	0.0025386277
106	0xbd5ff76a	-0.05467931
107	0x3ba16da5	0.0049264007
108	0x3c8100ed	0.015747512
109	0x3e0fe9f4	0.1405409
110	0xbe155fb9	-0.14587297
111	0x3e8c3241	0.2738209
112	0x3d9afbb6	0.07567541
113	0xbe1f38a4	-0.1554895
114	0xbec4a9da	-0.38410836
115	0xbceef9a8	-0.02917178
116	0x3cf8b5b5	0.030360082
117	0x3e814341	0.25246623
118	0xbeec43de	-0.4614553
119	0xbe7012d3	-0.23444681
120	0x3e0946d9	0.13405932
121	0xbe0e5349	-0.13898958
122	0xbe5e9e7f	-0.21740149
123	0x3b91a497	0.0044446695
124	0xbc89ae77	-0.016806824
125	0xbe01c377	-0.1267222
126	0xbc746e96	-0.014918944
127	0xbe131755	-0.14364369
128	0x3f85b27a	1.0445092
129	0x3dc30fcc	0.095244974
130	0x3d666c92	0.056255884
131	0x3c79c311	0.015244261
132	0xbc0340d1	-0.008011059
133	0xbec24fc9	-0.37951496
134	0xbda6d766	-0.08146553
135	0xbd6b8601	-0.057500843
136	0x3efcd881	0.4938393
137	0xbd2bad9d	-0.041913617
138	0xbe39267b	-0.18081085
139	0xbd1a6ccb	-0.03770141
140	0xbd14cc76	-0.0363278
141	0x3e01d446	0.12678632
142	0xbe93b81c	-0.28851402
143	0xbd003caa	-0.031307854
144	0xbd6ae7d5	-0.05735
145	0xbd924d04	-0.07143596
146	0xbe6826c1	-0.22671033
147	0xbb83fc03	-0.004027845
148	0x3cc5de6d	0.024153912
149	0xbee7ab46	-0.4524786
150	0xbf004f73	-0.5012123
151	0xbe433cc2	-0.19066146
152	0x3e314e7f	0.173151
153	0xbcf74743	-0.030185347
154	0x3d35f2fd	0.044421185
155	0x3e0b5d35	0.13609774
156	0xbd363972	-0.044488378
157	0xbfd36d7e	-1.6517789
158	0x3e62a5cb	0.22133557
159	0xbe235044	-0.15948588
160	0xbece7bf8	-0.40328956
161	0xbf0984dd	-0.5371836
162	0xbe806a3d	-0.25081053
163	0x3d5dacb9	0.0541198
164	0x3c96aeb5	0.018393854
165	0x3d6d7085	0.057968635
166	0x3e884a92	0.26619393
167	0xbcee7dc3	-0.029112702
168	0x3ccba4e4	0.0248589
169	0xbe898afb	-0.26863846
170	0x3e021678	0.12703884
171	0x3d1296c9	0.03578833
172	0xbbb8ac6c	-0.0056357887
173	0xc02e3ce7	-2.7224672
174	0xbc1ab0cf	-0.0094415685
175	0x3c9b1283	0.018929726
176	0xbeb24138	-0.34815383
177	0xbe22bad7	-0.15891586
178	0xbdc4563a	-0.09586759
179	0xbdd07871	-0.101792224
180	0x3d7f2499	0.06229076
181	0x3fe24a5f	1.7678946
182	0xbca5fcbf	-0.02026212
183	0x3c7bbcf7	0.015364877
184	0x3e1f42ee	0.15552875
185	0xbdf07004	-0.11740115
186	0xbe9475be	-0.2899608
187	0xbc3f3e9a	-0.01167264
188	0x3b187d93	0.0023268207
189	0x3e05ac0b	0.1305391
190	0x3c254c40	0.01008898
191	0xbe34a0b4	-0.17639428
192	0x3ee7d9c5	0.45283332
193	0xbdf98e49	-0.12185342
194	0xbda86d92	-0.08224024
195	0x3d780017	0.06054696
196	0x3d51a50b	0.051182788
197	0xbecac359	-0.39602163
198	0x3cca3f90	0.024688512
199	0xbeca002f	-0.39453265
200	0x3e033a20	0.12815142
201	0xbdc50f7b	-0.09622093
202	0xbe6fdeb0	-0.23424792
203	0xbc281ec1	-0.010261239
204	0x3bd59bd7	0.0065188217
205	0x3d00b394	0.03142126
206	0x3cd3e9f8	0.025868401
207	0xbe2f771d	-0.17135282
208	0x3ee07cbb	0.43845162
209	0xbf0b8f9c	-0.54516006
210	0xbe339419	-0.17536964
211	0xbc868328	-0.016419962
212	0xbd816fc9	-0.063201495
213	0x3f4103bb	0.7539632
214	0xbd9ffd12	-0.07811941
215	0xbd90415a	-0.07043715
216	0xbd1a3da0	-0.037656426
217	0xbdf86c69	-0.121300526
218	0xbd114360	-0.035464644
219	0xbba4a45e	-0.005024477
220	0xbd0d47b3	-0.034492206
221	0xbf0c1f5c	-0.5473535
222	0xbfa492fa	-1.2857354
223	0x3d2e719e	0.042588823
224	0x3f643e95	0.8915799
225	0xbea94455	-0.33059946
226	0x3efa1159	0.4884136
227	0x3be76f25	0.00706281
228	0x3b9a2c42	0.004704983
229	0x3f339870	0.70154476
230	0xbd826229	-0.06366379
231	0x3de0f053	0.10983338
232	0x3c5109bd	0.012758669
233	0xbe119fc7	-0.14221106
234	0xbe1248c2	-0.14285567
235	0xba2f91b8	-0.0006697434
236	0x3c75574b	0.014974426
237	0xbc741d77	-0.014899603
238	0xbd19b8d2	-0.037529774
239	0xbe395876	-0.18100151
240	0x3d1548aa	0.03644625
241	0x3ed62255	0.41823068
242	0x3ca4452d	0.020052517
243	0xbc0bba38	-0.008528285
244	0x394cf6fa	0.00019546962
245	0x3f157d09	0.58393914
246	0xbee128dd	-0.4397649
247	0xbe88a045	-0.26684776
248	0xbec20160	-0.37891674
249	0xbf2ef36c	-0.6834018
250	0xbe63d295	-0.222483
251	0xbd4452c8	-0.04793051
252	0x3cef5b0b	0.029218217
253	0x3eb7c700	0.35894012
254	0x3d9cb8a5	0.07652406
255	0x3ddd534b	0.108069025

fc1.bias f4 [64]
0	0xbe3df8dc	-0.18551964
1	0xbee7e147	-0.4528906
2	0xbdfc5a0c	-0.123218626
3	0x3e5b0147	0.21387206
4	0x3d321716	0.043479048
5	0xbea86eab	-0.32896933
6	0xbe9b11cf	-0.30287024
7	0xbdac0974	-0.084002405
8	0xbe85b859	-0.2611721
9	0x3e89c881	0.26910785
10	0x3d286f6d	0.04112189
11	0x3d93b49b	0.07212182
12	0xbec8dca2	-0.3923083
13	0x3e209f0e	0.15685675
14	0xbde719d6	-0.11284225
15	0xbed0cb35	-0.40780035
16	0x3e95111f	0.29114625
17	0x3db372af	0.087621085
18	0xbe217573	-0.1576746
19	0x3d8cf449	0.06882531
20	0x3e82b173	0.25526008
21	0x3cfbecaf	0.030752508
22	0x3e842cbc	0.2581538
23	0x3c8b39df	0.016995369
24	0x3dede036	0.116150305
25	0xbde28d3e	-0.11062096
26	0x3e38e0bc	0.1805448
27	0x3cc1065d	0.023562605
28	0xbe18986d	-0.14901896
29	0xbde9dbaa	-0.11418851
30	0xbea98caf	-0.33115146
31	0x3e203a67	0.15647279
32	0x3e8e1491	0.27750066
33	0xbf09393a	-0.53602946
34	0xbe4c06bc	-0.19924444
35	0xbe9a0159	-0.30079153
36	0xbf1a1438	-0.601871
37	0x3d631e15	0.05544861
38	0xbee3d185	-0.44495788
39	0x3e532238	0.20618522
40	0xbf00f91f	-0.5038013
41	0xbea3b283	-0.3197213
42	0xbe8577b6	-0.26067895
43	0xbe7805f1	-0.24221016
44	0xbe6c0d93	-0.23052053
45	0x3ca4e635	0.020129303
46	0xbd275994	-0.040856913
47	0xbd66013e	-0.05615353
48	0xbe095986	-0.13413057
49	0x3e85bdcf	0.26121375
50	0xbe451705	-0.19247063
51	0xbe28b675	-0.16475852
52	0xbe7bb6a4	-0.2458139
53	0xbe189ec8	-0.1490432
54	0x3e699fe9	0.22814907
55	0x3e530a22	0.20609334
56	0x3cb87040	0.022514462
57	0x3e5e33a5	0.21699388
58	0x3da439a2	0.08018805
59	0xbe3e2265	-0.18567808
60	0xbed85f92	-0.42260414
61	0x3e75b128	0.23993361
62	0xbe8b1133	-0.2716156
63	0xbdaf9127	-0.085726075

fc2.weight f4 [256, 64]
0	0x3d75ee3b	0.060041647
1	0xbef1dcca	-0.4723876
2	0xbd87ae53	-0.066250466
3	0x3e8760d3	0.2644106
4	0xbf05d3d3	-0.52276343
5	0xbc5d6c8d	-0.01351465
6	0xbef49e99	-0.4777725
7	0xbe3e6428	-0.18592894
8	0xbe409557	-0.18806969
9	0xbdebde7d	-0.11517046
10	0x3c3f6cf8	0.011683695
11	0x3db5df5c	0.08880493
12	0x3de33d2c	0.11095652
13	0x3ddf7c94	0.10912433
14	0xbdaf0fe0	-0.0854795
15	0xbe2fc611	-0.171654
16	0xbe4abaca	-0.19797817
17	0xbdffe71f	-0.12495255
18	0xbeede151	-0.46460965
19	0x3d86acf2	0.065759555
20	0xbdaeb526	-0.08530645
21	0xbe6a4ad5	-0.22880109
22	0xbeee4b26	-0.4654171
23	0xbe251601	-0.16121675
24	0x3c184bca	0.009295413
25	0x3e025a4d	0.1272976
26	0xbe0837d6	-0.1330255
27	0xbdc39239	-0.09549374
28	0xbdc4fcb7	-0.09618514
29	0xbd9a2392	-0.07526316
30	0xbeac4ff6	-0.33654755
31	0x3d485023	0.04890455
32	0x3d874e1f	0.06606697
33	0xbd0c4989	-0.034249816
34	0xbda8c75e	-0.08241151
35	0x3e5ac1dd	0.21363015
36	0xbe7b3787	-0.24532901
37	0xbe57879d	-0.21047826
38	0x3e1d298f	0.15347885
39	0xbe628461	-0.22120811
40	0x3def12a5	0.11673478
41	0xbe199eaf	-0.15001939
42	0xbedc5313	-0.4303213
43	0x3cad00a4	0.02111847
44	0x3db99e71	0.090634234
45	0xbd68a81f	-0.056800958
46	0x3d9c4132	0.076296225
47	0x3e07d134	0.13263398
48	0xbd56527a	-0.05232475
49	0x3e4bd771	0.19906403
50	0x3d3cd2a2	0.046099313
51	0x3cd87975	0.026425103
52	0xbdb7021b	-0.089359485
53	0xbe82b09f	-0.25525376
54	0xbe0930b7	-0.1339749
55	0xbdb355ee	-0.08756624
56	0xbe400ffc	-0.18756098
57	0x3dd76baa	0.10518582
58	0x3e755bc8	0.23960793
59	0x3e463b70	0.19358611
60	0xbc4d8569	-0.0125440145
61	0x3bcc6fd3	0.0062389164
62	0xbd4ea655	-0.050451595
63	0xbe4e411e	-0.20142028
64	0x3d58d1d2	0.052934475
65	0xbd2a66d9	-0.04160199
66	0x3dc58c41	0.09645892
67	0x3d790f2b	0.06080548
68	0x3d899b25	0.067190446
69	0x3d60d9a4	0.05489506
70	0xbb117fb2	-0.0022201356
71	0xbd37c257	-0.04486307
72	0x3c519c33	0.012793588
73	0x3c977493	0.018488204
74	0xba95cad7	-0.0011428249
75	0xbe1e250a	-0.15443817
76	0x3df258e6	0.11833362
77	0xbb7e08d0	-0.0038762577
78	0xbd459a4d	-0.048242856
79	0xb9f0a9cb	-0.00045902873
80	0x3e4d6d82	0.20061305
81	0xbcde40ae	-0.027130451
82	0xbd2edbf7	-0.042690244
83	0x3ddbd70c	0.10734376
84	0xbcc70751	-0.02429548
85	0xbdfba0dc	-0.12286541
86	0xbc2275a7	-0.009915746
87	0x3e0d68ca	0.13809505
88	0xbdbb6d2a	-0.09151681
89	0x3d0c3fba	0.034240462
90	0xbc608d70	-0.013705596
91	0x3df4f1bf	0.11960172
92	0xbd5fad01	-0.05460835
93	0x3e108531	0.14113308
94	0x3e5ab933	0.2135971
95	0x3e517cfb	0.20457833
96	0xbcd656b6	-0.026164394
97	0xbd0c5a03	-0.03426553
98	0xbd7bfe30	-0.06152171
99	0x3cfcf21c	0.030877165
100	0x3df67178	0.12033361
101	0x3e19ca0e	0.15018484
102	0x3ce478f6	0.02788971
103	0x3e06dab3	0.13169365
104	0xbd705ffc	-0.058685288
105	0x3e448874	0.19192678
106	0xbdf30d68	-0.118677914
107	0x3da6bed7	0.081418686
108	0x3d9312b7	0.07181304
109	0x3d9cbb5f	0.07652926
110	0x3c067dcd	0.008208704
111	0x3dad6ee5	0.08468417
112	0x3db77c99	0.08959312
113	0x3adb747b	0.0016743088
114	0xbd94cb85	-0.07265381
115	0xbc1aa7de	-0.009439437
116	0xbdb5d3f3	-0.08878317
117	0xbdd82846	-0.105545565
118	0xbd5294d5	-0.05141147
119	0xbd8504da	-0.06495066
120	0x3e381976	0.17978463
121	0x3d8526d0	0.065015435
122	0x3bd4fd2d	0.0064999075
123	0xbd9689d4	-0.073505074
124	0xbd3f0621	-0.046636704
125	0x3d2b605b	0.04183994
126	0x3ca62f84	0.02028633
127	0x3db0c5ca	0.08631475
128	0xbe4b59a9	-0.19858421
129	0x3e3ca7d6	0.184234
130	0x3d9022bd	0.07037876
131	0xbd4165c7	-0.047216203
132	0x3d8f1c5b	0.0698783
133	0xbde800af	-0.113282554
134	0xbdab3f27	-0.08361655
135	0xbda73bb2	-0.08165683
136	0xbe026e80	-0.12737465
137	0xbd140c82	-0.03614474
138	0x3d88dc7c	0.06682679
139	0x3d0c0972	0.034188695
140	0xbd95b9c1	-0.0731082
141	0xbcd063df	-0.025438247
142	0x3c09e41d	0.008416203
143	0x3dd273e7	0.10276013
144	0xbe878f05	-0.26476303
145	0xbdd2a242	-0.102848545
146	0x3dd5a91b	0.10432645
147	0x3ce173ec	0.027521096
148	0xbe439fcb	-0.19103925
149	0xbd73e70e	-0.059546523
150	0xbcd08a4f	-0.025456576
151	0x3dbd2c09	0.09236915
152	0xbc69c1e4	-0.0142674185
153	0x3df01e12	0.117244855
154	0xbe162f7d	-0.14666553
155	0x3d58f3ba	0.05296681
156	0x3d2ff36a	0.042956747
157	0xbd7a27e9	-0.061073218
158	0xbd5ba499	-0.05362377
159	0xbca671ea	-0.02031799
160	0xbdf541b6	-0.11975424
161	0xbd44d273	-0.048052263
162	0x3c968e9d	0.01837855
163	0x3d2e2082	0.04251147
164	0xbe265a16	-0.16245303
165	0x3e5aac36	0.21354756
166	0x3d2e91f0	0.042619646
167	0xbd75d523	-0.060017716
168	0xbdfc4b8f	-0.12319099
169	0x3bc51f7f	0.0060157175
170	0xbe16618e	-0.14685652
171	0x3c42f357	0.011898837
172	0x3d2cda41	0.04220033
173	0x3d6aa0b5	0.05728217
174	0xbc3e97a9	-0.011632838
175	0xbe327162	-0.17426065
176	0x3e22b728	0.15890181
177	0x3da06ddd	0.07833455
178	0x3cc51fbb	0.024062982
179	0x3cbb25cc	0.022845171
180	0xbe0f43e3	-0.1399074
181	0xbd8718f3	-0.065965556
182	0x3c370b8e	0.011172188
183	0xbe808b11	-0.251061
184	0xbe5e8c01	-0.21733095
185	0x3e23f882	0.16012767
186	0xbe02e22a	-0.12781587
187	0xbe4ccdd5	-0.20000394
188	0xbe4042b3	-0.18775444
189	0xbe381c23	-0.17979483
190	0x3c487537	0.012234977
191	0xbccc3519	-0.024927663
192	0xbd9ac717	-0.075575046
193	0xbdadc912	-0.08485617
194	0xbd24bed1	-0.04022104
195	0xbca2bef5	-0.019866446
196	0xbe03d821	-0.12875415
197	0xbdec8e30	-0.115505576
198	0xbe519298	-0.20466077
199	0x3c7e1974	0.015508998
200	0xbe9bcae4	-0.3042823
201	0xbd86be4f	-0.06579267
202	0xbe972f74	-0.2952839
203	0xbe8a46d4	-0.27007163
204	0x3ab8a248	0.001408645
205	0x3db0b9e7	0.08629208
206	0xbe2055ec	-0.15657777
207	0x3d672043	0.05642725
208	0xbe6cb558	-0.23116052
209	0xbe311e75	-0.17296775
210	0x3dfb7763	0.122786306
211	0x3c6bd593	0.014394182
212	0xbdb8a568	-0.09015924
213	0xbe18c5f7	-0.14919268
214	0xbe4b23b5	-0.1983784
215	0xbd322c5c	-0.043499336
216	0xbe02b982	-0.12766078
217	0xbe78ce75	-0.24297507
218	0x3e351ef7	0.17687593
219	0xbd9c9daf	-0.07647263
220	0xbe81ccf9	-0.25351694
221	0x3c207d30	0.009795472
222	0xbe014838	-0.12625206
223	0xbeb1ba21	-0.34712318
224	0x3df05b0b	0.11736115
225	0xbd1ee82b	-0.03879563
226	0x3bc2da8c	0.005946463
227	0xbd384d81	-0.04499579
228	0x3cdb8bd2	0.02680007
229	0xbd4a2b1f	-0.04935753
230	0x3dd30649	0.10303933
231	0x3b4fe3af	0.0031721403
232	0xbd2f4f8f	-0.042800482
233	0xbe03aad7	-0.12858139
234	0xbda9f2a0	-0.0829823
235	0x3e1d6322	0.15369847
236	0xbd7faa05	-0.062418003
237	0xbc0c6f87	-0.008571512
238	0xbc5a9883	-0.013342026
239	0xbe10ef45	-0.14153774
240	0xbc836d71	-0.016043397
241	0xbe219e43	-0.15783028
242	0xbd8547c2	-0.06507827
243	0x3d3d69cd	0.046243478
244	0xbcb4f1c8	-0.022087947
245	0xbe3f06d5	-0.1865495
246	0xbd6ddbdb	-0.058071
247	0xbd0801cd	-0.033204842
248	0x3cb35aed	0.021893943
249	0x3d2540e9	0.040345106
250	0xbe709ec6	-0.23498067
251	0xbe21fce8	-0.15819132
252	0xbcb5986e	-0.02216741
253	0xbc8aaba6	-0.016927551
254	0xbe827c61	-0.2548552
255	0xbcc80468	-0.024416164

fc2.bias f4 [256]
0	0xbdd0e2ca	-0.101995066
1	0xbd72ca55	-0.05927499
2	0xbe0dcf3d	-0.13848586
3	0x3d8ebc66	0.06969528
4	0xbd01b827	-0.031669762
5	0xbe261ada	-0.1622118
6	0x3ce9cbe9	0.028539615
7	0xbe43e92e	-0.1913192
8	0xbe14fb9b	-0.14549105
9	0x3e2a5deb	0.1663739
10	0x3e3bee4a	0.18352619
11	0x3c986210	0.018601447
12	0xbdca870d	-0.0988904
13	0x3d5c9536	0.053853236
14	0x3de5a618	0.112133205
15	0x3c2e4924	0.010637555
16	0xbe45b7df	-0.19308423
17	0x3c7a11fb	0.015263076
18	0x3dc009e2	0.09376885
19	0xbebb4def	-0.36582896
20	0xbcf4d24b	-0.029885432
21	0xbe1fe726	-0.1561552
22	0xbe101302	-0.14069751
23	0xbe68f08c	-0.22748011
24	0xbcb1b9c3	-0.021695023
25	0xbd83f224	-0.06442669
26	0x3e025b1c	0.12730068
27	0xbdf81eee	-0.12115274
28	0xbd10c45f	-0.035343524
29	0xbe183f24	-0.14867836
30	0xbe5ab684	-0.21358687
31	0xbd085983	-0.03328849
32	0x3c10dc26	0.00884155
33	0xbd0fb57d	-0.03508519
34	0xbe3d70ed	-0.18500109
35	0x3d8bfde5	0.06835536
36	0xbcd2d47b	-0.025736084
37	0xbc98a243	-0.01863206
38	0xbd6bf86f	-0.05760997
39	0x3ddf78e5	0.10911731
40	0x3e90b077	0.28259632
41	0x3db6346f	0.0889672
42	0x3e2b8349	0.167493
43	0xbe3b59dc	-0.18295997
44	0xbd37e397	-0.04489478
45	0x3d93e2fe	0.0722103
46	0xbccb5b07	-0.024823679
47	0xbd0a1f34	-0.033721164
48	0xbdc63355	-0.096777596
49	0xbddb6a93	-0.10713687
50	0x3df5e75d	0.1200702
51	0xbd666306	-0.05624678
52	0xbde94d7e	-0.113917336
53	0xbce82ce1	-0.028341712
54	0xbe0f7eca	-0.1401321
55	0x3d42126b	0.047380846
56	0x3e3c93a1	0.18415691
57	0x3e88ebab	0.267423
58	0x3dbb20c8	0.09137112
59	0x3e3cd3ad	0.18440123
60	0xbddfe6e6	-0.10932712
61	0xbe0fc8d7	-0.14041458
62	0xbe26755b	-0.16255705
63	0x3dc21c07	0.09478002
64	0xbe136f0e	-0.14397833
65	0xbd99f565	-0.075175084
66	0xbe9ab1f0	-0.3021388
67	0x3c0fa789	0.008767971
68	0x3cc29036	0.023750406
69	0x3dfc23b8	0.123115
70	0x3cbbeb13	0.02293924
71	0xbddceaf4	-0.10787001
72	0xbd9c81f9	-0.07641978
73	0x3e49e404	0.19715887
74	0xbdffe4b2	-0.12494792
75	0xbd47a532	-0.048741527
76	0xbcc76dad	-0.02434429
77	0x3cd0fb15	0.02551035
78	0xbdc8d91d	-0.09807036
79	0x3d149ea4	0.036284104
80	0xbdac9a58	-0.08427876
81	0xbd7e5fe6	-0.062103175
82	0xbda3bd9a	-0.07995148
83	0xbda7c664	-0.08192137
84	0xbcf16999	-0.029469298
85	0x3accec8b	0.001563446
86	0xbddada67	-0.10686188
87	0xbe013b1e	-0.12620208
88	0xbdbbff51	-0.09179557
89	0x3e14144c	0.14460868
90	0x3ecf2810	0.40460253
91	0xbe371596	-0.17879328
92	0xbe34f61c	-0.17672008
93	0xbce72d70	-0.028219908
94	0xbe0089b7	-0.12552534
95	0xbe12ca38	-0.14334953
96	0xbdf04713	-0.11732306
97	0xbda7b14e	-0.08188115
98	0xbdb0c77e	-0.086318
99	0xbe2a683f	-0.16641329
100	0xbe0e8fb7	-0.1392201
101	0xbcae5ed3	-0.02128545
102	0xbdbb8883	-0.09156897
103	0xbd08799c	-0.0333191
104	0x3e68ee0b	0.22747056
105	0xbdb76979	-0.08955664
106	0xbe4d6170	-0.200567
107	0x3e1241fe	0.14282987
108	0x3cb6592a	0.022259314
109	0x3da4a887	0.080399565
110	0xbdd1b368	-0.10239297
111	0x3d9a15a5	0.075236596
112	0xbec40ae7	-0.38289568
113	0x3e8eb625	0.2787334
114	0xbe03db94	-0.12876731
115	0xbe35537b	-0.17707627
116	0xbe04cebe	-0.12969491
117	0xbe985a74	-0.2975651
118	0xbe3b3b5f	-0.18284367
119	0xbe4e4a5b	-0.20145552
120	0x3de1ee51	0.11031783
121	0x3dfdfe71	0.124020465
122	0xbd9782e1	-0.0739801
123	0xbde01071	-0.10940636
124	0xbe32e84c	-0.17471427
125	0xbdf4ea0d	-0.11958704
126	0xbd43a084	-0.0477605
127	0xbd94b22d	-0.07260547
128	0x3d84cce0	0.06484389
129	0xbddd2f0b	-0.10799988
130	0xbc318b26	-0.010836398
131	0x3e4edb15	0.2020076
132	0xbdeeee24	-0.116665155
133	0xbe0db61b	-0.13838999
134	0xbe6b3631	-0.22969891
135	0xbd0b5d10	-0.0340243
136	0xbe4d6adb	-0.20060293
137	0xbdc5873f	-0.09644937
138	0xbcd3b08e	-0.025841024
139	0xbe8c44a6	-0.27396125
140	0xbde1c4b4	-0.11023846
141	0xbddca012	-0.107727185
142	0xbe0e3a41	-0.1388941
143	0xbe37f87a	-0.1796588
144	0xbdb7676b	-0.08955272
145	0xbdafbcdb	-0.08580943
146	0x3d56029f	0.052248593
147	0xbe265f22	-0.16247228
148	0xbcedd2bc	-0.02903115
149	0x3e3499f8	0.1763686
150	0xbe00f810	-0.12594628
151	0xbd43aaeb	-0.047770422
152	0x3debace3	0.11507585
153	0x3ed5cbf6	0.41757172
154	0x3dc5354a	0.09629305
155	0xbd427abf	-0.04748034
156	0xbd2b48a7	-0.041817334
157	0xbc8f931a	-0.017526198
158	0xbe1b2f10	-0.15154672
159	0x3c9d556d	0.019205773
160	0x3e271b82	0.16319087
161	0x3d5b28c3	0.05350567
162	0x3de377c8	0.11106831
163	0xba66b340	-0.0008800514
164	0xbdd826af	-0.10554253
165	0x3e977eec	0.2958902
166	0xbe5bbc79	-0.21458615
167	0xbb63d243	-0.0034762777
168	0x3df0a7df	0.11750769
169	0xbe1409e9	-0.14456905
170	0x3c46f047	0.0121422475
171	0xbe9221d2	-0.28541428
172	0x3d745c01	0.059658054
173	0xba443bf7	-0.0007485742
174	0x3ddb6d99	0.107142635
175	0xbe09b38c	-0.13447398
176	0xbe84d54c	-0.25943983
177	0xbcdbf22e	-0.026848879
178	0x3e04387a	0.12912169
179	0xbdce1fe4	-0.100646764
180	0xbdec7e03	-0.11547472
181	0x3ac86ab3	0.0015290588
182	0xbdce93c1	-0.100867756
183	0xbe07b2a0	-0.13251734
184	0xbdba967f	-0.09110736
185	0x3e1b9368	0.1519295
186	0xbe1250d6	-0.14288649
187	0xbcebe801	-0.028797152
188	0xbe1b7932	-0.15182951
189	0xbe3d3729	-0.18478073
190	0xbe2144e9	-0.15748943
191	0xbe44d6de	-0.1922259
192	0x3dba9ca2	0.091119066
193	0xbe5b4c61	-0.21415855
194	0x3b8c11ab	0.004274567
195	0xbcf4d7a7	-0.029887987
196	0xbdae3e0c	-0.08507928
197	0xbd7b5b74	-0.061366513
198	0xbe51bece	-0.20482942
199	0xbdaba642	-0.083813205
200	0xbd87a909	-0.06624038
201	0xbda24333	-0.079229735
202	0xbe1d7593	-0.15376882
203	0x3add2a83	0.0016873631
204	0xbe2eb8a7	-0.17062627
205	0xbe3895c3	-0.1802588
206	0xbe676a1c	-0.22599071
207	0xbd9ee334	-0.07758179
208	0x3e86afd8	0.26306033
209	0xbe5dd677	-0.21663843
210	0xbe39d73e	-0.18148515
211	0xbe69dd7e	-0.22838399
212	0xbe51759b	-0.20455019
213	0xbe5139b6	-0.20432171
214	0xba8f49c7	-0.0010932022
215	0xbd4123d3	-0.047153305
216	0x3c954140	0.01821959
217	0xbe47b010	-0.19500756
218	0x3d5b981d	0.053611863
219	0xbe23aa5b	-0.15982954
220	0x3c6480f4	0.01394676
221	0x3e7e9274	0.24860555
222	0x3d85f1ea	0.06540282
223	0xbd07812d	-0.033082176
224	0xbe90e14b	-0.28296885
225	0xbe5254e9	-0.20540203
226	0x3dacba46	0.08433966
227	0x3bc6fdd8	0.006072741
228	0x3d73fc6b	0.059566896
229	0xbe43997c	-0.19101518
230	0xbca84c41	-0.020544173
231	0xbd56c25d	-0.052431453
232	0xbe0d67f2	-0.13809183
233	0xbe2cd3b9	-0.16877641
234	0xbbbe51af	-0.0058080773
235	0x3ddf1eb1	0.10894526
236	0xbd5115d0	-0.051046193
237	0x3e189bb8	0.14903152
238	0xbd89d854	-0.067307144
239	0x3e74e914	0.23917037
240	0xbdcdfb79	-0.1005773
241	0xbe3028f3	-0.17203121
242	0xbdf28f5d	-0.118437506
243	0xbcccf6b9	-0.02501999
244	0x3d8ad95e	0.06779741
245	0xbcf58356	-0.029969852
246	0xbcf3ae46	-0.029746186
247	0xbe2e83d2	-0.17042473
248	0xbd9a4dd9	-0.075343795
249	0xbd85675a	-0.06513853
250	0x3caf5351	0.021402033
251	0x3e2766b5	0.16347773
252	0xbdcf7b13	-0.101308964
253	0xbd12a6ea	-0.035803713
254	0x3d2c8c31	0.042125884
255	0x3e90484b	0.28180155

fc3.weight f4 [25, 256]
0	0xbdaedbc1	-0.085380085
1	0xbd3438d6	-0.043999515
2	0x3c901f6a	0.017593104
3	0xbd0a0cad	-0.033703495
4	0xbcad57fb	-0.021160116
5	0xbe196b8d	-0.14982434
6	0xbe08cc6e	-0.13359234
7	0xbe0769aa	-0.13223901
8	0xbea5fbdb	-0.32418713
9	0xbe446fce	-0.19183275
10	0x3e60fb70	0.21970916
11	0xbd885673	-0.06657114
12	0xbdb04889	-0.08607585
13	0x3ce43261	0.027856054
14	0xbd0ae42c	-0.033909008
15	0x3c912c0e	0.017721202
16	0xbe058d12	-0.13042095
17	0xbd14ed42	-0.03635908
18	0x3cf379d7	0.029721184
19	0xbd8f912e	-0.07010113
20	0x3c8538e0	0.016262472
21	0xbd11acf4	-0.03556533
22	0x3d7d929b	0.061907392
23	0x3d58fd78	0.0529761
24	0xbe5a6a68	-0.21329653
25	0xbe090080	-0.13379097
26	0xbdc5a55f	-0.09650683
27	0xbdecc17c	-0.11560342
28	0xbd9d635d	-0.07684968
29	0xbd669290	-0.056292117
30	0xbe0a265e	-0.13491198
31	0x3e1957f9	0.14974965
32	0xbe4dbdc3	-0.2009192
33	0xbe0691ae	-0.1314151
34	0x3c61e22e	0.013786836
35	0x3e272965	0.16324385
36	0xbcff8061	-0.031189146
37	0xbdcb4785	-0.09925751
38	0x3e060e20	0.13091326
39	0x3e1c08f9	0.15237798
40	0x3e87273d	0.26397124
41	0x3e1c4c46	0.15263471
42	0xbe88859b	-0.26664433
43	0xbdf036c2	-0.11729194
44	0xbcd3d549	-0.025858538
45	0xbce632b4	-0.028100349
46	0x3eac2b04	0.33626568
47	0x3e0c085b	0.13675062
48	0xbe150be6	-0.1455532
49	0xbd8443dd	-0.064582564
50	0x3e5eee9d	0.21770711
51	0x3bd34bb3	0.006448233
52	0xbce57953	-0.028011953
53	0x3d7154d6	0.058918796
54	0x3e1afe02	0.15135959
55	0xbc4007ed	-0.01172064
56	0x3bc73a4d	0.006079948
57	0x3e0c03f8	0.13673389
58	0x3d630c67	0.05543175
59	0x3d4156b9	0.047201846
60	0xbdd0887a	-0.10182281
61	0x3c889e61	0.016677083
62	0xbde74a2b	-0.11293443
63	0x3d9234cc	0.071389765
64	0xbd03c88c	-0.03217368
65	0x3dae7cc9	0.08519895
66	0x3d934944	0.07191709
67	0x3d9dafe4	0.07699564
68	0x3ee01542	0.43766218
69	0x3d994c71	0.07485283
70	0xbe3eb054	-0.18621951
71	0xbd435cc1	-0.04769588
72	0xbe025093	-0.12726049
73	0x3e88935b	0.26674923
74	0x3cda9085	0.02668024
75	0x3cf2b0fe	0.029625412
76	0xbd2469d0	-0.040139973
77	0x3e609164	0.21930462
78	0xbd41fceb	-0.047360342
79	0x3b02e006	0.0019969954
80	0xbd1f96c2	-0.038962133
81	0x3dbfb9ff	0.09361648
82	0x3b92b40d	0.00447703
83	0xbe0a86ed	-0.13528033
84	0xbc3d4cd8	-0.0115539655
85	0x3dc11f28	0.09429771
86	0xbe26b189	-0.16278662
87	0x3dc85a38	0.09782833
88	0xbd4f0a66	-0.050547026
89	0x3dbdb1f8	0.092624605
90	0x3e45b62d	0.19307776
91	0x3e0f426f	0.13990186
92	0xbc67f1bb	-0.014156754
93	0x3e109221	0.14118244
94	0xbd90f2ac	-0.07077536
95	0xbdd8b831	-0.10582007
96	0xbdbe9bd4	-0.093070656
97	0xbd039630	-0.03212565
98	0xbcdd593d	-0.027020091
99	0xbd769175	-0.060197312
100	0x3d0f134a	0.034930505
101	0xbcc3e433	-0.023912525
102	0xbd974f5b	-0.07388183
103	0x3d0b0d87	0.033948448
104	0x3db84cbd	0.08999012
105	0x3da4f352	0.08054222
106	0x3e84563e	0.25847048
107	0xbdc68f71	-0.09695328
108	0xbcc53e81	-0.024077656
109	0x3eb1c441	0.34720042
110	0xba363909	-0.0006951248
111	0xbd2cea53	-0.042215656
112	0xbddb2fca	-0.107024744
113	0x3e7eb484	0.24873549
114	0x3d3d4427	0.046207573
115	0x3d06c54f	0.032903012
116	0xbe47332e	-0.19453117
117	0xbdc885f3	-0.09791174
118	0x3d415ebf	0.047209498
119	0xbcb02df8	-0.021506295
120	0x3d72f159	0.0593122
121	0x3b1467e0	0.0022644922
122	0xbd8062d0	-0.06268847
123	0xbe01ba4b	-0.12668721
124	0xbcc1b2bf	-0.023644803
125	0xbe20a733	-0.15688781
126	0x3cae9ec2	0.021315936
127	0xbdf2140c	-0.1182023
128	0x3e686a67	0.2269684
129	0x3defa45e	0.117012724
130	0xbe00147f	-0.12507819
131	0x3c5e23de	0.013558356
132	0x3d486e1e	0.04893314
133	0xbe1c5827	-0.15268002
134	0xbd7f31ba	-0.062303282
135	0xbd6651e4	-0.05623044
136	0x3d6afe74	0.05737157
137	0xbdd4ec66	-0.10396652
138	0xbc934a0a	-0.01797964
139	0xbdd0bfb1	-0.10192812
140	0xbe751126	-0.23932323
141	0x3b0dadf5	0.002161858
142	0xbc716463	-0.014733407
143	0xbc7ca813	-0.015420931
144	0x3d0a4c54	0.0337642
145	0xbd621d2a	-0.055203594
146	0xbdd04b79	-0.10170645
147	0xbe84f241	-0.25966075
148	0xbd8bfaa1	-0.06834913
149	0x3e17e0f9	0.14831914
150	0x3ce794e7	0.028269244
151	0x3e52be1c	0.20580333
152	0xbde17ccf	-0.110101335
153	0x3e1be36c	0.15223473
154	0x3e6694f6	0.22517762
155	0x3e760b69	0.2402779
156	0x3df3bb22	0.11900927
157	0xbd3832cb	-0.044970315
158	0x3cab1ec3	0.020888692
159	0xbc2eb197	-0.010662458
160	0x3db6c457	0.089241676
161	0xbe328a65	-0.17435606
162	0xbdb68368	-0.089117825
163	0x3de88134	0.113527685
164	0xbdf2e141	-0.1185937
165	0x3e39b97c	0.18137163
166	0x3d60f882	0.054924496
167	0xbe3321e8	-0.17493403
168	0x3e76d3de	0.24104258
169	0xbdf255e1	-0.11832786
170	0x3ce934a2	0.02846748
171	0x3cd97675	0.026545743
172	0xbe28acc3	-0.16472153
173	0x3c13dc4f	0.009024694
174	0xbe17e593	-0.1483367
175	0x3d433f28	0.047667652
176	0xbcb81677	-0.02247165
177	0x3ced3b6a	0.028958995
178	0x3e3bdea8	0.18346655
179	0xbe79f6ca	-0.24410549
180	0x3cf2108a	0.029548902
181	0x3dbf1075	0.09329311
182	0xbd8cb949	-0.06871278
183	0xbcd2a40e	-0.025712993
184	0xbde30515	-0.11084954
185	0x3e7ee9dc	0.24893898
186	0xbe8751fe	-0.26429743
187	0xbd136452	-0.035984345
188	0x3e7a3586	0.2443448
189	0xbd4524f5	-0.048130948
190	0xbdac5b2c	-0.08415827
191	0x3d2bf955	0.04198583
192	0x3d034033	0.032043647
193	0xbd806269	-0.0626877
194	0xbcd54922	-0.026035849
195	0xbe32b7a8	-0.17452872
196	0x3e755772	0.23959139
197	0x3d67d78c	0.056602046
198	0xbd42448f	-0.047428664
199	0x3df8ba37	0.12144893
200	0x3db0ae95	0.08627049
201	0xbd684e4a	-0.056715287
202	0xbe060aa7	-0.13090001
203	0x3de3687e	0.11103915
204	0xbe0644af	-0.13112138
205	0x3e06b945	0.13156612
206	0xbe9efbeb	-0.31051573
207	0xbabe2752	-0.0014507568
208	0x3e3e0880	0.1855793
209	0xbdefdc1e	-0.11711906
210	0x3d825b19	0.06365032
211	0x3d85881c	0.065201014
212	0xbe4c8187	-0.19971286
213	0x3dc067a1	0.09394766
214	0x3e1fc8da	0.15603963
215	0x3ce1fc45	0.027586112
216	0xbe078b6d	-0.1323678
217	0x3cc03c65	0.023466298
218	0x3d911b56	0.07085292
219	0x3e1ae439	0.15126123
220	0xbe763201	-0.24042512
221	0x3e45cb0f	0.19315742
222	0xbe449663	-0.19197993
223	0xbd4d493b	-0.050118666
224	0xbdba9478	-0.091103494
225	0xbdb00689	-0.085949965
226	0xbe32f57f	-0.17476462
227	0x3d1fc7d6	0.039008938
228	0x3e05ec1c	0.1307835
229	0x3ca6f59a	0.020380784
230	0xbdcf22e9	-0.101140805
231	0xbe12ad8b	-0.14324014
232	0x3dbb5205	0.09146503
233	0xbe012ec9	-0.12615503
234	0x3cf04394	0.029329099
235	0x3e313da5	0.17308672
236	0x3def59ed	0.11687074
237	0x3d5eabfe	0.054363243
238	0x3e4f461b	0.20241587
239	0xbd10796f	-0.035272058
240	0xbe312f69	-0.17303242
241	0xbc0df511	-0.008664385
242	0x3d854b2f	0.06508481
243	0xbc173d3d	-0.009230909
244	0xbd142ca8	-0.0361754
245	0x3d55663b	0.052099448
246	0x3ab6f5fd	0.0013958808
247	0x3d8859b2	0.06657733
248	0xbdf06892	-0.11738695
249	0xbe415888	-0.18881428
250	0xbde0a912	-0.109697476
251	0x3ea650cc	0.32483518
252	0xbdd15bf5	-0.102226175
253	0x3daaa65d	0.083325125
254	0xbd9001c0	-0.07031584
255	0xbe851c93	-0.25998363

fc3.bias f4 [25]
0	0xbcb349aa	-0.021885712
1	0xbc9ccf41	-0.019141795
2	0xbbe2ecc6	-0.0069251982
3	0x3c556fa2	0.013027104
4	0xbd7babf3	-0.06144328
5	0x3dda8d10	0.10671437
6	0xbd360749	-0.04444054
7	0xbb544923	-0.0032392226
8	0xbd2155d4	-0.039388493
9	0xbc65573b	-0.013997848
10	0xbd5844a7	-0.052799847
11	0xbe097663	-0.13424067
12	0x3c8263cf	0.015916733
13	0x3d2a6d87	0.04160836
14	0x3ceb962e	0.028758135
15	0x3de482f1	0.111577876
16	0xbd3f1b3c	-0.046656832
17	0xbc973e87	-0.018462433
18	0xbdd02c48	-0.10164696
19	0xbe2594ee	-0.16170093
20	0xbe77ead1	-0.24210669
21	0x3bbd6402	0.005779744
22	0xbcf29e77	-0.029616578
23	0xbcc7460c	-0.024325393
24	0xbcb2db0c	-0.021832965
