examples/carla_scenic/Carla_Challenge/agent_scalar/target_net_1200.pt (torch, 96407 bytes, 6 tensors)

fc1.weight f4 [64, 8]
0.34507814 -0.029137278 -0.767184 0.005189931 -0.05252741 -1.3336931 0.544013 -0.17179994
-0.27386272 -0.41736126 -0.52623117 0.05191831 0.10807626 -1.0267491 -0.705898 -0.2887307
-0.06023453 -0.03496841 -0.06278134 -0.003698135 0.0032538 -0.24195924 -0.16214961 -0.07865004
0.8162732 -1.0326908 1.2571076 -0.031154059 0.010077113 -2.1488013 0.15593472 0.057967108
0.9063573 -0.26559436 -0.674226 -0.060844563 0.025771026 3.6853836 0.05472345 -0.0892812
0.09562038 0.015541586 -0.14654414 0.007674314 -0.0064442907 -0.059463784 -0.035582602 -0.3394344
-0.05356588 -0.09044842 -0.34149295 -0.121752515 0.020135904 0.7611457 -0.029425913 0.0056240647
0.89192754 -0.02557166 -0.40564552 -0.065866984 -0.04387945 0.73379695 -0.42799386 -0.40439767
-0.23589052 0.37430295 -0.21234755 0.10500202 0.042306423 -1.4260398 0.06009418 -0.43827718
0.37423235 -0.88994795 0.14185733 -0.080464944 0.032490656 -0.05906445 0.23302968 0.1455426
0.11354967 0.05812658 -0.05220485 -0.034294054 0.033527583 -0.6144061 -0.105376504 -0.5971769
0.08441038 -0.008286797 -0.21188237 0.0046585714 -0.00944632 0.09752487 -0.04524596 -0.23241565
-0.8849689 0.31946713 0.09274839 -0.023612421 0.033362966 -0.52368444 -0.29388553 -0.12944826
0.47413364 -0.048494667 -0.5475884 0.00581254 -0.022844298 0.11338221 -0.40383038 0.17712562
0.08545705 -0.16527078 -0.39388648 -0.019393137 0.020581339 0.27287653 -0.45055896 -0.24422519
0.13405932 -0.13898958 -0.21740149 0.0044446695 -0.016806824 -0.1267222 -0.014918944 -0.14364369
1.6795571 0.057833288 0.22767186 0.05273348 -0.00370956 -0.9976124 0.007760366 -0.06552575
0.4793883 0.23762818 -0.13823368 -0.1003238 0.006697946 0.24440032 -0.795381 -0.11999449
-0.05735 -0.07143596 -0.22671033 -0.004027845 0.024153912 -0.4524786 -0.5012123 -0.19066146
-0.122979134 -0.18837315 0.031065835 0.12258886 -0.033379614 -3.6722698 0.010546875 -0.012997476
-0.67128116 -0.60378224 -0.68859917 0.052705362 0.009563676 0.74392015 0.41492864 -0.048814807
-0.07125785 -0.45477986 -0.83309835 0.060385887 -0.0033356554 -4.393465 0.07430765 0.027659368
-0.35866413 -0.17917 -0.02891278 -0.07353361 0.04844708 2.9252572 0.20971335 -0.11195449
0.15552875 -0.11740115 -0.2899608 -0.01167264 0.0023268207 0.1305391 0.01008898 -0.17639428
0.36677188 -0.30949754 -0.07565577 0.032309625 -0.006791473 -1.2045316 0.0057292236 -0.46363828
0.12815142 -0.09622093 -0.23424792 -0.010261239 0.0065188217 0.03142126 0.025868401 -0.17135282
1.2859076 -0.7154524 -0.35241544 -0.017809346 -0.05054412 1.9353435 0.09718039 -0.104061596
0.17957209 0.14780062 -0.34752393 0.05372282 0.029211566 -0.48287022 -2.9187467 0.13458508
1.3043332 -0.4840261 0.96409976 0.009397049 -0.022252394 0.8718411 -0.09425929 0.014042159
0.012758669 -0.14221106 -0.14285567 -0.0006697434 0.014974426 -0.014899603 -0.037529774 -0.18100151
0.06007948 0.31009358 -0.121988535 -0.0017540848 0.002141178 0.6355339 -0.58431834 -0.40664354
-0.30065194 -1.1457931 -1.0628322 -0.022782754 0.012373113 0.13481864 0.18743885 0.03171033
00000000: 15ae b03e 4db1 eebc 2c66 44bf 4c10 aa3b
00000010: fb26 57bd 75b6 aabf 7044 0b3f 53ec 2fbe
00000020: bc37 8cbe 60b0 d5be 16b7 06bf 4ba8 543d
00000030: 1657 dd3d 846c 83bf bbb5 34bf 83d4 93be
00000040: 7cb8 76bd 093b 0fbd 8193 80bd 695c 72bb
00000050: b53d 553b 2ac4 77be 8c0a 26be 4613 a1bd
00000060: 48f7 503f 362f 84bf e7e8 a03f cc36 ffbc
00000070: 7a1a 253c f685 09c0 5aad 1f3e eb6e 6d3d
00000080: 0807 683f fcfb 87be 139a 2cbf 2638 79bd
00000090: c21d d33c 53dd 6b40 b225 603d 10d9 b6bd
000000a0: 9ed4 c33d 23a2 7e3c ab0f 16be d078 fb3b
000000b0: a12a d3bb 4c90 73bd 10bf 11bd 58ca adbe
000000c0: e567 5bbd 053d b9bd 2ad8 aebe 6259 f9bd
000000d0: 0df4 a43c 72da 423f 9d0e f1bc 134a b83b
000000e0: 5d55 643f a87b d1bc c5b0 cfbe 45e5 86bd
000000f0: f0ba 33bd 1eda 3b3f 0322 dbbe 360d cfbe
00000100: 498d 71be a3a4 bf3e a371 59be 4d0b d73d
00000110: 8049 2d3d 7988 b6bf 5125 763d de65 e0be
00000120: 629b bf3e a1d3 63bf 0c43 113e ceca a4bd
00000130: ec14 053d 91ed 71bd 559f 6e3e 1f09 153e
00000140: bb8c e83d 2316 6e3d c1d4 55bd ec77 0cbd
00000150: 3854 093d b849 1dbf a3cf d7bd 96e0 18bf
00000160: 59df ac3d 59c5 07bc b1f7 58be eea6 983b
00000170: bdc4 1abc 1ebb c73d d453 39bd 5efe 6dbe
00000180: 528d 62bf 3291 a33e def2 bd3d d66e c1bc
00000190: 9ba7 083d 2f10 06bf 2a78 96be 168e 04be
000001a0: a5c1 f23e 58a2 46bd c12e 0cbf 1f77 be3b
000001b0: f723 bbbc ef34 e83d dbc2 cebe 6b60 353e
000001c0: 1b04 af3d be3c 29be 7dab c9be 5bde 9ebc
000001d0: 329a a83c 79b6 8b3e aaaf e6be 2b16 7abe
000001e0: d946 093e 4953 0ebe 7f9e 5ebe 97a4 913b
000001f0: 77ae 89bc 77c3 01be 966e 74bc 5517 13be
00000200: bafb d63f 99e2 6c3d d022 693e 10ff 573d
00000210: 171c 73bb 8763 7fbf ab4a fe3b 5d32 86bd
00000220: 6272 f53e cd54 733e 218d 0dbe 9176 cdbd
00000230: 727a db3b 1444 7a3e 179e 4bbf acbf f5bd
00000240: d5e7 6abd 044d 92bd c126 68be 03fc 83bb
00000250: 6dde c53c 46ab e7be 734f 00bf c23c 43be
00000260: 7cdc fbbd e4e4 40be c77d fe3c de0f fb3d
00000270: 10b9 08bd 7806 6bc0 cdcc 2c3c 5ef3 54bc
00000280: 15d9 2bbf 7991 1abf 0948 30bf 94e1 573d
00000290: f7b0 1c3c 8d71 3e3f 8771 d43e 09f2 47bd
000002a0: a3ef 91bd e8d8 e8be ef45 55bf 3157 773d
000002b0: 039b 5abb 4497 8cc0 9c2e 983d e695 e23c
000002c0: d3a2 b7be 5778 37be 7fda ecbc ca98 96bd
000002d0: 7270 463d 6a37 3b40 19bf 563e 6548 e5bd
000002e0: ee42 1f3e 0470 f0bd be75 94be 9a3e 3fbc
000002f0: 937d 183b 0bac 053e 404c 253c b4a0 34be
00000300: 86c9 bb3e 7676 9ebe 6af1 9abd 1957 043d
00000310: 018b debb 172e 9abf 36bc bb3b ff61 edbe
00000320: 203a 033e 7b0f c5bd b0de 6fbe c11e 28bc
00000330: d79b d53b 94b3 003d f8e9 d33c 1d77 2fbe
00000340: 9f98 a43f e327 37bf cc6f b4be e8e4 91bc
00000350: 5a07 4fbd 56b9 f73f 8306 c73d 3f1e d5bd
00000360: bfe1 373e 0c59 173e a8ee b1be 760c 5c3d
00000370: 184d ef3c c43a f7be bfcc 3ac0 acd0 093e
00000380: 64f4 a63f 45d2 f7be 3ecf 763f 15f6 193c
00000390: a74a b6bc fa30 5f3f 040b c1bd 1511 663c
000003a0: bd09 513c c79f 11be c248 12be b891 2fba
000003b0: 4b57 753c 771d 74bc d2b8 19bd 7658 39be
000003c0: e715 763d 96c4 9e3e 20d5 f9bd 52e9 e5ba
000003d0: 0153 0c3b 5ab2 223f e395 15bf 9533 d0be
000003e0: 0def 99be 59a9 92bf e30a 88bf e6a2 babc
000003f0: 99b8 4a3c e60d 0a3e f8ef 3f3e b1e2 013d

fc1.bias f4 [64]
-0.22792469 -0.460441 -0.123218626 0.16386054 -0.063646786 -0.38360488 -0.32805347 -0.24349925
-0.45848307 0.39678413 -0.04833572 0.07212182 -0.3988493 0.060160678 -0.12262049 -0.40780035
0.28311995 -0.0010662946 -0.1576746 0.21531488 0.23555753 0.039481923 0.13083401 0.016995369
0.047045954 -0.11062096 0.1469211 0.11555939 -0.24481004 -0.11418851 -0.4709597 0.08011378
0.27750066 -0.57501847 -0.2920064 -0.30079153 -0.74140775 0.05544861 -0.44495788 0.20482053
-0.6257386 -0.3197213 -0.2892832 -0.24941345 -0.24985379 0.020129303 -0.040292796 -0.122734636
-0.13413057 0.20774125 -0.28541964 -0.16475852 -0.24021353 -0.24790215 0.22814907 0.2794893
0.0021843119 0.19281131 -0.09389288 -0.23418435 -0.4856407 0.23993361 -0.250886 -0.08638114
00000000: 1765 69be ecbe ebbe 0c5a fcbd 0fcb 273e
00000010: 3f59 82bd dc67 c4be a0f6 a7be de57 79be
00000020: 4bbe eabe 4a27 cb3e adfb 45bd 9bb4 933d
00000030: fa35 ccbe 0b6b 763d 7420 fbbd 35cb d0be
00000040: 19f5 903e e9c2 8bba 7375 21be 817b 5c3e
00000050: fe35 713e ccb7 213d 5af9 053e df39 8b3c
00000060: 42b3 403d 3e8d e2bd 7c72 163e 67aa ec3d
00000070: 7caf 7abe aadb e9bd a121 f1be b212 a43d
00000080: 9114 8e3e 6934 13bf dd81 95be 5901 9abe
00000090: e6cc 3dbf 151e 633d 85d1 e3be 79bc 513e
000000a0: 6830 20bf 83b2 a3be ed1c 94be 3d66 7fbe
000000b0: acd9 7fbe 35e6 a43c 0f0a 25bd 4c5c fbbd
000000c0: 8659 09be 1fba 543e 8622 92be 75b6 28be
000000d0: 89fa 75be 10da 7dbe e99f 693e 3919 8f3e
000000e0: ac26 0f3b 5470 453e e94a c0bd 06ce 6fbe
000000f0: e6a5 f8be 28b1 753e 2174 80be 98e8 b0bd

fc2.weight f4 [256, 64]
0.0571652 -0.116910025 -0.066250466 0.17239046 -0.5841217 -0.01351465 -1.0556058 -0.15416326
-0.07495743 -0.29495087 0.043365486 0.08880493 0.14634193 -0.16285783 -0.0854795 -0.171654
-0.16065937 -0.38784015 -0.46460965 0.14690922 0.107876174 -0.20372243 -0.6333473 -0.16121675
0.035267096 0.1272976 -0.14483528 -0.46369112 -0.08127397 -0.07526316 -0.33654755 -0.21379499
0.06606697 -0.034249816 -0.038727988 0.21363015 -0.57584435 -0.21047826 0.15347885 -0.20599613
0.018475736 -0.15001939 -0.42848215 0.02111847 -0.15107976 -0.056800958 0.076296225 0.13263398
-0.05232475 0.21230349 0.02207147 0.026425103 0.022918673 -0.25525376 -0.1339749 -0.046905994
-0.18756098 0.14015095 0.19339629 0.19358611 -0.0125440145 0.0062389164 -0.20496295 -0.7104271
-0.01973001 -0.14356996 0.09645892 0.03371172 0.10114469 0.05489506 -0.1287287 -0.19173703
-0.13180225 0.10546052 0.041366007 -0.15443817 0.006532615 -0.20430073 -0.025753658 -0.00045902873
-0.24428833 -0.013226447 -0.042690244 -0.041515566 -0.022436932 -0.7295722 -0.100729 0.13809505
-0.077392116 0.034240462 -0.36232874 0.1977025 -0.08418653 0.14113308 0.20775816 0.15604089
-0.026164394 -0.03426553 -0.27722907 0.030877165 -0.07648707 0.15018484 0.02788971 -0.0064827236
0.019328566 0.19192678 -0.15682074 0.10284257 -0.12261148 0.07652926 -0.030353444 0.1095794
0.08959312 -0.0057837623 -0.15761933 -0.009439437 -0.087052956 -0.10592384 -0.05141147 -0.2640277
0.2995659 0.027773857 -0.15410547 -0.073505074 -0.060726613 0.04183994 0.06401585 -0.060891096
-0.19858421 0.105522245 0.07037876 -0.047216203 0.0698783 -0.113282554 -0.08361655 -0.08165683
-0.15914021 -0.03614474 0.06682679 0.034188695 -0.035698734 -0.08597871 0.008416203 0.10276013
-0.3254103 -0.102848545 0.10432645 -0.04946355 -0.25870663 -0.06992665 -0.042267118 0.09236915
-0.0142674185 0.117244855 -0.14666553 0.027790511 -0.06314054 -0.061073218 -0.05362377 -0.08584807
-0.11975424 -0.048052263 0.025500689 0.04251147 -0.16245303 0.21354756 0.042619646 -0.060017716
-0.12319099 0.0060157175 -0.16775148 0.011898837 0.026745563 0.05728217 -0.011632838 -0.17426065
0.15890181 0.07833455 0.024062982 0.022845171 -0.1399074 -0.03216352 0.011172188 -0.36202177
-0.21733095 0.16012767 -0.19805294 -0.20000394 -0.18775444 -0.17979483 -0.19823429 -0.056693383
-0.075575046 -0.08485617 -0.04022104 -0.019866446 -0.12875415 -0.115505576 -0.20466077 0.015508998
-0.3042823 -0.06579267 -0.2952839 -0.27007163 0.001408645 0.05552587 -0.15657777 0.05642725
-0.23116052 -0.17296775 0.122786306 0.014394182 -0.09015924 -0.14919268 -0.1983784 -0.043499336
-0.12766078 -0.24297507 0.17687593 -0.07647263 -0.25351694 0.009795472 -0.12625206 -0.34712318
0.11736115 -0.03879563 0.005946463 -0.04499579 0.02680007 -0.04935753 0.10303933 0.0031721403
-0.042800482 -0.12858139 -0.10144827 0.15369847 -0.062418003 -0.008571512 -0.013342026 -0.14153774
-0.016043397 -0.15783028 -0.06507827 0.046243478 -0.022087947 -0.1865495 -0.058071 -0.06407559
0.021893943 0.040345106 -0.23498067 -0.15819132 -0.02216741 -0.016927551 -0.2548552 -0.049721047
00000000: 0f26 6a3d 866e efbd 53ae 87bd 2087 303e
00000010: 0089 15bf 8d6c 5dbc 171e 87bf f9dc 1dbe
00000020: 4883 99bd cd03 97be 02a0 313d 5cdf b53d
00000030: a9da 153e 34c4 26be e00f afbd 11c6 2fbe
00000040: e483 24be fc92 c6be 51e1 edbe 5f6f 163e
00000050: 2fee dc3d 9d9c 50be 0c23 22bf 0116 25be
00000060: 3b74 103d 4d5a 023e b34f 14be ec68 edbe
00000070: f872 a6bd 9223 9abd f64f acbe 13ed 5abe
00000080: 1f4e 873d 8949 0cbd 3da1 1ebd ddc1 5a3e
00000090: 896a 13bf 9d87 57be 8f29 1d3e a6f0 52be
000000a0: 6d5a 973c af9e 19be 0362 dbbe a400 ad3c
000000b0: a7b4 1abe 1fa8 68bd 3241 9c3d 34d1 073e
000000c0: 7a52 56bd 1666 593e 3acf b43c 7579 d83c
000000d0: f1bf bb3c 9fb0 82be b730 09be 8020 40bd
000000e0: fc0f 40be bb83 0f3e ad09 463e 703b 463e
000000f0: 6985 4dbc d36f cc3b cfe1 51be 8dde 35bf
00000100: d4a0 a1bc 0104 13be 418c c53d 4d15 0a3d
00000110: f224 cf3d a4d9 603d 75d1 03be b656 44be
00000120: 2bf7 06be affb d73d 676f 293d 0a25 1ebe
00000130: 8c0f d63b 3634 51be 56f9 d2bc cba9 f0b9
00000140: b826 7abe bdb3 58bc f7db 2ebd 3a0c 2abd
00000150: a8cd b7bc 3ec5 3abf 024b cebd ca68 0d3e
00000160: c27f 9ebd ba3f 0c3d 2783 b9be 8672 4a3e
00000170: fd69 acbd 3185 103e 8ebe 543e 2fc9 1f3e
00000180: b656 d6bc 035a 0cbd f8f0 8dbe 1cf2 fc3c
00000190: 41a5 9cbd 0eca 193e f678 e43c 076d d4bb
000001a0: f156 9e3c 7488 443e 9e95 20be 209f d23d
000001b0: ba1b fbbd 5fbb 9c3d c9a7 f8bc 2a6b e03d
000001c0: 997c b73d b785 bdbb f666 21be dea7 1abc
000001d0: d248 b2bd 99ee d8bd d594 52bd a42e 87be
000001e0: b460 993e 0086 e33c d3cd 1dbe d489 96bd
000001f0: 78bc 78bd 5b60 2b3d be1a 833d f168 79bd
00000200: a959 4bbe 0c1c d83d bd22 903d c765 41bd
00000210: 5b1c 8f3d af00 e8bd 273f abbd b23b a7bd
00000220: a7f5 22be 820c 14bd 7cdc 883d 7209 0c3d
00000230: d638 12bd 9b15 b0bd 1de4 093c e773 d23d
00000240: 2e9c a6be 42a2 d2bd 1ba9 d53d 4b9a 4abd
00000250: 3275 84be b435 8fbd 4920 2dbd 092c bd3d
00000260: e4c1 69bc 121e f03d 7d2f 16be eda8 e33c
00000270: d44f 81bd e927 7abd 99a4 5bbd 1dd1 afbd
00000280: b641 f5bd 73d2 44bd d2e6 d03c 8220 2e3d
00000290: 165a 26be 36ac 5a3e f091 2e3d 23d5 75bd
000002a0: 8f4b fcbd 7f1f c53b 0bc7 2bbe 57f3 423c
000002b0: 8319 db3c b5a0 6a3d a997 3ebc 6271 32be
000002c0: 28b7 223e dd6d a03d bb1f c53c cc25 bb3c
000002d0: e343 0fbe e5bd 03bd 8e0b 373c eb5a b9be
000002e0: 018c 5ebe 82f8 233e 64ce 4abe d5cd 4cbe
000002f0: b342 40be 231c 38be eefd 4abe 5237 68bd
00000300: 17c7 9abd 12c9 adbd d1be 24bd f5be a2bc
00000310: 21d8 03be 308e ecbd 9892 51be 7419 7e3c
00000320: e4ca 9bbe 4fbe 86bd 742f 97be d446 8abe
00000330: 48a2 b83a 186f 633d ec55 20be 4320 673d
00000340: 58b5 6cbe 751e 31be 6377 fb3d 93d5 6b3c
00000350: 68a5 b8bd f7c5 18be b523 4bbe 5c2c 32bd
00000360: 82b9 02be 75ce 78be f71e 353e af9d 9cbd
00000370: f9cc 81be 307d 203c 3848 01be 21ba b1be
00000380: 0b5b f03d 2be8 1ebd 8cda c23b 814d 38bd
00000390: d28b db3c 1f2b 4abd 4906 d33d afe3 4f3b
000003a0: 8f4f 2fbd d7aa 03be 1cc4 cfbd 2263 1d3e
000003b0: 05aa 7fbd 876f 0cbc 8398 5abc 45ef 10be
000003c0: 716d 83bc 439e 21be c247 85bd cd69 3d3d
000003d0: c8f1 b4bc d506 3fbe dbdb 6dbd 103a 83bd
000003e0: ed5a b33c e940 253d c69e 70be e8fc 21be
000003f0: 6e98 b5bc a6ab 8abc 617c 82be 4ca8 4bbd

fc2.bias f4 [256]
-0.038070537 -0.31790248 -0.2387668 0.038631067 -0.009937048 -0.31900987 -0.026966091 -0.19926853
-0.28375858 0.21530661 0.22035898 0.07702234 -0.16095915 -0.058621913 0.2752802 -0.0011601677
-0.19308423 -0.07903471 0.01757126 -0.39070138 -0.06155702 -0.19499941 -0.20421916 -0.36638775
-0.021695023 -0.14734326 0.12385871 -0.08655045 -0.06708289 -0.14867836 -0.22437972 -0.15325466
-0.095868565 -0.3698822 -0.18500109 -0.0045830347 -0.09177068 -0.44445938 0.1439536 0.0649718
0.49882317 -0.14595044 -0.18991713 -0.34632745 -0.11892314 0.08480402 0.004059937 -0.18333909
-0.019314513 -0.19407329 0.27114478 -0.08799746 -0.17067443 -0.16833055 -0.21145199 -0.016135493
0.0058753756 0.47316054 -0.010643608 0.24224524 -0.18340336 -0.1574114 -0.16255705 0.2600567
-0.35998377 -0.11856894 -0.45730853 0.008767971 -0.07679027 0.19164033 0.004557488 -0.13839167
-0.15713146 0.4459339 -0.14618848 -0.20639719 -0.10650912 0.008645871 -0.20318355 -0.05568478
-0.120359056 -0.1370503 -0.11170195 -0.15373342 -0.05419671 -0.0748344 -0.20873445 -0.1068444
-0.31308353 -0.016327875 0.6431152 -0.2724877 -0.27922457 0.038529146 -0.12552534 -0.19914198
-0.11732306 -0.30012435 -0.14671946 -0.24787906 -0.18124722 -0.06489931 -0.13780162 0.13023354
0.08756792 -0.17007662 -0.200567 0.29949978 -0.019665204 0.4523127 -0.23266731 -0.17135198
-0.55465174 0.2511749 -0.22553058 -0.24105385 -0.19118814 -0.1941751 -0.21460924 -0.22951108
0.031340655 0.039899517 -0.10185749 -0.10940636 -0.2064767 -0.23448241 -0.06562242 -0.008770958
0.024816789 -0.10799988 0.08074869 0.078139864 -0.116665155 -0.31684792 -0.28145793 0.14681058
-0.3469416 -0.15505044 -0.025841024 -0.29831955 -0.049524974 -0.15651219 -0.17063333 -0.1408443
-0.122386634 -0.14831378 0.020547964 0.006322431 0.02223579 0.2371017 -0.044422098 -0.08932114
0.22410496 0.60425127 0.11233743 -0.04748034 -0.041817334 0.0505055 -0.19784598 -0.03671015
0.21240355 -0.02408858 0.02403015 -0.18293981 -0.39207584 0.14600022 -0.26165494 -0.13922507
-0.07299243 -0.45178434 -0.044919357 -0.27238667 0.21319123 0.13222407 -0.027592942 -0.26690245
-0.30846855 -0.057378702 0.44188556 -0.20236112 -0.11547472 0.07363992 -0.100867756 -0.16421838
-0.17166424 0.15915453 -0.22179975 -0.06055705 -0.26083714 -0.35255277 -0.15748943 -0.25573945
0.21017829 -0.41408825 -0.014213584 -0.14522055 -0.15140523 -0.1191263 -0.20482942 -0.14229104
-0.20025113 -0.16772205 -0.18009639 -0.08167022 -0.14054629 -0.1837635 -0.582198 -0.10933389
0.4729567 -0.24840395 -0.23983312 -0.26425087 -0.3786321 -0.29994494 -0.030636078 -0.14379437
0.038611315 -0.21984684 0.014714317 -0.19159502 -0.063044816 0.23120731 -0.070849 -0.21971063
-0.32118535 -0.24744458 -0.11732199 -0.044628695 0.033473086 -0.22277676 0.114277676 -0.13797219
-0.2571407 -0.18366757 -0.16433059 -0.05072883 -0.09508168 0.2530038 -0.06579204 0.23003212
-0.30355835 -0.27251962 -0.23441644 -0.051954355 -0.080008574 -0.061149504 -0.10399495 -0.20565371
-0.18368436 -0.24452075 0.1200911 -0.03320723 -0.15452285 0.04047605 -0.020478562 0.1875834
00000000: daef 1bbd 1dc4 a2be 497f 74be 9c3b 1e3d
00000010: 00cf 22bc 4355 a3be fee7 dcbc 0d0d 4cbe
00000020: ce48 91be 5679 5c3e c9a5 613e e3bd 9d3d
00000030: 7ad2 24be 881d 70bd 87f1 8c3e c510 98ba
00000040: dfb7 45be f3dc a1bd 9af1 8f3c 030a c8be
00000050: 3723 7cbd edad 47be d41e 51be 2d97 bbbe
00000060: c3b9 b1bc 27e1 16be a3a9 fd3d 5d41 b1bd
00000070: c162 89bd 243f 18be ccc3 65be caee 1cbe
00000080: bd56 c4bd 3361 bdbe ed70 3dbe 482d 96bb
00000090: 44f2 bbbd 2e90 e3be 9368 133e ef0f 853d
000000a0: c065 ff3e 0874 15be a379 42be d551 b1be
000000b0: fa8d f3bd bbad ad3d 3809 853b 3ebd 3bbe
000000c0: 7839 9ebc 26bb 46be 7dd3 8a3e 0338 b4bd
000000d0: 47c5 2ebe d85e 2cbe df86 58be 952e 84bc
000000e0: 3986 c03b 1942 f23e 8762 2ebc 230f 783e
000000f0: 17ce 3bbe 7430 21be 5b75 26be 2726 853e
00000100: cb4f b8be 46d4 f2bd 5824 eabe 89a7 0f3c
00000110: 3844 9dbd 5d3d 443e fb56 953b 8cb6 0dbe
00000120: 12e7 20be 7351 e43e 6fb2 15be c959 53be
00000130: 7421 dabd 69a7 0d3c 590f 50be b915 64bd
00000140: cf7e f6bd ea56 0cbe fec3 e4bd 4b6c 1dbe
00000150: 5ffd 5dbd c742 99bd 7cbe 55be 3dd1 dabd
00000160: 7c4c a0be 09c2 85bc 33a3 243f 8283 8bbe
00000170: 86f6 8ebe bdd0 1d3d b789 00be e0eb 4bbe
00000180: 1347 f0bd e6a9 99be a03d 16be 02d4 7dbe
00000190: df98 39be eee9 84bd de1b 0dbe f15b 053e
000001a0: cf56 b33d 9128 2ebe 7061 4dbe 0958 993e
000001b0: ec18 a1bc 8895 e73e 5740 6ebe e576 2fbe
000001c0: a8fd 0dbf ff99 803e 7df1 66be d2d6 76be
000001d0: d3c6 43be d6d5 46be 86c2 5bbe f404 6bbe
000001e0: 0f5f 003d ad6d 233d a99a d0bd 7110 e0bd
000001f0: a16e 53be 281c 70be 0c65 86bd 10b4 0fbc
00000200: 944c cb3c 0b2f ddbd 925f a53d cb07 a03d
00000210: 24ee eebd e439 a2be 411b 90be 8355 163e
00000220: 54a2 b1be 8bc5 1ebe 8eb0 d3bc 57bd 98be
00000230: b3da 4abd bb44 20be 81ba 2ebe 7d39 10be
00000240: d8a5 fabd 91df 17be 3454 a83c 652c cf3b
00000250: d527 b63c caca 723e f2f3 35bd 00ee b6bd
00000260: c57b 653e 36b0 1a3f 2b11 e63d bf7a 42bd
00000270: a748 2bbd dbde 4e3d 2398 4abe 625d 16bd
00000280: 5180 593e 6a55 c5bc e1da c43c 9354 3bbe
00000290: 2abe c8be 1581 153e a3f7 85be 0491 0ebe
000002a0: 0e7d 95bd 4750 e7be 5cfd 37bd 4476 8bbe
000002b0: cd4e 5a3e bf65 073e 980a e2bc 70a7 88be
000002c0: 97ef 9dbe ee05 6bbd d33e e23e c137 4fbe
000002d0: 037e ecbd 87d0 963d c193 cebd dd28 28be
000002e0: c0c8 2fbe 68f9 223e 791f 63be ab0a 78bd
000002f0: 728c 85be cc81 b4be e944 21be 48f0 82be
00000300: fa38 573e 6003 d4be 18e0 68bc b2b4 14be
00000310: f909 1bbe 7df8 f3bd cebe 51be beb4 11be
00000320: a20e 4dbe 54bf 2bbe 306b 38be b742 a7bd
00000330: 5eeb 0fbe 802c 3cbe ee0a 15bf 72ea dfbd
00000340: 6127 f23e 9b5d 7ebe d096 75be e44b 87be
00000350: 11dc c1be 6292 99be 83f8 fabc d53e 13be
00000360: e626 1e3d 881f 61be 5214 713c 7c31 44be
00000370: a41d 81bd 9cc1 6c3e 4819 91bd d3fb 60be
00000380: 6872 a4be 1d62 7dbe 8346 f0bd 94cc 36bd
00000390: 131b 093d 971f 64be 6a0a ea3d 9548 0dbe
000003a0: f2a7 83be 5a13 3cbe 4746 28be 09c9 4fbd
000003b0: 2fba c2bd b789 813e fabd 86bd 8a8d 6b3e
000003c0: 006c 9bbe b187 8bbe dd0a 70be 17ce 54bd
000003d0: 89db a3bd e777 7abd 4efb d4bd e396 52be
000003e0: c117 3cbe a663 7abe 53f2 f53d 4e04 08bd
000003f0: 3d3b 1ebe 37ca 253d a8c2 a7bc dd15 403e

fc3.weight f4 [25, 256]
-0.3836349 -0.09561977 0.05371422 -0.033703495 -0.02281916 -0.14982434 -0.13359234 -0.13223901
-0.13201553 -0.29711673 -0.069068626 -0.18026365 -0.08607585 0.27171543 0.36582053 -0.22333306
-0.13042095 -0.009253331 -0.0183172 -0.07010113 0.016262472 0.2812742 0.061907392 0.0529761
-0.21329653 -0.1652636 -0.2007005 0.18276499 -0.07684968 -0.056292117 -0.13491198 0.14974965
0.21930438 -0.14522156 0.013786836 0.13147816 -0.031189146 -0.17305687 0.1300887 0.10647759
0.20470646 0.1870572 -0.28844133 -0.0014294118 -0.025858538 -0.1819718 0.5245954 -0.21956351
0.20989233 -0.14348292 0.22530723 0.006448233 -0.028011953 0.083871186 0.15135959 -0.01172064
0.3397893 0.34751412 0.2629928 0.19840083 -0.078996584 -0.0012301458 -0.11293443 0.16443396
0.04602695 -0.054414872 0.07191709 0.07699564 0.3248705 0.26126903 0.44255698 -0.14974138
-0.30613565 0.2844042 0.22361153 0.52145857 -0.040139973 0.40153995 -0.047228154 0.12568903
-0.28812963 0.31047356 0.00447703 -0.13528033 -0.09477933 0.12786643 -0.16278662 0.038438138
-0.21846242 0.060934443 0.22667868 0.10863611 -0.014156754 0.14355394 -0.07077536 -0.10582007
-0.093070656 0.023201626 0.12369268 -0.060197312 0.027223455 -0.023912525 -0.052551355 0.19520387
0.24959268 0.05615175 0.25847048 -0.5371165 -0.05583967 0.5365338 -0.0042113625 -0.042215656
0.027463032 0.5128369 0.14169322 0.09156093 -0.16503432 -0.051644664 0.047209498 -0.021506295
0.0593122 0.037206445 -0.06268847 -0.12668721 -0.023644803 -0.12512642 0.021315936 -0.04071639
0.3796914 0.117012724 -0.08070625 0.3512199 0.04893314 0.017744886 -0.133531 -0.19292328
0.07638833 -0.10396652 -0.01797964 -0.10192812 -0.14756778 0.002161858 -0.014733407 -0.06598243
0.0337642 -0.046674654 -0.10170645 0.2570989 -0.0064096036 0.304838 0.0963787 -0.02640196
-0.16940269 0.1968725 0.29735965 0.2402779 0.11900927 0.18131673 -0.02611141 -0.02241921
0.060287714 -0.08655643 -0.089117825 0.08114986 -0.30014077 0.39482728 0.054924496 0.036324352
0.24104258 -0.08918074 0.02846748 0.3119835 -0.08088316 -0.12639685 -0.13665943 -0.11934955
-0.02247165 -0.060284927 0.23842345 -0.20645747 0.029548902 0.2477961 -0.06871278 -0.025712993
-0.07908662 0.7311789 -0.26429743 -0.035984345 0.21465579 -0.014677454 -0.08415827 0.04198583
0.012181977 -0.1486001 -0.026035849 -0.18217829 0.23959139 0.12902632 -0.047428664 0.18004507
-0.070647284 -0.14821643 -0.13090001 0.28118974 -0.14390974 0.06543964 0.08121786 -0.0014507568
0.29150066 -0.11711906 0.06365032 0.065201014 -0.2237681 0.062230807 0.1266597 -0.029817104
-0.18174152 0.054945804 -0.042985823 0.15126123 -0.24042512 0.10301246 -0.25882995 -0.08728873
0.0506438 -0.10587725 -0.10123579 0.3134303 0.37205118 0.020380784 -0.02853585 -0.14324014
0.053345785 -0.13383822 0.061854564 0.3824031 0.041929718 0.5291762 0.635159 0.24732149
-0.29526857 -0.023639495 0.033322804 -0.009230909 -0.18982136 0.052099448 0.0013958808 0.06657733
-0.23262472 -0.22723602 -0.323424 0.29872784 0.070019074 -0.22250576 -0.07602905 -0.3200622
00000000: cb6b c4be 4cd4 c3bd 7103 5c3d ad0c 0abd
00000010: 3fef babc 8d6b 19be 6ecc 08be aa69 07be
00000020: 142f 07be af1f 98be da73 8dbd 0997 38be
00000030: 8948 b0bd 491e 8b3e d44c bb3e 6cb1 64be
00000040: 128d 05be 499b 17bc f40d 96bc 2e91 8fbd
00000050: e038 853c 2c03 903e 9b92 7d3d 78fd 583d
00000060: 686a 5abe dc3a 29be 6f84 4dbe bf26 3b3e
00000070: 5d63 9dbd 9092 66bd 5e26 0abe f957 193e
00000080: 5491 603e f6b4 14be 2ee2 613c 36a2 063e
00000090: 6180 ffbc d235 31be f935 053e ec10 da3d
000000a0: 929e 513e ec8b 3f3e 95ae 93be 1a5b bbba
000000b0: 49d5 d3bc d156 3abe e24b 063f 42d5 60be
000000c0: 04ee 563e 30ed 12be f0b6 663e b34b d33b
000000d0: 5379 e5bc a8c4 ab3d 02fe 1a3e ed07 40bc
000000e0: ddf8 ad3e 5fed b13e fea6 863e 9629 4b3e
000000f0: f6c8 a1bd d83c a1ba 2b4a e7bd 6061 283e
00000100: c186 3c3d 21e2 5ebd 4449 933d e4af 9d3d
00000110: 6d55 a63e 0ec5 853e d496 e23e ce55 19be
00000120: d0bd 9cbe 6d9d 913e 6cfa 643e 4f7e 053f
00000130: d069 24bd a596 cd3e 4f72 41bd a0b4 003e
00000140: ba85 93be 64f6 9e3e 0db4 923b ed86 0abe
00000150: aa1b c2bd 6bef 023e 89b1 26be 4f71 1d3d
00000160: 9db4 5fbe 6596 793d 751e 683e 9c7c de3d
00000170: bbf1 67bc ceff 123e acf2 90bd 31b8 d8bd
00000180: d49b bebd 5611 be3c 9652 fd3d 7591 76bd
00000190: b903 df3c 33e4 c3bc 1740 57bd 86e3 473e
000001a0: 3995 7f3e 61ff 653d 3e56 843e 7880 09bf
000001b0: 23b8 64bd 475a 093f 78ff 89bb 53ea 2cbd
000001c0: 27fa e03c 4749 033f 0718 113e 4c84 bb3d
000001d0: c2fe 28be 5b89 53bd bf5e 413d f82d b0bc
000001e0: 59f1 723d c965 183d d062 80bd 4bba 01be
000001f0: bfb2 c1bc 2421 00be c29e ae3c 3bc6 26bd
00000200: e966 c23e 5ea4 ef3d 5249 a5bd 18d3 b33e
00000210: 1e6e 483d b95d 913c 5abc 08be ae8d 45be
00000220: 7c71 9c3d 66ec d4bd 0a4a 93bc b1bf d0bd
00000230: 021c 17be f5ad 0d3b 6364 71bc cc21 87bd
00000240: 544c 0a3d ec2d 3fbd 794b d0bd 78a2 833e
00000250: a707 d2bb ba13 9c3e 3262 c53d ec48 d8bc
00000260: e677 2dbe f298 493e 863f 983e 690b 763e
00000270: 22bb f33d 18ab 393e 99e7 d5bc 7ea8 b7bc
00000280: 40f0 763d 7f44 b1bd 6883 b6bd e631 a63d
00000290: 0dac 99be cd26 ca3e 82f8 603d d8c8 143d
000002a0: ded3 763e 64a4 b6bd a234 e93c 4dbc 9f3e
000002b0: 12a6 a5bd 2d6e 01be 73f0 0bbe 896d f4bd
000002c0: 7716 b8bc 54ed 76bd 4725 743e 9669 53be
000002d0: 8a10 f23c 43be 7d3e 49b9 8cbd 0ea4 d2bc
000002e0: 2af8 a1bd 8a2e 3b3f fe51 87be 5264 13bd
000002f0: bace 5b3e b479 70bc 2c5b acbd 55f9 2b3d
00000300: ea96 473c a02a 18be 2249 d5bc f28c 3abe
00000310: 7257 753e 7a1f 043e 8f44 42bd bc5d 383e
00000320: 86af 90bd 0cc6 17be a70a 06be 1af8 8f3e
00000330: 135d 13be 3805 863d 8d55 a63d 5227 beba
00000340: 933f 953e 1edc efbd 195b 823d 1c88 853d
00000350: 7723 65be bbe5 7e3d 15b3 013e 0043 f4bc
00000360: 731a 3abe da0e 613d e711 30bd 39e4 1a3e
00000370: 0132 76be 32f8 d23d 5c85 84be 6fc4 b2bd
00000380: e06f 4f3d 2cd6 d8bd b654 cfbd f079 a03e
00000390: 7e7d be3e 9af5 a63c 04c4 e9bc 8bad 12be
000003a0: 1c81 5a3d e30c 09be 365b 7d3d 57ca c33e
000003b0: 7fbe 2b3d 1778 073f c899 223f d841 7d3e
000003c0: 712d 97be 9da7 c1bc 7e7d 083d 3d3d 17bc
000003d0: 8860 42be 3b66 553d fdf5 b63a b259 883d
000003e0: 2d35 6ebe 8fb0 68be d597 a5be dbf2 983e
000003f0: 2966 8f3d 8dd8 63be 1eb5 9bbd 31df a3be

fc3.bias f4 [25]
0.20473783 0.16420944 0.09706787 0.015090454 0.030897241 0.18413886 0.09612066 0.10765303
0.08884192 0.009029738 0.14616048 -0.0028794592 0.08800636 -0.045477774 0.04542784 0.15225647
0.10707897 0.029753804 0.015234601 -0.070936814 0.0040110387 0.23878618 0.13421349 0.10572156
-0.0934557
00000000: cba6 513e 8526 283e 85cb c63d f43d 773c
00000010: 361c fd3c e68e 3c3e e9da c43d 3179 dc3d
00000020: c1f2 b53d 77f1 133c 18ab 153e 4fb5 3cbb
00000030: ae3c b43d e746 3abd 8b12 3a3d 1fe9 1b3e
00000040: 384c db3d 40be f33c 8c9a 793c 5247 91bd
00000050: 086f 833b 5d84 743e 436f 093e 8c84 d83d
00000060: b465 bfbd
