examples/carla_scenic/Carla_Challenge/agent_scalar/target_net_600.pt (torch, 96407 bytes, 6 tensors)

fc1.weight f4 [64, 8]
0	0xbf022bbe	-0.50847995
1	0xbef540a7	-0.47900888
2	0xbc8cc34c	-0.017182969
3	0xbcb0a391	-0.02156237
4	0x3ce0d289	0.027444141
5	0xbebfd0ac	-0.37463892
6	0xbf4abf0b	-0.7919776
7	0xbee51b73	-0.44747505
8	0x3e319c28	0.17344725
9	0xbddef7a5	-0.10887078
10	0xbe20abae	-0.1569049
11	0xbc03b03b	-0.008037622
12	0x3c0dae2f	0.008647486
13	0xbdda1b53	-0.10649743
14	0xbe4360e4	-0.1907993
15	0xbe04d0ea	-0.1297032
16	0xbe6ffa75	-0.23435386
17	0xbe137152	-0.14398697
18	0xbebc7493	-0.3680769
19	0xbc2eb4f7	-0.010663263
20	0xbc473cb0	-0.012160465
21	0x3e417fcf	0.18896411
22	0xbe79da17	-0.24399601
23	0xbe9f8075	-0.31152692
24	0xbe734c35	-0.2375954
25	0xbda1c84d	-0.078995325
26	0xbdff90fe	-0.12478827
27	0x3cd2dcc8	0.025740042
28	0xbc9b8e50	-0.018988758
29	0x3eaa683a	0.33282644
30	0xbe8254d8	-0.25455356
31	0xbec8273d	-0.39092436
32	0x3ee0344b	0.43789896
33	0xbe8410c2	-0.25794035
34	0x3f1190d5	0.5686162
35	0x3ec18716	0.37798375
36	0x3ef24b21	0.47322944
37	0xbf834d0f	-1.0257891
38	0xbe44d406	-0.19221506
39	0xbd2c4f72	-0.042067952
40	0xbfefd470	-1.8736706
41	0xbe1394b3	-0.14412193
42	0x3f01e931	0.50746447
43	0xbdad0568	-0.08448297
44	0x3d41b6bf	0.04729342
45	0x40c6c815	6.211924
46	0x3dc4bc8d	0.09606276
47	0x3cb4d5ce	0.022074606
48	0xbf5d7e1f	-0.8652057
49	0xbf9d0fb8	-1.2270422
50	0x3eb3957b	0.35074982
51	0xbca05fec	-0.01957699
52	0xbd916533	-0.0709938
53	0x4001b5c9	2.0267203
54	0xbf9f18e3	-1.242947
55	0xbf2d5738	-0.6771121
56	0x405b85fb	3.4300525
57	0x3dcd4c0a	0.10024269
58	0x3ff3d842	1.9050372
59	0xbd80040e	-0.06250773
60	0xbd13b058	-0.036056846
61	0xbe2b1ae8	-0.16709483
62	0xbece4dbd	-0.40293685
63	0xbf236c95	-0.6383756
64	0x3f1b2a00	0.6061096
65	0xbe957b05	-0.2919542
66	0xbdc2be3b	-0.0950894
67	0xbd0254ca	-0.031819142
68	0x3c200f3d	0.009769258
69	0x3d71111d	0.05885421
70	0xbf5bbadb	-0.85831994
71	0xbeab2d06	-0.33432788
72	0x3f07d08d	0.530526
73	0xbfd14bf1	-1.63513
74	0xbe9e6448	-0.30935884
75	0xbe69e263	-0.22840266
76	0x3cfdce5c	0.030982189
77	0x40584597	3.3792474
78	0xbf104374	-0.56352925
79	0xbdc51274	-0.0962266
80	0xbd9109ad	-0.07081924
81	0xbfe8cb20	-1.8186989
82	0x3f025e69	0.5092531
83	0xbe7360f2	-0.2376745
84	0x3e4256f5	0.18978484
85	0x3fe21299	1.7661926
86	0xbee8a324	-0.45436966
87	0xbd9fb103	-0.07797434
88	0x3b93fd30	0.0045162663
89	0xbe47184e	-0.19442865
90	0xbe5835f7	-0.21114336
91	0x3bf79063	0.007555054
92	0xbbbe9c62	-0.005816982
93	0x3dc53d21	0.096308
94	0xbe936e5b	-0.28795132
95	0xbdc3870f	-0.09547245
96	0xbca2c799	-0.019870566
97	0xbcb1efdf	-0.021720825
98	0xbe4c900c	-0.19976825
99	0x3cd5c109	0.026093023
100	0x3bf36266	0.0074275015
101	0xbe6c6a45	-0.23087414
102	0xbeec861d	-0.4619607
103	0xbe94394d	-0.28949967
104	0xbd5565ff	-0.052099224
105	0xbed02f01	-0.4066086
106	0xbe7d8484	-0.24757582
107	0xbcf01419	-0.029306458
108	0x3c97b8e8	0.018520787
109	0x3f15e8ef	0.58558553
110	0xbe690e58	-0.22759378
111	0xbeb5ac81	-0.35483173
112	0xbd9b73d2	-0.0759045
113	0x3eee08a5	0.4649097
114	0xbf69c229	-0.9131189
115	0xbc287262	-0.010281177
116	0x3c88496f	0.016636578
117	0xbf4f758d	-0.81038743
118	0x3eca3773	0.3949543
119	0x3e89e71c	0.26934135
120	0xbe2943e0	-0.16529799
121	0xbe852b61	-0.26009658
122	0xbe3a2d42	-0.18181327
123	0x3d9291f3	0.07156744
124	0xbb76a4a9	-0.0037634766
125	0xbef18e1f	-0.47178742
126	0xbf1465ef	-0.5796804
127	0xbef11458	-0.47085834
128	0x3c89283f	0.016742824
129	0xbcea0a8a	-0.028569479
130	0x3dcaaeda	0.098966315
131	0xbb73fd20	-0.0037229732
132	0x3ad21f91	0.0016031136
133	0xbd498557	-0.04919943
134	0x3d42aa0b	0.047525447
135	0xbe289153	-0.16461687
136	0x3e1a6916	0.1507915
137	0x3db5d63d	0.08878753
138	0xbfa14795	-1.259997
139	0xbc37f054	-0.011226732
140	0x3b373c90	0.0027959682
141	0x3f17b034	0.5925324
142	0x3fa17785	1.26146
143	0xbf3fe35f	-0.74956316
144	0x3c8c2999	0.017109679
145	0x3ebfa318	0.37429118
146	0xbed29ec3	-0.4113675
147	0x3d2ccc4d	0.042187024
148	0x3dc9349a	0.09824486
149	0xbec94b16	-0.393151
150	0x3f892683	1.0714878
151	0xbf895da4	-1.0731702
152	0xc003e553	-2.0608718
153	0x3d71279d	0.05887567
154	0xbedc815c	-0.43067443
155	0xbe2a5da1	-0.16637279
156	0xbd9a23dd	-0.07526372
157	0xbffc4524	-1.97086
158	0x3e83a0ab	0.25708517
159	0x3d371c74	0.04470487
160	0xbf929756	-1.1452434
161	0xbf0743fe	-0.5283812
162	0xc0015aff	-2.021179
163	0xbd369daa	-0.044583954
164	0x3d900489	0.07032115
165	0x3fc1542c	1.5103812
166	0x3e8a0eb9	0.26964357
167	0x3ea80176	0.32813615
168	0xc0389eb2	-2.884686
169	0xbd8930b9	-0.06698746
170	0x3ec94efb	0.3931807
171	0xbe732e34	-0.23748094
172	0xbe1b2298	-0.15149915
173	0x3e81ab1c	0.2532586
174	0x3e35a872	0.17740038
175	0xbd24fafe	-0.040278427
176	0x3e9bd343	0.30434617
177	0xbf27adb2	-0.65499413
178	0x3f91fcaf	1.1405238
179	0x3e55dcfc	0.2088508
180	0x3b43222e	0.0029775011
181	0xc0e3ec2d	-7.12258
182	0x3cd9eea3	0.026603049
183	0xbea87231	-0.3289962
184	0xc044c105	-3.074281
185	0xbf8a9db8	-1.0829382
186	0x3f5ed5ef	0.87045187
187	0xbe259f51	-0.16174056
188	0x3d07590d	0.03304391
189	0xbf536a69	-0.82584244
190	0xbe7b8b4b	-0.24564855
191	0xbd8829a3	-0.066485666
192	0x3faa1ae1	1.3289453
193	0xbd57b0b3	-0.052658748
194	0xbf2c0aec	-0.67204165
195	0x3d9399fe	0.07207106
196	0x3d1b8e19	0.03797731
197	0x40d0e264	6.5276356
198	0xbf143a5e	-0.5790156
199	0xbeab8430	-0.3349929
200	0x3f480ee9	0.7814775
201	0xbfb02cad	-1.3763634
202	0xbdf6fa82	-0.12059499
203	0x3e53f60c	0.20699328
204	0x3e082c55	0.13298161
205	0xbf5da49f	-0.86579317
206	0x3e87af33	0.26500854
207	0xbe987b90	-0.2978177
208	0xc015b790	-2.3393288
209	0xbf2a2b71	-0.66472536
210	0xbf44749a	-0.7674042
211	0x3e242eba	0.1603345
212	0xbbfc4786	-0.007698956
213	0xc0ad5b3d	-5.4173875
214	0xbe51c425	-0.2048498
215	0xbf5b6722	-0.85704243
216	0xbfec2fc9	-1.8452083
217	0xbf8f8305	-1.1211859
218	0x3f40a6f4	0.7525475
219	0xbd14a6b5	-0.036291797
220	0x3d430fc3	0.047622453
221	0xbfeb8c27	-1.8402146
222	0xbdb97733	-0.090559386
223	0x3e70a840	0.23501682
224	0x3defd07f	0.11709689
225	0xbeb736dd	-0.35784045
226	0xbf3a9f61	-0.7289944
227	0x3d9ff7fd	0.07810972
228	0xbb3982d6	-0.0028306744
229	0xc0a2ee06	-5.0915556
230	0xbf22da39	-0.6361423
231	0xbf2d477f	-0.6768722
232	0x3eefc409	0.4682925
233	0x3eacf4e3	0.33780584
234	0xbff441d2	-1.9082587
235	0x3e11b762	0.14230111
236	0x3eacc628	0.3374493
237	0x402d1926	2.70466
238	0xbfa32f0d	-1.2748734
239	0x3d98b78f	0.07456886
240	0xbf168006	-0.587891
241	0xbf96fe35	-1.1796328
242	0x3ea8fdac	0.33006036
243	0xbe031146	-0.12799558
244	0x3dd99197	0.10623472
245	0x3ff074e4	1.8785672
246	0x3f7556a0	0.95835304
247	0xbf161dae	-0.5863904
248	0xbf0294c0	-0.51008224
249	0x3f028a5c	0.5099237
250	0x3f0bb893	0.5457851
251	0x3d8a7b2d	0.06761775
252	0xbd655c4b	-0.05599622
253	0xc1142f6b	-9.261577
254	0x3e938735	0.28814092
255	0xbeb1e783	-0.34746942

fc1.bias f4 [64]
0	0xbe80a257	-0.25123855
1	0xbde4aaf9	-0.11165423
2	0xbe94f5d1	-0.29093793
3	0xbe95c9aa	-0.2925542
4	0xbeed7466	-0.46377867
5	0x3e1cf390	0.15327287
6	0xbf240be0	-0.6408062
7	0xbef383d6	-0.4756152
8	0xbec53a02	-0.3852082
9	0xbde012fd	-0.10941122
10	0x3e93cf4d	0.28869095
11	0x3de45db5	0.11150686
12	0xbdde317c	-0.10849282
13	0xbf23d58e	-0.63997734
14	0x3dbd4a20	0.09242654
15	0xbedf7178	-0.43641257
16	0x3db6568c	0.08903226
17	0xbf09b26b	-0.5378787
18	0xbf91e627	-1.1398362
19	0xbe9e87de	-0.30963033
20	0xbe7048e6	-0.23465309
21	0xbcc67eac	-0.024230324
22	0xbefdfa79	-0.49605158
23	0xbe49d7d7	-0.19711243
24	0xbdab762c	-0.08372149
25	0xbc6f8e5f	-0.014621346
26	0xbf521a78	-0.8207164
27	0x3ce2420a	0.02761938
28	0xbf4577ae	-0.7713574
29	0xbe87f1cb	-0.2655166
30	0xbf2194d1	-0.631177
31	0xbe968da5	-0.2940494
32	0x3e849d58	0.25901294
33	0x3e91c0ae	0.28467315
34	0x3d5c5f67	0.05380192
35	0x3ea419df	0.32050988
36	0x3d57f4a8	0.052723557
37	0xbeb17b01	-0.34664157
38	0xbf0ef931	-0.55848986
39	0xbee31118	-0.4434898
40	0xbdf63250	-0.12021315
41	0xbf149650	-0.5804186
42	0x3e5cb8e1	0.215549
43	0xbee729db	-0.4514912
44	0xbe212872	-0.15738085
45	0x3afbfe8c	0.0019225641
46	0xbea2cb7a	-0.31795865
47	0xbe94abc2	-0.2903729
48	0xbe12f8fc	-0.14352793
49	0xbf063bc6	-0.5243496
50	0x3ee26823	0.44220075
51	0xbf0123dc	-0.5044534
52	0xbea02011	-0.31274465
53	0xbe1e3b98	-0.1545242
54	0x3ea00a0f	0.31257674
55	0x3e83ff2d	0.2578062
56	0xbf76a055	-0.963384
57	0xbec237ba	-0.3793314
58	0xbc7d02b8	-0.015442543
59	0xbef49835	-0.47772375
60	0xbc0b5f97	-0.008506677
61	0xbec20158	-0.3789165
62	0xbe8d3985	-0.27582946
63	0xbf29fc66	-0.66400754

fc2.weight f4 [256, 64]
0	0x3d85276e	0.06501661
1	0x3bfa2254	0.0076334868
2	0xbd78d847	-0.060753133
3	0xbd46def3	-0.048552465
4	0x3cc25208	0.023720756
5	0x3d8c1a73	0.06840982
6	0xbe2fda90	-0.17173219
7	0x3cb9f565	0.022700021
8	0xbdc0a636	-0.09406702
9	0xbe3faa1d	-0.18717237
10	0xbd2d8aed	-0.042368818
11	0x3c10a4f3	0.008828389
12	0xbc3b7cb2	-0.011443304
13	0xbe265b5f	-0.16245793
14	0xbde7fb23	-0.113271974
15	0xbe2361bb	-0.1595525
16	0x3cdcd3c9	0.026956456
17	0x3d969913	0.07353415
18	0xbcb0cf68	-0.021583274
19	0xbe1cf08a	-0.15326133
20	0xbd8b7a4f	-0.06810438
21	0xbe8f850a	-0.28031188
22	0xbe90af27	-0.2825863
23	0x3d0f75b4	0.03502436
24	0x3bfb3ac0	0.0076669157
25	0xbd49065b	-0.049078327
26	0xbdf8ab7c	-0.12142083
27	0xbe19b686	-0.15011033
28	0xbe13c2c6	-0.14429769
29	0xbdc69ccc	-0.096978754
30	0xbe2770eb	-0.16351669
31	0xbdae536b	-0.085120045
32	0x3de300af	0.11084115
33	0xbe26d8fe	-0.16293713
34	0xbea1a186	-0.31568545
35	0xbe2cf6b8	-0.1689099
36	0x3b82754c	0.003981268
37	0xbe031324	-0.1280027
38	0xbe8ea5c7	-0.27860853
39	0xbd061052	-0.032730408
40	0xbdcbbb00	-0.09947777
41	0xbd34acd2	-0.044110127
42	0xba47a8a3	-0.00076163764
43	0xbdf8059d	-0.12110446
44	0xbe22e7dd	-0.15908761
45	0x3dba8cb5	0.09108869
46	0xbe4a50f3	-0.19757442
47	0x3e0128ca	0.12613216
48	0x3c0ed4e1	0.0087177465
49	0xbd9fd9b4	-0.078051955
50	0x3d939342	0.072058216
51	0xbdfff56c	-0.124979824
52	0xbdc01e8a	-0.09380825
53	0xbe847efa	-0.25878125
54	0xbd410d0d	-0.047131587
55	0x3e211540	0.15730762
56	0xbdd7f909	-0.105455466
57	0xbe685bf4	-0.22691327
58	0xbe718351	-0.2358525
59	0xbddeffed	-0.10888658
60	0xbd9a2690	-0.075268865
61	0x3e399084	0.18121535
62	0xbd5fa6ae	-0.054602318
63	0xbc5d7499	-0.013516569
64	0x3e419835	0.18905719
65	0xbd21014d	-0.03930788
66	0x3dc541ef	0.096317165
67	0x3d917820	0.0710299
68	0xbdd0f4fc	-0.10202977
69	0xbe905794	-0.28191817
70	0xbd0ea83c	-0.03482841
71	0xbdf36feb	-0.11886581
72	0xbdc494eb	-0.09598716
73	0xbe498792	-0.19680622
74	0xbe08aada	-0.13346425
75	0xbdc80c37	-0.09767955
76	0xbd0cea25	-0.034402985
77	0xbddaf1e6	-0.1069067
78	0xbd9a0941	-0.07521296
79	0xbd8aeb8b	-0.067832075
80	0xbe2122fc	-0.15736002
81	0x3d3a5d9a	0.04549942
82	0xbc25cea9	-0.010120072
83	0xbe03d94b	-0.1287586
84	0xbd9599d7	-0.07304733
85	0xbdbf0aeb	-0.09328254
86	0xbeaf67a7	-0.34258768
87	0xbb8717a7	-0.0041226926
88	0xbbf237c6	-0.0073919026
89	0xbce923d4	-0.028459467
90	0xbe1885b3	-0.14894752
91	0x3d8e6e50	0.06954634
92	0xbd9b84d3	-0.075936936
93	0x3d206e9e	0.039167993
94	0xbdf3a815	-0.118972935
95	0x3d399c3a	0.045315005
96	0xbd623979	-0.05523059
97	0xbdb1bc8e	-0.08678542
98	0xbc4249c5	-0.011858408
99	0x3d86c5b5	0.065806784
100	0xbd53bf87	-0.051696327
101	0xbac3b016	-0.0014929797
102	0x3acacc3d	0.0015472245
103	0xbdd73911	-0.105089314
104	0xbdcd067a	-0.10011001
105	0xbcf06046	-0.029342782
106	0x3d172682	0.03690196
107	0x3d276167	0.040864374
108	0x3cbed6dc	0.023295812
109	0x3e12ad16	0.1432384
110	0xbe092657	-0.13393532
111	0x3bbe3ce2	0.0058055976
112	0xbe2b868d	-0.16750546
113	0x3d94bdc5	0.07262758
114	0xbd917a64	-0.07103422
115	0x3dd9e83f	0.106400006
116	0x3d2744ad	0.04083698
117	0xbe2e54cf	-0.1702454
118	0xbbc5d609	-0.006037478
119	0x3d2801c7	0.04101732
120	0xbd04f277	-0.032457795
121	0xbd6f4807	-0.0584183
122	0xbd0affad	-0.033935238
123	0xbe2b0162	-0.16699746
124	0xbd7b69b0	-0.06138009
125	0xbdc5ac3e	-0.09651993
126	0x3d9e0376	0.07715504
127	0xbdda8b43	-0.10671093
128	0xbeb49250	-0.35267878
129	0xbca0c52f	-0.019625274
130	0x3c3f0973	0.011659968
131	0x3e91df5a	0.28490716
132	0xbf0dbe59	-0.5536857
133	0xbf67a2db	-0.9048287
134	0xbed9c21b	-0.42530903
135	0xbec70925	-0.38874164
136	0xbe716315	-0.23572953
137	0x3e88518f	0.26624724
138	0xbeeed733	-0.4664856
139	0xbe13df79	-0.14440717
140	0xbd7f4242	-0.062319048
141	0x3cd1db56	0.025617283
142	0xbe19e258	-0.1502775
143	0x3d6c87b7	0.057746615
144	0xbd6f5c72	-0.058437772
145	0xbed5466c	-0.4165529
146	0x3d07b72c	0.03313367
147	0x3e396536	0.18105015
148	0x3db476e1	0.08811737
149	0x3daf9979	0.085741945
150	0xbe159f98	-0.14611661
151	0xbf5aab0c	-0.85417247
152	0x3d4ba150	0.049714386
153	0xbee4e875	-0.447086
154	0x3ca005fc	0.019534104
155	0xbf2ea971	-0.682273
156	0xbe9b7861	-0.3036528
157	0xbeefa660	-0.46806622
158	0xbdf77721	-0.12083269
159	0xbea265aa	-0.3171819
160	0xbf393f16	-0.72361887
161	0x3c8810fc	0.016609661
162	0xbed6b58e	-0.4193539
163	0xbe17076c	-0.14748925
164	0xbd6229e2	-0.055215724
165	0x3de43f80	0.11144924
166	0x3e4fda59	0.20298137
167	0xbe26a9ca	-0.16275707
168	0x3dc7e357	0.097601585
169	0xbf9fa652	-1.2472632
170	0x3cfdbe9f	0.030974684
171	0xbe41aa15	-0.18912537
172	0xbd0becc5	-0.034161348
173	0x3cf948cf	0.030430226
174	0x3e33591b	0.1751446
175	0xbe36c670	-0.17849135
176	0xbd81df41	-0.063414104
177	0xbeb28312	-0.34865624
178	0xbf7a1f18	-0.97703695
179	0x3e1f56f2	0.15560511
180	0x3daaccc3	0.083398364
181	0xbe42f249	-0.19037737
182	0xbfac171a	-1.344455
183	0x3cdcac95	0.026937762
184	0xbe771d32	-0.24132231
185	0xbe51f773	-0.2050455
186	0xbdd88ccf	-0.10573732
187	0xbe0e4fce	-0.1389763
188	0xbe03e4d3	-0.12880258
189	0xbca34bd6	-0.019933622
190	0xbdc83263	-0.097752355
191	0xbe24112d	-0.16022177
192	0x3dc3a7ca	0.095534876
193	0xbe607a76	-0.21921715
194	0xbd86af30	-0.06576383
195	0xbdcb3208	-0.09921652
196	0xbeb06718	-0.34453654
197	0xbf20fa55	-0.62881976
198	0xbe7c8ee9	-0.24663891
199	0xbe961c30	-0.2931838
200	0x3e75ebd2	0.2401574
201	0xbe4028cb	-0.18765561
202	0xbe9bc9e8	-0.3042748
203	0xbc9db864	-0.019252963
204	0xbcffe630	-0.031237692
205	0xbe30f618	-0.17281377
206	0xbd221743	-0.039572965
207	0xbe8ebd7a	-0.27878934
208	0x3df71210	0.12063992
209	0x3f358278	0.70902205
210	0x3edbfbab	0.42965445
211	0x3e2c3c1f	0.1681981
212	0x3e72107e	0.23639104
213	0xbf79bf20	-0.9755726
214	0xbec6cc49	-0.38827732
215	0xbf3c2009	-0.7348638
216	0x3e4cd865	0.20004423
217	0x3e1d4da3	0.15361647
218	0xbea29ac6	-0.31758708
219	0xbdc30a98	-0.09523505
220	0xbf2559e2	-0.64590275
221	0xbf5db44f	-0.86603254
222	0x3ed92bc2	0.42416197
223	0x3e2b1336	0.16706547
224	0xbf0a7ce5	-0.54096824
225	0x3e1b849c	0.15187305
226	0xbf390d95	-0.7228635
227	0xbe92e405	-0.2868959
228	0xbf11a772	-0.56896126
229	0x3e118a33	0.14212875
230	0xbe89705a	-0.2684353
231	0xbf4b27a2	-0.7935735
232	0x3dd957d7	0.10612457
233	0xbed90c1e	-0.42392057
234	0x3de94523	0.1139014
235	0xbe0b0abf	-0.13578318
236	0x3b9c08b8	0.0047617815
237	0x3d73b9ab	0.05950324
238	0xbf28f52f	-0.6599912
239	0xbde218fa	-0.1103992
240	0x3cd47563	0.02593488
241	0xbee0af59	-0.4388378
242	0x3dca666d	0.098828174
243	0xbe2aaf26	-0.16668376
244	0x3d6dcc53	0.058056187
245	0xbf13bdc8	-0.5771146
246	0x3de1e3fa	0.11029811
247	0xbdbebb00	-0.09313011
248	0xbf5212a9	-0.82059723
249	0xbed7d867	-0.4215729
250	0x3f4b51a9	0.7942148
251	0xbc3d81e5	-0.011566614
252	0xbf22df41	-0.6362191
253	0xbda05b67	-0.078299336
254	0x3e1358b1	0.14389302
255	0xbdbffc9a	-0.09374352

fc2.bias f4 [256]
0	0xbe862d8c	-0.26206625
1	0xbc899445	-0.016794333
2	0x3e186932	0.14883879
3	0xbe42c64d	-0.19020958
4	0xbe71328d	-0.2355444
5	0x3d813854	0.06309572
6	0xbe3e97f2	-0.1861265
7	0xbdc9a66f	-0.09846198
8	0xbe87f3f5	-0.26553312
9	0xbdf8ee7c	-0.12154862
10	0xbed8950e	-0.4230122
11	0xbe232ce8	-0.15935099
12	0xbd788097	-0.060669508
13	0xbd7a6b7e	-0.06113767
14	0xbe813036	-0.25232095
15	0xbe51c239	-0.20484246
16	0xbe89d428	-0.26919675
17	0xbd67d004	-0.056594864
18	0xbd461f33	-0.048369598
19	0xbe00cb9b	-0.1257767
20	0xbeab088f	-0.33404967
21	0xbe57dc55	-0.21080144
22	0xbdd2b56e	-0.10288511
23	0x3cb5e85b	0.022205522
24	0xbd67dfd0	-0.05660993
25	0xbeac54f4	-0.33658564
26	0xbe955817	-0.2916877
27	0xbe70fe58	-0.23534524
28	0xbe78702d	-0.24261542
29	0xbe3d73e7	-0.18501244
30	0xbe6f18c9	-0.23349299
31	0xbd62f00c	-0.055404708
32	0xbe1cc316	-0.15308794
33	0xbe99f290	-0.30067873
34	0xbf739fce	-0.9516572
35	0xbdc143e5	-0.09436778
36	0xbea6633c	-0.32497585
37	0xbe9f7f20	-0.31151676
38	0xbe73e262	-0.23816827
39	0xbe5b65dc	-0.21425575
40	0xbe42409d	-0.1896996
41	0x3aa75937	0.0012767677
42	0xbde3bccb	-0.11119994
43	0xbe9a4994	-0.3013426
44	0xbe1b7d98	-0.15184629
45	0x3f0b2bb6	0.5436357
46	0xbe80310e	-0.25037426
47	0xbe941996	-0.2892577
48	0xbe4b65c2	-0.19863036
49	0xbe57c168	-0.21069872
50	0xbeb4f073	-0.35339698
51	0xbe74261e	-0.23842666
52	0xbebdc987	-0.37067816
53	0xbe10459d	-0.14089055
54	0xbe9ac939	-0.30231646
55	0xbf02365a	-0.50864184
56	0xbf07c87b	-0.53040284
57	0xbe970ab4	-0.29500353
58	0xbd8d81b2	-0.06909503
59	0xbd358cc9	-0.044323716
60	0xbe82f743	-0.2557927
61	0x3f7e1d49	0.99263436
62	0xbe5b0bc8	-0.21391213
63	0xbe1866d4	-0.14882976
64	0xbe8d9078	-0.27649283
65	0xbdf5eb21	-0.12007738
66	0xbe7b2092	-0.24524143
67	0xbe1bf71f	-0.15230988
68	0xbe4364b5	-0.19081385
69	0xbe6ca1db	-0.23108618
70	0xbf1c40ff	-0.61036676
71	0xbd9e64a7	-0.07734042
72	0x3f7d7881	0.99012
73	0xbdfc6255	-0.12323443
74	0xbec2e428	-0.38064694
75	0x3ed790cb	0.42102656
76	0xbb44fbd6	-0.0030057332
77	0xbe7a3feb	-0.24438445
78	0xbcae5d49	-0.021284716
79	0xbf757e79	-0.95896107
80	0xbd8eb09b	-0.069672786
81	0xbde71fdc	-0.112853736
82	0x3ccf2ee0	0.025290906
83	0xbf084180	-0.53224945
84	0xbd68de5e	-0.05685269
85	0xbe5301e8	-0.20606196
86	0xbe69414c	-0.22778815
87	0x3cb1096e	0.021610942
88	0xbe1980a4	-0.14990479
89	0x3d431c1b	0.047634225
90	0xbd9f3d34	-0.077753454
91	0xbe248dcf	-0.1606972
92	0xbe57447c	-0.21022218
93	0xbed41d0f	-0.4142842
94	0xbe9fa3e2	-0.3117972
95	0x3f57e44a	0.84332716
96	0xbdc17565	-0.09446219
97	0xbf0b49bb	-0.5440938
98	0xbd199bca	-0.037502088
99	0xbed9fce6	-0.4257576
100	0xbdbb6a93	-0.09151187
101	0xbe1bcf09	-0.15215696
102	0xbe75ac34	-0.23991472
103	0xbe0ed519	-0.13948478
104	0xbea26fba	-0.31725866
105	0xbc838647	-0.01605524
106	0xbea56703	-0.32305154
107	0xbeba461e	-0.3638162
108	0xbec58efa	-0.38585645
109	0xbe3437ba	-0.17599383
110	0xbe8d2629	-0.27568176
111	0xbe82c9b0	-0.255445
112	0xbf6c2753	-0.92247504
113	0xbe28acc9	-0.16472162
114	0xbda4ef72	-0.08053483
115	0xbe409684	-0.18807417
116	0xbe441231	-0.19147564
117	0xbe62817c	-0.22119707
118	0xbe703cd0	-0.23460698
119	0xbcf6f020	-0.030143797
120	0xbd4c96c1	-0.049948458
121	0xbd151014	-0.036392286
122	0xbe22c789	-0.15896429
123	0xbdf49d65	-0.11944083
124	0xbe822274	-0.2541691
125	0xbe19f96b	-0.15036552
126	0xbed5bd51	-0.41746
127	0xbe8624ad	-0.26199856
128	0xbe91a9f3	-0.28449973
129	0xbe9f55e5	-0.3112022
130	0xbe56a983	-0.20963101
131	0xbe36a4f2	-0.17836359
132	0xbdaf6254	-0.085636765
133	0xbdfd65d5	-0.123729385
134	0xbe402eb0	-0.1876781
135	0xbe45272c	-0.19253224
136	0xbf4affca	-0.79296553
137	0xbd9f8176	-0.077883646
138	0xbdbd0199	-0.0922882
139	0xbdfa617d	-0.12225626
140	0xbe8925bd	-0.26786605
141	0xbd845c2a	-0.064628914
142	0xbdb71bf3	-0.08940878
143	0xbe819fd9	-0.25317267
144	0xbe3349f9	-0.17508687
145	0xbdec52a5	-0.11539201
146	0xbe8a4f54	-0.27013648
147	0xbe619806	-0.22030649
148	0xbd82c20f	-0.0638467
149	0xbdfd82ca	-0.12378462
150	0xbe2bd56a	-0.1678063
151	0xbe8496cb	-0.25896296
152	0xbe729dde	-0.23693034
153	0xbeb2aacc	-0.34895933
154	0xbf12e234	-0.5737641
155	0xbe627724	-0.22115761
156	0xbe1e3587	-0.15450107
157	0xbee763e0	-0.45193386
158	0xbe100e9f	-0.14068078
159	0xbe842cd3	-0.25815448
160	0xbe00a761	-0.1256385
161	0xbdf740e1	-0.120729215
162	0xbea750de	-0.32678884
163	0xbecfc513	-0.40580043
164	0x3e9e564a	0.30925208
165	0xbe245238	-0.16046989
166	0xbd9b39ef	-0.07579409
167	0xbe48df9f	-0.19616555
168	0xbe5069b0	-0.20352817
169	0xbe28d88b	-0.16488855
170	0xbd50396d	-0.050836015
171	0xbe50bd58	-0.20384729
172	0xbeaaf8ce	-0.33392948
173	0xbe2009d6	-0.15628752
174	0xbd0a10cf	-0.033707436
175	0xbbb84257	-0.0056231427
176	0xbe92d981	-0.28681567
177	0xbe1d8632	-0.15383223
178	0xbea86d8e	-0.32896084
179	0xbe74c7d9	-0.23904361
180	0xbe18b04b	-0.14911
181	0x3c3c7880	0.011503339
182	0x3e46f4ef	0.19429372
183	0xbe10f768	-0.14156878
184	0xbdfe03e3	-0.12403085
185	0x3ee8c40a	0.45462066
186	0xbe6c6800	-0.23086548
187	0xbeadaa5d	-0.3391904
188	0xbe338c52	-0.17533997
189	0x3cc24959	0.023716616
190	0xbe50920b	-0.20368211
191	0xbe2447f6	-0.16043076
192	0x3e12aa9b	0.14322893
193	0xbe989851	-0.29803708
194	0xbe14623e	-0.14490601
195	0xbdd97032	-0.10617103
196	0xbe9715ac	-0.29508722
197	0xbe4a8786	-0.1977826
198	0xbd4867d6	-0.04892715
199	0x3f43e869	0.76526505
200	0xbdba5252	-0.090977326
201	0xbdf3f00c	-0.1191102
202	0xbe3a0821	-0.18167163
203	0xbde0c045	-0.109741725
204	0xbeb7179a	-0.35760194
205	0xbe88cde4	-0.26719582
206	0xbe92a76b	-0.28643355
207	0x3dd2d205	0.10293964
208	0xbea5b3b2	-0.3236366
209	0xbe7e2973	-0.24820499
210	0xbe812c0a	-0.25228912
211	0xbe8f90c6	-0.2804014
212	0xbdaa47a0	-0.08314443
213	0xbe97b66c	-0.29631364
214	0xbe0328d0	-0.12808537
215	0xbda7e3c8	-0.08197743
216	0x3d308d60	0.043103576
217	0xbe981b10	-0.29708147
218	0xbe0a4c3e	-0.13505647
219	0xbe832f27	-0.25621912
220	0xbe87e11b	-0.2653893
221	0xbe82e0e9	-0.25562218
222	0xbdd605b0	-0.104503036
223	0xbe3bcaca	-0.18339077
224	0xbe2fbf35	-0.17162783
225	0xbdf51e0e	-0.11968623
226	0xbf82fde7	-1.0233735
227	0xbd193fd3	-0.037414383
228	0xbe15cc24	-0.14628655
229	0xbe161d03	-0.14659505
230	0xbe429eab	-0.1900584
231	0xbe6aad91	-0.22917773
232	0xbe430f86	-0.1904889
233	0xbe97c9dc	-0.29646194
234	0xbdc66de3	-0.09688928
235	0xbeb50b13	-0.3536001
236	0xbe3aa154	-0.18225604
237	0xbe6f9d2f	-0.23399805
238	0xbe4d381c	-0.20040935
239	0xbe32cec0	-0.17461681
240	0x3cd9182b	0.026500782
241	0xbcb37727	-0.021907402
242	0xbddf116b	-0.10891994
243	0x3ea519c1	0.3224621
244	0xbe8c999d	-0.27460948
245	0xbdda3cf8	-0.1065616
246	0xbebee0ad	-0.3728079
247	0x3de3653d	0.11103294
248	0xbe30b5c3	-0.17256837
249	0x3dcaab43	0.09895947
250	0xbddc631b	-0.1076109
251	0xbe5ddd32	-0.2166641
252	0xbd13bc63	-0.03606833
253	0xbe605fb1	-0.21911503
254	0xbe13d426	-0.14436397
255	0xbe06502c	-0.1311652

fc3.weight f4 [25, 256]
0	0xbda0e1f3	-0.078555964
1	0x3cbcc219	0.023041772
2	0x3e3c9603	0.184166
3	0xbe48ab6d	-0.19596644
4	0x3e8c3e07	0.27391073
5	0x3ec2cd02	0.38047034
6	0xbd056101	-0.032563213
7	0x3d83d106	0.064363524
8	0xbe3cb87f	-0.18429755
9	0x3ecc2fc8	0.39880204
10	0x3e211c66	0.1573349
11	0xbdd4e43d	-0.103950955
12	0x3d9b761d	0.07590888
13	0xbe2fb4a3	-0.17158751
14	0xbec5c027	-0.38623163
15	0xbda1cf75	-0.079008974
16	0xbdc352f1	-0.09537304
17	0xbce7b915	-0.028286496
18	0x3e36e442	0.17860511
19	0x3cf6c450	0.030122906
20	0x3ed9720f	0.42469832
21	0x3e7547c1	0.23953153
22	0x3dc215cd	0.094768144
23	0xbdd4b267	-0.1038559
24	0xbcd202a4	-0.025636025
25	0x3dd5a3d5	0.10431639
26	0xbc53c95a	-0.012926424
27	0x3dabc773	0.08387651
28	0x3d45c7e4	0.048286334
29	0xbb97209a	-0.0046120407
30	0xbd5ca14b	-0.05386476
31	0xbe78ec73	-0.24308948
32	0xbe07944b	-0.13240163
33	0xbe2cece9	-0.16887249
34	0xbe1e6822	-0.15469411
35	0xbdaf276f	-0.08552443
36	0x3d60e98b	0.054910224
37	0xbe8081b6	-0.25098962
38	0xbc6d5d39	-0.014487558
39	0x3de9d559	0.11417646
40	0xbd468c24	-0.048473492
41	0xbe346419	-0.17616309
42	0xbd724656	-0.05914911
43	0xbd57f04a	-0.052719392
44	0xbddf5b8d	-0.10906134
45	0x3f0eb7e5	0.5574935
46	0x3d9a9533	0.07547989
47	0x3e5c45d2	0.2151101
48	0x3c44819b	0.011993791
49	0x3d01e199	0.031709287
50	0x3d09dda6	0.033658646
51	0x3d28f341	0.04124761
52	0x3df9a6eb	0.1219004
53	0xbccce916	-0.025013488
54	0xbdc62a11	-0.09675992
55	0x3d045784	0.032310024
56	0x3e8892a5	0.2667438
57	0x3da95715	0.08268563
58	0xbc0d5e7d	-0.008628485
59	0x3d2ade31	0.041715804
60	0x3d4e1a4f	0.05031806
61	0x3ec4393f	0.38324925
62	0x3e0860f8	0.1331824
63	0x3e395a7a	0.1810092
64	0xbe04b269	-0.12958683
65	0x3ef5d9f1	0.4801784
66	0x3e594d0b	0.21220796
67	0xbe007a9b	-0.1254677
68	0xbcf37fce	-0.029724028
69	0xbdf21719	-0.11820812
70	0x3efe196b	0.49628767
71	0x3bc7bc5b	0.006095452
72	0x3f2e9bdb	0.68206567
73	0xbe4b2183	-0.19837002
74	0x3e3fa085	0.18713577
75	0x3ef0cbc5	0.47030464
76	0xbe079132	-0.13238981
77	0x3c6a9a6e	0.0143190455
78	0x3dc7185d	0.09721444
79	0xbdf23189	-0.11825854
80	0x3eaa8f42	0.33312422
81	0x3d98db2f	0.07463681
82	0x3f0d74f6	0.55256593
83	0xbe236e90	-0.15960145
84	0xbe5b9c00	-0.21446228
85	0x3b96be86	0.004600349
86	0x3dca60be	0.09881733
87	0x3dc3b344	0.095556766
88	0x3e1117f1	0.14169289
89	0x3dce46cc	0.10072097
90	0xbe169c46	-0.14708051
91	0x3d606fcd	0.05479412
92	0x3f4691d2	0.77566254
93	0x3e51c160	0.20483923
94	0x3e4b89af	0.19876741
95	0x3f02b384	0.5105517
96	0x3eb385a0	0.35062885
97	0x3e2df0b1	0.16986348
98	0xbd006652	-0.03134758
99	0xbd10b9cb	-0.035333436
100	0xbd9f8a82	-0.0779009
101	0xbea50f5c	-0.3223828
102	0xbd6e617e	-0.058198445
103	0xbe07d062	-0.13263085
104	0xbe6ec9a3	-0.23319106
105	0x3dd28d1a	0.10280819
106	0x3d8c261d	0.06843207
107	0xb99e1db6	-0.00030158245
108	0x3c94289a	0.018085767
109	0xbca43bc3	-0.020048028
110	0xbd1a6a08	-0.037698776
111	0xbda24eb1	-0.079251654
112	0xbdf5a1ff	-0.11993789
113	0x3d17b367	0.037036326
114	0xbdd4765a	-0.10374136
115	0xbcd36831	-0.025806518
116	0x3daa2d47	0.08309417
117	0x3d8469c4	0.06465486
118	0xbd959520	-0.07303834
119	0xbe12dc8d	-0.14341946
120	0xbd8bcf6b	-0.06826671
121	0x3efd4db5	0.49473348
122	0xbec5d7b3	-0.38641128
123	0x3d3dadec	0.046308443
124	0x3d5e2dd9	0.054242942
125	0x3e1efc7c	0.15526003
126	0xbc308b5d	-0.010775414
127	0x3e7a9465	0.2447067
128	0x3cb32934	0.021870233
129	0xbece08ba	-0.40241033
130	0xbe3e42be	-0.18580148
131	0xbcaf0ab5	-0.02136741
132	0x3e123f7c	0.1428203
133	0x3d89718f	0.06711113
134	0xbe2e007d	-0.16992374
135	0x3d8d7660	0.06907344
136	0xbdfbec6c	-0.12300953
137	0xbc29b953	-0.010359126
138	0xbba538fb	-0.005042193
139	0x3cdedd39	0.027205097
140	0xbe992c67	-0.2991669
141	0x3ed56a99	0.4168289
142	0x3e3ea76b	0.18618552
143	0xbe1136ad	-0.14181013
144	0x3d1e1b0e	0.03860002
145	0xbdba5838	-0.09098858
146	0xbd3ef6ec	-0.0466222
147	0xbd866382	-0.06561948
148	0xbdb56e6f	-0.08858954
149	0xbe5abc56	-0.21360907
150	0x3dd56d7f	0.10421275
151	0xbe81c9ae	-0.25349182
152	0xbd48988e	-0.048973612
153	0x3dd66a3b	0.104694806
154	0x3c5c0158	0.013428055
155	0xbdda6bf3	-0.10665121
156	0x3e9e7b98	0.3095367
157	0x3f61b256	0.88162744
158	0xbdc01b46	-0.09380202
159	0xbe8e93b8	-0.27847075
160	0xbdbdee3b	-0.092739545
161	0x3dd8caa5	0.105855264
162	0x3e28745e	0.1645064
163	0xbdb49ed8	-0.088193595
164	0x3ed6df89	0.4196742
165	0x3e5eaee1	0.21746399
166	0xbe40e4a5	-0.18837221
167	0x3dd57eae	0.10424553
168	0xbd41decf	-0.047331627
169	0xbe0eac47	-0.13932906
170	0x3e1e9202	0.15485385
171	0x3e65ebeb	0.22453277
172	0xbda3306c	-0.0796822
173	0x3c44fb49	0.012022802
174	0x3ba27038	0.004957225
175	0x3e88fcb1	0.26755288
176	0xbe2e3e1a	-0.17015877
177	0x3d033eeb	0.032042425
178	0xbeafa879	-0.34308222
179	0xbc6af00b	-0.014339457
180	0x3e046cee	0.12932178
181	0x3d33b1c6	0.04387071
182	0x3e4a87c1	0.19778349
183	0xbe0bfc1c	-0.13670391
184	0xbe3afdc5	-0.18260868
185	0x3ee52217	0.4475257
186	0x3f2d086b	0.6759097
187	0x3e4ff1b3	0.20307045
188	0xbce92908	-0.028461948
189	0x3dfa8ef7	0.122343
190	0x3dd8de52	0.10589279
191	0xbd81f596	-0.0634567
192	0x3ef6669a	0.48125154
193	0x3e6dacf1	0.23210503
194	0xbdcbc390	-0.0994941
195	0xbdafda85	-0.08586601
196	0x3e3a8f6e	0.18218777
197	0x3e3ec1ee	0.18628666
198	0x3d424144	0.047425523
199	0xbe812077	-0.2522008
200	0x3e4efa28	0.20212615
201	0xbd12f080	-0.03587389
202	0xbde186d4	-0.110120445
203	0x3dd3ccbc	0.10341784
204	0xbd9dfccd	-0.077142335
205	0x3e184371	0.14869477
206	0x3c3dc6ef	0.011583074
207	0x3efde8ca	0.49591666
208	0xbdb69635	-0.089153685
209	0x3d9b2767	0.07575875
210	0xbd828310	-0.063726544
211	0x3e018077	0.12646662
212	0x3e39f108	0.18158352
213	0xbc304441	-0.0107584605
214	0x3d8b3b3b	0.06798407
215	0x3d0a0437	0.033695426
216	0x3e9cf633	0.30656585
217	0xbce56240	-0.02800095
218	0xbd87b14a	-0.06625612
219	0xbcf9b157	-0.03048007
220	0xbea0a480	-0.31375504
221	0xbc2eec41	-0.0106764445
222	0xbc9c92b1	-0.019112917
223	0x3e5135df	0.20430706
224	0xbd11cb07	-0.035594013
225	0x3c9e4105	0.019318113
226	0x3decc646	0.11561255
227	0xbd8120a9	-0.063050576
228	0xbd8764ca	-0.06611021
229	0xbc82e0f0	-0.0159764
230	0x3c1c251d	0.009530333
231	0xbd025f4a	-0.031829156
232	0xbe05e61d	-0.13076063
233	0xbe0231ef	-0.1271436
234	0x3ca4098f	0.02002409
235	0xbe38f5cd	-0.18062516
236	0xbeaeb447	-0.34121916
237	0xbe2b4753	-0.16726427
238	0xbdc4efcf	-0.09616052
239	0x3e275754	0.16341907
240	0xbbf52b5a	-0.0074819745
241	0x3f480dec	0.78146243
242	0xbd65ccfd	-0.056103695
243	0x3eeb5ea4	0.45970643
244	0xbd8d9bf8	-0.06914514
245	0x3e5ec0ac	0.21753186
246	0xbd82d8c0	-0.06388998
247	0x3f041100	0.5158844
248	0x3c80fa69	0.015744405
249	0x3e58454a	0.21120182
250	0xbd3c993f	-0.046044584
251	0xbd85ff65	-0.06542853
252	0xbdbe9cc0	-0.093072414
253	0x3ed11915	0.4083945
254	0x3e7661dd	0.2406077
255	0xbcdadac9	-0.026715653

fc3.bias f4 [25]
0	0x3eb8dd8e	0.36106533
1	0x3fcfb1dd	1.6226155
2	0x3f9c3b24	1.2205548
3	0x3f388d20	0.7209034
4	0x3f11b904	0.56922936
5	0x3f2e81b9	0.6816669
6	0x3f18b9c3	0.5965845
7	0x3f1bac9d	0.6081026
8	0x3f225608	0.63412523
9	0x3f4392a5	0.76395637
10	0x3efeb77c	0.49749362
11	0x3ef6827b	0.48146424
12	0x3f422af3	0.75846785
13	0x3f32110d	0.6955727
14	0x3f1731d2	0.59060395
15	0x3f8b781d	1.0896031
16	0x3edad690	0.42741823
17	0x3f20233b	0.6255376
18	0x3ee9e0f4	0.45679438
19	0x3f41cf60	0.75707054
20	0x3f688541	0.9082833
21	0x3f4cdbf7	0.8002314
22	0x3f4b89cf	0.79507154
23	0x3edb734d	0.42861405
24	0x3f3af328	0.73027277
