examples/carla_scenic/Carla_Challenge/agent_scalar/target_net_800.pt (torch, 96407 bytes, 6 tensors)

fc1.weight f4 [64, 8]
0	0xbf022bbe	-0.50847995
1	0xbef540a7	-0.47900888
2	0xbc8cc34c	-0.017182969
3	0xbcb0a391	-0.02156237
4	0x3ce0d289	0.027444141
5	0xbebfd0ac	-0.37463892
6	0xbf4abf0b	-0.7919776
7	0xbee51b73	-0.44747505
8	0x3e319c28	0.17344725
9	0xbddef7a5	-0.10887078
10	0xbe20abae	-0.1569049
11	0xbc03b03b	-0.008037622
12	0x3c0dae2f	0.008647486
13	0xbdda1b53	-0.10649743
14	0xbe4360e4	-0.1907993
15	0xbe04d0ea	-0.1297032
16	0xbe6ffa75	-0.23435386
17	0xbe137152	-0.14398697
18	0xbebc7493	-0.3680769
19	0xbc2eb4f7	-0.010663263
20	0xbc473cb0	-0.012160465
21	0x3e417fcf	0.18896411
22	0xbe79da17	-0.24399601
23	0xbe9f8075	-0.31152692
24	0xbe734c35	-0.2375954
25	0xbda1c84d	-0.078995325
26	0xbdff90fe	-0.12478827
27	0x3cd2dcc8	0.025740042
28	0xbc9b8e50	-0.018988758
29	0x3eaa683a	0.33282644
30	0xbe8254d8	-0.25455356
31	0xbec8273d	-0.39092436
32	0xbe86cef5	-0.2632977
33	0xbecdfbc0	-0.40231133
34	0x3f061737	0.52379173
35	0x3e3d9cb4	0.18516809
36	0x3d16eb3d	0.036845434
37	0xc0351750	-2.829548
38	0xbed9c0b4	-0.42529833
39	0xbda1e1fb	-0.079044305
40	0xc0068fe7	-2.102533
41	0x3f141d02	0.5785676
42	0x3f039c49	0.5141035
43	0xbe836756	-0.25664777
44	0x3e830066	0.2558624
45	0x40ce0190	6.4376907
46	0x3e308e3d	0.1724176
47	0xbe4db709	-0.20089354
48	0xbf5d7e1f	-0.8652057
49	0xbf9d0fb8	-1.2270422
50	0x3eb3957b	0.35074982
51	0xbca05fec	-0.01957699
52	0xbd916533	-0.0709938
53	0x4001b5c9	2.0267203
54	0xbf9f18e3	-1.242947
55	0xbf2d5738	-0.6771121
56	0x406602f2	3.5939298
57	0xbc18bfa1	-0.009323032
58	0x3fa6521f	1.2993811
59	0x3d116423	0.03549589
60	0x3d02a6ab	0.03189723
61	0x3e6d67bf	0.23184107
62	0xbe98633b	-0.29763207
63	0xbfb29f99	-1.3954955
64	0x3ef86bce	0.48519748
65	0xbedbf928	-0.4296353
66	0xbe63f1b6	-0.22260174
67	0xbd4865ac	-0.048925087
68	0xbb8e7946	-0.004347953
69	0xbef516c6	-0.47868937
70	0xbf704298	-0.93851614
71	0xbeecb24c	-0.4622978
72	0x3f1c3847	0.6102337
73	0xbfc3837a	-1.5274498
74	0xbe0c0c44	-0.13676554
75	0xbe65d013	-0.22442655
76	0xbde8a40b	-0.11359414
77	0x40d8aa04	6.770754
78	0xbe8d0113	-0.27539882
79	0x3dad5346	0.08463149
80	0xbed21fe1	-0.41039947
81	0xbfff09a6	-1.992482
82	0xbf95e060	-1.1709099
83	0xbebbefb5	-0.3670632
84	0x3e9b4e1b	0.30333027
85	0xbddb0381	-0.10694028
86	0x3d9276e5	0.071515836
87	0xbb609671	-0.0034269358
88	0x3b93fd30	0.0045162663
89	0xbe47184e	-0.19442865
90	0xbe5835f7	-0.21114336
91	0x3bf79063	0.007555054
92	0xbbbe9c62	-0.005816982
93	0x3dc53d21	0.096308
94	0xbe936e5b	-0.28795132
95	0xbdc3870f	-0.09547245
96	0xbca2c799	-0.019870566
97	0xbcb1efdf	-0.021720825
98	0xbe4c900c	-0.19976825
99	0x3cd5c109	0.026093023
100	0x3bf36266	0.0074275015
101	0xbe6c6a45	-0.23087414
102	0xbeec861d	-0.4619607
103	0xbe94394d	-0.28949967
104	0xbd5565ff	-0.052099224
105	0xbed02f01	-0.4066086
106	0xbe7d8484	-0.24757582
107	0xbcf01419	-0.029306458
108	0x3c97b8e8	0.018520787
109	0x3f15e8ef	0.58558553
110	0xbe690e58	-0.22759378
111	0xbeb5ac81	-0.35483173
112	0x3e9e7771	0.30950502
113	0x3c203e96	0.009780547
114	0xbf994e59	-1.1977035
115	0xbd932c4a	-0.07186182
116	0x3e382256	0.17981848
117	0xbf9e738a	-1.237901
118	0x3eb1285f	0.34601113
119	0x3e533a2e	0.20627663
120	0xbe2943e0	-0.16529799
121	0xbe852b61	-0.26009658
122	0xbe3a2d42	-0.18181327
123	0x3d9291f3	0.07156744
124	0xbb76a4a9	-0.0037634766
125	0xbef18e1f	-0.47178742
126	0xbf1465ef	-0.5796804
127	0xbef11458	-0.47085834
128	0x3c89283f	0.016742824
129	0xbcea0a8a	-0.028569479
130	0x3dcaaeda	0.098966315
131	0xbb73fd20	-0.0037229732
132	0x3ad21f91	0.0016031136
133	0xbd498557	-0.04919943
134	0x3d42aa0b	0.047525447
135	0xbe289153	-0.16461687
136	0x3c6eea2a	0.014582196
137	0xbeb26c9e	-0.34848493
138	0xbf8b6155	-1.0889078
139	0xbb727b8e	-0.0036999914
140	0x3d04137e	0.03224515
141	0x3f141484	0.57843804
142	0x3fbb4194	1.4629388
143	0xbf51cd09	-0.81953484
144	0x3e1b4110	0.15161538
145	0x3e5d93ad	0.21638365
146	0xbf8bdb8d	-1.0926377
147	0xbc2c5b1d	-0.01051977
148	0x3b4a2fe0	0.003085129
149	0xbe8750e6	-0.26428908
150	0x3f7815c4	0.9690821
151	0xbfbdcc1b	-1.4827913
152	0xc0186081	-2.3808901
153	0x3d5a055a	0.05322776
154	0xbea610ee	-0.3243479
155	0xbd5607fa	-0.0522537
156	0x3d55be72	0.052183576
157	0xbf2e122c	-0.6799648
158	0x3ec7b5b6	0.39005822
159	0xbde888ae	-0.113541946
160	0xbf81546e	-1.0103891
161	0xbf03e230	-0.5151701
162	0xc01bd3a0	-2.4347916
163	0xbd908f67	-0.07058602
164	0x3ea405fc	0.32035816
165	0x4025340e	2.5813022
166	0x3e218c7a	0.15776244
167	0x3ed1ebc2	0.4100018
168	0xc0441d41	-3.0642855
169	0x3ea7862e	0.32719558
170	0x3ee16ff4	0.44030726
171	0xbe378727	-0.1792265
172	0xbd4c3743	-0.04985739
173	0x3ef81b9b	0.4845856
174	0xbd8dcac5	-0.06923441
175	0xbcc07fa7	-0.02349837
176	0x3eb08d4f	0.3448281
177	0xbea90754	-0.33013403
178	0x3fa14db5	1.2601839
179	0x3df18864	0.117935926
180	0xbd240670	-0.0400452
181	0xc1192598	-9.571678
182	0x3ce6b0cb	0.028160473
183	0xbd3e7582	-0.046498783
184	0xc07a685e	-3.91262
185	0xbf1c402d	-0.61035424
186	0x3faf27ce	1.3684022
187	0xbe211dbc	-0.15733999
188	0xbd6dd4c6	-0.058064245
189	0x400d6f51	2.2099192
190	0xbc305c15	-0.010764142
191	0xbde61ce3	-0.112359785
192	0x3f73629d	0.95072347
193	0xbd910d78	-0.07082647
194	0xbf45f079	-0.7732006
195	0xbe057282	-0.13031963
196	0xbe07276c	-0.13198632
197	0x40ea9f8c	7.331976
198	0xbdb9974e	-0.09062062
199	0xbf0d34ac	-0.55158496
200	0x3f653087	0.8952717
201	0xbf810168	-1.0078554
202	0x3e2bd266	0.1677948
203	0x3d6cd30d	0.05781846
204	0xbeb8d6fe	-0.36101526
205	0xc00e72df	-2.2257612
206	0x3ec9d711	0.39421895
207	0x3d37dbd4	0.04488738
208	0xc00be96f	-2.1861227
209	0xbf9ceed0	-1.226038
210	0xbf0ae886	-0.5426105
211	0x3d310091	0.04321343
212	0xbe4740e5	-0.19458349
213	0xc0b6a576	-5.707698
214	0x3ebac252	0.3647638
215	0xbf6ca58a	-0.9244009
216	0xbfe4ceb8	-1.7875586
217	0xbfca7a4c	-1.5818572
218	0x3f9b694a	1.2141507
219	0xbb39f368	-0.0028373841
220	0xbe051f1b	-0.13000147
221	0xbfa7cc64	-1.310925
222	0x3e334308	0.17506039
223	0x3f0d17c7	0.55114406
224	0x3defd07f	0.11709689
225	0xbeb736dd	-0.35784045
226	0xbf3a9f61	-0.7289944
227	0x3d9ff7fd	0.07810972
228	0xbb3982d6	-0.0028306744
229	0xc0a2ee06	-5.0915556
230	0xbf22da39	-0.6361423
231	0xbf2d477f	-0.6768722
232	0xbeec16ee	-0.46111244
233	0x3f197e46	0.599583
234	0xbfc56ec6	-1.542443
235	0x3d445c8f	0.047939833
236	0x3eac98c5	0.33710304
237	0xbc5a1e8f	-0.01331295
238	0xbf9650bd	-1.1743389
239	0x3de1a3be	0.110175595
240	0xbec0c785	-0.3765222
241	0xbfb8b264	-1.442944
242	0x3eb855c6	0.3600294
243	0x3dd5393b	0.104113065
244	0x3e1f2b92	0.15543965
245	0xbfaf8691	-1.3712941
246	0x3f62b522	0.88557637
247	0xbf490adb	-0.7853219
248	0xbe8f0a58	-0.2793758
249	0x3f0e6f7c	0.5563886
250	0x3ec9a569	0.3938401
251	0x3ddca522	0.10773684
252	0xbd5783dd	-0.05261599
253	0xc12c3d70	-10.764999
254	0x3e6461fc	0.22303003
255	0xbedfe4c3	-0.4372922

fc1.bias f4 [64]
0	0xbe80a257	-0.25123855
1	0xbde4aaf9	-0.11165423
2	0xbe94f5d1	-0.29093793
3	0xbe95c9aa	-0.2925542
4	0xbf003172	-0.5007545
5	0xbd8ebc76	-0.0696954
6	0xbf240be0	-0.6408062
7	0xbf9dca30	-1.2327328
8	0xbf035fa1	-0.51317793
9	0x3d9252db	0.0714471
10	0x3eb9fa5d	0.36323825
11	0x3de45db5	0.11150686
12	0xbdde317c	-0.10849282
13	0xbf23d58e	-0.63997734
14	0x3cf0853c	0.029360406
15	0xbedf7178	-0.43641257
16	0x3db6568c	0.08903226
17	0xbf1b9be0	-0.6078472
18	0xbfc6549e	-1.5494573
19	0xbeef8d98	-0.46787715
20	0xbe1c738b	-0.15278451
21	0xbbf41c85	-0.007449689
22	0xbe5aae8f	-0.21355651
23	0xbe78d16e	-0.24298641
24	0xbe99c2c1	-0.30031398
25	0x3ea7fa96	0.3280837
26	0xbf6358f8	-0.8880763
27	0x3eafffff	0.34374997
28	0xbf4577ae	-0.7713574
29	0xbe6b6e40	-0.22991276
30	0xbf5481fb	-0.83010834
31	0xbec48b1c	-0.38387382
32	0x3e6247ea	0.22097746
33	0x3e6d8f23	0.23199134
34	0xbc810caf	-0.015753118
35	0x3eb13f94	0.3461882
36	0xbcde3c5f	-0.027128397
37	0xbeb17b01	-0.34664157
38	0xbf26bd4a	-0.6513258
39	0xbf05f3f6	-0.5232538
40	0xbdf18568	-0.11793023
41	0xbf149650	-0.5804186
42	0x3e5cb8e1	0.215549
43	0xbf386004	-0.7202151
44	0xbe212872	-0.15738085
45	0x3afbfe8c	0.0019225641
46	0xbe8c0ba2	-0.27352625
47	0xbe94abc2	-0.2903729
48	0xbe12f8fc	-0.14352793
49	0xbea93b5c	-0.330531
50	0x3dcfd4ab	0.10147985
51	0xbf0123dc	-0.5044534
52	0xbea02011	-0.31274465
53	0xbd08900a	-0.03334049
54	0x3e8b3a29	0.2719281
55	0x3e83ff2d	0.2578062
56	0xbf9a799d	-1.2068363
57	0xbf1c044b	-0.6094405
58	0x3e178312	0.14796093
59	0xbef49835	-0.47772375
60	0xbd50b2f6	-0.05095192
61	0xbec20158	-0.3789165
62	0xbebc85b5	-0.3682076
63	0xbf868e62	-1.0512202

fc2.weight f4 [256, 64]
0	0x3d85276e	0.06501661
1	0x3bfa2254	0.0076334868
2	0xbd78d847	-0.060753133
3	0xbd46def3	-0.048552465
4	0xbc03ceda	-0.008044923
5	0x3d161924	0.03664507
6	0xbe2fda90	-0.17173219
7	0x3cb9f565	0.022700021
8	0xbdc0a636	-0.09406702
9	0xbe3faa1d	-0.18717237
10	0xbd2d8aed	-0.042368818
11	0x3c10a4f3	0.008828389
12	0xbc3b7cb2	-0.011443304
13	0xbe265b5f	-0.16245793
14	0xbe148463	-0.14503627
15	0xbe2361bb	-0.1595525
16	0x3cdcd3c9	0.026956456
17	0x3d969913	0.07353415
18	0xbcb0cf68	-0.021583274
19	0xbe1cf08a	-0.15326133
20	0xbdcc87df	-0.09986853
21	0xbe8f850a	-0.28031188
22	0xbe90af27	-0.2825863
23	0x3d0f75b4	0.03502436
24	0x3bfb3ac0	0.0076669157
25	0xbda59131	-0.08084334
26	0xbe1cdc49	-0.15318407
27	0xbe3a3aa5	-0.18186434
28	0xbe13c2c6	-0.14429769
29	0xbe03d580	-0.12874413
30	0xbe2770eb	-0.16351669
31	0xbdae536b	-0.085120045
32	0x3de300af	0.11084115
33	0xbe26d8fe	-0.16293713
34	0xbea1a186	-0.31568545
35	0xbe2cf6b8	-0.1689099
36	0xbce39bef	-0.027784316
37	0xbe031324	-0.1280027
38	0xbe8ea5c7	-0.27860853
39	0xbd061052	-0.032730408
40	0xbdcbbb00	-0.09947777
41	0xbd34acd2	-0.044110127
42	0xba47a8a3	-0.00076163764
43	0xbdf8059d	-0.12110446
44	0xbe22e7dd	-0.15908761
45	0x3dba8cb5	0.09108869
46	0xbe4a50f3	-0.19757442
47	0x3e0128ca	0.12613216
48	0x3c0ed4e1	0.0087177465
49	0xbd9fd9b4	-0.078051955
50	0x3d2509e1	0.040292624
51	0xbdfff56c	-0.124979824
52	0xbdc01e8a	-0.09380825
53	0xbe94c248	-0.29054475
54	0xbd410d0d	-0.047131587
55	0x3e211540	0.15730762
56	0xbdd7f909	-0.105455466
57	0xbe685bf4	-0.22691327
58	0xbe718351	-0.2358525
59	0xbddeffed	-0.10888658
60	0xbddb2ae4	-0.1070154
61	0x3e399084	0.18121535
62	0xbd5fa6ae	-0.054602318
63	0xbc5d7499	-0.013516569
64	0x3e419835	0.18905719
65	0xbd21014d	-0.03930788
66	0x3dc541ef	0.096317165
67	0x3d917820	0.0710299
68	0xbdd0f4fc	-0.10202977
69	0xbe905794	-0.28191817
70	0xbd0ea83c	-0.03482841
71	0xbdf36feb	-0.11886581
72	0xbdc494eb	-0.09598716
73	0xbe6a0e75	-0.22857077
74	0xbe08aada	-0.13346425
75	0xbdc80c37	-0.09767955
76	0xbd0cea25	-0.034402985
77	0xbddaf1e6	-0.1069067
78	0xbddb1769	-0.106978245
79	0xbd8aeb8b	-0.067832075
80	0xbe2122fc	-0.15736002
81	0x3d3a5d9a	0.04549942
82	0xbc25cea9	-0.010120072
83	0xbe03d94b	-0.1287586
84	0xbd9599d7	-0.07304733
85	0xbe000c92	-0.12504795
86	0xbeaf67a7	-0.34258768
87	0xbb8717a7	-0.0041226926
88	0xbbf237c6	-0.0073919026
89	0xbce923d4	-0.028459467
90	0xbe1885b3	-0.14894752
91	0x3d1abfe0	0.037780643
92	0xbd9b84d3	-0.075936936
93	0x3d206e9e	0.039167993
94	0xbdf3a815	-0.118972935
95	0x3d399c3a	0.045315005
96	0xbd623979	-0.05523059
97	0xbdb1bc8e	-0.08678542
98	0xbc4249c5	-0.011858408
99	0x3d86c5b5	0.065806784
100	0xbd53bf87	-0.051696327
101	0xbac3b016	-0.0014929797
102	0x3acacc3d	0.0015472245
103	0xbdd73911	-0.105089314
104	0xbdcd067a	-0.10011001
105	0xbcf06046	-0.029342782
106	0x3d172682	0.03690196
107	0x3d276167	0.040864374
108	0x3cbed6dc	0.023295812
109	0x3e12ad16	0.1432384
110	0xbe092657	-0.13393532
111	0x3bbe3ce2	0.0058055976
112	0xbe2b868d	-0.16750546
113	0x3d94bdc5	0.07262758
114	0xbd917a64	-0.07103422
115	0x3dd9e83f	0.106400006
116	0x3d2744ad	0.04083698
117	0xbe2e54cf	-0.1702454
118	0xbd1ad786	-0.037803195
119	0x3d2801c7	0.04101732
120	0xbd04f277	-0.032457795
121	0xbd6f4807	-0.0584183
122	0xbd0affad	-0.033935238
123	0xbe2b0162	-0.16699746
124	0xbd7b69b0	-0.06138009
125	0xbdc5ac3e	-0.09651993
126	0x3d9e0376	0.07715504
127	0xbdda8b43	-0.10671093
128	0xbeb49250	-0.35267878
129	0xbca0c52f	-0.019625274
130	0x3c3f0973	0.011659968
131	0x3e91df5a	0.28490716
132	0xbf0dbe59	-0.5536857
133	0xbf67a2db	-0.9048287
134	0xbed9c21b	-0.42530903
135	0xbec70925	-0.38874164
136	0xbe716315	-0.23572953
137	0x3e88518f	0.26624724
138	0xbeeed733	-0.4664856
139	0xbe13df79	-0.14440717
140	0xbd7f4242	-0.062319048
141	0x3cd1db56	0.025617283
142	0xbe19e258	-0.1502775
143	0x3d6c87b7	0.057746615
144	0xbd6f5c72	-0.058437772
145	0xbed5466c	-0.4165529
146	0x3d07b72c	0.03313367
147	0x3e396536	0.18105015
148	0x3db476e1	0.08811737
149	0x3daf9979	0.085741945
150	0xbe159f98	-0.14611661
151	0xbf5aab0c	-0.85417247
152	0x3d4ba150	0.049714386
153	0xbee4e875	-0.447086
154	0x3ca005fc	0.019534104
155	0xbf2ea971	-0.682273
156	0xbe9b7861	-0.3036528
157	0xbeefa660	-0.46806622
158	0xbdf77721	-0.12083269
159	0xbea265aa	-0.3171819
160	0xbf393f16	-0.72361887
161	0x3c8810fc	0.016609661
162	0xbed6b58e	-0.4193539
163	0xbe17076c	-0.14748925
164	0xbd6229e2	-0.055215724
165	0x3de43f80	0.11144924
166	0x3e4fda59	0.20298137
167	0xbe26a9ca	-0.16275707
168	0x3dc7e357	0.097601585
169	0xbf9fa652	-1.2472632
170	0x3cfdbe9f	0.030974684
171	0xbe41aa15	-0.18912537
172	0xbd0becc5	-0.034161348
173	0x3cf948cf	0.030430226
174	0x3e33591b	0.1751446
175	0xbe36c670	-0.17849135
176	0xbd81df41	-0.063414104
177	0xbeb28312	-0.34865624
178	0xbf7a1f18	-0.97703695
179	0x3e1f56f2	0.15560511
180	0x3daaccc3	0.083398364
181	0xbe42f249	-0.19037737
182	0xbfac171a	-1.344455
183	0x3cdcac95	0.026937762
184	0xbe771d32	-0.24132231
185	0xbe51f773	-0.2050455
186	0xbdd88ccf	-0.10573732
187	0xbe0e4fce	-0.1389763
188	0xbe03e4d3	-0.12880258
189	0xbca34bd6	-0.019933622
190	0xbdc83263	-0.097752355
191	0xbe24112d	-0.16022177
192	0x3dc3a7ca	0.095534876
193	0xbe607a76	-0.21921715
194	0xbd86af30	-0.06576383
195	0xbdcb3208	-0.09921652
196	0xbe96c9b7	-0.2945077
197	0xbf275d64	-0.6537688
198	0xbe7c8ee9	-0.24663891
199	0xbe8b2581	-0.2717705
200	0x3e75ebd2	0.2401574
201	0xbe565a34	-0.20932847
202	0xbec155e0	-0.3776083
203	0xbc9db864	-0.019252963
204	0xbcffe630	-0.031237692
205	0xbe30f618	-0.17281377
206	0xbec78fca	-0.3897689
207	0xbe8ebd7a	-0.27878934
208	0x3df71210	0.12063992
209	0x3efc9178	0.49329734
210	0x3eecdd84	0.46262753
211	0xbe0c9f46	-0.13732633
212	0x3c3d62df	0.011559217
213	0xbf8e16de	-1.1100729
214	0xbe923baa	-0.28561145
215	0xbf6921ef	-0.91067404
216	0x3d19e7a0	0.03757441
217	0x3dc95b4e	0.09831868
218	0xbea0380e	-0.31292766
219	0xbf7276a5	-0.9471229
220	0xbf2559e2	-0.64590275
221	0xbf724bcf	-0.94646925
222	0x3eb723e8	0.35769582
223	0x3e1fc9e7	0.15604363
224	0xbfb9ae5b	-1.4506334
225	0xbe227e66	-0.1586853
226	0xbf390d95	-0.7228635
227	0xbf611245	-0.879185
228	0xbf09bf5d	-0.5380762
229	0x3e118a33	0.14212875
230	0xbe89705a	-0.2684353
231	0xbf4b27a2	-0.7935735
232	0xbd9c34b5	-0.076272406
233	0xbed90c1e	-0.42392057
234	0x3de94523	0.1139014
235	0xbe0b0abf	-0.13578318
236	0x3b9c08b8	0.0047617815
237	0x3d73b9ab	0.05950324
238	0xbf32821e	-0.69729793
239	0xbde218fa	-0.1103992
240	0x3cd47563	0.02593488
241	0xbe5b8d74	-0.21440679
242	0xbdea3664	-0.114361554
243	0xbe2aaf26	-0.16668376
244	0x3d6dcc53	0.058056187
245	0xbf43b84c	-0.7645309
246	0xbebe9d69	-0.3722947
247	0xbdbebb00	-0.09313011
248	0xbf5212a9	-0.82059723
249	0xbed7d867	-0.4215729
250	0x3e987cc3	0.29782686
251	0xbc3d81e5	-0.011566614
252	0xbf5c26b4	-0.85996556
253	0xbda05b67	-0.078299336
254	0x3e339188	0.17535985
255	0xbdbffc9a	-0.09374352

fc2.bias f4 [256]
0	0xbe966f91	-0.29381993
1	0xbd46e51c	-0.04855834
2	0x3e186932	0.14883879
3	0xbf352852	-0.7076465
4	0xbe88dcd5	-0.2673098
5	0xbd854d15	-0.06508843
6	0x3d7ac9a5	0.06122746
7	0xbe318bc5	-0.17338474
8	0xbe87f3f5	-0.26553312
9	0xbdf8ee7c	-0.12154862
10	0xbed8950e	-0.4230122
11	0xbe3fffb6	-0.1874989
12	0xbd788097	-0.060669508
13	0xbd7a6b7e	-0.06113767
14	0xbf4ad8fb	-0.79237336
15	0xbe67e849	-0.22647204
16	0xbe89d428	-0.26919675
17	0xbd67d004	-0.056594864
18	0xbe278476	-0.16359124
19	0xbe00cb9b	-0.1257767
20	0xbec0598f	-0.37568328
21	0xbe57dc55	-0.21080144
22	0xbdd2b56e	-0.10288511
23	0x3cb5e85b	0.022205522
24	0xbdb4fa48	-0.088368
25	0xbeac54f4	-0.33658564
26	0xbe955817	-0.2916877
27	0xbe70fe58	-0.23534524
28	0xbe9bbecb	-0.30419
29	0xbe3d73e7	-0.18501244
30	0xbe92ca70	-0.28670073
31	0xbd62f00c	-0.055404708
32	0xbf228217	-0.6347975
33	0xbeff43a4	-0.49856293
34	0xbf2f599c	-0.6849611
35	0xbdc143e5	-0.09436778
36	0xbea6633c	-0.32497585
37	0xbeaade91	-0.3337293
38	0xbe73e262	-0.23816827
39	0xbdda0e1e	-0.10647224
40	0xbe467f90	-0.19384599
41	0xbcc9fbe2	-0.02465624
42	0xbe18cb60	-0.14921331
43	0xbe9a4994	-0.3013426
44	0xbe3c049c	-0.18361133
45	0x3ec14c0c	0.37753332
46	0xbe80310e	-0.25037426
47	0xbe941996	-0.2892577
48	0xbe6a474c	-0.2287876
49	0xbe6e93ac	-0.2329852
50	0xbeb4f073	-0.35339698
51	0xbe8a563f	-0.27018926
52	0xbece0ce6	-0.40244216
53	0xbe63e085	-0.22253616
54	0xbe9ac939	-0.30231646
55	0xbf10d716	-0.56578195
56	0xbf0e1b1e	-0.5551013
57	0xbe970ab4	-0.29500353
58	0xbd8d81b2	-0.06909503
59	0xbdecbdc1	-0.1155963
60	0xbe82f743	-0.2557927
61	0x3f7a1064	0.9768126
62	0xbe5b0bc8	-0.21391213
63	0xbe1866d4	-0.14882976
64	0xbead4320	-0.33840275
65	0xbdf5eb21	-0.12007738
66	0xbe7b2092	-0.24524143
67	0xbe1bf71f	-0.15230988
68	0xbe63e219	-0.22254218
69	0xbe8693b9	-0.26284578
70	0xbf1c40ff	-0.61036676
71	0xbd9e64a7	-0.07734042
72	0x3f07e8e3	0.5308973
73	0xbe228237	-0.15869986
74	0xbdf8d01f	-0.12149071
75	0x3e0e12f4	0.13874418
76	0xbb44fbd6	-0.0030057332
77	0xbe8d60fb	-0.27613053
78	0xbcae5d49	-0.021284716
79	0xbf1e86a4	-0.61924195
80	0xbd8eb09b	-0.069672786
81	0xbe20ba6b	-0.15696113
82	0xbd5e36fe	-0.054251663
83	0xbf110fa9	-0.5666452
84	0xbdb0df1e	-0.08636306
85	0xbef1876c	-0.4717363
86	0xbe69414c	-0.22778815
87	0x3c24739e	0.010037331
88	0xbe854c70	-0.2603488
89	0x3d431c1b	0.047634225
90	0xbe2d05f0	-0.16896796
91	0xbe248dcf	-0.1606972
92	0xbeb73a76	-0.3578679
93	0xbed41d0f	-0.4142842
94	0xbe9fa3e2	-0.3117972
95	0x3ef78619	0.48344496
96	0xbdc17565	-0.09446219
97	0xbf212371	-0.62944704
98	0xbd199bca	-0.037502088
99	0xbee93ebe	-0.4555568
100	0xbde58af1	-0.112081416
101	0xbe22816e	-0.15869686
102	0xbe8b0e33	-0.2715927
103	0xbe2f56ca	-0.17122951
104	0xbea26fba	-0.31725866
105	0xbda0ded1	-0.07854999
106	0xbea56703	-0.32305154
107	0xbeba461e	-0.3638162
108	0xbed5c305	-0.4175035
109	0xbf0692d5	-0.525678
110	0xbe8d2629	-0.27568176
111	0xbe82c9b0	-0.255445
112	0xbf5090c2	-0.8147088
113	0xbe40c5e6	-0.18825492
114	0xbe1a4cf9	-0.15068425
115	0xbe409684	-0.18807417
116	0xbe8baac7	-0.2727873
117	0xbe62817c	-0.22119707
118	0xbe98a401	-0.29812625
119	0x3d90f853	0.07078614
120	0xbd4c96c1	-0.049948458
121	0xbd8b964d	-0.06815777
122	0xbe31d922	-0.17367986
123	0xbdf49d65	-0.11944083
124	0xbe822274	-0.2541691
125	0xbe19f96b	-0.15036552
126	0xbed5bd51	-0.41746
127	0xbe8624ad	-0.26199856
128	0xbea1eb82	-0.3162499
129	0xbecf4031	-0.40478662
130	0xbe773036	-0.24139485
131	0xbe36a4f2	-0.17836359
132	0xbdf06fbe	-0.11740063
133	0xbe6a06e8	-0.22854197
134	0xbe402eb0	-0.1876781
135	0xbe45272c	-0.19253224
136	0xbf532021	-0.824709
137	0xbde08e08	-0.1096459
138	0xbdbd0199	-0.0922882
139	0xbe1dabe1	-0.15397598
140	0xbea9ac24	-0.33139145
141	0xbdbfde53	-0.09368577
142	0xbdf82a39	-0.12117428
143	0xbe819fd9	-0.25317267
144	0xbe3349f9	-0.17508687
145	0xbe112cf0	-0.14177299
146	0xbe8a4f54	-0.27013648
147	0xbe661581	-0.2246914
148	0xbd82c20f	-0.0638467
149	0xbdfd82ca	-0.12378462
150	0xbe50dfef	-0.20397924
151	0xbea4171d	-0.32048884
152	0xbe676f1e	-0.22600982
153	0xbed22c6d	-0.4104952
154	0xbf12e234	-0.5737641
155	0xbe627724	-0.22115761
156	0xbe3dc5a6	-0.18532428
157	0xbf42d1b8	-0.76101255
158	0xbe100e9f	-0.14068078
159	0xbe888342	-0.26662642
160	0xbe14bc95	-0.14525063
161	0xbdf740e1	-0.120729215
162	0xbea750de	-0.32678884
163	0xbee007df	-0.43756005
164	0x3f4fa695	0.8111356
165	0xbe245238	-0.16046989
166	0xbd9b39ef	-0.07579409
167	0xbe48df9f	-0.19616555
168	0xbe5069b0	-0.20352817
169	0xbe28d88b	-0.16488855
170	0xbda91183	-0.08255293
171	0xbe71441e	-0.23561141
172	0xbe9a9f9a	-0.3019989
173	0xbe2009d6	-0.15628752
174	0xbd0a10cf	-0.033707436
175	0xbbb84257	-0.0056231427
176	0xbe92461d	-0.28569117
177	0xbe1d8632	-0.15383223
178	0xbea86d8e	-0.32896084
179	0xbe83ed21	-0.25766852
180	0xbe51fcfa	-0.20506659
181	0x3c3c7880	0.011503339
182	0x3e266fe1	0.16253616
183	0xbe10f768	-0.14156878
184	0xbdfe03e3	-0.12403085
185	0x3ec30be3	0.38095006
186	0xbf3350ed	-0.7004536
187	0xbec0d93b	-0.37665734
188	0xbe338c52	-0.17533997
189	0x3bdd7364	0.0067581404
190	0xbe7117d4	-0.23544246
191	0xbe2447f6	-0.16043076
192	0x3d8afa8b	0.067860685
193	0xbe989851	-0.29803708
194	0xbe38fbd6	-0.18064818
195	0xbdd97032	-0.10617103
196	0xbeabe52a	-0.33573276
197	0xbe93d11d	-0.28870478
198	0xbd4867d6	-0.04892715
199	0x3f6f44ce	0.9346436
200	0xbe87c125	-0.26514545
201	0xbe5dd041	-0.21661474
202	0xbe3a0821	-0.18167163
203	0xbd2ca618	-0.042150587
204	0xbeb7179a	-0.35760194
205	0xbe88cde4	-0.26719582
206	0xbe92a76b	-0.28643355
207	0xbcd38ff4	-0.025825478
208	0xbe0116ad	-0.12606306
209	0xbe7e2973	-0.24820499
210	0xbe9147fd	-0.28375235
211	0xbe9e1809	-0.30877712
212	0xbe3b2554	-0.18275958
213	0xbe9b6d45	-0.30356804
214	0xbe0328d0	-0.12808537
215	0xbda7e3c8	-0.08197743
216	0x3d308d60	0.043103576
217	0xbe981b10	-0.29708147
218	0x3e1b1722	0.15145543
219	0xbe832f27	-0.25621912
220	0xbe504e46	-0.20342359
221	0xbe82e0e9	-0.25562218
222	0xbdd605b0	-0.104503036
223	0xbe5c4a00	-0.21512604
224	0xbe3db76d	-0.18527003
225	0xbe1de6d2	-0.15420082
226	0xbf89dc7c	-1.0770411
227	0xbd193fd3	-0.037414383
228	0xbe15cc24	-0.14628655
229	0xbe161d03	-0.14659505
230	0xbe429eab	-0.1900584
231	0xbe859a34	-0.2609421
232	0xbe430f86	-0.1904889
233	0xbe9c71f3	-0.30555686
234	0xbdf1cdaf	-0.11806809
235	0xbeb50b13	-0.3536001
236	0xbe3aa154	-0.18225604
237	0xbe7fed01	-0.24992754
238	0xbea0b5b1	-0.3138862
239	0xbe32cec0	-0.17461681
240	0x3cd9182b	0.026500782
241	0xbe8a4afa	-0.27010328
242	0xbe33a61a	-0.17543831
243	0x3e7d072f	0.24709772
244	0xbe8c999d	-0.27460948
245	0xbdda3cf8	-0.1065616
246	0xbebee0ad	-0.3728079
247	0x3da2575a	0.07926817
248	0xbe513b9f	-0.204329
249	0x3eef1270	0.46693754
250	0xbddc631b	-0.1076109
251	0xbe5ddd32	-0.2166641
252	0xbd13bc63	-0.03606833
253	0xbe605fb1	-0.21911503
254	0xbe13d426	-0.14436397
255	0xbe06502c	-0.1311652

fc3.weight f4 [25, 256]
0	0xbda0e1f3	-0.078555964
1	0x3cbcc219	0.023041772
2	0x3e3c9603	0.184166
3	0x3c00edad	0.007869166
4	0x3e8c3e07	0.27391073
5	0x3ec2cd02	0.38047034
6	0xbed6e56c	-0.4197191
7	0x3e51e6ff	0.20498274
8	0xbe3cb87f	-0.18429755
9	0x3ecc2fc8	0.39880204
10	0x3e211c66	0.1573349
11	0xbe00ce1d	-0.12578626
12	0x3d9b761d	0.07590888
13	0xbe2fb4a3	-0.17158751
14	0xbe0fad39	-0.14030923
15	0xbd9b6f6c	-0.075896114
16	0xbdc352f1	-0.09537304
17	0xbce7b915	-0.028286496
18	0x3e36e442	0.17860511
19	0x3cf6c450	0.030122906
20	0x3ec92e78	0.39293265
21	0x3e7547c1	0.23953153
22	0x3dc215cd	0.094768144
23	0xbdd4b267	-0.1038559
24	0xbcd202a4	-0.025636025
25	0x3dd5a3d5	0.10431639
26	0xbc53c95a	-0.012926424
27	0x3dabc773	0.08387651
28	0x3d45c7e4	0.048286334
29	0xbb97209a	-0.0046120407
30	0xbd5ca14b	-0.05386476
31	0xbe78ec73	-0.24308948
32	0xbda8a4c6	-0.08234553
33	0x3dac8272	0.08423318
34	0xbed21c83	-0.41037378
35	0xbdaf276f	-0.08552443
36	0x3d60e98b	0.054910224
37	0xbe8081b6	-0.25098962
38	0xbc6d5d39	-0.014487558
39	0x3e595b28	0.2122618
40	0xbd468c24	-0.048473492
41	0xbe346419	-0.17616309
42	0x3e846034	0.25854647
43	0xbd57f04a	-0.052719392
44	0xbddf5b8d	-0.10906134
45	0x3eeaa898	0.45831752
46	0x3d9a9533	0.07547989
47	0x3e5c45d2	0.2151101
48	0xbd375b29	-0.04476467
49	0x3d01e199	0.031709287
50	0x3d09dda6	0.033658646
51	0x3d28f341	0.04124761
52	0x3df9a6eb	0.1219004
53	0xbccce916	-0.025013488
54	0xbdc62a11	-0.09675992
55	0x3d045784	0.032310024
56	0x3e8892a5	0.2667438
57	0x3da95715	0.08268563
58	0xbc0d5e7d	-0.008628485
59	0x3ec1811d	0.37793818
60	0x3d4e1a4f	0.05031806
61	0x3e7406b1	0.23830678
62	0x3e0860f8	0.1331824
63	0x3e395a7a	0.1810092
64	0xbdc8571a	-0.09782238
65	0x3ef5d9f1	0.4801784
66	0x3e594d0b	0.21220796
67	0xbe007a9b	-0.1254677
68	0xbcf37fce	-0.029724028
69	0xbdf21719	-0.11820812
70	0x3efe196b	0.49628767
71	0x3bc7bc5b	0.006095452
72	0x3f28445c	0.6572931
73	0xbe4b2183	-0.19837002
74	0xbe2f35bb	-0.1711034
75	0x3ea00102	0.3125077
76	0xbe079132	-0.13238981
77	0x3c6a9a6e	0.0143190455
78	0x3dc7185d	0.09721444
79	0xbe4b6bd4	-0.19865352
80	0x3eaa8f42	0.33312422
81	0x3d98db2f	0.07463681
82	0x3f0d74f6	0.55256593
83	0xbe6b9d5b	-0.23009245
84	0xbe9c0de7	-0.30479357
85	0x3d16ceb0	0.036818206
86	0x3dca60be	0.09881733
87	0x3dc3b344	0.095556766
88	0x3ed21177	0.4102895
89	0x3dce46cc	0.10072097
90	0xbe169c46	-0.14708051
91	0x3d606fcd	0.05479412
92	0x3f4691d2	0.77566254
93	0x3e51c160	0.20483923
94	0x3e4b89af	0.19876741
95	0x3f0a92f5	0.5413049
96	0x3eb385a0	0.35062885
97	0x3e0d6998	0.13809812
98	0xbd006652	-0.03134758
99	0xbd10b9cb	-0.035333436
100	0xbd90184e	-0.07035886
101	0xbea50f5c	-0.3223828
102	0xbd6e617e	-0.058198445
103	0xbe07d062	-0.13263085
104	0xbe6ec9a3	-0.23319106
105	0x3dd28d1a	0.10280819
106	0x3d8c261d	0.06843207
107	0xb99e1db6	-0.00030158245
108	0x3c94289a	0.018085767
109	0x3e47fe18	0.19530523
110	0xbd1a6a08	-0.037698776
111	0xbda24eb1	-0.079251654
112	0xbe58b5da	-0.21163121
113	0x3edc9736	0.43084115
114	0x3e21468d	0.15749569
115	0xbcd36831	-0.025806518
116	0x3eb7bae9	0.3588479
117	0x3d8469c4	0.06465486
118	0xbd959520	-0.07303834
119	0xbe917790	-0.2841153
120	0xbd8bcf6b	-0.06826671
121	0x3efd4db5	0.49473348
122	0xbec5d7b3	-0.38641128
123	0x3d3dadec	0.046308443
124	0x3d5e2dd9	0.054242942
125	0x3e1efc7c	0.15526003
126	0xbc308b5d	-0.010775414
127	0x3e7a9465	0.2447067
128	0x3cb32934	0.021870233
129	0xbebdc52b	-0.3706449
130	0xbe3e42be	-0.18580148
131	0xbcaf0ab5	-0.02136741
132	0x3e123f7c	0.1428203
133	0x3d89718f	0.06711113
134	0xbe2e007d	-0.16992374
135	0x3d8d7660	0.06907344
136	0xbdfbec6c	-0.12300953
137	0xbc29b953	-0.010359126
138	0xbba538fb	-0.005042193
139	0x3cdedd39	0.027205097
140	0xbe992c67	-0.2991669
141	0x3ebb9977	0.36640522
142	0x3e3ea76b	0.18618552
143	0xbe1136ad	-0.14181013
144	0x3d1e1b0e	0.03860002
145	0xbddbe2a4	-0.10736588
146	0xbd3ef6ec	-0.0466222
147	0xbdf5de2a	-0.12005265
148	0xbdb56e6f	-0.08858954
149	0xbe5abc56	-0.21360907
150	0x3dd56d7f	0.10421275
151	0xbc939cfd	-0.018019194
152	0xbd48988e	-0.048973612
153	0x3dd66a3b	0.104694806
154	0x3c5c0158	0.013428055
155	0xbdda6bf3	-0.10665121
156	0x3e9e7b98	0.3095367
157	0x3f52b21e	0.82303035
158	0xbdc01b46	-0.09380202
159	0xbd47db18	-0.04879293
160	0xbdbdee3b	-0.092739545
161	0x3dd8caa5	0.105855264
162	0x3e28745e	0.1645064
163	0xbdb49ed8	-0.088193595
164	0x3ee529f9	0.44758585
165	0x3e5eaee1	0.21746399
166	0xbe40e4a5	-0.18837221
167	0x3dd57eae	0.10424553
168	0xbd41decf	-0.047331627
169	0xbe0eac47	-0.13932906
170	0x3e1e9202	0.15485385
171	0x3e65ebeb	0.22453277
172	0xbda3306c	-0.0796822
173	0x3c44fb49	0.012022802
174	0x3ba27038	0.004957225
175	0x3e88fcb1	0.26755288
176	0xbe2e3e1a	-0.17015877
177	0x3d033eeb	0.032042425
178	0xbeafa879	-0.34308222
179	0xbbe09684	-0.0068538804
180	0x3e046cee	0.12932178
181	0x3d33b1c6	0.04387071
182	0x3e4a87c1	0.19778349
183	0xbe0bfc1c	-0.13670391
184	0xbe3afdc5	-0.18260868
185	0x3ee52217	0.4475257
186	0x3ec6a065	0.38794246
187	0x3e8c8bdb	0.2745045
188	0xbce92908	-0.028461948
189	0x3dfa8ef7	0.122343
190	0x3dd8de52	0.10589279
191	0xbd81f596	-0.0634567
192	0x3ef6669a	0.48125154
193	0x3e6dacf1	0.23210503
194	0xbdcbc390	-0.0994941
195	0xbdafda85	-0.08586601
196	0x3e3a8f6e	0.18218777
197	0x3e3ec1ee	0.18628666
198	0x3d424144	0.047425523
199	0xbe6afc78	-0.22947872
200	0x3e4efa28	0.20212615
201	0xbd12f080	-0.03587389
202	0xbde186d4	-0.110120445
203	0x3f2b07c9	0.66808754
204	0xbd9dfccd	-0.077142335
205	0x3e184371	0.14869477
206	0x3c3dc6ef	0.011583074
207	0x3f05f979	0.5233379
208	0xbe72098a	-0.23636451
209	0x3d9b2767	0.07575875
210	0xbca2838e	-0.01983812
211	0x3e018077	0.12646662
212	0xbb9ab7f3	-0.0047216355
213	0xbd9dae09	-0.0769921
214	0x3d8b3b3b	0.06798407
215	0x3d0a0437	0.033695426
216	0x3e9cf633	0.30656585
217	0xbce56240	-0.02800095
218	0x3f3a2292	0.72709
219	0xbcf9b157	-0.03048007
220	0x3e41c380	0.18922234
221	0xbc2eec41	-0.0106764445
222	0xbc9c92b1	-0.019112917
223	0x3e5135df	0.20430706
224	0x3d88c2ec	0.066778034
225	0x3d8d72ca	0.0690666
226	0x3decc646	0.11561255
227	0xbd8120a9	-0.063050576
228	0xbd8764ca	-0.06611021
229	0xbc82e0f0	-0.0159764
230	0x3c1c251d	0.009530333
231	0xbd025f4a	-0.031829156
232	0xbe05e61d	-0.13076063
233	0xbe0231ef	-0.1271436
234	0x3ca4098f	0.02002409
235	0xbe38f5cd	-0.18062516
236	0xbeaeb447	-0.34121916
237	0xbdde6527	-0.10859137
238	0x3efbd78c	0.49187887
239	0x3e275754	0.16341907
240	0xbbf52b5a	-0.0074819745
241	0x3eb4ad42	0.35288435
242	0xbd65ccfd	-0.056103695
243	0x3eeb5ea4	0.45970643
244	0xbd8d9bf8	-0.06914514
245	0x3e5ec0ac	0.21753186
246	0xbd82d8c0	-0.06388998
247	0x3f041100	0.5158844
248	0x3c80fa69	0.015744405
249	0x3eea9e60	0.45823956
250	0xbd3c993f	-0.046044584
251	0xbd85ff65	-0.06542853
252	0xbdbe9cc0	-0.093072414
253	0x3ed11915	0.4083945
254	0x3e7661dd	0.2406077
255	0xbcdadac9	-0.026715653

fc3.bias f4 [25]
0	0x3fb76ae5	1.4329497
1	0x3f8b1cfc	1.086822
2	0x3f876956	1.0579021
3	0x3f75f5de	0.9607829
4	0x3f85af32	1.044409
5	0x3f9944ee	1.1974161
6	0x3f681f31	0.90672594
7	0x3f4f5afb	0.809982
8	0x3f958ad3	1.1682991
9	0x3f843ab1	1.0330411
10	0x3f95c9a2	1.1702158
11	0x3f945f32	1.1591551
12	0x3f8dcaf4	1.1077561
13	0x3f71b0bf	0.9441032
14	0x3f4dd39d	0.8040102
15	0x3f8a4eb8	1.0805273
16	0x3f9497a6	1.160878
17	0x3f994347	1.1973656
18	0x3f75cb66	0.96013486
19	0x3fab5eca	1.3388302
20	0x3f9982dc	1.199306
21	0x3fc192a9	1.5122882
22	0x3f912ffc	1.1342769
23	0x3f35f5e9	0.71078354
24	0x3f823025	1.0170943
