examples/carla_scenic/Carla_Challenge/agent_scalar/target_net_1300.pt (torch, 96407 bytes, 6 tensors)

fc1.weight f4 [64, 8]
000000 db 6d d3 3e dc 97 a4 3c 83 8e 75 bf 77 b7 1e 3b
       0.4129475 0.020091943 -0.9592058 0.002421824
000010 7e dd 2f bd da 27 8c bf 68 ac 0e 3f 05 b1 90 be
       -0.04293584 -1.0949662 0.5573182 -0.28260055
000020 30 e1 3c bf 2a 04 1e bf 77 d9 26 bf 77 9d d2 3c
       -0.7378111 -0.61725104 -0.65175575 0.02570985
000030 94 7f 0c 3e 92 26 01 c0 bd 7a 1e bf c3 ec 5e be
       0.13720542 -2.0179791 -0.61906034 -0.21770005
000040 7c b8 76 bd 09 3b 0f bd 81 93 80 bd 69 5c 72 bb
       -0.06023453 -0.03496841 -0.06278134 -0.003698135
000050 b5 3d 55 3b 2a c4 77 be 8c 0a 26 be 46 13 a1 bd
       0.0032538 -0.24195924 -0.16214961 -0.07865004
000060 9e f8 77 3e 7c 63 a4 bf 47 b4 cd 3f 88 ea e2 bd
       0.24215934 -1.284286 1.6070641 -0.110798895
000070 4d e5 81 3d a5 b0 0c c0 ee f3 9f 3d c5 78 01 3e
       0.06342564 -2.1982815 0.07810198 0.12643726
000080 c8 4f 61 3f d0 0e f1 be 4e 03 51 bf 31 04 81 bd
       0.8801236 -0.47081614 -0.8164567 -0.062996276
000090 ae 6e 90 3c d3 09 68 40 ab c2 52 be 68 a3 96 be
       0.017630901 3.6255996 -0.20582072 -0.29421544
0000a0 9e d4 c3 3d 23 a2 7e 3c ab 0f 16 be d0 78 fb 3b
       0.09562038 0.015541586 -0.14654414 0.007674314
0000b0 a1 2a d3 bb 4c 90 73 bd 10 bf 11 bd 58 ca ad be
       -0.0064442907 -0.059463784 -0.035582602 -0.3394344
0000c0 08 7e cb 3c 30 e1 31 bf ef ff e5 be b5 c3 02 be
       0.02484037 -0.69484234 -0.44921824 -0.12769969
0000d0 78 4e a0 3d 8b ad ad 3f 11 b1 13 3e ea 98 8b bb
       0.07827467 1.3568586 0.14423014 -0.004260172
0000e0 91 09 ae 3f 51 e2 9b bc 92 87 2a be 4d 07 89 bd
       1.359667 -0.019028815 -0.16653278 -0.06690846
0000f0 15 ea b6 bc 32 bb a2 3f 8a 0d bf be 40 44 ef be
       -0.022328416 1.2713377 -0.37315017 -0.46731758
000100 15 f5 db be 2e 86 01 3f 18 0b 9f be 22 3a b8 3d
       -0.4296042 0.50595367 -0.3106315 0.08995463
000110 a5 59 21 bd 42 61 10 c0 27 76 03 3f 60 44 f4 be
       -0.039392132 -2.2559361 0.5135216 -0.47708416
000120 2c 27 2b 3f 8e bd a0 bf 9a 79 e2 bd 1f cf a8 bd
       0.66856647 -1.2557847 -0.1105835 -0.0824263
000130 18 d0 2e 3d ce c3 48 3f 43 fe b5 3d 90 d1 36 3e
       0.042678922 0.78423774 0.08886387 0.17853379
000140 bb 8c e8 3d 23 16 6e 3d c1 d4 55 bd ec 77 0c bd
       0.11354967 0.05812658 -0.05220485 -0.034294054
000150 38 54 09 3d b8 49 1d bf a3 cf d7 bd 96 e0 18 bf
       0.033527583 -0.6144061 -0.105376504 -0.5971769
000160 59 df ac 3d 59 c5 07 bc b1 f7 58 be ee a6 98 3b
       0.08441038 -0.008286797 -0.21188237 0.0046585714
000170 bd c4 1a bc 1e bb c7 3d d4 53 39 bd 5e fe 6d be
       -0.00944632 0.09752487 -0.04524596 -0.23241565
000180 54 d7 ab bf d8 26 a9 3e af 51 44 3d 40 50 4a bc
       -1.3425088 0.33037448 0.047929462 -0.012348235
000190 b5 88 ac 3d 6a a1 56 bf 92 a5 60 be c2 0b 7f be
       0.08424512 -0.8384005 -0.2193816 -0.24906829
0001a0 ef 86 5d 3f 1c 91 93 be 37 b1 91 bf e0 d3 bd 3b
       0.8653402 -0.28821647 -1.1382207 0.0057930797
0001b0 ab 56 1d bd a2 6c 45 3e bf f4 4c bf b3 4e ea 3d
       -0.03841273 0.19279721 -0.8006095 0.11440792
0001c0 1b 04 af 3d be 3c 29 be 7d ab c9 be 5b de 9e bc
       0.08545705 -0.16527078 -0.39388648 -0.019393137
0001d0 32 9a a8 3c 79 b6 8b 3e aa af e6 be 2b 16 7a be
       0.020581339 0.27287653 -0.45055896 -0.24422519
0001e0 d9 46 09 3e 49 53 0e be 7f 9e 5e be 97 a4 91 3b
       0.13405932 -0.13898958 -0.21740149 0.0044446695
0001f0 77 ae 89 bc 77 c3 01 be 96 6e 74 bc 55 17 13 be
       -0.016806824 -0.1267222 -0.014918944 -0.14364369
000200 1e 0b f0 3f 7a d2 43 be f6 d5 c7 3e ff cc 8f 3c
       1.8753393 -0.19123259 0.39030427 0.017553804
000210 b7 e4 10 3c 53 87 b1 bf 6e 8c 5d 3c d8 c1 df bd
       0.008843592 -1.3869423 0.013522251 -0.10925645
000220 8d 55 72 3f 47 13 8f 3e ef 91 d8 be 41 88 13 be
       0.9466179 0.27944395 -0.42298838 -0.14407445
000230 07 18 75 3d 96 ad 88 3f f7 92 5c bf b6 b4 2d be
       0.059837367 1.0677974 -0.8616175 -0.16963467
000240 d5 e7 6a bd 04 4d 92 bd c1 26 68 be 03 fc 83 bb
       -0.05735 -0.07143596 -0.22671033 -0.004027845
000250 6d de c5 3c 46 ab e7 be 73 4f 00 bf c2 3c 43 be
       0.024153912 -0.4524786 -0.5012123 -0.19066146
000260 ac df 5f be a6 b2 33 3d d4 38 2c 3e 96 3a 83 3d
       -0.21862668 0.043871544 0.16818553 0.06407659
000270 b1 d1 d1 bc 7c 9c 98 c0 fb 6e 94 bd 0c 75 88 bb
       -0.025612684 -4.769102 -0.0724773 -0.0041643437
000280 a4 f3 f6 be 75 c9 0b bf 3e 39 48 be fd 71 30 3d
       -0.48232758 -0.54604274 -0.19553086 0.043077458
000290 26 a0 26 bd 51 f4 06 40 be 05 f1 3e 91 59 11 bd
       -0.040680073 2.108662 0.47074693 -0.035485808
0002a0 b9 eb 1d bd d5 55 4c be 90 be ba bf 7c 1b 50 3d
       -0.03855488 -0.19954617 -1.4589405 0.05080746
0002b0 b4 f1 fc ba f3 f4 be c0 36 05 3d 3e c0 32 c0 bc
       -0.0019298107 -5.967401 0.18459019 -0.0234617
0002c0 ad ef c5 bd 2c fb a5 be dc 9f 86 be 69 be 0e bd
       -0.09664855 -0.3241819 -0.26293838 -0.034849558
0002d0 1f f5 d6 3d 05 f8 6d 40 99 ee 29 3e 63 49 2f be
       0.10495972 3.718263 0.16594924 -0.17117839
0002e0 ee 42 1f 3e 04 70 f0 bd be 75 94 be 9a 3e 3f bc
       0.15552875 -0.11740115 -0.2899608 -0.01167264
0002f0 93 7d 18 3b 0b ac 05 3e 40 4c 25 3c b4 a0 34 be
       0.0023268207 0.1305391 0.01008898 -0.17639428
000300 86 c9 bb 3e 76 76 9e be 6a f1 9a bd 19 57 04 3d
       0.36677188 -0.30949754 -0.07565577 0.032309625
000310 01 8b de bb 17 2e 9a bf 36 bc bb 3b ff 61 ed be
       -0.006791473 -1.2045316 0.0057292236 -0.46363828
000320 20 3a 03 3e 7b 0f c5 bd b0 de 6f be c1 1e 28 bc
       0.12815142 -0.09622093 -0.23424792 -0.010261239
000330 d7 9b d5 3b 94 b3 00 3d f8 e9 d3 3c 1d 77 2f be
       0.0065188217 0.03142126 0.025868401 -0.17135282
000340 a6 c1 a9 3f 0f 00 52 bf 8e 99 12 bf 16 96 96 bd
       1.3262222 -0.8203134 -0.57265556 -0.07352845
000350 01 be 60 bd 01 2e 53 40 21 1e 06 3d 7c c9 67 bd
       -0.0548687 3.2996829 0.032743577 -0.056588635
000360 5f f0 fc bd 1a 0f e0 bd ce eb 27 bf cb 25 0b be
       -0.12350535 -0.109403804 -0.65594184 -0.13588636
000370 e6 0d d4 3d 79 b8 df bf b3 d9 57 c0 7a c7 15 3d
       0.103542134 -1.7478172 -3.3726623 0.03656719
000380 62 7b c7 3f 4f 14 16 bf 87 fb 9b 3f a4 89 21 b9
       1.5584528 -0.5862474 1.2186135 -0.00015405432
000390 a6 90 08 3b b5 d9 9b 3f 68 00 4c 3d 9e 53 5d 3d
       0.002083817 1.2175814 0.049805075 0.05403482
0003a0 bd 09 51 3c c7 9f 11 be c2 48 12 be b8 91 2f ba
       0.012758669 -0.14221106 -0.14285567 -0.0006697434
0003b0 4b 57 75 3c 77 1d 74 bc d2 b8 19 bd 76 58 39 be
       0.014974426 -0.014899603 -0.037529774 -0.18100151
0003c0 96 93 88 3d 5d 20 8b 3e 57 0d 1f be 6d 27 0e 3c
       0.06668775 0.2717313 -0.15532432 0.008676392
0003d0 1c e8 4b 3c 1b ec 26 3f 6d 4d 1d bf 84 6e e0 be
       0.012445476 0.6520402 -0.6144627 -0.43834317
0003e0 96 3f 14 bf e9 b2 b5 bf 76 ff 0f c0 f5 58 96 bd
       -0.57909524 -1.4195224 -2.249967 -0.07341186
0003f0 a8 69 8f 3d d2 9d c6 be 96 a6 2b 3e d4 45 05 3e
       0.07002574 -0.38792282 0.16762766 0.13014919

fc1.bias f4 [64]
000000 8b 6d ad be 56 60 c7 be 0c 5a fc bd fa e7 6d 3e
       -0.33872637 -0.38940686 -0.123218626 0.23233023
000010 14 83 89 be dc 67 c4 be 29 06 ad be db e2 9c be
       -0.26857817 -0.38360488 -0.33793762 -0.30641827
000020 80 9d fe be 59 0b dc 3e ad fb 45 bd 9b b4 93 3d
       -0.49729538 0.42977408 -0.04833572 0.07212182
000030 5a ba 04 bf cb 97 27 bb 74 20 fb bd 35 cb d0 be
       -0.5184685 -0.0025572653 -0.12262049 -0.40780035
000040 c3 21 75 3e 11 b1 4f bd 73 75 21 be ab 86 65 3e
       0.2393866 -0.050705973 -0.1576746 0.22414653
000050 79 dc 7e 3e 36 b2 3e bc 8e a7 92 3d df 39 8b 3c
       0.24888791 -0.0116391685 0.07160865 0.016995369
000060 42 b3 40 3d 3e 8d e2 bd ed 0e 47 3e 27 b2 8f 3c
       0.047045954 -0.11062096 0.19439287 0.017541004
000070 1a bc 51 be aa db e9 bd ea aa 00 bf 1f d6 36 3e
       -0.20481911 -0.11418851 -0.50260794 0.17855118
000080 91 14 8e 3e b3 45 14 bf e9 4e 9b be 59 01 9a be
       0.27750066 -0.5791885 -0.3033364 -0.30079153
000090 2a c0 61 bf 15 1e 63 3d 85 d1 e3 be f0 6e 5f 3e
       -0.88183844 0.05544861 -0.44495788 0.21819663
0000a0 97 31 4f bf 83 b2 a3 be e6 0a ef be 3d 66 7f be
       -0.80935043 -0.3197213 -0.46688002 -0.24941345
0000b0 85 62 27 be 35 e6 a4 3c 1b 49 af bd 4c 5c fb bd
       -0.16346176 0.020129303 -0.08558866 -0.122734636
0000c0 86 59 09 be 0d 03 31 3e 0a 97 78 be 75 b6 28 be
       -0.13413057 0.1728632 -0.24276367 -0.16475852
0000d0 c4 f8 4f be 10 da 7d be e9 9f 69 3e 61 27 7f 3e
       -0.2030974 -0.24790215 0.22814907 0.24917366
0000e0 ac 26 0f 3b 54 70 45 3e a7 0d 88 be 06 ce 6f be
       0.0021843119 0.19281131 -0.26572916 -0.23418435
0000f0 e6 a5 f8 be 28 b1 75 3e df d2 9b be 36 93 3b be
       -0.4856407 0.23993361 -0.3043432 -0.18317875

fc2.weight f4 [256, 64]
000000 ba f5 85 3e ca c3 56 bd 53 ae 87 bd 8b 6c 82 3d
       0.26164037 -0.052432813 -0.066250466 0.06368359
000010 fb 4e 07 bf 8d 6c 5d bc 35 f4 a0 be 2d d5 49 be
       -0.5285489 -0.01351465 -0.31436315 -0.19710226
000020 96 ae 00 3e a7 83 14 be 02 a0 31 3d 5c df b5 3d
       0.12566599 -0.14503346 0.043365486 0.08880493
000030 d8 b2 8b bd 71 c0 02 bf e0 0f af bd 11 c6 2f be
       -0.06821221 -0.5107489 -0.0854795 -0.171654
000040 18 b4 c3 be 0f 93 cc be 51 e1 ed be 2f f4 01 3e
       -0.38223338 -0.39955947 -0.46460965 0.12690805
000050 45 0d 74 3e 56 3e 2e 3e 37 5e a3 be 01 16 25 be
       0.23833187 0.17015967 -0.31907818 -0.16121675
000060 3b 74 10 3d 4d 5a 02 3e 78 34 f0 bd ab 8d 8a be
       0.035267096 0.1272976 -0.117287576 -0.2706121
000070 57 1c 38 bf 92 23 9a bd f6 4f ac be 97 eb 38 3f
       -0.71918243 -0.07526316 -0.33654755 0.7223448
000080 1f 4e 87 3d aa 42 e2 bb 96 a1 98 be dd c1 5a 3e
       0.06606697 -0.0069049196 -0.2981078 0.21363015
000090 19 b2 ac be 9d 87 57 be 8f 29 1d 3e 18 57 2d be
       -0.33729628 -0.21047826 0.15347885 -0.16927755
0000a0 f3 a2 42 3e af 9e 19 be 66 51 da be a4 00 ad 3c
       0.19007473 -0.15001939 -0.42640227 0.02111847
0000b0 9a 64 13 bf 1f a8 68 bd f1 3b 50 bd 34 d1 07 3e
       -0.5757538 -0.056800958 -0.050838415 0.13263398
0000c0 7a 52 56 bd b7 5b f6 3e 1b ba 45 be 75 79 d8 3c
       -0.05232475 0.48116848 -0.19309275 0.026425103
0000d0 89 b8 30 be 9f b0 82 be b7 30 09 be 36 36 03 3d
       -0.17257895 -0.25525376 -0.1339749 0.03203412
0000e0 fc 0f 40 be bb 83 0f 3e 5a a5 18 bd 70 3b 46 3e
       -0.18756098 0.14015095 -0.037267067 0.19358611
0000f0 69 85 4d bc d3 6f cc 3b e9 2c 6c bf b7 53 f4 be
       -0.0125440145 0.0062389164 -0.9225603 -0.4772012
000100 d4 a0 a1 bc 01 04 13 be 41 8c c5 3d 4d 15 0a 3d
       -0.01973001 -0.14356996 0.09645892 0.03371172
000110 f2 24 cf 3d a4 d9 60 3d 75 d1 03 be b6 56 44 be
       0.10114469 0.05489506 -0.1287287 -0.19173703
000120 2b f7 06 be af fb d7 3d 67 6f 29 3d 0a 25 1e be
       -0.13180225 0.10546052 0.041366007 -0.15443817
000130 8c 0f d6 3b 36 34 51 be 56 f9 d2 bc cb a9 f0 b9
       0.006532615 -0.20430073 -0.025753658 -0.00045902873
000140 b8 26 7a be bd b3 58 bc f7 db 2e bd 3a 0c 2a bd
       -0.24428833 -0.013226447 -0.042690244 -0.041515566
000150 a8 cd b7 bc 3e c5 3a bf 02 4b ce bd ca 68 0d 3e
       -0.022436932 -0.7295722 -0.100729 0.13809505
000160 c2 7f 9e bd ba 3f 0c 3d 27 83 b9 be 86 72 4a 3e
       -0.077392116 0.034240462 -0.36232874 0.1977025
000170 fd 69 ac bd 31 85 10 3e 8e be 54 3e 2f c9 1f 3e
       -0.08418653 0.14113308 0.20775816 0.15604089
000180 b6 56 d6 bc 03 5a 0c bd f8 f0 8d be 1c f2 fc 3c
       -0.026164394 -0.03426553 -0.27722907 0.030877165
000190 41 a5 9c bd 0e ca 19 3e f6 78 e4 3c 07 6d d4 bb
       -0.07648707 0.15018484 0.02788971 -0.0064827236
0001a0 f1 56 9e 3c 74 88 44 3e 9e 95 20 be 20 9f d2 3d
       0.019328566 0.19192678 -0.15682074 0.10284257
0001b0 ba 1b fb bd 5f bb 9c 3d c9 a7 f8 bc 2a 6b e0 3d
       -0.12261148 0.07652926 -0.030353444 0.1095794
0001c0 99 7c b7 3d b7 85 bd bb f6 66 21 be de a7 1a bc
       0.08959312 -0.0057837623 -0.15761933 -0.009439437
0001d0 d2 48 b2 bd 99 ee d8 bd d5 94 52 bd a4 2e 87 be
       -0.087052956 -0.10592384 -0.05141147 -0.2640277
0001e0 b4 60 99 3e 00 86 e3 3c d3 cd 1d be d4 89 96 bd
       0.2995659 0.027773857 -0.15410547 -0.073505074
0001f0 78 bc 78 bd 5b 60 2b 3d be 1a 83 3d f1 68 79 bd
       -0.060726613 0.04183994 0.06401585 -0.060891096
000200 a9 59 4b be 0c 1c d8 3d bd 22 90 3d c7 65 41 bd
       -0.19858421 0.105522245 0.07037876 -0.047216203
000210 5b 1c 8f 3d af 00 e8 bd 27 3f ab bd b2 3b a7 bd
       0.0698783 -0.113282554 -0.08361655 -0.08165683
000220 a7 f5 22 be 82 0c 14 bd 7c dc 88 3d 72 09 0c 3d
       -0.15914021 -0.03614474 0.06682679 0.034188695
000230 d6 38 12 bd 9b 15 b0 bd 1d e4 09 3c e7 73 d2 3d
       -0.035698734 -0.08597871 0.008416203 0.10276013
000240 2e 9c a6 be 42 a2 d2 bd 1b a9 d5 3d 4b 9a 4a bd
       -0.3254103 -0.102848545 0.10432645 -0.04946355
000250 32 75 84 be b4 35 8f bd 49 20 2d bd 09 2c bd 3d
       -0.25870663 -0.06992665 -0.042267118 0.09236915
000260 e4 c1 69 bc 12 1e f0 3d 7d 2f 16 be ed a8 e3 3c
       -0.0142674185 0.117244855 -0.14666553 0.027790511
000270 d4 4f 81 bd e9 27 7a bd 99 a4 5b bd 1d d1 af bd
       -0.06314054 -0.061073218 -0.05362377 -0.08584807
000280 b6 41 f5 bd 73 d2 44 bd d2 e6 d0 3c 82 20 2e 3d
       -0.11975424 -0.048052263 0.025500689 0.04251147
000290 16 5a 26 be 36 ac 5a 3e f0 91 2e 3d 23 d5 75 bd
       -0.16245303 0.21354756 0.042619646 -0.060017716
0002a0 8f 4b fc bd 7f 1f c5 3b 0b c7 2b be 57 f3 42 3c
       -0.12319099 0.0060157175 -0.16775148 0.011898837
0002b0 83 19 db 3c b5 a0 6a 3d a9 97 3e bc 62 71 32 be
       0.026745563 0.05728217 -0.011632838 -0.17426065
0002c0 28 b7 22 3e dd 6d a0 3d bb 1f c5 3c cc 25 bb 3c
       0.15890181 0.07833455 0.024062982 0.022845171
0002d0 e3 43 0f be e5 bd 03 bd 8e 0b 37 3c eb 5a b9 be
       -0.1399074 -0.03216352 0.011172188 -0.36202177
0002e0 01 8c 5e be 82 f8 23 3e 64 ce 4a be d5 cd 4c be
       -0.21733095 0.16012767 -0.19805294 -0.20000394
0002f0 b3 42 40 be 23 1c 38 be ee fd 4a be 52 37 68 bd
       -0.18775444 -0.17979483 -0.19823429 -0.056693383
000300 17 c7 9a bd 12 c9 ad bd d1 be 24 bd 60 da 18 bc
       -0.075575046 -0.08485617 -0.04022104 -0.009329408
000310 21 d8 03 be 30 8e ec bd 6e 81 75 be b1 27 84 bc
       -0.12875415 -0.115505576 -0.23975155 -0.016132208
000320 e4 ca 9b be 4f be 86 bd 74 2f 97 be d4 46 8a be
       -0.3042823 -0.06579267 -0.2952839 -0.27007163
000330 48 a2 b8 3a 63 ab e2 3c ec 55 20 be 43 20 67 3d
       0.001408645 0.027669614 -0.15657777 0.05642725
000340 58 b5 6c be 75 1e 31 be 63 77 fb 3d 41 67 6c 3d
       -0.23116052 -0.17296775 0.122786306 0.057715658
000350 68 a5 b8 bd f7 c5 18 be b5 23 4b be 5c 2c 32 bd
       -0.09015924 -0.14919268 -0.1983784 -0.043499336
000360 82 b9 02 be 75 ce 78 be 91 1b 12 3e af 9d 9c bd
       -0.12766078 -0.24297507 0.14268328 -0.07647263
000370 4b db 94 be 30 7d 20 3c 38 48 01 be 21 ba b1 be
       -0.29073557 0.009795472 -0.12625206 -0.34712318
000380 0b 5b f0 3d 2b e8 1e bd 35 fc 94 bc 81 4d 38 bd
       0.11736115 -0.03879563 -0.018186668 -0.04499579
000390 d2 8b db 3c 1f 2b 4a bd 49 06 d3 3d 94 c4 f5 bc
       0.02680007 -0.04935753 0.10303933 -0.030000962
0003a0 8f 4f 2f bd d7 aa 03 be 1c c4 cf bd 22 63 1d 3e
       -0.042800482 -0.12858139 -0.10144827 0.15369847
0003b0 05 aa 7f bd 87 6f 0c bc fa 79 4c bd 45 ef 10 be
       -0.062418003 -0.008571512 -0.049921013 -0.14153774
0003c0 71 6d 83 bc 71 2c 44 be b5 68 b5 bd cd 69 3d 3d
       -0.016043397 -0.19157578 -0.08857862 0.046243478
0003d0 c8 f1 b4 bc d5 06 3f be db db 6d bd 92 48 b7 bd
       -0.022087947 -0.1865495 -0.058071 -0.089493886
0003e0 ed 5a b3 3c e9 40 25 3d c6 9e 70 be e8 fc 21 be
       0.021893943 0.040345106 -0.23498067 -0.15819132
0003f0 6e 98 b5 bc a6 ab 8a bc 61 7c 82 be 4c a8 4b bd
       -0.02216741 -0.016927551 -0.2548552 -0.049721047

fc2.bias f4 [256]
000000 21 e9 8c 3b 1d c4 a2 be 49 7f 74 be ee f0 52 3c
       0.004300252 -0.31790248 -0.2387668 0.012874825
000010 c1 7e 9e be 7c b0 de be fe e7 dc bc 01 52 8b bd
       -0.3095608 -0.43494022 -0.026966091 -0.068027504
000020 66 34 0a bf e3 6d a7 3d 38 52 c2 3e 77 97 b1 bc
       -0.53986204 0.08175256 0.37953353 -0.02167867
000030 f0 92 71 be 40 83 10 be db 25 ad 3e 0b 22 a4 3c
       -0.23591208 -0.14112568 0.33817944 0.020035764
000040 65 3d 66 be fe e2 e2 bd 0b 5e 68 bc 03 0a c8 be
       -0.22484358 -0.110784516 -0.014182578 -0.39070138
000050 37 23 7c bd 49 39 b8 be f4 57 5d be c8 4a dd be
       -0.06155702 -0.35981205 -0.21615583 -0.43221116
000060 02 f9 d0 bb 66 ca 36 be 15 99 28 3d a4 08 3a be
       -0.0063773403 -0.17850646 0.041161615 -0.18167359
000070 c1 62 89 bd 74 ea 43 be 94 ef 7c be 1d 75 3d be
       -0.06708289 -0.19132406 -0.24700767 -0.18501706
000080 bd 56 c4 bd c2 a0 40 bf bf 91 66 be d8 76 af 3d
       -0.095868565 -0.75245297 -0.22516535 0.085675895
000090 44 f2 bb bd 11 99 29 bf de 44 8f 3e 55 ab 99 bd
       -0.09177068 -0.66249186 0.2798223 -0.07503382
0000a0 87 5c 33 3f ba 28 3f be 22 d3 e8 be 19 51 c2 be
       0.7006306 -0.1866788 -0.45473582 -0.37952498
0000b0 b8 3d 38 bd 4d d2 16 3e d5 85 72 3e 3d 87 9e be
       -0.044980735 0.14728661 0.23683865 -0.30962554
0000c0 20 8e 8d be 10 81 91 be c1 e1 53 3d d6 4e 24 be
       -0.27647495 -0.2841878 0.051728968 -0.16045699
0000d0 e9 70 72 be 9b 03 63 be df 86 58 be 4a 1e a3 bd
       -0.23675884 -0.22169344 -0.21145199 -0.079647616
0000e0 25 dd 88 3d a9 6a 09 3f ff d4 8a bd 6c 29 91 3e
       0.06682805 0.53678375 -0.06778907 0.28351915
0000f0 17 ce 3b be 9e 6b 41 be c0 4b 49 be b5 34 ea 3e
       -0.18340336 -0.18888709 -0.19657803 0.45743337
000100 ae e8 dd be 29 bc 9d be 5b 67 fa be 8e 70 92 bd
       -0.43341583 -0.30807617 -0.4890698 -0.07150374
000110 c2 6a 16 be 48 6f ef 3d c6 44 4c bd 22 9f 98 be
       -0.14689162 0.11691147 -0.049870275 -0.2980891
000120 23 f7 27 be e2 d4 25 3f a0 0e 2a be e1 3b 8c be
       -0.16402869 0.6477796 -0.16607141 -0.27389434
000130 7e 8e 0d be 69 a7 0d 3c 59 0f 50 be 8c 2a a4 3d
       -0.13823888 0.008645871 -0.20318355 0.08015928
000140 e9 71 19 be 60 6d 99 be fe c3 e4 bd ef dd 26 be
       -0.1498486 -0.2996626 -0.11170195 -0.16295598
000150 08 fc c6 bd 98 11 50 be ea 9f 98 be 10 4b 83 bd
       -0.0971604 -0.20319211 -0.29809505 -0.064108014
000160 73 26 17 bf eb 08 d6 bd b7 48 20 3f be 8c 8e be
       -0.59043044 -0.1045092 0.62610954 -0.27841753
000170 86 f6 8e be 4c 8a f2 bd 29 0e 21 be 6c 74 79 be
       -0.27922457 -0.11842784 -0.15728058 -0.24360818
000180 f3 0d 18 be 88 2b 9e be bc e0 a3 be d3 07 7f be
       -0.14849071 -0.30892587 -0.32007396 -0.24905328
000190 df 98 39 be 26 95 dd bd 3c af 0e be b4 e8 22 be
       -0.18124722 -0.108194634 -0.13934034 -0.15909082
0001a0 cf 56 b3 3d d2 40 44 be b4 62 90 be 64 db 28 3e
       0.08756792 -0.19165352 -0.28200305 0.16489941
0001b0 8d 17 07 bd c0 25 db 3e 57 40 6e be e5 76 2f be
       -0.032981444 0.42802238 -0.23266731 -0.17135198
0001c0 c3 fe 14 bf 3e c5 b7 ba 6c 0f 99 be 86 f1 a5 be
       -0.58201236 -0.0014020575 -0.29894578 -0.3241083
0001d0 65 4a 64 be eb 34 29 be 86 c2 5b be f4 04 6b be
       -0.22294004 -0.16524093 -0.21460924 -0.22951108
0001e0 0f 5f 00 3d 07 ba 36 be e5 d3 08 be ff 2a 48 be
       0.031340655 -0.17844401 -0.13362081 -0.19547652
0001f0 a1 6e 53 be b3 90 97 be 5d 02 64 3c 98 4f 0e be
       -0.2064767 -0.29602584 0.013916579 -0.1389755
000200 f9 44 f0 3c 00 15 0f be f4 8d 98 bc 90 83 2b 3e
       0.029329764 -0.13972855 -0.018622376 0.16749406
000210 24 ee ee bd de 7a b2 be aa 04 d0 be 9a b0 82 3e
       -0.116665155 -0.34859365 -0.40628558 0.2552536
000220 a1 62 76 be c6 4c 55 be d0 bd 84 bd e0 82 87 be
       -0.24061061 -0.20830068 -0.06481516 -0.26467037
000230 0c 20 2c be 3f c3 40 be d4 85 77 be 2a 52 5d be
       -0.168091 -0.1882448 -0.24172145 -0.21613374
000240 82 4b 14 be 61 2f 77 be 5f ae bf 3d ae d2 c9 bc
       -0.14481929 -0.24139167 0.093594305 -0.024636593
000250 63 0a cd 3d e1 f5 00 3d 8d 39 43 be 99 d1 5d 3d
       0.10011747 0.03148449 -0.19064923 0.054154966
000260 d3 58 27 3e 19 79 50 3f c6 eb 0f 3e e5 ea fb 3d
       0.16342478 0.8143478 0.14054784 0.12300662
000270 87 68 31 be e6 1b cf bd b9 5b 73 be a1 07 f7 bd
       -0.1732503 -0.10112743 -0.23765458 -0.12062002
000280 7a 3f e3 3c 6a 55 c5 bc 50 a9 0b bd 47 da 5b be
       0.027740229 -0.02408858 -0.034097016 -0.21469985
000290 c3 c6 23 bf c1 61 fc bd 59 c1 a3 be da 16 2f be
       -0.6397516 -0.123233326 -0.3198345 -0.17098561
0002a0 b6 4d 1d be d0 80 1d bf f2 22 ce bd 38 73 d4 be
       -0.15361676 -0.6152468 -0.10065259 -0.41494155
0002b0 4a 5b 47 bd 68 33 90 3c 2a 7b 39 bd cd e3 cd be
       -0.048671044 0.017602637 -0.045283474 -0.4021286
0002c0 fb a4 aa 3b 48 de b9 be 2a 95 f9 3e b5 a7 a8 be
       0.0052076555 -0.363024 0.48746616 -0.3294045
0002d0 03 7e ec bd 88 29 04 be 9c 68 45 be dd 28 28 be
       -0.11547472 -0.12906468 -0.19278187 -0.16421838
0002e0 e2 84 6a be 75 c5 fb bd 79 1f 63 be 8e 1f fe bd
       -0.22902253 -0.12293521 -0.22179975 -0.12408362
0002f0 17 40 a4 be ea c6 be be 5f 11 38 be 48 f0 82 be
       -0.32080147 -0.37261134 -0.17975377 -0.25573945
000300 7e 10 eb 3d b6 46 e4 be e1 13 2c bd a0 1f 4b be
       0.11477755 -0.44585198 -0.042011146 -0.19836283
000310 53 ac 7e be ea 3f 19 be 50 21 72 be 69 3a 32 be
       -0.24870424 -0.14965788 -0.2364552 -0.17405094
000320 13 af b8 be 15 03 15 3d 56 a1 81 be dd 55 3d be
       -0.3607107 0.036379892 -0.25318402 -0.18489785
000330 61 06 fb bd 1b d3 85 be 8b c2 07 bf d0 ea 20 be
       -0.12257076 -0.26137623 -0.53031224 -0.15714574
000340 47 03 1b 3f 8e ac 9f be d0 96 75 be e4 4b 87 be
       0.60551876 -0.31186336 -0.23983312 -0.26425087
000350 4d 8c d1 be 62 92 99 be 6b 6e 7f bd e0 b6 8d be
       -0.40927354 -0.29994494 -0.062361162 -0.27678585
000360 01 a5 51 3c 60 f1 8b be 6a cb 82 ba 15 7c 54 be
       0.012795688 -0.27332592 -0.0009978835 -0.20750459
000370 a4 1d 81 bd 5d e1 ad 3e d7 6b 91 be d3 fb 60 be
       -0.063044816 0.33961 -0.28402588 -0.21971063
000380 50 ca 37 bf 24 51 9a be 33 0a a3 be 17 de c2 bd
       -0.7179308 -0.3014003 -0.3184372 -0.095150165
000390 45 99 86 3e 97 1f 64 be b8 f7 32 3d de 09 58 be
       0.2628881 -0.22277676 0.043693274 -0.21097514
0003a0 16 eb 93 be 98 e8 2c be 71 7c 38 be 0a 83 e8 bd
       -0.28890294 -0.16885602 -0.1801622 -0.11353119
0003b0 26 6c 6c be 03 10 1a bd e3 c7 c7 bd bd 6f 55 3e
       -0.2308813 -0.037612926 -0.09754922 0.20843406
0003c0 e5 7f 02 bf 11 ca 9b be 2f b6 8d be 80 52 a7 bd
       -0.509764 -0.30427602 -0.27678058 -0.081700325
0003d0 e8 f2 69 bd e7 77 7a bd 5e a9 24 be b5 96 75 be
       -0.05711642 -0.061149504 -0.16080233 -0.23983271
0003e0 29 88 a2 be b6 2a a6 be 65 dc 7c be a4 ba 1a 3e
       -0.31744507 -0.3245446 -0.24693449 0.1511026
0003f0 0a 1f 74 be c7 9d 11 3d 1f b3 44 bd 0f b6 4d 3e
       -0.23839965 0.03555086 -0.048022386 0.20088981

fc3.weight f4 [25, 256]
000000 05 87 c6 be 4c d4 c3 bd 71 03 5c 3d ad 0c 0a bd
       -0.38774887 -0.09561977 0.05371422 -0.033703495
000010 af 86 20 be 69 ca f1 bd 6e cc 08 be 79 6d 52 be
       -0.15676378 -0.11806185 -0.13359234 -0.20549573
000020 7b cc 81 bd ba 1f 1c be 03 c4 b5 3e 80 f7 5d be
       -0.0633783 -0.15246478 0.35501108 -0.21676445
000030 89 48 b0 bd 74 9b 85 3e aa c3 94 3d 53 bb 9a be
       -0.08607585 0.26095164 0.072638825 -0.30221042
000040 12 8d 05 be 49 9b 17 bc f4 0d 96 bc 2e 91 8f bd
       -0.13042095 -0.009253331 -0.0183172 -0.07010113
000050 e0 38 85 3c c0 26 94 3e 3d f5 f6 3c 04 d2 97 3c
       0.016262472 0.28935814 0.030146236 0.01853276
000060 c3 11 09 be dc 3a 29 be a0 1c 84 be 35 fd 1d 3e
       -0.13385682 -0.1652636 -0.2580309 0.15428622
000070 5d 63 9d bd 67 b6 a1 bd 2b 5f 08 be f9 57 19 3e
       -0.07684968 -0.078961186 -0.13317554 0.14974965
000080 54 91 60 3e 2e d8 d2 bc 2d 45 cc 3c 89 20 07 be
       0.21930438 -0.025737848 0.02493533 -0.13196005
000090 61 80 ff bc d5 ca 56 be ef 3f 8a 3e b0 0d 3d 3d
       -0.031189146 -0.20975812 0.27001902 0.04615563
0000a0 19 ac ac 3e 6e 10 60 3e 8d ac 85 be 1a 5b bb ba
       0.3372505 0.21881267 -0.26108208 -0.0014294118
0000b0 fe 95 c0 be a8 f4 21 be 3f 28 ab 3e 42 d5 60 be
       -0.37614435 -0.15815985 0.33429143 -0.21956351
0000c0 2b 1c d0 3e c9 34 b4 be 2a 0f 40 3e 57 13 fa 3d
       0.4064649 -0.35196522 0.18755785 0.1221072
0000d0 53 79 e5 bc d2 89 55 3d 02 fe 1a 3e ed 07 40 bc
       -0.028011953 0.05213339 0.15135959 -0.01172064
0000e0 f0 3b e1 3e 15 33 c8 3e fe a6 86 3e 8c 72 d5 3e
       0.4399104 0.39101472 0.2629928 0.41688955
0000f0 f6 c8 a1 bd d8 3c a1 ba f9 a6 63 be 4b 29 36 3e
       -0.078996584 -0.0012301458 -0.22231664 0.1778919
000100 c1 86 3c 3d 31 e0 53 bd 44 49 93 3d 16 b1 de 3d
       0.04602695 -0.051727477 0.07191709 0.1087362
000110 6d 55 a6 3e fb a8 8f 3e 31 3d d8 3e d7 f2 a7 3e
       0.3248705 0.2805861 0.42234185 0.3280246
000120 46 80 85 be ae 4b 9f 3e cf d1 86 3e 9c 52 e0 3e
       -0.26074427 0.31112427 0.26331946 0.43813026
000130 d0 69 24 bd a5 96 cd 3e 4f 72 41 bd 68 b2 e2 3d
       -0.040139973 0.40153995 -0.047228154 0.110691845
000140 cd 23 0f be 55 2f 35 3e 0d b4 92 3b 0f 1f 70 be
       -0.139785 0.17693837 0.00447703 -0.23449348
000150 27 b0 ce bd df 30 02 3e 67 6a 49 be e6 7c 73 3e
       -0.10092192 0.12713955 -0.19669496 0.23778114
000160 57 fb 88 3d 22 02 ef 3c 6e 44 69 3e 5e 4d 10 3e
       0.06688564 0.029175822 0.2278001 0.14092013
000170 bb f1 67 bc 60 f8 c9 3e ac f2 90 bd 31 b8 d8 bd
       -0.014156754 0.39447308 -0.07077536 -0.10582007
000180 d4 9b be bd 23 f3 43 bc f7 0f 61 3e 59 9d 4b bd
       -0.093070656 -0.011959824 0.21978746 -0.049710605
000190 b9 03 df 3c 06 e3 15 bd 19 dd 6a 3e b5 7f 1c 3e
       0.027223455 -0.03659346 0.22935905 0.15283091
0001a0 39 95 7f 3e 61 ff 65 3d 3e 56 84 3e 60 90 72 be
       0.24959268 0.05615175 0.25847048 -0.23687887
0001b0 8b ed f3 bd ce 46 f4 3e 78 ff 89 bb 53 ea 2c bd
       -0.11910542 0.4771027 -0.0042113625 -0.042215656
0001c0 65 ab 68 bd ef 99 f9 3e 9f 23 e1 3d e8 21 1e 3d
       -0.05680408 0.48750255 0.10993122 0.038606554
0001d0 c2 fe 28 be 87 85 b3 3e bf 5e 41 3d f8 2d b0 bc
       -0.16503432 0.3506281 0.047209498 -0.021506295
0001e0 59 f1 72 3d 96 7f 49 3e d0 62 80 bd 0f 13 9b be
       0.0593122 0.19677576 -0.06268847 -0.30287978
0001f0 bf b2 c1 bc 24 21 00 be 94 05 9d bc fe 01 d8 bd
       -0.023644803 -0.12512642 -0.019167699 -0.10547255
000200 41 27 13 3e 5e a4 ef 3d ca d8 b8 be f8 f1 ec 3e
       0.14370443 0.117012724 -0.36102897 0.46278358
000210 1e 6e 48 3d b9 5d 91 3c 1d 88 73 bc 77 3f 57 3e
       0.04893314 0.017744886 -0.014863995 0.21020304
000220 ce a0 b7 3e 87 ea 93 bd 0a 4a 93 bc ab ce c5 bd
       0.35864872 -0.07222467 -0.01797964 -0.096585594
000230 76 a2 55 3e f5 ad 0d 3b 1c 5f c7 3d 16 4f 96 be
       0.20862755 0.002161858 0.097349375 -0.29357213
000240 54 4c 0a 3d 5f 18 fc bc 9f 1d 04 be 7e 97 4e 3e
       0.0337642 -0.03077334 -0.12901925 0.20174977
000250 7f 5f 12 3e c2 17 b6 3e f2 8a dc 3b f7 44 50 3e
       0.14294241 0.35565 0.0067304308 0.20338808
000260 f1 01 ae be 4a 05 55 3e d3 52 c8 3e 8c fc ca 3e
       -0.33985856 0.20802799 0.3912569 0.39645803
000270 12 f8 88 3d 8c 24 14 3e ed 5f bf be e1 00 04 bd
       0.06687941 0.14467067 -0.37377873 -0.0322274
000280 10 f6 a5 3e 7f 44 b1 bd 45 eb 6a bd e6 31 a6 3d
       0.32414293 -0.08655643 -0.057353277 0.08114986
000290 a9 35 43 3d b3 02 01 3e 82 f8 60 3d d8 c8 14 3d
       0.047658596 0.12598686 0.054924496 0.036324352
0002a0 de d3 76 3e 25 3b 5f bd a2 34 e9 3c c2 78 8f 3e
       0.24104258 -0.054499764 0.02846748 0.28021818
0002b0 bd 81 90 be 49 35 31 be 72 f5 85 3d 2f c6 b9 bd
       -0.28223982 -0.17305483 0.065409556 -0.09071004
0002c0 1d a9 ce bd 54 ae 31 bd ad 1e 99 3e db f9 7c be
       -0.100908495 -0.043379143 0.29906216 -0.24704687
0002d0 8a 10 f2 3c 05 93 9b 3c 49 b9 8c bd 0e a4 d2 bc
       0.029548902 0.018991003 -0.06871278 -0.025712993
0002e0 2a f8 a1 bd 80 ed 26 3f fe 51 87 be 52 64 13 bd
       -0.07908662 0.65206146 -0.26429743 -0.035984345
0002f0 3f b5 25 3e 25 df c0 bd 2c 5b ac bd 55 f9 2b 3d
       0.16182421 -0.094175614 -0.08415827 0.04198583
000300 ea 96 47 3c a0 2a 18 be 22 49 d5 bc f2 8c 3a be
       0.012181977 -0.1486001 -0.026035849 -0.18217829
000310 72 57 75 3e 7a 1f 04 3e 8f 44 42 bd bc 5d 38 3e
       0.23959139 0.12902632 -0.047428664 0.18004507
000320 57 93 1e 3d 98 c3 4c bd 63 38 04 be d9 81 da 3e
       0.038714733 -0.04999122 -0.12912135 0.4267719
000330 3e 61 18 3e 2d 76 fa 3d 8c 16 28 3d 52 27 be ba
       0.14880845 0.122295715 0.041037127 -0.0014507568
000340 e0 c9 93 3e 1e dc ef bd 19 5b 82 3d 1c 88 85 3d
       0.28864956 -0.11711906 0.06365032 0.065201014
000350 cb bc 25 3c bb e5 7e 3d 15 b3 01 3e 00 43 f4 bc
       0.0101158125 0.062230807 0.1266597 -0.029817104
000360 3c 26 aa be da 0e 61 3d ea af 05 bf 39 e4 1a 3e
       -0.33232296 0.054945804 -0.5222155 0.15126123
000370 01 32 76 be 8a a4 c9 3e 5b ea 93 be 6f c4 b2 bd
       -0.24042512 0.39383346 -0.28889737 -0.08728873
000380 f9 b8 9d 3e 2c d6 d8 bd f1 4a 6a be 49 be 9e 3e
       0.30805185 -0.10587725 -0.2288015 0.3100455
000390 fb af 19 3e 9a f5 a6 3c 9a 37 97 3e d0 33 33 be
       0.15008537 0.020380784 0.29534608 -0.17500234
0003a0 1c 81 5a 3d fb 06 14 3e 36 5b 7d 3d 57 ca c3 3e
       0.053345785 0.14455788 0.061854564 0.3824031
0003b0 b1 38 90 3e 5c 61 f8 3e c8 99 22 3f e3 3a 39 bd
       0.28168252 0.4851178 0.635159 -0.045222174
0003c0 23 56 82 be 9d a7 c1 bc 7e 7d 08 3d 96 9a b8 3c
       -0.25456342 -0.023639495 0.033322804 0.02253465
0003d0 ee 04 99 bc 3b 66 55 3d cb 61 06 3d b2 59 88 3d
       -0.018679108 0.052099448 0.032808106 0.06657733
0003e0 c0 ed ad be a8 32 80 be b2 1f 90 be 2d a5 b2 3e
       -0.3397045 -0.25038648 -0.28149182 0.34891644
0003f0 67 28 1d 3e 7e 98 72 3e dd aa 3a be fe af 5a be
       0.15347444 0.23690984 -0.18229242 -0.21356198

fc3.bias f4 [25]
000000 12 97 c2 3e 92 65 a2 3e d2 73 4e 3e 3e d2 71 3d
       0.38005883 0.31718117 0.2016137 0.059038393
000010 42 e6 f0 3d 12 32 4e 3e 7e d3 48 3e 25 b2 0a 3d
       0.11762668 0.20136288 0.19611928 0.033861298
000020 e3 7f 90 3c 61 66 70 bc ed a3 83 3e a3 14 24 3e
       0.017639106 -0.0146728465 0.25711003 0.16023497
000030 58 60 b7 3e 1a cf 23 be 4b 19 2b 3e 7c 65 71 3e
       0.35815692 -0.15996972 0.16708867 0.2357387
000040 61 4b 63 3d 22 56 f0 3d 1a bf 2d 3e b8 73 b0 bd
       0.05549181 0.117351785 0.1696743 -0.086158216
000050 d6 4e 3a 3e 86 dc 4b 3e 36 37 46 3e f5 f6 c9 3c
       0.18194136 0.19908342 0.19356999 0.024653891
000060 de 5d 66 be
       -0.22496745
