examples/carla_scenic/Carla_Challenge/agent_scalar/target_net_0.pt (torch, 96407 bytes, 6 tensors)

fc1.weight f4 [64, 8]
0	0x3d37bd17	0.044858065
1	0x3a0bd7c3	0.000533458
2	0x3cf5c9fd	0.030003542
3	0x3dad0826	0.0844882
4	0x3e1998c0	0.14999676
5	0x3d620240	0.055177927
6	0xbdc8f41e	-0.09812187
7	0x3deb1d68	0.11480218
8	0xbc066323	-0.008202347
9	0xbd6ebb90	-0.058284342
10	0xbdbc2a9b	-0.09187814
11	0xbdde2cc5	-0.10848383
12	0xbde2c913	-0.11073508
13	0xbdb5bf14	-0.08874336
14	0xbd8dddc7	-0.06927066
15	0xbe5eab12	-0.21744946
16	0x3e339fea	0.17541471
17	0x3b80b746	0.003928098
18	0x3ad7666f	0.0016433726
19	0x3e04814f	0.12939952
20	0xbde1d5c8	-0.11027104
21	0xbccca5c7	-0.024981393
22	0xbc66c7e8	-0.014085747
23	0x3d1c417b	0.038148385
24	0xbdb0c352	-0.086310044
25	0x3d0cc460	0.034366965
26	0xbdc04167	-0.093874745
27	0x3e12eac8	0.14347374
28	0xbbc79ed5	-0.0060919323
29	0x3cdd8710	0.027041942
30	0x3d9288f8	0.07155031
31	0x3dafc62c	0.0858272
32	0xbd8bf8d7	-0.06834572
33	0x3e2f1c13	0.17100553
34	0x3dfb6b8a	0.12276371
35	0x3d7c6478	0.061619252
36	0x3de020a5	0.109437265
37	0x3dde3628	0.10850173
38	0x3d9f1275	0.07767192
39	0x3e3c6bca	0.18400493
40	0xbe32f97f	-0.17477988
41	0xbd3da648	-0.046301156
42	0xbb462af3	-0.0030238002
43	0xbceb0ce3	-0.028692668
44	0x3dd640aa	0.104615524
45	0x3e31720f	0.17328666
46	0xbe0a79db	-0.13523047
47	0xbe2f417c	-0.17114824
48	0xbe14a8a7	-0.14517461
49	0x3d9d1280	0.07669544
50	0x3daa41eb	0.08313354
51	0x3bc3c66f	0.005974583
52	0xbb53bf1f	-0.0032309962
53	0x3d88927f	0.06668567
54	0xbe1eff55	-0.15527089
55	0x3caed259	0.021340536
56	0x3b889127	0.004167694
57	0xbcae1613	-0.02125076
58	0xbc634db3	-0.013873505
59	0xbca696bf	-0.020335553
60	0x3b898827	0.004197139
61	0x3e05bc25	0.13060053
62	0x3d5b3c08	0.053524047
63	0xbb527285	-0.0032111716
64	0xbd23c9b4	-0.03998728
65	0x3dc54fe8	0.096343815
66	0x3e335dad	0.17516203
67	0xbe1416d0	-0.14461827
68	0xbd8294c7	-0.06376033
69	0x3d3c8635	0.046026427
70	0x3d7b704d	0.061386395
71	0x3dd2c732	0.102919
72	0x3d3d9aeb	0.04629032
73	0xbda456af	-0.08024346
74	0xbe75b5e5	-0.23995169
75	0x3c08d4ea	0.008351544
76	0x3e233ba9	0.15940727
77	0x3d9fee04	0.0780907
78	0x3bb44498	0.005501341
79	0x3e3b6037	0.18298422
80	0xbca77df6	-0.020445805
81	0xbe004ab3	-0.12528495
82	0xbca3567e	-0.019938704
83	0x3c850c0f	0.016241102
84	0x3cea1bbb	0.028577676
85	0xbdb1d166	-0.08682518
86	0xbe1fe72f	-0.15615533
87	0xbd949e20	-0.072567225
88	0x3dc2ae57	0.09505909
89	0xbcc0f6fb	-0.02355527
90	0xbd8bbd4b	-0.06823214
91	0x3df9b66f	0.121929996
92	0xbdd4e5aa	-0.103953674
93	0xbd4ddfb0	-0.050262153
94	0x3cf69eda	0.030105043
95	0xbd42b423	-0.047535073
96	0x3e04ec7d	0.12980838
97	0x3d81d557	0.063395195
98	0x3da2e54f	0.079538934
99	0xbd1950f3	-0.037430715
100	0xbd10592c	-0.03524129
101	0xbdca035c	-0.09863922
102	0xbdaf2819	-0.0855257
103	0x3d470582	0.048589237
104	0x3d23f596	0.04002913
105	0xbd38fe31	-0.04516429
106	0x3d696b28	0.056986958
107	0xba25c7e9	-0.00063240394
108	0x3e854933	0.2603241
109	0xbc9a03e5	-0.018800685
110	0xbe11c396	-0.14234766
111	0xbe3a01a6	-0.18164691
112	0x3bf4a8c8	0.0074664094
113	0xbc7d005f	-0.015441983
114	0xbd75c532	-0.060002513
115	0x3e25e15f	0.16199253
116	0x3db28033	0.08715858
117	0x3c0a264b	0.008431981
118	0xbc852dc2	-0.01625717
119	0x3d746f5f	0.059676524
120	0xbc62a23f	-0.013832628
121	0xbda2f7ef	-0.07957446
122	0x3d4aed25	0.049542565
123	0x3cbc6bfc	0.02300071
124	0x3a597a1b	0.0008296088
125	0xbb9488c9	-0.0045329076
126	0x3bd63cfd	0.006538032
127	0x3d71c1a3	0.059022557
128	0xbdb3f3fb	-0.0878677
129	0xbe3fcd34	-0.18730623
130	0xbdfcdd8a	-0.12346943
131	0x3e2378c8	0.15964043
132	0x3c230b54	0.009951431
133	0xbd3fc6ff	-0.046820637
134	0x3daa80f9	0.08325381
135	0xbd873605	-0.066021
136	0x3d922f1a	0.0713789
137	0x3c68bacd	0.014204693
138	0xbdf7803f	-0.12085008
139	0xbe315a6b	-0.17319648
140	0x3e4d1f9f	0.20031594
141	0x3dca3d3c	0.09874961
142	0xbe2fb655	-0.17159398
143	0x3e2ad17e	0.16681477
144	0x3dc243ab	0.09485563
145	0xbda6dd32	-0.081476584
146	0x3d1cf2a7	0.03831735
147	0xbc04d80f	-0.008108153
148	0xbd01ca57	-0.031687107
149	0x3e1c7ad4	0.1528123
150	0x3e4f3aaf	0.2023723
151	0xbdc7e013	-0.09759536
152	0xbd7f65db	-0.062352996
153	0x3d30ba93	0.04314668
154	0x3e098a58	0.1343168
155	0x3afd5efb	0.0019330675
156	0xbded38bf	-0.11583089
157	0x3d92fa80	0.07176685
158	0xbd6477c7	-0.05577829
159	0x3d1eac04	0.038738266
160	0xbd1db49a	-0.038502313
161	0x3df1cc0a	0.118064955
162	0xbc7f0fe2	-0.015567752
163	0xbc96df17	-0.018416924
164	0xbb6e1f50	-0.0036334582
165	0x3e465154	0.19366962
166	0x3d2c648c	0.042088076
167	0x3ca7ab65	0.02046747
168	0x3e1c68ca	0.15274349
169	0x3de1d9ca	0.11027868
170	0xbc95e88e	-0.018299367
171	0x3e821b22	0.25411326
172	0xbe36db0c	-0.17856997
173	0xbd7967b5	-0.06088992
174	0x3e023197	0.1271423
175	0xbd96270f	-0.073316686
176	0x3eba0b42	0.36336714
177	0x3e256d6c	0.16155022
178	0x3dae4c57	0.085106544
179	0x3d07b306	0.033129714
180	0xbc9002d7	-0.01757948
181	0xbd72d1f8	-0.059282273
182	0x3de2c9c5	0.11073641
183	0xbd9e7ee2	-0.07739045
184	0x3d2bb670	0.041922033
185	0xbda29041	-0.079376705
186	0xbd00b59a	-0.03142319
187	0x3d8f7563	0.070048116
188	0x3dc7123d	0.097202756
189	0x3c8b2f22	0.016990248
190	0x3e88e93f	0.26740453
191	0xbd688178	-0.056764096
192	0xbc11399b	-0.008863832
193	0xbe5ea93f	-0.2174425
194	0xbe3de73c	-0.1854524
195	0x3d81a5b0	0.063304305
196	0xbb83fd6a	-0.004028012
197	0x3bdd574d	0.006754792
198	0x3e22d1c1	0.15900327
199	0x3dbe494f	0.09291326
200	0xbcc20e17	-0.02368836
201	0x3db9e8b3	0.09077587
202	0x3d1ca738	0.03824541
203	0x3d91cfaa	0.07119687
204	0xbce6ab90	-0.02815798
205	0xbcdce9e3	-0.026966995
206	0xbde47ac0	-0.11156225
207	0xbd98b1bb	-0.074557744
208	0x3ce4eaef	0.027944056
209	0xbc473f21	-0.012161047
210	0x3e3e6591	0.18593432
211	0x3d1138d3	0.035454582
212	0xbdf47797	-0.119368725
213	0x3c99732a	0.018731672
214	0x3d487180	0.048936367
215	0xbe2a11fd	-0.16608424
216	0xbdeb1f6b	-0.11480602
217	0x3d974aca	0.07387312
218	0xbb579802	-0.0032897
219	0x3e11be33	0.14232711
220	0x3e220b87	0.1582471
221	0xbd1c2664	-0.03812255
222	0xbe23eb7b	-0.16007797
223	0x3d5001d7	0.050783005
224	0x3cfbd36a	0.030740459
225	0x3d48545e	0.048908584
226	0xbe2b19ed	-0.16709109
227	0xbcb86bbe	-0.022512313
228	0x3d8d6314	0.06903663
229	0xbd98712d	-0.074434616
230	0x3e6f7a9d	0.23386617
231	0xbd8d264b	-0.068920694
232	0x3d616562	0.055028327
233	0xbe60fb6d	-0.21970911
234	0x3ba58b10	0.005051978
235	0x3d095df0	0.03353685
236	0xbcbdf98f	-0.023190288
237	0x3d3bb742	0.045829065
238	0x3e159fad	0.14611693
239	0x3e2b9555	0.16756184
240	0xbe5a2afa	-0.21305457
241	0xbaba49d0	-0.0014212672
242	0x3c8eda96	0.017438214
243	0x3add6413	0.0016890786
244	0xbe351d8b	-0.17687051
245	0x3daf9263	0.08572843
246	0x3c992d4e	0.01869836
247	0xbd8f69d2	-0.070026055
248	0x3de13c98	0.109978855
249	0x3e405447	0.1878215
250	0x3d22c0cf	0.039734658
251	0x3d3e09af	0.046395954
252	0xbe24ae8a	-0.16082206
253	0x3decc80f	0.11561596
254	0xbd932665	-0.071850576
255	0x3d379abf	0.04482531

fc1.bias f4 [64]
0	0xbe7636ef	-0.24044393
1	0x3e816842	0.25274855
2	0xbd7e9142	-0.062150247
3	0x3e981185	0.29700866
4	0x3e140d2a	0.14458147
5	0x3e60e8e3	0.21963839
6	0xbe74824c	-0.2387783
7	0x3e431d40	0.19054127
8	0xbe7c807a	-0.24658385
9	0xbe53660a	-0.20644394
10	0x3dd7f88c	0.105454534
11	0xbe7636a8	-0.24044287
12	0xbe9663cf	-0.29373023
13	0x3d98e25c	0.074650496
14	0xbe021ec6	-0.12707052
15	0xbea94bce	-0.33065647
16	0x3e9c7d47	0.3056433
17	0x3e5a91bf	0.2134466
18	0xbd114b8a	-0.03547243
19	0x3e10ee5b	0.14153425
20	0x3e171b34	0.14756471
21	0xbe81bfac	-0.25341547
22	0x3e4e8e8d	0.20171566
23	0xbd4df88e	-0.05028587
24	0xbdaf9ce0	-0.085748434
25	0x3dc5b5aa	0.0965379
26	0xbe68605a	-0.22693005
27	0xbe94b4c4	-0.29044163
28	0xbc862fc7	-0.016380204
29	0xbe08ee8e	-0.13372251
30	0x3c4b9ac9	0.01242704
31	0x3e1e2d58	0.15446985
32	0x3daa2c57	0.083092384
33	0xbe187af2	-0.1489065
34	0x3e357a68	0.17722476
35	0xbdfb2a15	-0.12263886
36	0xbe4d710e	-0.20062658
37	0xbe41ed4b	-0.18938176
38	0xbe407232	-0.18793562
39	0x3db1faab	0.08690389
40	0x3e183c9c	0.1486687
41	0xbe0dd767	-0.138517
42	0x3bf69c43	0.007525952
43	0xbe648c17	-0.22319065
44	0x3d1c8ee6	0.038222216
45	0x3e0ed56e	0.13948604
46	0xbd82a6f2	-0.063794985
47	0x3dae5f13	0.08514228
48	0x3e858533	0.26078185
49	0x3e93e720	0.28887272
50	0x3c3fe2e2	0.011711808
51	0x3e06e595	0.13173516
52	0x3e9f05e5	0.31059185
53	0x3d2a47b8	0.041572303
54	0xbe8554d5	-0.26041284
55	0xbe34557d	-0.17610736
56	0xbe117e13	-0.1420825
57	0xbe965735	-0.2936341
58	0x3e00af6b	0.12566917
59	0xbe29d79c	-0.16586155
60	0x3db66c61	0.089073904
61	0xbb741bfa	-0.003724812
62	0xbe3f1589	-0.18660559
63	0xbe38ae30	-0.18035197

fc2.weight f4 [256, 64]
0	0xbe002d93	-0.12517385
1	0x3d62efe3	0.055404555
2	0xbd4366d5	-0.04770549
3	0x3d84002f	0.064453475
4	0xbe0878a9	-0.13327278
5	0xbdbf4f2a	-0.09341271
6	0xbc8bc58f	-0.017061977
7	0x3d8d2e71	0.068936236
8	0x3d8f2ad1	0.069905885
9	0xbd59a7fa	-0.05313871
10	0xbd8e42a8	-0.069463074
11	0x3df64d13	0.120264195
12	0xbe40405b	-0.1877455
13	0xbdde1160	-0.10843158
14	0xbc6f23d2	-0.014595943
15	0x3d52ab85	0.051433105
16	0x3e22b1f4	0.15888196
17	0x3d03db6f	0.03219169
18	0xbc7f7a43	-0.015593114
19	0xbd3a40eb	-0.045472067
20	0x3d089d89	0.033353362
21	0x3dce7bcb	0.100822054
22	0x3e17d33d	0.14826675
23	0x3d2fda9c	0.04293309
24	0xbdb88b2b	-0.09010919
25	0xbcb3e379	-0.021959053
26	0xbd75f407	-0.060047176
27	0x3da792b7	0.081822805
28	0xbc7bc435	-0.015366604
29	0xbd6c36f0	-0.05766958
30	0xbd8f7131	-0.070040114
31	0xbd744f07	-0.05964568
32	0x3ccdc20f	0.025116948
33	0xbd1a3fdb	-0.037658554
34	0xbda8fa57	-0.082508735
35	0x3de73123	0.11288669
36	0xbd86a27f	-0.065739624
37	0x3cfcf845	0.030880103
38	0x3c36e314	0.011162538
39	0x3e1fd4b8	0.1560849
40	0x3c9a8a2b	0.018864712
41	0x3d5ceeff	0.053938862
42	0x39580032	0.00020599438
43	0x3ddc375a	0.10752745
44	0x3dc7b08f	0.09750473
45	0x3e6bcb7d	0.23026843
46	0x3d458a40	0.04822755
47	0xbdcf7123	-0.10129001
48	0xbd8b5e6e	-0.068051204
49	0x3c290895	0.0103169875
50	0x3de5492b	0.11195596
51	0x3d2279e6	0.039667033
52	0x3b62519a	0.0034533502
53	0xbc978bb3	-0.018499231
54	0x3c03df84	0.008048896
55	0xbbb44423	-0.0055012866
56	0xbe21e3d0	-0.1580956
57	0x3d94c2c3	0.0726371
58	0x3de7d833	0.113205336
59	0xbe5f41d7	-0.2180246
60	0xbd294b87	-0.041331794
61	0xbdad125b	-0.08450767
62	0x3d0a3922	0.033745892
63	0x3d8a6ec0	0.06759405
64	0x3dcae26f	0.0990647
65	0xbd1410ac	-0.036148712
66	0xbdd877cb	-0.10569724
67	0xbba4626b	-0.005016615
68	0x3e050d66	0.12993392
69	0x3d88fa9f	0.06688427
70	0x3cf722bb	0.030167928
71	0xbd83c431	-0.06433905
72	0x3df0112f	0.117220275
73	0xbe052542	-0.13002494
74	0xbdf9240f	-0.12165081
75	0xbe0b365e	-0.13594958
76	0x3d7d58b3	0.06185217
77	0xbdb1356b	-0.08652767
78	0xbdff3da8	-0.12462932
79	0xbe4b82c7	-0.19874106
80	0x3dc07f23	0.093992494
81	0xbda99af6	-0.082815096
82	0x3ddf143b	0.108925305
83	0x3ac838e9	0.001527575
84	0xbd919414	-0.07108322
85	0x3d99da70	0.07512367
86	0xbe3bf339	-0.18354501
87	0xbd466d64	-0.048444167
88	0xbcc1caa4	-0.023656197
89	0xbcd4de45	-0.025984893
90	0xbe3f830a	-0.18702331
91	0xbdd58fdb	-0.10427829
92	0xbe83caaf	-0.25740573
93	0x3dacdd29	0.084406205
94	0xbd6dbcd2	-0.0580414
95	0xbde44510	-0.11145985
96	0xbe487758	-0.19576776
97	0x3a5a751f	0.00083334924
98	0x3e067c21	0.13133289
99	0xbd4163af	-0.047214206
100	0x3d56edbd	0.05247282
101	0x3ea1a3cb	0.31570277
102	0xbd3001ee	-0.04297059
103	0x3d844adf	0.06459593
104	0x3e10a5dd	0.14125772
105	0xbcc343ed	-0.0238361
106	0xbe02d988	-0.12778294
107	0xbd906d53	-0.07052102
108	0x3b1dbb81	0.002406806
109	0x3dd6509d	0.104645945
110	0x3c5cfa27	0.013487375
111	0xbd315e2b	-0.043302696
112	0xbe1121bb	-0.14173023
113	0xbdea1c88	-0.11431223
114	0xbc0cb257	-0.008587441
115	0x3e1f88ab	0.15579478
116	0xbbb63b1b	-0.005561245
117	0x3b8f4844	0.0043726284
118	0xbd02eea6	-0.031965874
119	0x3d943b3b	0.0723786
120	0xbc1c25c8	-0.009530492
121	0x3e35438f	0.17701553
122	0xbe0095fc	-0.12557214
123	0x3e454abb	0.19266789
124	0x3da8e1bf	0.08246183
125	0x3d5b7dd7	0.053586807
126	0xbddc2ac2	-0.10750343
127	0x3e443583	0.19161038
128	0x3c22d495	0.009938379
129	0xbe8a92eb	-0.27065215
130	0xbd93c39c	-0.07215044
131	0xbe0fcafe	-0.14042279
132	0xbd8177b4	-0.0632166
133	0xbd801636	-0.062542364
134	0x3d962943	0.07332089
135	0xbdd6fea5	-0.10497788
136	0x3d2fb213	0.042894434
137	0x3db4a51c	0.088205546
138	0x3dce455f	0.10071825
139	0x3d70b8a7	0.05876985
140	0x3e56b2f8	0.20966709
141	0x3d7fd4a3	0.062458646
142	0xbe110d30	-0.14165187
143	0x3cb87c07	0.022520078
144	0xbd5e3310	-0.054247916
145	0x3dae7d93	0.08520045
146	0x3d8806b7	0.06641906
147	0x3d06ef27	0.032942917
148	0x3d9a1a16	0.07524507
149	0x3dc1b3e2	0.09458138
150	0x3df94ecd	0.12173233
151	0xbc9e3498	-0.019312188
152	0x3e34e3b9	0.17664994
153	0x3bd8c1f0	0.006614916
154	0x3e92636c	0.28591478
155	0x3d8aff4c	0.06786975
156	0x3e38e639	0.18056573
157	0x3dee0b23	0.11623218
158	0x3d1f3592	0.038869448
159	0xbdad24eb	-0.08454307
160	0x3cbd9cb7	0.023146017
161	0x3dfe1aed	0.124074794
162	0xbe3cad47	-0.18425475
163	0x3d2aa36b	0.041659754
164	0x3cf7f90d	0.030270124
165	0x3e138850	0.14407468
166	0x3d97dc9f	0.07415127
167	0xbe31afa0	-0.17352152
168	0xbdbff43b	-0.09372755
169	0xbe8b1412	-0.2716375
170	0x3e0c1d97	0.13683163
171	0x3cd831f0	0.026391
172	0x3e152f45	0.14568813
173	0x3d43d9d5	0.047815163
174	0xbdf5b922	-0.11998202
175	0x3ced9ed5	0.029006401
176	0xbe0f7ecf	-0.14013217
177	0xba16594b	-0.00057353516
178	0xbd8ee8ed	-0.06978021
179	0x3dbaf0d6	0.09127967
180	0xbe54c4ab	-0.20778148
181	0x3df889b7	0.12135642
182	0xbe25b160	-0.16180944
183	0x3d3616ff	0.044455525
184	0xbc256a58	-0.010096155
185	0xbd9ed423	-0.077553056
186	0x3d4e28b7	0.050331797
187	0xbdedfba2	-0.11620261
188	0xbe12e417	-0.14344822
189	0x3d01f9f6	0.031732522
190	0x3c019457	0.007908902
191	0xbe4cc6bf	-0.1999769
192	0xbb0a843e	-0.0021135951
193	0x3d10e7e6	0.035377406
194	0xbe158c05	-0.14604194
195	0x3db588a4	0.08863953
196	0xbdd0eb2f	-0.10201108
197	0x3dad2d67	0.084559254
198	0x3df5c1aa	0.11999829
199	0x3e1cfb87	0.15330325
200	0x3d498526	0.049199246
201	0x3e86e66f	0.26347682
202	0xbd974887	-0.0738688
203	0x3e01197c	0.12607378
204	0xbc992475	-0.018694142
205	0x3dc59902	0.096483245
206	0x3dfdcd50	0.12392676
207	0x3dc22f93	0.0948173
208	0x3d5cde7a	0.053923108
209	0x3d05b7f5	0.03264614
210	0xbe24c944	-0.16092402
211	0x3e136810	0.14395165
212	0x3d3bb7c7	0.04582956
213	0x3dad08c7	0.0844894
214	0x3d82ef33	0.0639328
215	0xbd5839ca	-0.052789487
216	0xbdc5c6e8	-0.09657079
217	0x3dd0f923	0.10203769
218	0x3d54a5fb	0.051916104
219	0x3e199218	0.14997137
220	0xbdd4376d	-0.10362134
221	0x3bb0a34c	0.0053905603
222	0xbdbfaf1f	-0.093595736
223	0x3de458f7	0.11149781
224	0x3cb0d774	0.021587111
225	0x3be98123	0.00712599
226	0xbe33b7a8	-0.17550528
227	0x3da9e9c3	0.0829654
228	0xbe3c2a9b	-0.18375628
229	0xbd41c3ac	-0.047305748
230	0x3cf82512	0.030291114
231	0xbd99866f	-0.07496344
232	0xbe4b447f	-0.19850348
233	0xbe2e1281	-0.16999246
234	0x3e0652d1	0.1311753
235	0xbddee0ef	-0.108827464
236	0xbc425c2b	-0.011862795
237	0x3d3f2147	0.046662595
238	0x3cd6e55b	0.026232412
239	0xbd5d9513	-0.054097246
240	0x3dc73330	0.0972656
241	0xbd97d3e5	-0.074134625
242	0xbc1e8f83	-0.009677771
243	0x3c88fd5b	0.016722372
244	0xbe1863d0	-0.14881825
245	0x3ca68a0f	0.020329503
246	0xbc8060e9	-0.01567121
247	0xbde35c10	-0.11101544
248	0x3dd07753	0.10179009
249	0xbd0dfe56	-0.03466638
250	0x3db4a926	0.08821325
251	0x3da8be82	0.082394615
252	0xbc026d2a	-0.007960597
253	0xbda94737	-0.08265536
254	0xbda12817	-0.07868975
255	0x3cc050c7	0.023476018

fc2.bias f4 [256]
0	0xbd9fd11c	-0.07803556
1	0x3ce23428	0.02761276
2	0xbdfd2756	-0.12361018
3	0x3c173c10	0.009230629
4	0x3cca90c8	0.02472724
5	0x3df1eaf2	0.118123904
6	0xbcd2da68	-0.02573891
7	0xbd1e4708	-0.03864196
8	0xbbade380	-0.005306661
9	0x3ca55030	0.020179838
10	0xbdef9fac	-0.11700377
11	0x3dc599ea	0.096484974
12	0xbdbb326e	-0.09140478
13	0x3cc4cb00	0.02402258
14	0xbdf467ae	-0.11933838
15	0x3deb6780	0.114943504
16	0xbcf43568	-0.029810622
17	0xbcf8e6c8	-0.030383483
18	0xbddcbbe2	-0.10778023
19	0xbdba46a8	-0.09095508
20	0x3dfc9cda	0.123346046
21	0x3deb73e8	0.11496717
22	0xbd0c7160	-0.03428781
23	0xbdc5dcaa	-0.09661229
24	0x3cf4d3d0	0.029886156
25	0x3dc30466	0.09522323
26	0xbdc6c09e	-0.097047076
27	0x3d0d6038	0.03451559
28	0x3db2e2c8	0.08734661
29	0x3bbb82a0	0.005722359
30	0x3d030a50	0.031992257
31	0xbd829564	-0.0637615
32	0xbc8e5238	-0.01737319
33	0x3d93f190	0.07223809
34	0xbdc69352	-0.09696068
35	0xbdb6822e	-0.089115486
36	0xbdbfa064	-0.09356764
37	0xbddba67c	-0.10725114
38	0xbd568000	-0.052368164
39	0x3c4bb350	0.012432888
40	0x3dc936c8	0.09824902
41	0xbd93366e	-0.07188116
42	0x3c9b9450	0.01899162
43	0xbdce1cec	-0.1006411
44	0xbdd795c4	-0.105266124
45	0xbda574ba	-0.080789044
46	0xbdf3f5ca	-0.11912115
47	0x3c8c60d0	0.017136008
48	0x3c0fcf40	0.00877744
49	0x3daf7288	0.08566767
50	0x3c59c8a0	0.013292462
51	0x3b38b700	0.0028185248
52	0xbd54208c	-0.05178885
53	0xbd9db64e	-0.077007875
54	0x3db3dfca	0.08782919
55	0xbc4e6ba0	-0.012598902
56	0xbdd4b392	-0.10385813
57	0xbb770240	-0.003769055
58	0x3daf3220	0.085544825
59	0x3deefa50	0.11668837
60	0xbda42dba	-0.08016534
61	0x3df8bd8e	0.1214553
62	0x3d94d25a	0.07266684
63	0x3d377760	0.04479158
64	0x3ca0d028	0.019630507
65	0xbd561434	-0.05226536
66	0xbddbb454	-0.10727754
67	0xbdae7a34	-0.08519402
68	0xbbb775c0	-0.0055987537
69	0x3d671bf8	0.056423157
70	0xbde6c7d0	-0.1126858
71	0xbda8b11c	-0.08236906
72	0xbbbbf6a0	-0.005736187
73	0x3c33a580	0.010964751
74	0x3bba2580	0.00568074
75	0x3d1c99dc	0.03823267
76	0x3de8ec6e	0.113732204
77	0xbdf74116	-0.12072961
78	0x3bd27020	0.0064220577
79	0xbcf31428	-0.029672697
80	0xb9d4b800	-0.00040572882
81	0x3d97d6dc	0.07414028
82	0xbd3c1644	-0.04591967
83	0x3d23852c	0.039921924
84	0xbd8c4098	-0.06848258
85	0x3c5139b0	0.012770101
86	0xbdffec4a	-0.124962404
87	0x3cd58218	0.02606301
88	0x3dbc647e	0.09198855
89	0x3d530db0	0.051526725
90	0x3da827f0	0.082107425
91	0x3da354f0	0.07975185
92	0x3c932788	0.017963186
93	0x3d9c2368	0.07623941
94	0x3d8dbb06	0.069204375
95	0xbcd1fac0	-0.025632262
96	0x3cf769e8	0.030201867
97	0x3dd10b52	0.10207237
98	0xbc0ccf70	-0.008594379
99	0xbddba29e	-0.10724376
100	0x3b642900	0.0034814477
101	0x3d0a44ac	0.033756897
102	0xbd233110	-0.03984171
103	0x3cf70e38	0.030158147
104	0xbd95701c	-0.07296774
105	0x3c1dd560	0.009633392
106	0xbd539ecc	-0.051665112
107	0x3d5f5ae0	0.054530025
108	0xbd3275cc	-0.04356937
109	0x3dac6ad0	0.0841881
110	0xbc6eaee0	-0.014568061
111	0x3dd1c104	0.10241893
112	0x3dcc0410	0.09961712
113	0x3db8626a	0.09003146
114	0x3ccece68	0.025244907
115	0xbc90d7e0	-0.017681062
116	0xbd282a40	-0.041055918
117	0x3d98acac	0.074548095
118	0x3de7caa0	0.113179445
119	0x3dfa492e	0.12220989
120	0x3c9e9b38	0.019361123
121	0xbd5f6800	-0.05454254
122	0x3cdda0a8	0.027054146
123	0xbcd9e440	-0.026598096
124	0xbdeea5f8	-0.1165275
125	0x3cb86d48	0.022513047
126	0xbc04a1a0	-0.008095175
127	0xbd18963c	-0.03725265
128	0xbd9afd3a	-0.075678304
129	0xbd46943c	-0.04848121
130	0xbdb9f810	-0.09080517
131	0x3c663b50	0.014052227
132	0x3d8219c8	0.06352574
133	0x3cba0990	0.022709638
134	0x3d22070c	0.0395575
135	0x3ca4e658	0.020129368
136	0xbd7c8aa4	-0.061655656
137	0xbc980e00	-0.018561363
138	0xbd5c6d34	-0.05381508
139	0xbda52622	-0.08063914
140	0xbcbf9c10	-0.023389846
141	0xbd9786fa	-0.073987916
142	0xbded0506	-0.11573224
143	0x3db850cc	0.08999786
144	0xbd528154	-0.05139287
145	0xbb921ce0	-0.0044590086
146	0xbd3e2e2c	-0.04643075
147	0xbd93fd56	-0.07226054
148	0x3d5345e0	0.05158031
149	0xbd8091f0	-0.06277835
150	0x3dfdf9b8	0.12401146
151	0xbddfbe8a	-0.10925014
152	0xbdaed238	-0.0853619
153	0x3d176bbc	0.036967978
154	0xbcf41d20	-0.029799044
155	0x3dec199e	0.115283236
156	0xbcb25ab0	-0.021771759
157	0xbdb1a66c	-0.086743206
158	0xbd2a3ec4	-0.041563764
159	0x3d6d0788	0.05786851
160	0xbdec00b4	-0.115235716
161	0xbc497290	-0.01229538
162	0xbd31a648	-0.04337147
163	0x3d94b394	0.07260814
164	0x3d6986d0	0.057013333
165	0xbd9e3880	-0.0772562
166	0x3d91bb9e	0.07115863
167	0xbdb3160e	-0.08744441
168	0x3df0dc5c	0.1176078
169	0x3d459834	0.048240855
170	0x3cb4f510	0.022089511
171	0xbd1cc150	-0.038270295
172	0x3d3fc6bc	0.046820387
173	0xbd17c4e8	-0.03705302
174	0xbd86bc06	-0.065788314
175	0x3d335bec	0.043788835
176	0xbdb8380a	-0.089950636
177	0x3dd70d62	0.105005994
178	0x3d640520	0.05566895
179	0x3d710f70	0.058852613
180	0x3d97c9bc	0.07411525
181	0x3d5d3304	0.05400373
182	0x3deb0da0	0.11477208
183	0xbdf9458e	-0.1217147
184	0x3de724a0	0.112862825
185	0xbd944326	-0.0723937
186	0x3d821ed8	0.06353539
187	0xbdced30a	-0.10098846
188	0xbd0dc2a8	-0.034609467
189	0x3c468e50	0.012118891
190	0xbbb8e6e0	-0.005642757
191	0x3de5c67e	0.112195
192	0x3dbddf08	0.092710555
193	0xbdc9de16	-0.09856813
194	0x3d95d308	0.07315642
195	0xbdcd6a5e	-0.100300536
196	0xbdb685a0	-0.08912206
197	0xbaaea400	-0.0013324022
198	0xbd04adc0	-0.032392263
199	0xbcfae848	-0.030628338
200	0x3ca6fd10	0.020384341
201	0x3adacc80	0.0016693026
202	0xbda01344	-0.078161746
203	0xbdd78406	-0.10523228
204	0x3c44e9e0	0.012018651
205	0xbd699108	-0.05702308
206	0xbd8300ea	-0.06396659
207	0xbd43e040	-0.047821283
208	0x3da9550c	0.082681745
209	0xbca272c0	-0.019830108
210	0xbd9765ec	-0.07392487
211	0x3d47e050	0.048797905
212	0x3c55cee0	0.013049811
213	0xbd72364c	-0.059133813
214	0xbda2bae4	-0.07945803
215	0xbdce1d8c	-0.10064229
216	0xbdd27d8e	-0.10277854
217	0xbda559c8	-0.08073765
218	0x3d97bad2	0.0740868
219	0x3dccb566	0.099955365
220	0xbd7f29b8	-0.062295645
221	0x3cf790d0	0.03022042
222	0xbdb47b6e	-0.08812605
223	0xbc0a9ee0	-0.00846073
224	0xbdf80fb6	-0.121123716
225	0x3d2f9788	0.04286912
226	0x3d5a6c8c	0.053326175
227	0xbc9d5160	-0.019203842
228	0xbd5d3b7c	-0.054011807
229	0xbd684310	-0.05670458
230	0x3dbab640	0.09116793
231	0xbde57bd2	-0.112052575
232	0xbcc7c2e0	-0.024384916
233	0x3d99bf54	0.07507196
234	0xbb720900	-0.0036931634
235	0xbdeb3b62	-0.11485936
236	0xbdbe5fac	-0.09295592
237	0x3dbf9834	0.09355202
238	0xbda2257a	-0.07917304
239	0x3d557b40	0.052119493
240	0x3d2975cc	0.041372105
241	0x3d2fa18c	0.042878672
242	0xbb494280	-0.0030709803
243	0x3d95bf7e	0.07311915
244	0xbc4bc090	-0.012436047
245	0x3de98da4	0.11403969
246	0xbdb43ebe	-0.088010296
247	0x3ddae632	0.106884375
248	0xbd71bc70	-0.0590176
249	0x3d21a360	0.039462447
250	0x3cdf65f0	0.027270287
251	0xbd94421e	-0.07239173
252	0xbd7f4e58	-0.062330574
253	0xbdfc48c6	-0.12318568
254	0xbcf5c8c0	-0.030002952
255	0x3b90b3a0	0.004415944

fc3.weight f4 [25, 256]
0	0xbd99c1a7	-0.075076394
1	0xbec8812f	-0.3916106
2	0x3e1419bb	0.1446294
3	0xbc939106	-0.018013489
4	0xbd3da18d	-0.046296645
5	0xbcfb66ba	-0.030688632
6	0xbd1ffcf5	-0.039059598
7	0xbb81fdd0	-0.0039670244
8	0x3d2b87a2	0.041877396
9	0x3e6d794f	0.23190807
10	0xbdafd569	-0.08585627
11	0x3d10cbd5	0.03535064
12	0x3e5435cb	0.20723645
13	0x3d9ebd0b	0.07750901
14	0x3d94260c	0.07233819
15	0x3dfa66ff	0.12226676
16	0xbe1ca7cc	-0.15298384
17	0x3e0688cb	0.1313812
18	0x3bff8faa	0.0077991085
19	0xbdce3862	-0.10069348
20	0x3e407beb	0.18797271
21	0x3ded4278	0.115849435
22	0xbd4dfa1b	-0.050287347
23	0x3cc15813	0.023601567
24	0xbe08a3f8	-0.13343799
25	0x3d9c30eb	0.07626518
26	0x3d0607c2	0.032722242
27	0xbd412363	-0.047152888
28	0xbca4f13b	-0.020134559
29	0x3e192333	0.14954834
30	0x3d98f3c1	0.07468367
31	0xbd86a773	-0.06574907
32	0xbda63d1d	-0.08117125
33	0xbc38d7f3	-0.011281955
34	0x3dd1fbaf	0.10253083
35	0x3adac7cd	0.0016691625
36	0xbd07b787	-0.03313401
37	0xbdb717ef	-0.08940112
38	0xbde2bd65	-0.110712804
39	0xbde63f25	-0.112425126
40	0x3d9cd997	0.076586895
41	0xbdb6c1eb	-0.08923706
42	0x3d9304b6	0.07178633
43	0x3e10146c	0.1407029
44	0x3d88e052	0.06683411
45	0xbb7567f3	-0.0037445992
46	0xbdc8d958	-0.0980708
47	0x3d78fd6f	0.060788568
48	0xbde7b267	-0.113133244
49	0x3d28bf4f	0.04119807
50	0xbd649a72	-0.055811353
51	0x3d38131f	0.04494011
52	0xbd80279b	-0.06257554
53	0xbe09bfc3	-0.13452058
54	0x3d77b118	0.060471624
55	0xbd9dad79	-0.07699103
56	0x3d8ff758	0.07029599
57	0xbd985199	-0.074374385
58	0xbdcb895f	-0.09938311
59	0xbe0f5c5f	-0.1400008
60	0xbdf3bdaa	-0.1190141
61	0xbe12cee9	-0.14336742
62	0x3e834bf3	0.25643882
63	0x3cd5273d	0.026019687
64	0x3d6960e2	0.05697716
65	0x3d4c5a97	0.04989108
66	0xbd493b3f	-0.049128767
67	0xbd63af58	-0.055587143
68	0x3d3fef2d	0.046858955
69	0x3c4ef9f7	0.012632838
70	0xbd4331a0	-0.047654748
71	0xbc1597d3	-0.009130436
72	0xbce05c07	-0.027387632
73	0xbe12768b	-0.14303033
74	0xbd0556ca	-0.03255347
75	0x3e4baa51	0.1988919
76	0x3e679ca8	0.22618353
77	0x3da1181b	0.07865926
78	0x3e8fd948	0.2809546
79	0xbcbb3529	-0.022852497
80	0xbd172f1e	-0.03691017
81	0x3e09a207	0.13440715
82	0x3d4659d0	0.048425496
83	0x3baec595	0.005333612
84	0xbdc59117	-0.09646814
85	0xbe03df28	-0.12878096
86	0x3d1185db	0.035528045
87	0xbc797a1d	-0.015226868
88	0x3e016097	0.12634502
89	0xbd1df096	-0.03855952
90	0x3d2214d7	0.039570656
91	0xbd1657cb	-0.03670482
92	0x3d3871ee	0.045030527
93	0xbe121821	-0.14267017
94	0x3d95c67e	0.0731325
95	0x3e3dc2f7	0.18531404
96	0x3db2b663	0.08726194
97	0xbe9f75db	-0.31144604
98	0xbdb265c3	-0.08710816
99	0xbe7361a8	-0.23767722
100	0xbd915a59	-0.070973106
101	0x3df0809a	0.11743279
102	0xbcca9f80	-0.024734259
103	0xbd0f0d19	-0.0349246
104	0x3daee884	0.085404426
105	0xbbf98f6d	-0.0076159746
106	0x3d2725e7	0.04080763
107	0xbe794bdf	-0.24345349
108	0x3c32d4b6	0.010914972
109	0x3c7574cb	0.014981459
110	0x3e7fd44a	0.24983326
111	0x3d00b6d3	0.031424355
112	0x3da0e8d8	0.078569114
113	0xbd0ee5dd	-0.034887183
114	0xbd870008	-0.06591803
115	0xbd483392	-0.048877306
116	0xbdb3bc8e	-0.08776198
117	0x3d476913	0.04868419
118	0x3d9b9f37	0.07598727
119	0x3da09d00	0.078424454
120	0x3d68388f	0.056694563
121	0xbcbc2049	-0.022964614
122	0x3e3cab7b	0.1842479
123	0xbd818f67	-0.0632618
124	0xbca649b0	-0.020298809
125	0xbcfab4a5	-0.030603716
126	0xbe086a32	-0.1332176
127	0xbe16303a	-0.14666834
128	0xbc42d867	-0.011892415
129	0xbca2f81b	-0.019893697
130	0xbd63bee8	-0.055601984
131	0xbe8655a4	-0.26237214
132	0xbe12252b	-0.14271991
133	0x3ac4ffbd	0.0015029829
134	0x3e1fd6c3	0.15609269
135	0x3e149ef2	0.14513758
136	0x3c14a38b	0.009072195
137	0xbe76af53	-0.24090318
138	0x3d4be204	0.049776092
139	0xbd02322a	-0.03178612
140	0xbdf94df5	-0.12173072
141	0xbb86fcfe	-0.0041195145
142	0x3d6ee8a5	0.058327336
143	0xbd2776c7	-0.04088476
144	0x3d33a61b	0.043859582
145	0xbdaa7c92	-0.08324541
146	0x3cb2f076	0.021843176
147	0xbab99148	-0.0014157677
148	0xbd573eb8	-0.052550048
149	0xbd864dd1	-0.06557811
150	0x3e348b55	0.17631276
151	0xbd4341c4	-0.04767014
152	0x3cee2a6a	0.029072959
153	0xbdff9efd	-0.124814965
154	0x3e3ebbd1	0.18626334
155	0xbe1509fa	-0.14554587
156	0x3dc1a6e5	0.09455661
157	0xbd9a70a3	-0.07541015
158	0xbe3c4f3b	-0.18389599
159	0xbd4d7838	-0.050163478
160	0xbd78998a	-0.0606933
161	0x3dea5b93	0.11443248
162	0xbdf4a352	-0.119452134
163	0xbdaf3044	-0.08554128
164	0xbde2c822	-0.110733286
165	0x3e4bc723	0.19900183
166	0x3dbe610b	0.09295853
167	0x3c870b73	0.016484952
168	0x3ce9db4f	0.028546957
169	0x3dd9ad98	0.106288135
170	0x3e27fde8	0.16405451
171	0x3c6f213b	0.014595325
172	0xbd21658c	-0.039403483
173	0xbe71b5ff	-0.23604582
174	0xbe3e7195	-0.18598016
175	0xbd0f8929	-0.035042915
176	0x3e38cd3c	0.1804704
177	0x3daba223	0.083805345
178	0x3d08bd6b	0.033383768
179	0xbda9f410	-0.08298504
180	0xbd9bbabb	-0.076039754
181	0x3c42bc10	0.011885658
182	0xbc87d7a2	-0.016582314
183	0x3d800794	0.062514454
184	0xbd94400b	-0.07238778
185	0x3de759e0	0.11296439
186	0xbda2b37f	-0.079443924
187	0x3dc01b69	0.09380228
188	0x3e1b0ecb	0.15142362
189	0xbe2ce1a7	-0.16882955
190	0xbd0ae2bf	-0.03390765
191	0xbc91a0d7	-0.01777689
192	0xbd7a90a2	-0.06117309
193	0xbad9223a	-0.0016565986
194	0xbd634047	-0.05548122
195	0xbe4a468d	-0.19753475
196	0xbd31cb1a	-0.043406583
197	0xbcd5db30	-0.026105493
198	0x3da7f13f	0.08200311
199	0xbe138f87	-0.1441022
200	0xbd3cdb9a	-0.046107866
201	0x3d9edafa	0.0775661
202	0x3c205fe7	0.00978849
203	0xbd9f114e	-0.077669725
204	0x3e39fb76	0.18162331
205	0xbe0607a2	-0.13088849
206	0x3d9fbe48	0.07799965
207	0x3c713e72	0.014724361
208	0x3db5eddc	0.08883259
209	0xbdc08e2c	-0.09402117
210	0xbd900de8	-0.070339024
211	0xbe0edfd0	-0.13952565
212	0x3d31bbda	0.04339204
213	0xbc9bc78a	-0.019016046
214	0xbe603bc5	-0.218978
215	0x3df96df8	0.12179178
216	0xbe10fe4b	-0.14159505
217	0x3d4cd65b	0.050009113
218	0x3d162621	0.036657456
219	0xbd0cc0b8	-0.03436348
220	0xbe00829a	-0.1254982
221	0x3d69f06d	0.057114054
222	0xbcdc0830	-0.026859373
223	0xbe4f956b	-0.20271842
224	0x3da5bea1	0.08093
225	0xbda09ac5	-0.0784202
226	0xbcf43995	-0.029812614
227	0x3d0596b2	0.032614417
228	0xbddcda58	-0.10783833
229	0x3d6e5532	0.058186717
230	0x3d08aa8a	0.033365764
231	0x3b93ea2c	0.0045139994
232	0x3d4f8675	0.050665338
233	0xbe684807	-0.22683726
234	0x3d83fafb	0.06444355
235	0x3c69ee9d	0.014278081
236	0x3df2e735	0.118605055
237	0xbce83927	-0.028347565
238	0xbd6823b5	-0.056674678
239	0x3d234a8b	0.03986601
240	0x3ca1e523	0.019762581
241	0xbd2a02e3	-0.04150666
242	0x3bc060e8	0.005870927
243	0x3e56e813	0.20986967
244	0x3b1b70ec	0.002371843
245	0x3d198beb	0.03748695
246	0xbd9ca98b	-0.07649525
247	0xbab0c927	-0.0013487682
248	0xbde9f467	-0.11423569
249	0x3dd7593b	0.10515066
250	0x3bc3ade3	0.0059716566
251	0x3d568840	0.052376032
252	0xbddc2957	-0.107500724
253	0x3bede9a0	0.0072605163
254	0xbcb57bfd	-0.022153849
255	0xbbf24cf0	-0.0073944256

fc3.bias f4 [25]
0	0xbccd5e50	-0.025069386
1	0x3cbd0260	0.023072422
2	0x3d78ee86	0.06077435
3	0x3d087d92	0.03332288
4	0x3cce4b40	0.025182366
5	0x3d4c5700	0.049887657
6	0x3d62d4bc	0.05537866
7	0xbb868500	-0.0041052103
8	0xbd34f610	-0.044179976
9	0x3d44bccc	0.048031613
10	0xbb9edb00	-0.004847884
11	0x3d55874e	0.05213099
12	0xbd426b7e	-0.047465794
13	0xbd686776	-0.056739293
14	0xbc634e08	-0.013873585
15	0x39716c00	0.00023023784
16	0xbc8bcf14	-0.017066516
17	0xbccb591c	-0.024822764
18	0xbc1d3b30	-0.009596631
19	0xbd471324	-0.04860224
20	0x3d28ead8	0.04123959
21	0xbd137356	-0.035998665
22	0xbc73af78	-0.014873378
23	0xbd53b0c0	-0.051682234
24	0x3cd19bdc	0.025587015
