examples/carla_scenic/Carla_Challenge/agent_scalar/target_net_100.pt (torch, 96919 bytes, 6 tensors)

fc1.weight f4 [64, 10]
0.1286601 -0.15968867 0.015078073 0.029516308 0.018996207 0.015920516 0.0919307 -0.14103834
-0.30750248 0.19951981 -0.0048808893 0.011611963 0.12294689 0.028051093 0.01754381 0.06531211
-0.1471059 -0.3841174 -0.23631468 0.20999254 -0.13998434 -0.020753274 -0.28499612 0.080126375
-0.03771095 -0.111119084 -0.033423416 -0.068015486 -0.05730028 0.26733172 -0.049315784 0.050480753
0.012359109 0.047306847 -0.11642067 -0.07500054 -0.794677 -0.5082208 0.24653493 0.044595316
-0.018277688 -0.023576383 0.15165101 0.04308551 -0.048558466 -0.06568518 -0.15932377 0.3528329
0.25748113 -0.47305715 -0.106169865 -0.0760641 0.07445276 -0.07784745 0.11698326 -0.06140342
-0.75752413 -0.5508379 0.23102643 -0.12599699 -0.3471251 -0.019593664 0.2938863 0.05624336
0.045311116 -0.08324664 -0.017518181 0.02976474 0.3176374 0.058778472 -0.065378524 -0.21170226
0.00720454 0.053138774 -0.11490558 -0.013799192 -0.115332544 0.17642552 0.2661416 0.15690327
-0.19911623 0.047998007 0.13494818 0.050037056 -0.013153366 -0.13948105 0.022346256 0.328549
0.5296327 -0.33760452 -0.088211685 -7.4175856e-05 -0.07670754 0.018402005 0.014937664 0.093077265
0.055859752 0.011927134 0.14067253 -0.36708593 -0.04887798 -0.062813886 0.046415914 -0.08814017
0.05243402 -0.038308647 -0.097176075 0.15545942 -0.026113676 -0.06878718 0.1639104 0.034228317
-0.111048646 -0.009368966 -0.043406293 0.0032463837 -0.15899119 -0.0063027977 0.028149955 0.11243147
0.25414562 0.11265551 0.17164287 0.081436835 0.018109733 -0.13264649 0.27619457 -0.07097187
-0.024758307 -0.13133185 0.3190856 0.027289532 -0.24195965 0.1138097 -0.029142197 0.15526538
0.07678635 0.061178513 0.50136876 -0.0914086 0.061595827 -0.0063042403 -0.041346904 -0.037038475
-0.05807038 0.05383206 0.009318054 0.16014683 -0.06850092 0.24496348 -0.070217766 -0.047130432
0.3553623 0.019262688 0.009537265 0.09601333 -0.049009394 0.020704849 -0.045688495 -0.21684456
0.13559325 -0.14087161 0.00026430743 -0.010467507 -0.017817155 0.048075754 0.3347426 -0.26541966
-0.1711503 0.10884514 0.3350232 0.05437735 0.12426207 0.10141739 -0.12355955 -0.07443776
0.0721758 -0.14068045 -0.3872324 -0.0892591 -0.12006957 -0.2249497 0.15493163 0.12968051
-0.10168309 0.13406187 0.060167626 0.17835298 0.16781133 0.116574064 0.09773148 0.1806531
-0.3458689 0.043836355 -0.00096330675 0.14083457 0.05853039 0.057947177 0.36160517 -0.3559589
0.10708248 -0.4182848 -0.1767248 0.12211138 -0.23636678 -0.049342114 0.10903853 0.016642405
-0.45675683 -0.0913223 0.2446771 0.016322318 -0.08046032 -0.050414514 0.031561065 -0.1606311
-0.16092242 0.28990796 0.32842472 -0.11349815 -0.18941027 -0.07098535 0.13761942 -0.034857996
0.08862908 -0.028656928 0.02755166 0.1081207 -0.13084531 -0.08902803 0.08273159 -0.1224733
-0.00048215932 -0.09688712 0.008454628 -0.006834753 -0.08736629 0.16606653 0.14462985 0.07035683
0.06762364 0.13623928 0.06891324 0.0070196567 -0.0049134465 -0.013452102 -0.089528926 0.35073817
0.21484807 0.07345828 0.13368279 -0.007853805 -0.0867968 -0.05663521 -0.005347348 -0.13490519
00000000: 79bf 033e 6d85 23be 060a 773c 2fcc f13c
00000010: ef9d 9b3c be6b 823c 2a46 bc3d 5b6c 10be
00000020: f770 9dbe ec4e 4c3e deef 9fbb 1a40 3e3c
00000030: 94cb fb3d 68cb e53c 09b8 8f3c 5bc2 853d
00000040: eea2 16be 09ab c4be 7afc 71be 4908 573e
00000050: 0e58 0fbe c502 aabc 03eb 91be 4c19 a43d
00000060: cc76 1abd 6792 e3bd fee6 08bd b44b 8bbd
00000070: b3b3 6abd b4df 883e 59ff 49bd e8c4 4e3d
00000080: dc7d 4a3c d3c4 413d f66d eebd e299 99bd
00000090: f46f 4bbf c21a 02bf a773 7c3e 94a9 363d
000000a0: 17bb 95bc 4223 c1bc 674a 1b3e 6f7a 303d
000000b0: 3ee5 46bd f485 86bd c525 23be 84a6 b43e
000000c0: 91d4 833e 8c34 f2be 966f d9bd 7fc7 9bbd
000000d0: b07a 983d 7c6e 9fbd eb94 ef3d 2782 7bbd
000000e0: 1aed 41bf b603 0dbf 3192 6c3e 5b05 01be
000000f0: 62ba b1be e482 a0bc 4478 963e 705f 663d
00000100: 2698 393d 377d aabd 4a82 8fbc 2fd5 f33c
00000110: 5fa1 a23e b2c1 703d 2de5 85bd 7ac8 58be
00000120: 1014 ec3b 0ba8 593d 9e53 ebbd 0216 62bc
00000130: 7833 ecbd e4a8 343e b643 883e 40ab 203e
00000140: 20e5 4bbe 8f99 443d db2f 0a3e a8f3 4c3d
00000150: 3781 57bc 1fd4 0ebe 7f0f b73c 9337 a83e
00000160: 0296 073f 80da acbe 54a8 b4bd dc8e 9bb8
00000170: d818 9dbd cdbf 963c 1bbd 743c 4b9f be3d
00000180: 32cd 643d 076a 433c 760c 103e b0f2 bbbe
00000190: 4734 48bd 91a4 80bd 9d1e 3e3d d582 b4bd
000001a0: 0ec5 563d 87e9 1cbd 4004 c7bd c130 1f3e
000001b0: 59ec d5bc 4be0 8cbd 21d8 273e fe32 0c3d
000001c0: 796d e3bd 4b80 19bc ccca 31bd 48c1 543b
000001d0: 96ce 22be b387 cebb bc9a e63c 7842 e63d
000001e0: 601f 823e efb7 e63d 26c3 2f3e 5bc8 a63d
000001f0: dd5a 943c 7bd4 07be 6069 8d3e b359 91bd
00000200: efd1 cabc db7b 06be 305f a33e 4c8e df3c
00000210: 45c4 77be 0f15 e93d 9ebb eebc e3fd 1e3e
00000220: 2942 9d3d 5296 7a3d b459 003f 6f34 bbbd
00000230: e84b 7c3d cd93 cebb 5f5b 29bd a8b5 17bd
00000240: 35db 6dbd 027f 5c3d c0aa 183c 88fd 233e
00000250: 364a 8cbd b5d7 7a3e 55ce 8fbd d70b 41bd
00000260: 0cf2 b53e c9cc 9d3c 3042 1c3c a3a2 c43d
00000270: 13be 48bd 379d a93c dc23 3bbd 800c 5ebe
00000280: f5d8 0a3e a640 10be be92 8a39 e87f 2bbc
00000290: 48f5 91bc 15eb 443d 6263 ab3e 16e5 87be
000002a0: 0642 2fbe 33ea de3d 2988 ab3e c9ba 5e3d
000002b0: 1d7d fe3d ecb3 cf3d ca0c fdbd d372 98bd
000002c0: e8d0 933d 890e 10be 5343 c6be 7acd b6bd
000002d0: 09e7 f5bd 3759 66be 66a6 1e3e f8ca 043e
000002e0: 393f d0bd 8447 093e 5472 763d 2aa2 363e
000002f0: bcd6 2b3e 62be ee3d 7127 c83d 20fd 383e
00000300: ba15 b1be c08d 333d 6c86 7cba f036 103e
00000310: 90bd 6f3d 055a 6d3d 5024 b93e 3f40 b6be
00000320: 0f4e db3d 6d29 d6be 59f7 34be 8815 fa3d
00000330: 220a 72be f51a 4abd 984f df3d a755 883c
00000340: 08dc e9be 3007 bbbd a28c 7a3e 62b6 853c
00000350: 61c8 a4bd 737f 4ebd 2d46 013d 7b7c 24be
00000360: d9c8 24be d16e 943e 4927 a83e b871 e8bd
00000370: c4f4 41be c460 91bd 1bec 0c3e 42c7 0ebd
00000380: 2a83 b53d efc1 eabc 05b4 e13c 636e dd3d
00000390: 50fc 05be 5454 b6bd 2e6f a93d 48d3 fabd
000003a0: 54ca fcb9 c16c c6bd 4885 0a3c 10f6 dfbb
000003b0: 19ed b2bd 580d 2a3e d919 143e 3e17 903d
000003c0: 437e 8a3d 4f82 0b3e 6322 8d3d 2605 e63b
000003d0: fa00 a1bb 3566 5cbc f15a b7bd f493 b33e
000003e0: 2201 5c3e 4b71 963d 24e4 083e 3fad 00bc
000003f0: 85c2 b1bd 52fa 67bd ce38 afbb 9624 0abe

fc1.bias f4 [64]
-0.35115275 0.3821966 0.5162217 0.075277254 -0.0809205 0.0008309761 0.42700654 -0.012966592
0.09783954 0.20403618 0.44251284 0.44898993 -0.2035078 -0.57854486 -0.1251423 0.34409425
-0.02414554 0.5333646 0.26333117 -0.36877474 -0.4027818 -0.45260662 0.2771214 -0.058148235
0.22025463 -0.25414172 -0.34919712 0.054726977 -0.17927909 -0.21635243 -0.4325213 0.39789933
0.4779651 -0.3742086 -0.24790496 -0.04284907 0.041790444 -0.4492718 0.3503764 0.54425067
0.19928247 -0.087228246 0.41090992 0.21751241 -0.4117572 0.26320392 0.02530105 0.10875091
0.2302276 -0.07933912 0.47009996 -0.23040421 -0.018600943 0.06134299 -0.33194762 -0.53197324
0.46055034 -0.207291 -0.6769632 0.07516285 0.3517967 -0.3314953 -0.5126484 0.45022133
00000000: 4bca b3be 46af c33e 1b27 043f f62a 9a3d
00000010: a6b9 a5bd ddd5 593a 9aa0 da3e d471 54bc
00000020: 1960 c83d dcee 503e 0b91 e23e 02e2 e53e
00000030: 5964 50be 841b 14bf 4e25 00be 1f2d b03e
00000040: decc c5bc 958a 083f 58d3 863e 0bd0 bcbe
00000050: 6b39 cebe 0ebc e7be dbe2 8d3e d82c 6ebd
00000060: 6e8a 613e dd1e 82be f7c9 b2be 6529 603d
00000070: f094 37be 7e8b 5dbe 6f73 ddbe 76b9 cb3e
00000080: d7b7 f43e 4598 bfbe ccda 7dbe 8282 2fbd
00000090: 752c 2b3d f406 e6be 8964 b33e 0354 0b3f
000000a0: b410 4c3e b9a4 b2bd c962 d23e 93bb 5e3e
000000b0: d7d1 d2be aac2 863e 2644 cf3c ccb8 de3d
000000c0: c9c0 6b3e 8c7c a2bd f1b0 f03e 15ef 6bbe
000000d0: 0161 98bc c942 7b3d 0af5 a9be 662f 08bf
000000e0: 41cd eb3e 1844 54be 764d 2dbf fbee 993d
000000f0: b21e b43e c1b9 a9be ed3c 03bf 6983 e63e

fc2.weight f4 [256, 64]
0.048055448 -0.13401046 -0.15339309 -0.075339615 -0.17194887 -0.082559 0.05075558 -0.008215438
0.02845859 -0.0717104 0.03156925 -0.021221349 -0.015418819 -0.45593342 0.003406785 0.25623575
0.2219138 0.04786539 0.020466272 -0.20586799 0.029478591 0.07862343 0.031228507 -0.25745907
-0.0057159318 -0.052218687 -0.03248567 0.109424174 0.04084997 0.108378515 0.07625934 -0.10092614
0.048753764 -0.16507635 -0.356263 0.22035779 0.014677403 -0.15473773 -0.007464003 0.15688492
0.0041033346 -0.5075316 -0.01618104 0.2832102 -0.051532835 0.21343537 0.013630679 0.17595774
0.024270928 -0.09592052 -0.17952602 -0.03080035 -0.18820783 -0.48016208 -0.5378711 -0.07286977
0.061627276 0.021513985 -0.83032817 -0.17074303 0.027396077 -0.13039258 -0.10160457 0.13658519
-0.15390722 -0.06495369 -0.044769235 0.022889016 0.117774464 -0.08004714 0.05994453 -0.21042271
-0.01098031 0.032932542 0.09320719 0.15984528 -0.053439036 -0.30370113 0.1463599 0.00085951114
0.34413147 0.08004058 -0.08027311 -0.047291033 0.042273603 0.06232938 -0.24812338 0.1118865
0.059308447 0.05806349 -0.18765427 -0.011406063 -0.04567652 -0.10381031 -0.35952842 0.032825015
0.07880129 -0.35337448 -0.22713822 -0.08094312 0.035424717 -0.27454937 0.047824938 0.17929126
-0.064796604 -0.1724384 -0.02643884 0.16251229 -0.24681765 0.06493358 -0.013311817 0.112011425
0.18405274 -0.18009724 -0.15650226 -0.06991734 0.006081588 -0.10225538 -0.3752123 -0.06841694
0.20973311 -0.08630078 -0.37847272 0.080651164 -0.08380957 -0.106566876 -0.06972677 0.04869789
-0.06364324 0.14323357 -0.068841875 -0.17387995 -0.01816342 -0.17846036 -0.013657988 -0.04699933
-0.06912587 -0.0135965105 0.004145882 0.04654912 -0.12452065 -0.19959477 -0.04944072 -0.019751063
-0.012343473 -0.2041955 -0.053791065 -0.14358206 0.059522822 -0.08424302 0.008467941 -0.11228303
-0.12237409 -0.0045017507 -0.15139367 0.058854777 0.00401785 -0.012319184 -0.06703589 0.0013165353
0.17945091 -0.055567175 -0.06244791 0.12978986 -0.079472 -0.23884772 0.26659694 0.18761861
-0.09987892 0.02362404 0.015281238 -0.058823425 -0.28543994 0.06566676 -0.027162958 -0.11774161
0.20695534 0.12411857 -0.04230112 -0.07546268 -0.052874327 -0.3248935 -0.04922118 -0.17065401
0.095677495 -0.057533287 -0.18482421 0.12539318 -0.09078585 -0.008062577 -0.11995995 0.061794613
-0.049413264 0.13849415 0.09484975 0.060768064 -0.008995459 0.15077607 -0.09524281 0.08624205
0.114204735 0.13083301 -0.109241754 0.07664178 -0.09514961 0.004868237 0.08360814 -0.07327009
0.07984462 -0.063533016 0.031824898 0.06861497 0.03407713 0.11945544 -0.086132996 -0.01133505
0.06260014 0.024203556 -0.13321751 0.0020331426 -0.091004565 0.07364829 -0.1883659 0.10451461
0.0467733 -0.18826395 -0.08592823 -0.15401947 -0.033122674 0.16397445 0.14021665 0.07938236
0.096311525 0.13919549 0.07830639 -0.16489461 0.150797 0.048757814 0.12885556 -0.20456728
-0.06116059 -0.02086834 0.19356504 -0.072703555 0.19266552 0.033174668 0.08486893 -0.06463499
0.12691602 0.011649806 0.101086356 -0.17236549 0.08222443 0.029882886 -0.17909667 -0.019486269
00000000: cad5 443d 0a3a 09be 1413 1dbe a84b 9abd
00000010: 5d13 30be b114 a9bd 15e5 4f3d 0b9a 06bc
00000020: fd21 e93c e7dc 92bd c24e 013d 65d8 adbc
00000030: 379f 7cbc 1b70 e9be 5e44 5f3b 5531 833e
00000040: 5f3d 633e 800e 443d e2a8 a73c 0fcf 52be
00000050: 167d f13c 5205 a13d edd2 ff3c add1 83be
00000060: b64c bbbb 43e3 55bd b20f 05bd c819 e03d
00000070: 4c52 273d 8ef5 dd3d db2d 9c3d 5db2 cebd
00000080: 07b2 473d c609 29be 1b68 b6be 79a5 613e
00000090: 7d79 703c 9173 1ebe 9894 f4bb 71a6 203e
000000a0: 4475 863b 97ed 01bf 1a8e 84bc ed00 913e
000000b0: 1814 53bd cd8e 5a3e 3653 5f3c 442e 343e
000000c0: d3d3 c63c fa71 c4bd abd5 37be 0451 fcbc
000000d0: 8eb9 40be ced7 f5be ecb1 09bf bf3c 95bd
000000e0: e26c 7c3d 193e b03c 6390 54bf 43d7 2ebe
000000f0: bd6d e03c a285 05be 0f16 d0bd fddc 0b3e
00000100: db99 1dbe 7106 85bd f25f 37bd bf81 bb3c
00000110: bd33 f13d c1ef a3bd 6588 753d 0d79 57be
00000120: c2e6 33bc 46e4 063d 69e3 be3d 7bae 233e
00000130: e4e2 5abd b77e 9bbe 5fdf 153e d150 613a
00000140: 0032 b03e 51ec a33d 3a66 a4bd 3eb4 41bd
00000150: 1627 2d3d 184d 7f3d 0e14 7ebe c024 e53d
00000160: 6aed 723d fbd3 6d3d 7128 40be 7fe0 3abc
00000170: 4d17 3bbd 809a d4bd 1c14 b8be 8673 063d
00000180: 9262 a13d 80ed b4be ec96 68be 82c5 a5bd
00000190: 8219 113d bc91 8cbe 15e4 433d 2198 373e
000001a0: 15b4 84bd b193 30be 4496 d8bc 9f69 263e
000001b0: c4bd 7cbe e6fb 843d cf19 5abc 3f66 e53d
000001c0: 5278 3c3e 696b 38be 2142 20be d330 8fbd
000001d0: 0f48 c73b 456b d1bd d41b c0be 2e1e 8cbd
000001e0: 47c4 563e 77be b0bd 2dc7 c1be 702c a53d
000001f0: 5aa4 abbd bc3f dabd e9cc 8ebd 7077 473d
00000200: 6357 82bd d2ab 123e f8fc 8cbd 960d 32be
00000210: 74cb 94bc 50be 36be c1c5 5fbc 5f82 40bd
00000220: dd91 8dbd e6c3 5ebc 2eda 873b 4aaa 3e3d
00000230: af04 ffbd 9262 4cbe 5a82 4abd fbcc a1bc
00000240: 473c 4abc a018 51be 0554 5cbd 2d07 13be
00000250: 34ce 733d 9b87 acbd 1ebd 0a3c a5f4 e5bd
00000260: 449f fabd 6c83 93bb f106 1bbe b511 713d
00000270: 2ba8 833b 67d6 49bc 1d4a 89bd 988f ac3a
00000280: fbc1 373e 689a 63bd 61c9 7fbd a2e7 043e
00000290: 37c2 a2bd 7f94 74be 657f 883e 181f 403e
000002a0: 528d ccbd 3487 c13c 285e 7a3c d5f0 70bd
000002b0: 2f25 92be 4b7c 863d da84 debc 8322 f1bd
000002c0: 1aec 533e e031 fe3d f043 2dbd 2d8c 9abd
000002d0: c092 58bd 7158 a6be 269c 49bd edbf 2ebe
000002e0: 90f2 c33d 06a8 6bbd 8f42 3dbe 1267 003e
000002f0: efed b9bd e618 04bc 90ad f5bd 591c 7d3d
00000300: 9065 4abd 69d1 0d3e 9640 c23d efe7 783d
00000310: b161 13bc 0b65 1a3e aa0e c3bd ac9f b03d
00000320: 2ce4 e93d 17f9 053e 24ba dfbd 5ef6 9c3d
00000330: ccdd c2bd bb85 9f3b bf3a ab3d a10e 96bd
00000340: 9385 a33d 991d 82bd d35a 023d 0186 8c3d
00000350: 7694 0b3d 0ea5 f43d 7f66 b0bd a5b6 39bc
00000360: 8134 803d 8946 c63c 2c6a 08be 793e 053b
00000370: 9a60 babd ead4 963d fee2 40be c10b d63d
00000380: 5c95 3f3d 44c8 40be 24fb afbd 48b7 1dbe
00000390: a4ab 07bd ebe8 273e f494 0f3e 3893 a23d
000003a0: fa3e c53d 4389 0e3e 1a5f a03d 22da 28be
000003b0: 876a 1a3e 46b6 473d b6f2 033e 167a 51be
000003c0: 8783 7abd 15f4 aabc ea35 463e 9ae5 94bd
000003d0: 1c4a 453e 29e2 073d c3cf ad3d 5a5f 84bd
000003e0: 46f6 013e d4de 3e3c 5d06 cf3d 9480 30be
000003f0: 4865 a83d f4cc f43c 1e65 37be aba1 9fbc

fc2.bias f4 [256]
-0.014262877 0.2499293 0.38911286 0.14362021 0.039990094 -0.01526605 0.014248998 0.007560432
0.15521322 -0.0040262844 -0.14028066 0.23889774 0.055210046 -0.044060014 -0.08986034 0.013357602
-0.21024351 -0.007053419 0.14894907 -0.09745301 0.07601238 0.02977831 -0.06453427 -0.035671256
0.16666369 -0.054471966 0.2600979 -0.0038723592 0.4945707 -0.11292747 0.28272462 0.10270453
-0.09588499 0.06179233 -0.124381565 0.37420574 0.21221286 0.019655747 -0.03285607 -0.12085112
-0.062107578 0.27662197 -0.03498309 -0.089570165 -0.025593905 0.10987608 0.18202773 0.1812175
-0.25983226 0.15493657 -0.09251177 -0.21529959 0.23932894 0.18774585 0.12576254 -0.115643255
0.22818905 -0.046912566 0.19881178 -0.055194546 0.123995714 -0.04534166 -0.18599299 0.24248251
-0.042985212 0.16332528 0.10218942 0.0383106 -0.16633771 0.22417682 -0.051395778 -0.12093765
0.05950119 0.0077569447 0.13698298 0.048351355 -0.19751029 0.11447356 0.07004194 0.010517674
0.14330018 0.03890871 0.29530293 0.18341742 0.024158107 -0.0684595 -0.15547416 0.107296266
-0.11383766 0.08075165 0.0060532764 -0.08992561 0.29853937 0.32506627 -0.101013884 0.2645727
-0.09926508 -0.1839116 0.18607649 -0.22753511 0.28362465 -0.00901179 -0.012045157 -0.056719393
0.36044952 -0.13398685 0.28763092 0.07253504 -0.18085517 -0.11345018 -0.083190635 -0.0053643244
0.14536549 0.087748095 -0.028414842 0.073573686 0.29316986 0.053791042 0.08947093 0.05730052
0.18807985 -0.04492063 -0.05606828 0.024911897 -0.08000048 -0.019757073 0.16351572 0.052256934
-0.14428186 -0.16618387 0.43319187 0.013627331 0.02835034 0.02706665 0.1401821 -0.028078258
0.2058188 -0.08708692 0.12799072 0.12234027 -0.022401733 0.25438341 0.13741176 -0.017280197
0.28884798 -0.16099185 -0.1182712 -0.12536967 -0.071097754 0.05648241 0.26816362 -0.1369395
-0.23514536 0.21089146 0.20640406 -0.10676202 0.051238813 -0.085635565 -0.05643554 0.04585856
-0.046670977 0.15123789 0.111288264 0.097118706 -0.1566295 0.25432813 -0.122216456 -0.13619164
0.24363424 0.06484367 0.43696478 0.48222673 -0.20247483 -0.12799504 -0.17329857 -0.10326227
-0.1096942 0.05373547 -0.18629763 -0.053625684 -0.1750703 -0.118977346 0.25358507 -0.139914
0.14493221 0.2655508 0.080989465 0.10124223 -0.12714575 -0.003998112 0.33991343 -0.101471566
-0.24932738 0.03150081 -0.10189885 -0.11669086 -0.07739847 -0.031038849 0.15213236 0.018241651
0.43326867 0.023804039 0.1836072 0.4574145 0.10962514 -0.06546373 0.14661935 -0.1389946
-0.08785522 0.19145986 -0.053073507 -0.17818458 -0.15602559 -0.17873935 -0.12656398 -0.0061553917
0.06415891 -0.10489621 0.0020466333 -0.071280725 0.2590728 -0.07573481 -0.120133765 0.06953937
0.18030432 0.22983426 0.12475535 0.09969817 -0.14943285 -0.054785926 -0.14237626 0.14023253
0.21020672 0.18351766 0.022057988 -0.06549108 0.05532772 -0.09736643 -0.16536972 -0.22678117
-0.1087743 0.33127517 -0.18738726 0.054353356 -0.15878783 -0.23939243 -0.02994486 0.09918115
0.033413615 0.13716406 0.002949004 0.043440904 -0.11344802 -0.067114286 -0.09264587 -0.11962066
00000000: d8ae 69bc 77ed 7f3e cd39 c73e 2d11 133e
00000010: a7cc 233d 741e 7abc a174 693c 80bd f73b
00000020: 37f0 1e3e ecee 83bb bca5 0fbe 9ca1 743e
00000030: ee23 623d 4678 34bd b308 b8bd d8d9 5a3c
00000040: 134a 57be 5e20 e7bb 1b86 183e 7295 c7bd
00000050: 61ac 9b3d a4f1 f33c 8b2a 84bd 061c 12bd
00000060: e3a9 2a3e ff1d 5fbd 8d2b 853e 68c7 7dbb
00000070: 5f38 fd3e 8446 e7bd 48c1 903e c156 d23d
00000080: 5a5f c4bd f419 7d3d c3bb febd e597 bf3e
00000090: 544e 593e 1705 a13c 1694 06bd cb80 f7bd
000000a0: 8464 7ebd 65a1 8d3e 6e4a 0fbd 9070 b7bd
000000b0: 4faa d1bc b606 e13d 7a65 3a3e 1591 393e
000000c0: bc08 85be b1a7 1e3e d076 bdbd 7f77 5cbe
000000d0: a512 753e 7340 403e e5c7 003e 5fd6 ecbd
000000e0: 64aa 693e 6427 40bd 5195 4b3e ad13 62bd
000000f0: 77f1 fd3d 2db8 39bd f274 3ebe 564d 783e
00000100: 4311 30bd be3e 273e b048 d13d 93eb 1c3d
00000110: 6f54 2abe 9c8e 653e 6184 52bd 29ae f7bd
00000120: 85b7 733d f82d fe3b 4445 0c3e 120c 463d
00000130: 2340 4abe 1d71 ea3d 2672 8f3d 5252 2c3c
00000140: 48bd 123e bd5e 1f3d f231 973e c7d1 3b3e
00000150: 39e7 c53c 7f34 8cbd 9e34 1fbe 25be db3d
00000160: b823 e9bd 1f61 a53d 905a c63b eb2a b8bd
00000170: 27da 983e 166f a63e 5ee0 cebd 1376 873e
00000180: 7e4b cbbd 5353 3cbe d68a 3e3e f7fe 68be
00000190: 4037 913e 30a6 13bc 0d59 45bc 9852 68bd
000001a0: d78c b83e d933 09be 5c44 933e 408d 943d
000001b0: 1932 39be 9158 e8bd da5f aabd 37c7 afbb
000001c0: b1da 143e 46b5 b33d 3ec6 e8bc cdad 963d
000001d0: 5c1a 963e ff53 5c3d 893c b73d f3b3 6a3d
000001e0: 0198 403e b2fe 37bd daa7 65bd 0914 cc3c
000001f0: 4bd7 a3bd 96d9 a1bc aa70 273e 5e0b 563d
00000200: a0be 13be 1b2c 2abe 53cb dd3e 2b45 5f3c
00000210: f93e e83c e1ba dd3c e58b 0f3e 6004 e6bc
00000220: 2ac2 523e a15a b2bd 0010 033e 898d fa3d
00000230: d783 b7bc 8b3e 823e abb5 0c3e 338f 8dbc
00000240: e2e3 933e 0cdb 24be 2c38 f2bd e860 00be
00000250: b39b 91bd 195a 673d be4c 893e de39 0cbe
00000260: f2c9 70be eef3 573e 965b 533e 0ca6 dabd
00000270: cadf 513d b361 afbd f428 67bd 2fd6 3b3d
00000280: 112a 3fbd 1bde 1a3e 1aeb e33d 2ce6 c63d
00000290: 7c63 20be 4c37 823e 9f4c fabd d275 0bbe
000002a0: 417b 793e c2cc 843d d9b9 df3e 6ce6 f63e
000002b0: 9055 4fbe 2211 03be 2e75 31be 2b7b d3bd
000002c0: 5aa7 e0bd b919 5c3d cec4 3ebe 9ba6 5bbd
000002d0: a145 33be 65aa f3bd e7d5 813e 9e45 0fbe
000002e0: 1c69 143e 46f6 873e cedd a53d 1658 cf3d
000002f0: 7f32 02be 9802 83bb 2209 ae3e 53d0 cfbd
00000300: ad4f 7fbe fe06 013d 58b0 d0bd 9efb eebd
00000310: 1783 9ebd 2f45 febc 96c8 1b3e 846f 953c
00000320: 64d5 dd3e b000 c33c 8703 3c3e 3c32 ea3e
00000330: 2583 e03d d911 86bd 6223 163e 9a54 0ebe
00000340: 70ed b3bd 0e0e 443e 9b63 59bd 0576 36be
00000350: 2cc5 1fbe 7307 37be fd99 01be 2bb3 c9bb
00000360: bf65 833d d3d3 d6bd cf20 063b a1fb 91bd
00000370: 31a5 843e da1a 9bbd b108 f6bd a86a 8e3d
00000380: b2a1 383e ac59 6b3e bc7f ff3d 8e2e cc3d
00000390: ed04 19be 3567 60bd 15cb 11be 1e99 0f3e
000003a0: 6e40 573e 0eec 3b3e f4b2 b43c 3020 86bd
000003b0: 529f 623d 0d68 c7bd ae56 29be 5339 68be
000003c0: 0fc5 debd e69c a93e 72e2 3fbe a0a1 5e3d
000003d0: 4799 22be 4a23 75be ec4e f5bc 7d1f cb3d
000003e0: b7dc 083d bc74 0c3e 1444 413b 17ef 313d
000003f0: 6f57 e8bd 3773 89bd 1ebd bdbd adfb f4bd

fc3.weight f4 [25, 256]
0.050961815 -0.0151658105 0.3580867 -0.044920955 0.25132185 -0.048962567 0.10494596 0.09403959
-0.10485573 0.0050057 -0.17954662 0.08399014 0.2652343 0.00060595106 -0.031526763 0.1388397
-0.010491676 -0.30646503 0.12078179 0.16743834 0.07178034 -0.0017203995 0.0748037 -0.08807612
0.16174056 -0.04938911 -0.05144132 0.13267817 0.22359271 -0.005727704 -0.04646406 0.09991015
0.041973177 -0.01947777 -0.08544304 0.10942808 0.20312147 0.06302971 -0.009440226 0.2486774
0.09290406 0.16313216 -0.1766654 0.013438093 -0.018030671 -0.2947754 -0.120307066 -0.1636912
-0.3166796 -0.018135875 -0.09929684 0.09854033 0.00967141 -0.026363457 -0.04083394 0.0005103121
0.036640562 -0.010246988 -0.123115666 -0.043470252 0.028863376 0.0066587767 0.19161104 -0.13449086
0.013127475 0.165433 -0.14641336 0.10651152 -0.048675537 -0.100971974 0.11627637 0.04961614
0.27905136 -0.011233098 -0.049375344 -0.06275145 -0.073101304 0.13110955 -0.20566788 -0.08315349
0.036546756 0.005391166 0.17517835 -0.037943423 -4.5823435e-05 0.023082703 -0.0058408747 0.2606237
0.029692149 0.064772174 0.07209388 -0.0692704 0.30720824 0.21528162 -0.12339838 0.08625555
-0.10007938 -0.0038659433 0.15491651 -0.17573863 0.09047829 0.040005445 -0.26855034 -0.14689408
0.17519332 0.08076335 0.08695431 0.051336057 0.24032412 0.12047269 -0.07863638 0.12387117
0.10037012 0.17159913 0.026229193 0.030179944 0.015294781 -0.02661069 -0.005179216 -0.08886703
0.11955894 -0.10372962 -0.21959336 -0.009422999 -0.07250493 -0.034720153 0.1643279 -0.1787285
-0.05698823 -0.008593937 -0.022597706 0.0057166866 -0.06572622 0.0069830953 -0.029484048 0.16489772
0.16182181 -0.026753295 0.058319423 0.009374036 -0.0052463342 0.011995636 0.04905625 0.19204772
0.20845167 -0.051798556 0.06624777 -0.053807154 0.040078253 -0.051705018 0.016536877 -0.22713728
0.009957953 -0.016328832 0.18770692 -0.10859721 -0.040387634 -0.1251533 -0.054236207 0.14379801
-0.050032854 0.32575196 -0.01729374 -0.24647632 -0.13744354 0.1639138 0.10567621 0.05700187
0.077178665 0.06846985 0.13244557 0.16870989 0.08227368 0.048704214 -0.15164144 0.10032857
-0.08577402 -0.07351386 -0.060404897 0.033033427 -0.08953232 -0.029227614 -0.08012962 0.0073107234
0.21049215 -0.018952377 0.10710955 0.012758127 0.0030897202 -0.026458664 0.11248938 0.010753282
0.018394686 0.07674739 0.022505872 0.13302219 -0.09451642 0.00810683 0.032061674 -0.06679751
0.25861445 0.25290546 -0.024123097 0.20677844 0.22312133 0.1207303 0.23362291 -0.009244046
-0.0493378 0.053998165 0.06802807 -0.007712293 0.08703167 -0.1637155 -0.1288225 -0.20572345
0.05460948 0.06923747 -0.056134876 0.14865264 0.4263985 -0.08651434 -0.007397312 0.115739055
-0.10139796 0.0016547923 0.118803 -0.13609436 0.06881935 -0.04434878 -0.06529397 0.062529184
0.16091096 0.031723615 -0.006451767 0.17467505 -0.15726191 -0.055214815 -0.026305469 -0.050570536
0.025761567 0.06823611 -0.13813967 0.032204535 -0.13017069 0.07543455 0.022804987 -0.14784923
0.043812905 0.18128121 0.32041076 -0.23710826 0.049450886 -0.032770388 -0.061557733 -0.17245892
00000000: 56bd 503d 057a 78bc 2457 b73e 09ff 37bd
00000010: 42ad 803e f98c 48bd e8ed d63d d497 c03d
00000020: 9abe d6bd db06 a43b 12db 37be 0603 ac3d
00000030: cacc 873e b0d8 1e3a 3522 01bd ff2b 0e3e
00000040: 47e5 2bbc fce8 9cbe 715c f73d f574 2b3e
00000050: 9201 933d 077f e1ba af32 993d 4161 b4bd
00000060: 519f 253e 3c4c 4abd 22b4 52bd c9dc 073e
00000070: 7df5 643e 77af bbbb 1951 3ebd b19d cc3d
00000080: 11ec 2b3d d88f 9fbc c3fc aebd d41b e03d
00000090: 13ff 4f3e b815 813d 2dab 1abc 4aa5 7e3e
000000a0: 7c44 be3d 1e0c 273e c6e7 34be 722b 5c3c
000000b0: 0fb5 93bc cdec 96be 8d63 f6bd aa9e 27be
000000c0: d423 a2be b091 94bc 245c cbbd 83cf c93d
000000d0: d574 1e3c 2df8 d7bc 7d41 27bd 77c6 053a
000000e0: 6a14 163d fce2 27bc 1124 fcbd dd0d 32bd
000000f0: e372 ec3c de31 da3b af35 443e f9b7 09be
00000100: 9f14 573c 4567 293e 62ed 15be b622 da3d
00000110: 0060 47bd 65ca cebd 4e22 ee3d 4b3a 4b3d
00000120: d2df 8e3e 070b 38bc cd3d 4abd d583 80bd
00000130: 23b6 95bd 9541 063e 9a9a 52be 614c aabd
00000140: 0db2 153d 61a8 b03b f461 333e 906a 1bbd
00000150: 8a32 40b8 f017 bd3c cf64 bfbb 7870 853e
00000160: f33c f33c 46a7 843d f5a5 933d a4dd 8dbd
00000170: 664a 9d3e c972 5c3e 4ab8 fcbd c0a6 b03d
00000180: 6bf6 ccbd c45b 7dbb 6fa2 1e3e d4f4 33be
00000190: af4c b93d c0dc 233d 6e7f 89be 676b 16be
000001a0: e165 333e 4167 a53d 1a15 b23d c245 523d
000001b0: 8717 763e 63ba f63d 1c0c a1bd 2bb0 fd3d
000001c0: d98e cd3d afb7 2f3e 9bde d63c ee3b f73c
000001d0: f696 7a3c a9fe d9bc 6ab6 a9bb ebff b5bd
000001e0: 51db f43d 3270 d4bd 15dd 60be ec62 1abc
000001f0: 777d 94bd b836 0ebd 9345 283e 9b04 37be
00000200: 7e6c 69bd 96cd 0cbc d31e b9bc 0b53 bb3b
00000210: 789b 86bd 73d2 e43b 8888 f1bc f3da 283e
00000220: 9eb4 253e ba29 dbbc 59e0 6e3d 8f95 193c
00000230: 71e9 abbb 5889 443c 35ef 483d 28a8 443e
00000240: 5b74 553e b92a 54bd e9ac 873d e464 5cbd
00000250: 1829 243d a4c8 53bd 5878 873c ad96 68be
00000260: af26 233c 0bc4 85bc 3e36 403e 3768 debd
00000270: 816d 25bd 3028 00be c926 5ebd c93f 133e
00000280: 40ef 4cbd f6c8 a63e 9aab 8dbc 4a64 7cbe
00000290: 00be 0cbe 05d9 273e c56c d83d cb7a 693d
000002a0: d90f 9e3d ec39 8c3d d09f 073e 49c2 2c3e
000002b0: 1a7f a83d 127e 473d e547 1bbe 1179 cd3d
000002c0: 4aaa afbd 6f8e 96bd 206b 77bd 0f4e 073d
000002d0: b95c b7bd c06e efbc 001b a4bd cb8e ef3b
000002e0: 418b 573e 0442 9bbc 405c db3d 7707 513c
000002f0: e77c 4a3b d7bf d8bc d560 e63d 892e 303c
00000300: 74b0 963c bc2d 9d3d 3c5e b83c f836 083e
00000310: d391 c1bd 82d2 043c 1a53 033d 22cd 88bd
00000320: 1d69 843e d37c 813e cd9d c5bc babd 533e
00000330: eb79 643e 7341 f73d d83a 6f3e 5774 17bc
00000340: 6f16 4abd 2e2d 5d3d 4d52 8b3d 67b7 fcbb
00000350: a93d b23d 09a5 27be 0cea 03be 2ba9 52be
00000360: 31ae 5f3d 60cc 8d3d afed 65bd 6638 183e
00000370: e750 da3e 6e2e b1bd 2765 f2bb 9908 ed3d
00000380: bca9 cfbd 9ee5 d83a fd4e f33d 525c 0bbe
00000390: 29f1 8c3d 11a7 35bd d8b8 85bd 4d0f 803d
000003a0: d8c5 243e 9ff0 013d 5869 d3bb 04de 323e
000003b0: 4409 21be ee28 62bd 917e d7bc 0d23 4fbd
000003c0: ec09 d33c 60bf 8b3d 7c74 0dbe e7e8 033d
000003d0: 774b 05be 6e7d 9a3d 86d1 ba3c ca65 17be
000003e0: 2975 333d c8a1 393e e10c a43e 82cc 72be
000003f0: 038d 4a3d 3e3a 06bd f623 7cbd 1299 30be

fc3.bias f4 [25]
0.055595826 0.15049547 0.018764121 0.055529818 -0.0048430273 0.04786285 0.14552374 0.07737796
0.041946355 0.11870698 0.1385584 0.12434607 0.06754687 -0.0029014873 0.05558991 0.14071833
0.120808564 0.09295721 0.029350828 0.05647722 0.121192105 0.104721166 0.042199347 -0.0037617523
0.089910276
00000000: 73b8 633d 7c1b 1a3e 37b7 993c 3c73 633d
00000010: 42b2 9ebb d60b 443d 2d04 153e 5678 9e3d
00000020: f1cf 2b3d a51c f33d 41e2 0d3e 27a9 fe3d
00000030: 0356 8a3d e126 3ebb 3fb2 633d 7718 103e
00000040: 7b6a f73d 5a60 be3d 2671 f03c a854 673d
00000050: 9133 f83d 0d78 d63d 39d9 2c3d bb87 76bb
00000060: e122 b83d
