examples/carla_scenic/Carla_Challenge/agent_scalar/target_net_200.pt (torch, 96919 bytes, 6 tensors)

fc1.weight f4 [64, 10]
0.26744118 -0.13886924 -0.34893474 0.08562076 0.06649347 0.015920516 0.12230548 -0.107166275
-0.6954145 0.29231918 0.19013524 0.038307767 0.093398325 0.13720255 0.02646876 0.06531211
-0.01644682 -0.44539574 -0.17021124 0.25681975 -0.09966431 -0.045624692 -0.5446179 -0.13669777
-0.004072851 -0.111119084 0.01795329 -0.0014139609 -0.05503688 0.037622277 -0.022264393 0.014855109
-0.019066285 0.06546606 -0.048473455 -0.07500054 -1.180804 -0.40492 0.1999136 -0.030591391
-0.0068439473 -0.02007494 0.10581828 0.057480708 -0.040464945 -0.06568518 -0.19780986 0.30931973
0.10328897 -0.52590024 0.011718594 -0.06367959 0.047176063 -0.10965276 0.116668314 -0.06140342
-1.1405523 -0.5311706 0.26073605 -0.26491702 -0.61129194 -0.13620588 0.36492568 0.2923725
-0.0066305283 -0.08324664 -0.019648029 0.006649783 0.26480633 0.21325096 0.093148366 -0.36921504
0.35696313 0.09767605 -0.07369545 -0.013799192 -0.12821132 0.17865777 0.22732896 -0.20981693
-0.19018127 0.046651337 0.05121219 0.03973301 -0.009580725 -0.13948105 -0.016461505 0.28125146
0.47052982 -0.29968244 -0.3172956 -0.01673872 -0.41165915 -0.011303935 0.01748532 0.093077265
0.036721602 -0.021387551 -0.039956093 -0.30741403 -0.012541455 -0.008195926 0.24692015 -0.14243126
0.034814157 -0.038308647 -0.12153049 0.14759506 -0.37101302 -0.18154201 0.24970892 -0.06262535
-0.18624951 0.003102508 -0.046304945 0.0032463837 -0.2356227 -0.12863483 -0.010688341 0.09136778
0.1052229 -0.008601813 0.042964645 0.046305 -0.002941873 -0.13264649 0.2191762 -0.13258122
-0.13858189 -0.066416614 0.08600775 -0.12168437 -0.29640776 0.1438042 -0.042254318 0.15526538
0.061155826 0.054248888 0.5305575 -0.090841115 0.10394512 0.10348413 -0.05323233 -0.101893865
-0.08602946 0.05383206 -0.06273261 0.06788528 -0.07310978 0.28190753 -0.22682942 -0.19347735
0.4124221 0.28737736 -0.03494895 0.09601333 -0.02067746 0.022521676 -0.13967781 -0.20756935
-0.031290784 -0.15284078 -0.012207033 0.023641214 -0.021793364 0.048075754 0.3276883 -0.27532527
-0.26831985 0.103619605 0.06876833 0.17091848 0.246114 0.04023595 -0.07106706 -0.07443776
0.11483616 -0.09405482 -0.3288379 -0.44666204 -0.3958376 -0.2863136 0.06478434 0.16966818
-0.07741075 0.13406187 0.012606363 0.11253933 0.07556406 0.19398162 0.19326417 0.12198466
-0.41708854 0.06575071 -0.029706234 0.14083457 0.023233628 0.03996863 0.43956003 -0.40900773
0.24452163 -0.4400985 -0.2648295 0.102818504 -0.19643451 -0.049342114 0.075059526 -0.012268857
-0.33915427 -0.1381792 0.57868356 0.033079624 -0.10462095 -0.08646316 0.0083217835 -0.1606311
-0.19445856 0.27684188 0.36407405 -0.32370898 -0.1628304 -0.11933817 -0.0351596 -0.066446945
0.053596683 -0.028656928 -0.022111425 0.051674426 -0.3172881 0.27626 0.26128507 -0.08959601
0.12982453 -0.1364521 0.055141393 -0.006834753 -0.123232186 0.14282867 0.15583032 0.117973626
0.068644956 0.13451275 0.015106876 0.024176618 0.020186655 -0.013452102 -0.12732533 0.31053448
0.15298165 0.048250806 0.10706097 0.07783164 -0.0048619336 -0.15583013 -0.074255034 -0.13490519
00000000: 0dee 883e bd33 0ebe 93a7 b2be f059 af3d
00000010: ba2d 883d be6b 823c 4c7b fa3d fe79 dbbd
00000020: af06 32bf dcaa 953e d0b2 423e 9be8 1c3d
00000030: 9f47 bf3d d37e 0c3e 03d5 d83c 5bc2 853d
00000040: 7bbb 86bc e90a e4be db4b 2ebe e17d 833e
00000050: cd1c ccbd f5e0 3abd 146c 0bbf 80fa 0bbe
00000060: 8d75 85bb 6792 e3bd c712 933c a854 b9ba
00000070: 5a6e 61bd d119 1a3d d163 b6bc d862 733c
00000080: e630 9cbc 1213 863d 1a8c 46bd e299 99bd
00000090: 9624 97bf ad51 cfbe 27b6 4c3e cc9a fabc
000000a0: 3143 e0bb 3374 a4bc 41b7 d83d e470 6b3d
000000b0: 92be 25bd f485 86bd ab8e 4abe 285f 9e3e
000000c0: 2b89 d33d 66a1 06bf 58ff 3f3c 726a 82bd
000000d0: b03b 413d a091 e0bd ccef ee3d 2782 7bbd
000000e0: 9efd 91bf ccfa 07bf 327f 853e 34a3 87be
000000f0: a17d 1cbf 8e79 0bbe 8ad7 ba3e d9b1 953e
00000100: e744 d9bb 377d aabd e7f4 a0bc 6ce6 d93b
00000110: b294 873e 765e 5a3e 92c4 be3d c109 bdbe
00000120: dfc3 b63e 620a c83d a4ed 96bd 0216 62bc
00000130: d449 03be 10f2 363e ecc8 683e 40da 56be
00000140: e1be 42be 7915 3f3d e0c3 513d 15bf 223d
00000150: 79f8 1cbc 1fd4 0ebe 47da 86bc 3100 903e
00000160: 49e9 f03e fa6f 99be 9274 a2be a41f 89bc
00000170: fdc4 d2be 2434 39bc 603d 8f3c 4b9f be3d
00000180: 6469 163d f234 afbc 00a9 23bd 5f65 9dbe
00000190: ad7a 4dbc 3548 06bc a3d8 7c3e 80d9 11be
000001a0: 4a99 0e3d 87e9 1cbd fae4 f8bd 2923 173e
000001b0: 6bf5 bdbe 26e6 39be b2b3 7f3e b841 80bd
000001c0: 31b8 3ebe 7253 4b3b 41aa 3dbd 48c1 543b
000001d0: 1447 71be d9b8 03be 271e 2fbc 081f bb3d
000001e0: 1b7f d73d 9eee 0cbc b2fb 2f3d 50aa 3d3d
000001f0: 70cc 40bb 7bd4 07be ba6f 603e 5fc3 07be
00000200: 69e8 0dbe 6f05 88bd d524 b03d a835 f9bd
00000210: c2c2 97be 6941 133e dd12 2dbd e3fd 1e3e
00000220: 887e 7a3d 1534 5e3d 9ed2 073f e80a babd
00000230: 2ee1 d43d 7def d33d 250a 5abd bbad d0bd
00000240: 3730 b0bd 027f 5c3d f479 80bd 7007 8b3d
00000250: 95ba 95bd 2f56 903e f945 68be ed1e 46be
00000260: fd28 d33e 2023 933e a126 0fbd a3a2 c43d
00000270: c763 a9bc 617f b83c b307 0fbe 0f8d 54be
00000280: c42a 00bd 4b82 1cbe 0200 48bc 38ab c13c
00000290: ff87 b2bc 15eb 443d c3c6 a73e 6ff7 8cbe
000002a0: 3861 89be 8436 d43d 69d6 8c3d 4105 2f3e
000002b0: 4f05 7c3e 74ce 243d 9b8b 91bd d372 98bd
000002c0: 382f eb3d d09f c0bd 715d a8be e3b0 e4be
000002d0: 3aab cabe b297 92be a7ad 843d 7fbd 2d3e
000002e0: 8789 9ebd 8447 093e eb8a 4e3c 057b e63d
000002f0: 54c1 9a3d 1ea3 463e 0be7 453e 18d3 f93d
00000300: a18c d5be 4fa8 863d 7d5a f3bc f036 103e
00000310: 7354 be3c 25b6 233d 030e e13e 7669 d1be
00000320: e163 7a3e 9754 e1be bb97 87be 8292 d23d
00000330: 2126 49be f51a 4abd cfb8 993d 5103 49bc
00000340: a1a5 adbe d97e 0dbe 9b24 143f 807e 073d
00000350: 8243 d6bd 9913 b1bd 1758 083c 7b7c 24be
00000360: 2520 47be 38be 8d3e ea67 ba3e 2fbd a5be
00000370: 03bd 26be 9267 f4bd 8303 10bd 5615 88bd
00000380: 3288 5b3d efc1 eabc 0523 b5bc 90a8 533d
00000390: 9673 a2be f371 8d3e 28c7 853e 1d7e b7bd
000003a0: b9f0 043e 19ba 0bbe f1db 613d 10f6 dfbb
000003b0: 2861 fcbd ae41 123e fc91 1f3e 289c f13d
000003c0: ba95 8c3d b6bd 093e d582 773c 0b0e c63c
000003d0: 7c5e a53c 3566 5cbc 9261 02be 60fe 9e3e
000003e0: 39a7 1c3e a3a2 453d c842 db3d 3266 9f3d
000003f0: db50 9fbb ef91 1fbe 0613 98bd 9624 0abe

fc1.bias f4 [64]
-0.5903019 0.39937872 0.58102155 0.08284049 -0.060177192 0.052561194 0.5380269 -0.19295198
0.18642373 0.38884106 0.40210593 0.3702618 -0.36021638 -0.7845507 -0.09340093 0.46617702
0.098757155 0.58916855 0.3313605 -0.5625022 -0.7378555 -0.7279411 0.21750923 -0.25188145
0.28470385 -0.22114679 -0.42550996 0.032669757 -0.087634824 -0.16838472 -0.60070926 0.43988147
0.529788 -0.57615066 -0.45134243 -0.21396291 0.1260913 -0.7934853 0.5390952 0.6606757
0.22355859 -0.16771965 0.48085418 0.23923655 -0.5977669 0.36809 -0.12584744 0.19060978
0.24430211 -0.041724 0.4376024 -0.36550665 0.043346718 -0.055816256 -0.40852886 -0.7738835
0.561109 -0.42802787 -0.9115281 0.15861623 0.41203648 -0.43050846 -0.67922676 0.59811556
00000000: 061e 17bf 5e7b cc3e d4bd 143f 46a8 a93d
00000010: 5c7c 76bd 684a 573d 22bc 093f 3495 45be
00000020: dde5 3e3e 2d16 c73e d4e0 cd3e f492 bd3e
00000030: 486e b8be 51d8 48bf fd48 bfbd c1ae ee3e
00000040: 3141 ca3d c0d3 163f 15a8 a93e 2500 10bf
00000050: 19e4 3cbf 595a 3abf bdba 5e3e 9bf6 80be
00000060: b4c4 913e 4e74 62be 71dc d9be b9d0 053d
00000070: e379 b3bd 0b6d 2cbe 15c8 19bf 2538 e13e
00000080: 30a0 073f 9c7e 13bf 5b16 e7be 1819 5bbe
00000090: 141e 013e da21 4bbf 2502 0a3f 0b22 293f
000000a0: 8bec 643e b3be 2bbe 8532 f63e 6dfa 743e
000000b0: 4007 19bf 4b76 bc3e 27de 00be 362f 433e
000000c0: 552a 7a3e c9e6 2abd 6c0d e03e b023 bbbe
000000d0: 548c 313d 969f 64bd b22a d1be 3b1d 46bf
000000e0: d7a4 0f3f 7826 dbbe e859 69bf 4b6c 223e
000000f0: 72f6 d23e 9b6b dcbe cee1 2dbf 1a1e 193f

fc2.weight f4 [256, 64]
0.101024136 -0.17095768 -0.34446368 -0.019700777 -0.15702242 -0.1250061 -0.012855825 0.02441439
0.044972982 -0.39000723 0.037404895 -0.044500984 0.0008188412 -0.4177113 0.058529392 0.22727515
0.3118933 0.18386768 0.0061321426 -0.47268593 0.014523405 -0.20156607 0.004428404 -0.3855449
0.0029315017 -0.092976294 0.17028105 0.09968263 -0.037223823 0.1173927 0.023478149 -0.086470254
0.13336137 -0.4851959 -0.48027948 0.20376651 -0.13724618 -0.025233684 -0.12828162 0.20007071
-0.19544344 -1.1427263 -0.02432268 0.121342555 -0.10796672 0.20019145 0.0031884732 0.07927091
0.2882503 -0.061428223 -0.23549522 -0.07281378 -0.35496548 -0.466748 -1.136593 -0.18782069
0.09220305 0.11149934 -1.6084472 -0.12842007 -0.008157445 -0.14449856 -0.20428862 0.29994485
-0.37720168 -0.04341421 0.0128928125 -0.027597181 0.14237513 -0.612063 0.027988134 -0.17740655
-0.044801608 0.21446782 0.081289485 0.1679653 -0.1996418 -0.4678983 0.110360906 -0.107760675
0.32125828 0.1362719 -0.1799015 0.39199102 0.010521469 -0.05895339 -0.3704709 0.08184525
0.050366446 -0.00012384122 -0.13614096 -0.080590114 -0.0840003 -0.1662978 -0.5486946 0.008092905
0.17398201 -0.6128267 -0.7256433 -0.08411699 0.0659654 -0.41642976 0.07254277 0.21843734
-0.12021318 -0.11354522 -0.08148748 0.037018105 -0.47365287 0.0006285006 0.003595219 0.0179035
0.2461667 0.069931395 -0.10437625 -0.17852402 0.4480886 0.24528922 -0.5376059 -0.35893112
0.21134177 -0.072258495 -1.2294822 -0.048331853 0.16020857 -0.099850915 -0.27445105 0.15767209
-0.07762333 0.120032825 -0.112763286 -0.24205634 -0.13811302 -0.20844679 -0.0273061 -0.15345335
-0.15407777 -0.24686004 -0.076846525 -0.1733125 -0.0670439 -0.23944306 -0.24740113 -0.053232405
0.050667822 -0.32883254 -0.12538382 -0.21587795 0.01448553 -0.13514888 0.055548165 0.032087814
-0.20707142 -0.04974565 -0.36760876 0.047881316 -0.0082283765 -0.10365525 -0.3125332 -0.035058618
0.12603168 -0.06418118 -0.17785701 0.1841695 -0.15282975 -0.23882423 0.26780465 0.13142021
-0.18997814 -0.07332403 -0.17708978 -0.14102054 -0.29112875 0.032217797 -0.055348013 -0.17359537
0.02277881 -0.047256146 -0.013670461 -0.28033587 -0.18098502 -0.5813368 -0.23725268 -0.338558
0.060389888 -0.20333385 -0.14819914 -0.10653706 -0.20840864 -0.008062577 -0.23835175 0.05975797
-0.17542052 0.044722434 0.11881093 0.0633695 -0.03744985 -0.012247419 -0.1209042 0.107920304
0.112110525 0.1267838 -0.13704947 0.074010506 -0.072896935 0.0058574826 0.053587873 -0.08316768
0.06067594 -0.052488774 0.00014104955 0.14800914 0.02491676 0.10538643 -0.12041041 -0.09061147
0.048440363 0.014352711 -0.12686214 -0.032455426 -0.10674774 0.075659 -0.16781282 0.08533728
0.041150495 -0.15703306 -0.07322917 -0.17302994 0.052150473 0.20330581 0.12753999 0.06926437
-0.023281276 0.12032384 0.07933822 -0.22786163 0.14069024 0.06523378 0.035300195 -0.2638506
-0.19732839 -0.050533727 0.15042205 -0.0140440455 0.22767426 -0.010305 0.07826637 -0.10537947
0.11113082 0.03743606 0.08480643 -0.06383857 0.074568935 -0.045443747 -0.1677963 -0.032722108
00000000: bee5 ce3d 880f 2fbe 8b5d b0be 8663 a1bc
00000010: 7cca 20be 9901 00be 3da1 52bc b000 c83c
00000020: 9735 383d 07af c7be e035 193d aa46 36bd
00000030: 81a7 563a 41de d5be 84bc 6f3d d1ba 683e
00000040: 7bb0 9f3e cf47 3c3e 24f0 c83b e403 f2be
00000050: 93f3 6d3c 5667 4ebe 251c 913b 2466 c5be
00000060: 701e 403b 5b6a bebd 285e 2e3e 6826 cc3d
00000070: 0278 18bd 956b f03d 3f55 c03c 5117 b1bd
00000080: e28f 083e 996b f8be 31e7 f5be 2ba8 503e
00000090: 438a 0cbe dfb6 cebc 425c 03be 56df 4c3e
000000a0: 5322 48be db44 92bf 5b40 c7bc 7282 f83d
000000b0: a81d ddbd fdfe 4c3e b4f5 503b c958 a23d
000000c0: 8b95 933e 299c 7bbd a925 71be 641f 95bd
000000d0: 09be b5be 98f9 eebe e17b 91bf 1154 40be
000000e0: f4d4 bc3d c459 e43d 99e1 cdbf 8d80 03be
000000f0: cea6 05bc 6ef7 13be 0931 51be 5f92 993e
00000100: 9420 c1be 19d3 31bd 603c 533c 7c13 e2bc
00000110: c9ca 113e 29b0 1cbf 5f47 e53c 10aa 35be
00000120: e481 37bd 749d 5b3e 1a7b a63d 18ff 2b3e
00000130: e66e 4cbe 5e90 efbe e604 e23d a1b1 dcbd
00000140: f77b a43e dc8a 0b3e 1938 38be 0cb3 c83e
00000150: 3d62 2c3c 1c79 71bd 5dae bdbe 7c9e a73d
00000160: 0c4d 4e3d 60db 01b9 8968 0bbe 6e0c a5bd
00000170: 5908 acbd f849 2abe 4077 0cbf 1b98 043c
00000180: 5728 323e 36e2 1cbf c2c3 39bf 8745 acbd
00000190: de18 873d 4836 d5be 4e91 943d 0aae 5f3e
000001a0: 5432 f6bd 658a e8bd e8e2 a6bd 4ca0 173d
000001b0: a182 f2be f6c1 243a c49d 6b3b 5caa 923c
000001c0: 2013 7c3e 3138 8f3d 37c3 d5bd 00cf 36be
000001d0: de6b e53e 192d 7b3e 8aa0 09bf d2c5 b7be
000001e0: fa69 583e 43fc 93bd ac5f 9dbf 9ff7 45bd
000001f0: b70d 243e a37e ccbd d984 8cbe cb74 213e
00000200: fbf8 9ebd c5d3 f53d 70f0 e6bd 9edd 77be
00000210: 806d 0dbe 1373 55be 0bb1 dfbc e022 1dbe
00000220: 90c6 1dbe e1c8 7cbe b661 9dbd d578 31be
00000230: 504e 89bd 9030 75be b956 7dbe 390a 5abd
00000240: 1089 4f3d bd5c a8be 9e64 00be 1c0f 5dbe
00000250: b754 6d3c 7864 0abe 7986 633d 836e 033d
00000260: 880a 54be 18c2 4bbd 3737 bcbe 331f 443d
00000270: 50d0 06bc 3449 d4bd 5a04 a0be a099 0fbd
00000280: 730e 013e 6c71 83bd 2620 36be ee96 3c3e
00000290: 677f 1cbe 578e 74be b11d 893e 0593 063e
000002a0: a189 42be e92a 96bd 0657 35be b067 10be
000002b0: d40e 95be cff6 033d 99b4 62bd fcc2 31be
000002c0: a09a ba3c a98f 41bd 12fa 5fbc 2f88 8fbe
000002d0: 2354 39be 7dd2 14bf 5ef2 72be 7957 adbe
000002e0: 635b 773d c036 50be 84c1 17be 1a30 dabd
000002f0: 1369 55be e618 04bc 7b12 74be c6c4 743d
00000300: 70a1 33be df2e 373d 2553 f33d dec7 813d
00000310: 0465 19bd 66a9 48bc 9f9c f7bd 5205 dd3d
00000320: 349a e53d 9dd3 013e b256 0cbe d292 973d
00000330: fd4a 95bd 20f0 bf3b f57e 5b3d d153 aabd
00000340: 5687 783d 78fe 56bd b3e6 1339 b58f 173e
00000350: 3c1e cc3c d7d4 d73d bc99 f6bd 8292 b9bd
00000360: 6769 463d a227 6b3c 26e8 01be fbef 04bd
00000370: 8f9e dabd 1bf3 9a3d 20d7 2bbe 50c5 ae3d
00000380: 6c8d 283d 46cd 20be 2df9 95bd c32e 31be
00000390: bc9b 553d 662f 503e d899 023e 7ada 8d3d
000003a0: 60b8 bebc 586c f63d 147c a23d 8f54 69be
000003b0: 1a11 103e 4a99 853d f096 103d 6d17 87be
000003c0: 7410 4abe 74fc 4ebd 3d08 1a3e ff18 66bc
000003d0: 7123 693e 4dd6 28bc 1e4a a03d 31d1 d7bd
000003e0: 8e98 e33d 8e56 193d feae ad3d ccbd 82bd
000003f0: 99b7 983d 3923 3abd cbd2 2bbe 9e07 06bd

fc2.bias f4 [256]
0.052522495 0.37747565 0.34380576 0.16968925 0.13401179 0.01373839 0.016061282 0.007560432
0.124103285 -0.019066336 -0.1561276 0.34029555 0.038322866 -0.113898136 -0.12974916 0.033470374
-0.42255154 0.035449807 0.24904612 -0.040324256 0.0663218 0.07884709 0.010796673 0.09985287
0.45691898 0.02489863 0.44556203 0.053891234 0.41967013 -0.119864725 0.2559041 0.1507314
-0.15678567 0.18109329 -0.05368372 0.4878203 0.26591522 -0.18150589 -0.051131368 -0.0043732314
-0.14226016 0.35255665 -0.17623782 -0.22788921 0.034026798 0.11661844 0.2808105 0.23409417
-0.3819407 0.19017658 -0.09719893 -0.22698264 0.31106177 0.16386977 0.2443519 -0.14730056
0.32244676 -0.06594463 0.29302567 -0.06269507 0.22579114 -0.088879526 -0.14070438 0.20252524
0.023209171 0.2875159 0.19586274 0.25153705 -0.36023483 0.24894997 0.13021985 -0.13485754
-0.016355349 0.033024445 0.1378178 0.03499469 -0.19822694 0.20759924 -0.098445594 0.07917976
-0.022702415 -0.023523914 0.41176432 0.14817855 0.056660473 -0.21720237 -0.18698595 0.07575316
-0.18776648 0.05479907 0.062123436 -0.16088867 0.3930813 0.4326555 -0.1286171 0.34006152
0.013050864 -0.20787463 0.20000787 -0.16959347 0.3946253 -0.044219937 -0.004067701 -0.060304567
0.4719701 -0.23194002 0.3245335 0.14745028 -0.19673575 -0.14068659 -0.16532618 -0.064748436
0.102145486 0.21827579 -0.052571677 0.06349661 0.40435088 -0.013017961 0.150644 0.14008714
0.25498542 0.009556361 -0.2456961 0.010942132 -0.2185227 -0.019757073 0.14705959 0.029368602
-0.16710801 -0.4819764 0.4097851 -0.018136412 0.12814124 0.0638671 0.17326412 -0.028078258
0.35142186 -0.10828284 0.24319267 0.36992005 -0.051388934 0.32889992 0.06785592 0.09972536
0.3951894 -0.17187233 -0.1182712 -0.14147204 -0.06902283 0.072517954 0.32181266 -0.13411377
-0.23514536 0.2288697 0.20772453 -0.07515636 0.09971935 -0.09371894 -0.14996769 0.025840526
-0.29600874 0.26936293 0.22987385 0.075581126 -0.2034979 0.2597726 -0.15290582 -0.3722337
0.37991408 0.0669365 0.5644109 0.5856088 -0.20247483 -0.12799504 -0.13781895 -0.11613403
-0.12923434 0.031978477 -0.18629763 -0.022170998 -0.37449783 -0.13485819 0.31464514 -0.1398241
0.2009283 0.18741333 0.120604195 0.12876724 -0.06139944 -0.06514972 0.3976955 -0.11724991
-0.26759976 -0.002147876 -0.13117911 -0.13961634 -0.10926503 -0.04344233 0.16240892 -0.019867865
0.5564785 0.007951627 0.28861648 0.5763159 0.10962514 -0.077376604 0.24720317 -0.04756225
-0.12321906 0.07425355 0.0065692086 -0.18415338 -0.051981516 -0.30215016 -0.13426301 -0.11051335
0.12609722 -0.14513044 0.13626218 -0.06941523 0.4524915 -0.07388448 -0.35183582 0.1983183
0.14209612 0.28249693 0.08782202 0.26559767 -0.20935328 -0.054785926 -0.29976463 0.19704473
0.2962706 0.2728586 0.09841124 -0.10008183 0.05532772 -0.10803382 -0.25064507 -0.62491953
-0.119035184 0.4203847 -0.37995386 0.045108914 -0.19712 -0.13348484 -0.011828415 0.13872364
0.034883868 0.09010926 0.13739888 0.014280335 -0.24467598 -0.07391724 -0.19518611 -0.13549887
00000000: d421 573d 7d44 c13e 4f07 b03e 05c3 2d3e
00000010: 633a 093e fc16 613c f392 833c 80bd f73b
00000020: dd29 fe3d 0131 9cbc eadf 1fbe 383b ae3e
00000030: 70f8 1c3d 6d43 e9bd f7dc 04be 3b18 093d
00000040: ad58 d8be d133 113d f205 7f3e 0c2b 25bd
00000050: b9d3 873d 957a a13d 87e4 303c a97f cc3d
00000060: 49f1 e93e 36f8 cb3c b520 e43e 0ebd 5c3d
00000070: 01df d63e a37b f5bd dd05 833e 5559 1a3e
00000080: 6c8c 20be 8570 393e 76e3 5bbd 95c3 f93e
00000090: 0a26 883e aedc 39be 206f 51bd 534d 8fbb
000000a0: a6ac 11be 4e82 b43e b077 34be ca5b 69be
000000b0: af5f 0b3d a6d5 ee3d 65c6 8f3e 62b6 6f3e
000000c0: bb8d c3be a6bd 423e 3c10 c7bd 236e 68be
000000d0: 7d43 9f3e 7acd 273e 6237 7a3e f5d5 16be
000000e0: be17 a53e fa0d 87bd 7607 963e 4666 80bd
000000f0: cb35 673e 7806 b6bd cf14 10be c762 4f3e
00000100: 2921 be3c 4935 933e 3e90 483e 77c9 803e
00000110: b370 b8be beec 7e3e 5a58 053e 1818 0abe
00000120: a7fb 85bc a444 073d 1c20 0d3e 9856 0f3d
00000130: 01fc 4abe e594 543e d89d c9bd ff28 a23d
00000140: 6afa b9bc 39b5 c0bc c6d2 d23e 1ebc 173e
00000150: d014 683d 4c6a 5ebe 3f79 3fbe 7924 9b3d
00000160: db45 40be fd74 603d 2575 7e3d 00c0 24be
00000170: f441 c93e 0685 dd3e 33b4 03be 8b1c ae3e
00000180: 4bd3 553c 16dd 54be ddce 4c3e e9a9 2dbe
00000190: 540c ca3e f71f 35bd 594a 85bb ec01 77bd
000001a0: 11a6 f13e af81 6dbe 4129 a63e 35fd 163e
000001b0: 1975 49be 2510 10be 444b 29be d49a 84bd
000001c0: a731 d13d b083 5f3e 6655 57bd 830a 823d
000001d0: 1407 cf3e 4949 55bc 6c42 1a3e 0173 0f3e
000001e0: 738d 823e 4892 1c3c c297 7bbe a146 333c
000001f0: 6ac4 5fbe 96d9 a1bc ca96 163e 6c96 f03c
00000200: 5d1e 2bbe 9cc5 f6be 5acf d13e d092 94bc
00000210: 7537 033e c1cc 823d 266c 313e 6004 e6bc
00000220: 91ed b33e 65c3 ddbd 8007 793e 2966 bd3e
00000230: 347d 52bd 9265 a83e 0bf8 8a3d cf3c cc3d
00000240: 4456 ca3e 4dff 2fbe 2c38 f2bd 0cde 10be
00000250: d75b 8dbd 4b84 943d a1c4 a43e 1f55 09be
00000260: f2c9 70be d25c 6a3e bdb5 543e 94eb 99bd
00000270: a939 cc3d b7ef bfbd 2191 19be 83af d33c
00000280: 758e 97be f0e9 893e 0d64 6b3e 47ca 9a3d
00000290: c161 50be ea00 853e 5893 1cbe 6a95 bebe
000002a0: 1984 c23e 0116 893d 3c7d 103f 75ea 153f
000002b0: 9055 4fbe 2211 03be 6920 0dbe aed7 edbd
000002c0: 0256 04be ddfb 023d cec4 3ebe f49f b5bc
000002d0: 2ebe bfbe 4418 0abe 2b19 a13e 0d2e 0fbe
000002e0: 26c0 4d3e 48e9 3f3e 55ff f63d 8fdb 033e
000002f0: fb7d 7bbd 376d 85bd bf9e cb3e b920 f0bd
00000300: d602 89be 61c3 0cbb d153 06be 96f7 0ebe
00000310: 58c6 dfbd 96f0 31bd 864e 263e efc1 a2bc
00000320: 6075 0e3f 8a47 023c 8ac5 933e 7089 133f
00000330: 2583 e03d a077 9ebd d422 7d3e a2d0 42bd
00000340: 465a fcbd 3f12 983d 8442 d73b b492 3cbe
00000350: 92ea 54bd 6db3 9abe 3e7c 09be d354 e2bd
00000360: a11f 013e 139d 14be 5088 0b3e 9229 8ebd
00000370: f7ac e73e bf50 97bd d323 b4be f413 4b3e
00000380: a581 113e 70a3 903e 08dc b33d 6bfc 873e
00000390: b560 56be 3567 60bd c07a 99be 18c6 493e
000003a0: c8b0 973e 1fb4 8b3e d58b c93d b4f7 ccbd
000003b0: 529f 623d d640 ddbd 8d54 80be bafa 1fbf
000003c0: b8c8 f3bd aa3c d73e 5089 c2be 20c4 383d
000003d0: d3d9 49be 40b0 08be f8cb 41bc 920d 0e3e
000003e0: 63e2 0e3d 348b b83d 4bb2 0c3e 11f8 693c
000003f0: 578c 7abe ec61 97bd dede 47be 37c0 0abe

fc3.weight f4 [25, 256]
-0.009733346 -0.1341883 0.4541924 -0.025692824 0.2518396 -0.07240881 0.20891128 0.09403959
-0.09087337 0.012948495 -0.17954662 0.049684368 0.3753871 -0.031164624 -0.18971281 0.48975262
-0.08818009 -0.095217854 0.10778875 0.5440375 0.07131572 -0.100564785 0.19173346 -0.09365508
0.21994664 -0.07004551 -0.14456579 0.31581357 0.13895181 0.0036194513 -0.026689254 0.047604408
0.008953664 0.14591391 -0.27458712 0.12835196 0.16032259 0.09851541 -0.063533105 0.33557695
0.10695339 0.15490189 -0.19752903 0.015605005 -0.2057235 -0.21070407 -0.009390453 -0.3103098
-0.22862272 -0.034152173 -0.069300234 0.09854033 0.048600737 -0.05868309 0.14090878 0.0005103121
0.04883185 -0.03333165 -0.0050105704 -0.07121876 0.035940584 0.014442963 0.053682633 -0.14955117
0.00062171253 0.13825032 -0.13327388 0.16568023 -0.15549085 -0.08464553 0.09349165 0.1063153
0.3221379 -0.013943607 -0.08830079 -0.06258288 -0.073101304 0.13676079 -0.12464602 -0.08712148
-0.09919073 0.019957447 0.15076636 -0.11419176 0.08114369 0.0014890237 -0.038843933 0.24887827
0.0032990437 0.10095303 -0.057638116 -0.17166382 0.28051502 0.21785858 -0.11353392 0.03577715
0.13368663 0.008672827 0.06954122 -0.20918316 0.10549666 -0.36582673 -0.32506865 -0.11042179
0.15486792 0.089952424 -0.008067089 -0.049435385 0.24032412 0.22973862 -0.15738145 0.043371946
0.072723165 0.17229305 0.18229756 0.2477735 0.013323205 -0.02661069 -0.07130862 -0.103670985
0.08548564 -0.06775552 -0.15700957 -0.08315707 -0.020188954 -0.034720153 0.22999974 -0.16924231
-0.05903535 0.09625988 -0.041069474 0.0057166866 0.004171448 0.07129526 -0.016753294 0.16489772
0.27800286 -0.025988044 -0.31189254 -0.06707546 -0.008796893 0.0985498 0.23471707 0.12945555
0.16774072 -0.051940817 0.06624777 -0.0074248128 0.11868299 -0.15432885 0.03356407 -0.33961117
0.009957953 0.23288466 0.2561944 -0.044512592 -0.047327515 -0.097357586 -0.08940352 0.22622119
-0.20598389 0.2559789 -0.10941332 -0.0827936 -0.15685992 0.1656449 0.047704995 0.11785041
0.08208075 0.24056906 0.14418314 0.16487193 0.08227368 0.048704214 -0.31434882 0.10032857
-0.07538422 -0.07351386 -0.060404897 -0.119661674 -0.25304428 -0.029227614 -0.025667606 0.0073107234
0.20152175 0.2268036 0.07707616 0.039677314 -0.030146865 0.0625151 0.098939724 -0.0049214037
-0.015203589 0.058682483 0.06396666 0.13302219 -0.062026087 0.00810683 0.2196647 -0.13646741
0.25445244 0.25290546 0.0059117135 0.19943064 0.22312133 0.058039717 0.26715708 -0.19137141
-0.064453095 0.122423485 0.19493483 -0.007712293 0.2947761 -0.09965557 -0.055836495 -0.20734154
-0.0661082 0.014737998 -0.083022654 -0.036998995 0.732103 -0.09911045 -0.123564444 0.08159828
-0.39303505 0.0009570524 0.080457784 -0.3930437 -0.014511955 -0.04434878 -0.12167478 0.022740036
0.11796283 0.017025178 -0.06807862 0.10926243 -0.15726191 -0.030078921 0.011087715 -0.07849512
0.0052942014 0.08738089 -0.15712008 0.098824024 -0.28920156 0.10741611 0.032107968 -0.08476941
0.06456299 0.16906223 0.2387951 -0.19637015 -0.026158253 0.025555512 0.070528194 -0.17245892
00000000: 9d78 1fbc a868 09be e88b e83e c279 d2bc
00000010: 1ff1 803e 124b 94bd d7ec 553e d497 c03d
00000020: d11b babd ed25 543c 12db 37be d681 4b3d
00000030: bd32 c03e f44c ffbc 1344 42be dbc0 fa3e
00000040: c397 b4bd 9401 c3bd 59c0 dc3d 0b46 0b3f
00000050: fa0d 923d e9f4 cdbd c755 443e 3cce bfbd
00000060: b139 613e 0574 8fbd 0e09 14be 51b2 a13e
00000070: 6249 0e3e 5134 6d3b 6ca3 dabc d7fc 423d
00000080: 64b2 123c 756a 153e af96 8cbe b26e 033e
00000090: 9b2b 243e 73c2 c93d a51d 82bd bed0 ab3e
000000a0: 610a db3d 9a9e 1e3e 0d45 4abe 23ac 7f3c
000000b0: 2ea9 52be cfc2 57be 6ada 19bc ede0 9ebe
000000c0: 131c 6abe 26e3 0bbd 48ed 8dbd 83cf c93d
000000d0: 9111 473d ae5d 70bd 644a 103e 77c6 053a
000000e0: e803 483d c586 08bd b62f a4bb 24db 91bd
000000f0: 6f36 133d 2da2 6c3c 52e2 5b3d f123 19be
00000100: 6cfa 223a 7e91 0d3e f378 08be 14a8 293e
00000110: fe38 1fbe a35a adbd 8d78 bf3d d6bb d93d
00000120: 42ef a43e ba73 64bc 0bd7 b4bd 742b 80bd
00000130: 23b6 95bd 050b 0c3e 6a46 ffbd bf6c b2bd
00000140: 8224 cbbd cd7d a33c 7f62 1a3e 5fdd e9bd
00000150: aa2e a63d 582b c33a d11a 1fbd f2d9 7e3e
00000160: c534 583b 76c0 ce3d f215 6cbd a4c8 2fbe
00000170: aa9f 8f3e 5216 5f3e 7984 e8bd 108b 123d
00000180: 26e5 083e 7918 0e3c a16b 8e3d 1c34 56be
00000190: a20e d83d a44d bbbe 666f a6be d224 e2bd
000001a0: b295 1e3e fa38 b83d d32b 04bc c27c 4abd
000001b0: 8717 763e 9a40 6b3e 9a28 21be c8a6 313d
000001c0: e2ef 943d 976d 303e 36ac 3a3e 56b8 7d3e
000001d0: 9249 5a3c a9fe d9bc 410a 92bd 7451 d4bd
000001e0: 1813 af3d 68c3 8abd 1ec7 20be 414e aabd
000001f0: 4e63 a5bc b836 0ebd 0d85 6b3e db4d 2dbe
00000200: 0dcf 71bd e623 c53d 7738 28bd 0b53 bb3b
00000210: a4b0 883b 4003 923d 343e 89bc f3da 283e
00000220: 6456 8e3e e1e4 d4bc 61b0 9fbe dc5e 89bd
00000230: d820 10bc 7ad4 c93d ac59 703e ff8f 043e
00000240: 39c4 2b3e e5bf 54bd e9ac 873d d84b f3bb
00000250: 1110 f33d 6208 1ebe 7a7a 093d 84e1 adbe
00000260: af26 233c 5179 6e3e ea2b 833e d652 36bd
00000270: 7fda 41bd 6a63 c7bd 3119 b7bd 87a6 673e
00000280: 71ed 52be ab0f 833e 1714 e0bd b18f a9bd
00000290: e39f 20be d19e 293e 5066 433d 8e5b f13d
000002a0: f419 a83d bc57 763e bfa4 133e 30d4 283e
000002b0: 1a7f a83d 127e 473d 54f2 a0be 1179 cd3d
000002c0: 0b63 9abd 6f8e 96bd 206b 77bd 2e11 f5bd
000002d0: 058f 81be c06e efbc df44 d2bc cb8e ef3b
000002e0: b85b 4e3e 343f 683e 1bda 9d3d ae84 223d
000002f0: 8ff6 f6bc eb07 803d e9a0 ca3d ba43 a1bb
00000300: 7918 79bc 0b5d 703d f400 833d f836 083e
00000310: 110f 7ebd 82d2 043c c8ef 603e 1dbe 0bbe
00000320: 9747 823e d37c 813e 0cb7 c13b 8c37 4c3e
00000330: eb79 643e 0ebb 6d3d d0c8 883e def6 43be
00000340: fcff 83bd 2ab9 fa3d ff9c 473e 67b7 fcbb
00000350: e5ec 963e 3818 ccbd cfb4 64bd 5751 54be
00000360: bc63 87bd a577 713c c807 aabd 428c 17bd
00000370: 1a6b 3b3f 6bfa cabd 5b0f fdbd 001d a73d
00000380: e43b c9be b3e2 7a3a 0dc7 a43d 063d c9be
00000390: 8dc3 6dbc 11a7 35bd a130 f9bd 5049 ba3c
000003a0: 7f96 f13d 6378 8b3c ce6c 8bbd fbc4 df3d
000003b0: 4409 21be 1268 f6bc 3fa9 353c 0dc2 a0bd
000003c0: fb7a ad3b c1f4 b23d 16e4 20be 4064 ca3d
000003d0: 3a12 94be fafc db3d a583 033d 969b adbd
000003e0: 9a39 843d a61e 2d3e b486 743e 4215 49be
000003f0: d549 d6bc cb59 d13c 1671 903d 1299 30be

fc3.bias f4 [25]
0.18001622 0.20369668 0.09866356 0.1458164 0.07944036 0.12770884 0.1326397 0.1550566
0.12426236 0.2010229 0.19580248 0.22580874 0.12408189 0.04288901 0.1424178 0.12879048
0.16406001 0.21042229 0.04507518 0.17304319 0.21045902 0.1807116 0.09149862 0.095001996
0.14574623
00000000: 2c56 383e dd95 503e 1f10 ca3d e550 153e
00000010: a1b1 a23d 1bc6 023e b4d2 073e 28c7 1e3e
00000020: 447d fe3d f2d8 4d3e 7280 483e 683a 673e
00000030: a51e fe3d 63ac 2f3d f9d5 113e a7e1 033e
00000040: 59ff 273e f178 573e c0a0 383d 3c32 313e
00000050: 9282 573e 760c 393e a163 bb3d 6890 c23d
00000060: 803e 153e
