examples/carla_scenic/Carla_Challenge/agent_scalar/target_net_0.pt (torch, 96919 bytes, 6 tensors)

fc1.weight f4 [64, 10]
0	0x3d5c044b	0.05371503
1	0xbcbaaef6	-0.022788506
2	0xbd9b1d7c	-0.07573983
3	0x3dd7fcb5	0.10546247
4	0xbdea8667	-0.114514165
5	0x3c092934	0.00837164
6	0xbd628a13	-0.05530746
7	0xbdb792b2	-0.08963527
8	0xbd9430f2	-0.07235898
9	0x3c0eb996	0.008711239
10	0xbdf503b8	-0.119636
11	0xbc3f1554	-0.0116628
12	0xbcb11ad7	-0.021619244
13	0xbd27fc1b	-0.04101191
14	0xbd38dd88	-0.045133144
15	0xbde49a30	-0.111622214
16	0xbc6185ff	-0.013764857
17	0x3bb910a3	0.005647735
18	0xbda03238	-0.078220785
19	0x3d3e8137	0.046509948
20	0x3e05f227	0.13080655
21	0xbd42ace9	-0.04752818
22	0x3b739742	0.0037169014
23	0xbda35013	-0.07974257
24	0x3c9fb243	0.019494181
25	0xbdadc198	-0.08484191
26	0xbe069950	-0.13144422
27	0x3d63447a	0.055485226
28	0xbd7f3ca7	-0.062313702
29	0x3bea4b72	0.007150107
30	0x3caf7296	0.021416944
31	0x3dcbe716	0.099561855
32	0x3df36288	0.11884028
33	0x3dab6ee4	0.0837076
34	0x3df44712	0.11927618
35	0xbd1052ad	-0.035235096
36	0x3e37df5e	0.17956302
37	0x3a65243a	0.0008741055
38	0xbe7961ef	-0.24353765
39	0xbd40b6d7	-0.04704937
40	0x3d9920a0	0.07476926
41	0xbe56a9dd	-0.20963235
42	0x3d5b7090	0.053574145
43	0x3e304415	0.17213471
44	0xbe0104f7	-0.1259955
45	0x3d7cfa05	0.061761875
46	0x3db68762	0.08912541
47	0xbd51fbb5	-0.051265437
48	0xbdcc2a8a	-0.09969051
49	0x3db37e29	0.087642975
50	0xbd0662f0	-0.032809198
51	0xbd9e6917	-0.07734888
52	0xbd25f276	-0.040514432
53	0x3c3e359b	0.01160946
54	0xbe29fd65	-0.16600569
55	0x3d291684	0.04128124
56	0xbc05be33	-0.008163023
57	0x3dea85a2	0.1145127
58	0xbb59c8f8	-0.003323136
59	0x3d9e1a45	0.07719854
60	0xbde00bea	-0.109397724
61	0xbe652f7d	-0.22381397
62	0xbdef751b	-0.11692258
63	0xbe3b1bda	-0.18272343
64	0xbd806ffe	-0.06271361
65	0x3cb76ead	0.022391642
66	0xbdad37a1	-0.08457876
67	0x3e100022	0.1406255
68	0xbdac451a	-0.084116176
69	0x3e0f8af9	0.14017858
70	0x3e068a4a	0.1313869
71	0xbc33ed07	-0.010981805
72	0x3e3afa24	0.18259484
73	0x3e5f8e50	0.21831632
74	0xbdc8861b	-0.097912036
75	0x3e15c8c7	0.14627372
76	0x3d8343ff	0.064094536
77	0x3d8e79fe	0.06956862
78	0xbca7f22a	-0.020501215
79	0xbd968637	-0.07349818
80	0x3d6b1e88	0.057402164
81	0x3ce986b2	0.02850661
82	0x3d950b07	0.07277494
83	0x3d2c9bb7	0.04214069
84	0xbde908cb	-0.1137863
85	0xbd879687	-0.06620508
86	0xbe77d098	-0.24200666
87	0x3dba5fbf	0.09100293
88	0x3d3f9bf3	0.046779584
89	0xbc92824b	-0.017884394
90	0x3c90dad3	0.017682469
91	0xbda081ec	-0.07837281
92	0x3d448a4a	0.047983445
93	0x3e29ca23	0.16581015
94	0x3c68e610	0.014215007
95	0xbd9aa8f4	-0.075517565
96	0xbbb6ef95	-0.0055827596
97	0x3dbae057	0.09124821
98	0xbd0fe5ee	-0.035131387
99	0xbdfb059b	-0.122569285
100	0xbdb1d568	-0.08683282
101	0x3c922c71	0.017843457
102	0xbdb13d5d	-0.08654282
103	0x3e006f70	0.1254251
104	0x3d293987	0.041314628
105	0xbd9c99a3	-0.076464914
106	0x3e1ecbe1	0.15507461
107	0xbca0a58b	-0.019610187
108	0x3dfd7b82	0.12377073
109	0x3d3b4495	0.0457197
110	0x3e00bb3f	0.12571429
111	0xbda9d214	-0.08292022
112	0xbd9dc68a	-0.07703884
113	0xbc0cd826	-0.008596456
114	0x3cef4575	0.029207924
115	0xbdd8ee22	-0.10592295
116	0xbdb9e6cf	-0.09077226
117	0x3de40265	0.11133269
118	0xbc1f7921	-0.009733469
119	0xbc3f9cf3	-0.011695134
120	0xbd4d3a12	-0.05010421
121	0x3dfac1b7	0.122439794
122	0x3bd8702b	0.0066051683
123	0xbd8dbd73	-0.069209
124	0x3e1eef3c	0.15520948
125	0x3e66c2a3	0.22535186
126	0x3e4d54f7	0.20051943
127	0x3e071d9e	0.13194892
128	0x3d639f37	0.05557176
129	0x3d573a55	0.052545864
130	0xbc8ebb50	-0.017423302
131	0xbd435306	-0.0476866
132	0xbbd4d1d0	-0.006494738
133	0xbdf957ea	-0.121749714
134	0x3dec6977	0.11543553
135	0x3d3eca2e	0.046579532
136	0xbd92db92	-0.07170786
137	0x3d19a2f8	0.037508935
138	0x3cb89e76	0.022536498
139	0x3d5f0085	0.054443855
140	0xbbb414b1	-0.0054956307
141	0x3c9588b7	0.018253667
142	0x3d75121f	0.059831735
143	0xbde70445	-0.11280111
144	0xbc77269b	-0.015084888
145	0x3e850d8b	0.25986895
146	0x3dcc8f77	0.09988301
147	0xbd1c4bdb	-0.03815828
148	0xbdb63224	-0.08896282
149	0x3ca4ae56	0.020102661
150	0x3ccc7330	0.02495727
151	0x3e16d933	0.14731292
152	0xbd1b3f5d	-0.037902225
153	0xbe2dcf0e	-0.16973516
154	0x3e0651e3	0.13117175
155	0xbe20834e	-0.15675089
156	0xbd50f1b2	-0.05101175
157	0x3d6713a2	0.056415208
158	0x3cb518f0	0.022106618
159	0x3bc3a402	0.005970479
160	0xbd81a69b	-0.063306056
161	0x3dfe7bca	0.12425955
162	0xbd44b43f	-0.04802346
163	0xbda6d147	-0.08145385
164	0x3d52b023	0.05143751
165	0x3b64c8df	0.0034909768
166	0x3ae06465	0.0017119764
167	0xbc973b13	-0.018460786
168	0x3e128283	0.14307599
169	0x3d9fd790	0.07804787
170	0xbd5627c2	-0.05228401
171	0x3bf18fef	0.0073718945
172	0xbbe0b205	-0.006857159
173	0xbd683862	-0.056694396
174	0xbdbfee02	-0.09371568
175	0xbdd38fab	-0.10330137
176	0x3d28cc39	0.041210387
177	0x3c69cf2a	0.014270583
178	0x3e37bf83	0.1794415
179	0x3dcce5eb	0.10004791
180	0xbb0abb41	-0.002116874
181	0xbe25bcb7	-0.1618527
182	0x3df4ea22	0.1195872
183	0x3d1e3f56	0.03863462
184	0x3deaca47	0.114643626
185	0xbdf5a8e7	-0.11995106
186	0x3d42ba6f	0.04754108
187	0xbe210403	-0.15724187
188	0xbd6c4972	-0.05768723
189	0xbd3c94fb	-0.046040516
190	0x3cdab2d5	0.026696602
191	0xbdab62d7	-0.083684616
192	0xbe0cb10d	-0.13739415
193	0x3e0d7e4b	0.13817708
194	0xbd7b23e3	-0.06131352
195	0x3e2fefad	0.17181273
196	0x3de3db85	0.111258544
197	0xbc3db7d6	-0.011579474
198	0x3dd9505f	0.10611033
199	0xbd044b87	-0.03229859
200	0xbdab0822	-0.083511606
201	0xbd3f3413	-0.04668052
202	0xbc52e4f0	-0.012871966
203	0xbdcf236d	-0.10114179
204	0x3e1f6e38	0.15569389
205	0x3e5e2128	0.21692336
206	0x3d76867b	0.060186844
207	0x3dd06707	0.10175901
208	0x3dcf0b2a	0.10109551
209	0xbe07c8f3	-0.1326025
210	0xbdc18cc9	-0.09450681
211	0x3c59697d	0.013269779
212	0x3deb23f2	0.114814654
213	0xbe3cab3b	-0.18424694
214	0x3d937c98	0.07201499
215	0xbd405fe6	-0.046966456
216	0xbd842aac	-0.064534515
217	0xbd4295ff	-0.04750633
218	0xbda86ce3	-0.082238935
219	0x3e559477	0.20857416
220	0xbd4563ee	-0.048191004
221	0xbe0abc9c	-0.13548511
222	0xbe088910	-0.13333535
223	0x3e0e5a8e	0.13901731
224	0x3e06817b	0.1313533
225	0x3d012926	0.031533383
226	0x3dbe6e1b	0.09298345
227	0x3c2cd785	0.010549431
228	0x3d3d7eab	0.046263378
229	0xba28cf44	-0.00064395764
230	0xbac9ee3b	-0.0015406081
231	0x3e593628	0.21212065
232	0xbd566020	-0.052337766
233	0xbc9db4d3	-0.019251263
234	0x3db9a6de	0.090650305
235	0xbc1228e8	-0.008920886
236	0x3c37c17f	0.011215567
237	0xbd8b427d	-0.06799791
238	0xbdff23b0	-0.12457979
239	0xbe419c7b	-0.18907349
240	0x3da630a8	0.08114749
241	0x3e22a654	0.15883762
242	0xbcc68c46	-0.02423681
243	0xbe22d6b5	-0.15902217
244	0xbd83033f	-0.063971035
245	0x3e1298e4	0.14316136
246	0xbd4e2010	-0.050323546
247	0xbd0c7f8b	-0.034301322
248	0x3d42d2fd	0.047564495
249	0xbd3a1710	-0.04543215
250	0xbe606117	-0.21912037
251	0xbdeadf1f	-0.11468338
252	0x3cf9e80f	0.030506162
253	0xbd53bc43	-0.051693212
254	0xbc3f7a18	-0.011686824
255	0xbd2ac165	-0.04168834

fc1.bias f4 [64]
0	0xbe933597	-0.28751823
1	0x3db6c440	0.089241505
2	0xbd9bc781	-0.07606412
3	0xbe005be4	-0.12535053
4	0xbe801068	-0.25012517
5	0x3e9eb8e8	0.31000447
6	0xbe82ef98	-0.2557342
7	0xbd1fe680	-0.03903818
8	0xbdcb3873	-0.09922876
9	0xbe07b204	-0.13251501
10	0x3d88a2ec	0.066717
11	0x3e4a426f	0.19751905
12	0x3dc96ed9	0.09835596
13	0x3ddcd640	0.107830524
14	0xbe63d792	-0.22250202
15	0xbdbea8f2	-0.093095675
16	0x3e3892cd	0.1802475
17	0xbd6ff367	-0.058581736
18	0x3bee6610	0.0072753504
19	0x3dc8aa1d	0.097980715
20	0x3e05e450	0.13075376
21	0xbe2baff2	-0.16766337
22	0x3e0ccc3e	0.13749787
23	0xbe63d26c	-0.22248238
24	0x3e31a30e	0.17347357
25	0xbe364a02	-0.17801669
26	0x3de90ffa	0.113800004
27	0xbe7e227a	-0.2481784
28	0x3ced2f21	0.028953137
29	0x3e2fddc6	0.17174444
30	0x3ceee451	0.029161604
31	0x3d062d7d	0.032758225
32	0x3d8793c2	0.066199794
33	0x3e422962	0.18961099
34	0xbea0794d	-0.31342545
35	0x3dd7c0a8	0.10534793
36	0xbe86f572	-0.26359135
37	0xbe3159eb	-0.17319457
38	0xbd218564	-0.03943385
39	0x3da662da	0.08124323
40	0x3dbc1468	0.0918358
41	0x3e507d42	0.20360282
42	0x3d3ae992	0.045632906
43	0xbe08b99f	-0.13352059
44	0xbe3d271e	-0.18471953
45	0x3e6cb273	0.23114948
46	0x3daa1006	0.083038375
47	0xba0d0717	-0.00053797796
48	0xbdfe68b5	-0.12422315
49	0xbd2cbd5f	-0.042172786
50	0x3e457769	0.19283833
51	0x3da80c6f	0.082054965
52	0xbea05cbe	-0.31320757
53	0x3e7ef3d9	0.24897708
54	0xbe9d38a8	-0.30707288
55	0xbb04d213	-0.0020266816
56	0x3ea00631	0.31254724
57	0xbdfb860a	-0.12281425
58	0x3e9f08db	0.31061444
59	0x3e35e4db	0.17763083
60	0xbe63d3c1	-0.22248746
61	0x3dafff76	0.08593647
62	0x3cbffe41	0.023436667
63	0xbe17f2a2	-0.14838651

fc2.weight f4 [256, 64]
0	0x3e1b3772	0.1515787
1	0xbd2efade	-0.042719714
2	0x3debb0d0	0.11508334
3	0xbdc55e60	-0.09637141
4	0x3dcb57b9	0.09928841
5	0xbdb4692f	-0.08809125
6	0x3d99a1bc	0.075015515
7	0xbdd6b0bf	-0.104829304
8	0xbc87dbfd	-0.01658439
9	0xbe0564e3	-0.13026766
10	0x3d45ed50	0.048322022
11	0x3cd3618a	0.025803346
12	0xbc0a4f21	-0.008441717
13	0x3d8d13cf	0.06888544
14	0x3d55e0b2	0.05221624
15	0x3d5117f7	0.051048245
16	0x3d0b10d2	0.033951588
17	0x3d6d549b	0.057942014
18	0x3c98c125	0.018646786
19	0xbecfd167	-0.4058945
20	0x3dc9cd4b	0.0985361
21	0xbdcaeb36	-0.09908144
22	0x3d311ab3	0.043238353
23	0x3e9e573e	0.30925936
24	0xbe05f311	-0.13081004
25	0x3d33e15f	0.043916102
26	0x3d89a0e7	0.06720143
27	0x3bded7d3	0.0068006306
28	0x3c915b1a	0.017743636
29	0xbe039051	-0.12848021
30	0xbdf036b3	-0.11729183
31	0xbd73351a	-0.059376813
32	0xbe1f604f	-0.15564083
33	0xbdcc567f	-0.09977435
34	0x3eb10e8f	0.3458142
35	0xbe304c9f	-0.17216729
36	0x3dea2340	0.11432505
37	0xbe178e3e	-0.14800355
38	0x3c363532	0.011121081
39	0xbe56e6d0	-0.20986485
40	0xbcc8bd53	-0.02450434
41	0x3d8d8763	0.069105886
42	0x3df59d08	0.11992842
43	0x3d70a040	0.058746576
44	0x3d023905	0.03179266
45	0xbdffb05a	-0.12484808
46	0xbe04299e	-0.129065
47	0x3d3bcf07	0.045851734
48	0x3e0cc6e3	0.13747744
49	0xbdd23e5a	-0.10265799
50	0x3cf87a17	0.030331654
51	0xbdcc975b	-0.09989806
52	0x3c0f0a9a	0.008730555
53	0x3d1413f6	0.03615185
54	0x3e182a14	0.14859802
55	0xbcf5bd90	-0.029997617
56	0x3d3d47d8	0.046211094
57	0x3e3f2871	0.18667771
58	0xbd46d5fb	-0.04854391
59	0x3afc4c33	0.0019248783
60	0x3d4b74a4	0.049671784
61	0xbcb4eff1	-0.02208707
62	0xbd27bdcc	-0.04095249
63	0xb9a02cea	-0.00030551042
64	0x3de9e135	0.11419908
65	0xbd36b2c3	-0.044604074
66	0xbd5e1143	-0.05421568
67	0x3d7cb217	0.061693277
68	0x3d14423b	0.036195975
69	0xbda4ad7f	-0.08040904
70	0xbe267980	-0.16257286
71	0x3d576e5f	0.052595492
72	0xbcf2252a	-0.029558737
73	0x3dbac903	0.09120371
74	0xbc4b0dea	-0.012393454
75	0x3d713c35	0.05889531
76	0xbe6bfc05	-0.23045357
77	0x3dd088a2	0.10182311
78	0xbeabb95a	-0.3353985
79	0xbce784fb	-0.028261652
80	0xbd399e08	-0.045316726
81	0xbdbd171f	-0.092329256
82	0x3e693d87	0.22777377
83	0x3d100fd2	0.035171337
84	0xbc016769	-0.00789819
85	0xbd68cc0f	-0.05683523
86	0xbd2b243e	-0.04178261
87	0xbcaf0922	-0.02136666
88	0x3d397275	0.04527517
89	0xbe84a147	-0.25904295
90	0x3ddf1acb	0.10893782
91	0xbbab60c0	-0.0052300394
92	0x3e3d0ef3	0.18462734
93	0xbe12cfad	-0.14337035
94	0x3c90e627	0.01768787
95	0xbd0a86a7	-0.03381982
96	0x3d2559fe	0.040369026
97	0x3d303f19	0.043028925
98	0x3e2381ee	0.15967533
99	0xbd651147	-0.05592468
100	0xbd789ed2	-0.060698338
101	0x3d52a51d	0.051426996
102	0x3cdc80b5	0.026916841
103	0x3d168e43	0.036756765
104	0xbe5df792	-0.21676472
105	0xbd2ba7fb	-0.041908246
106	0x3df21108	0.11819655
107	0x3d5bae15	0.053632814
108	0x3e5367d8	0.20645082
109	0xbde01aaa	-0.10942586
110	0xbbe1a09a	-0.0068856003
111	0xbb794d17	-0.0038040334
112	0x3d6f2983	0.058389198
113	0xbd6e840f	-0.05823141
114	0x3e24425e	0.16040942
115	0xbe250f9c	-0.16119236
116	0x3d9fc423	0.07801082
117	0x3d4acc73	0.049511384
118	0x3d8f2ab3	0.06990566
119	0xbdb49718	-0.08817881
120	0xbdf4e407	-0.11957555
121	0x3c61a71b	0.013772751
122	0x3e975c59	0.29562643
123	0xbd23ab9d	-0.039958585
124	0xbcc0acc6	-0.023519885
125	0xbd01510f	-0.031571444
126	0xbd82e2f6	-0.063909456
127	0x3dc9f764	0.09861639
128	0xbd6cd640	-0.057821512
129	0x3d11f9b8	0.03563854
130	0xbdc1ee87	-0.094693236
131	0x3e2b24af	0.16713212
132	0x3e6ac6fb	0.22927468
133	0xbe32e63f	-0.17470644
134	0x3dbfdf6f	0.093687885
135	0xbe1dab1f	-0.15397309
136	0xbe332c36	-0.17497334
137	0x3e5fb8ea	0.21847883
138	0x3d60ec80	0.054913044
139	0xbd049199	-0.032365415
140	0xbdfb6dd2	-0.12276806
141	0x3de32618	0.1109125
142	0xbb6bdb63	-0.003598892
143	0x3dd9a4c0	0.10627127
144	0xbd856154	-0.065127045
145	0x3c8d1361	0.017221155
146	0xbe0ea052	-0.13928345
147	0x3c49147f	0.012272953
148	0xbde7c540	-0.11316919
149	0x3e4f68ed	0.2025487
150	0xbc2c3fdd	-0.010513273
151	0xbe3c9add	-0.1841845
152	0xbd8d7143	-0.069063686
153	0xbdd43ccd	-0.10363159
154	0x3ca3ea46	0.020009171
155	0xbe208497	-0.15675579
156	0xbdafa665	-0.08576659
157	0x3d236883	0.039894592
158	0x3c8a0fa8	0.016853169
159	0xbd3c066c	-0.045904562
160	0xbe579198	-0.21051633
161	0x3d97cc56	0.07412021
162	0xba1f78c6	-0.00060833653
163	0x3d6b0bf7	0.057384457
164	0x3def69ed	0.116901256
165	0x3d4aa50f	0.04947382
166	0x3dbb5c7b	0.091484986
167	0x3ca9f0ef	0.020744769
168	0xbd4ba397	-0.04971656
169	0x3e0608d3	0.13089304
170	0x3dd3bcd2	0.10338749
171	0xbd7c349a	-0.061573602
172	0x3c6b99b3	0.0143799065
173	0x3d1a2d7d	0.037641037
174	0x3c0a22a0	0.008431107
175	0x3e1b05af	0.15138887
176	0x3d3013fc	0.04298781
177	0x3d592e50	0.053022683
178	0xbd558d20	-0.05213654
179	0xbd33c037	-0.043884482
180	0x3db39995	0.08769528
181	0x3d9494c3	0.072549365
182	0xbda682c4	-0.0813041
183	0xbcb31feb	-0.021865806
184	0xbdfdcde8	-0.12392789
185	0x3df4bf0b	0.11950501
186	0xbe049941	-0.12949087
187	0x3cb35733	0.021892166
188	0xbd03dbd2	-0.03219206
189	0xbc5958f7	-0.01326584
190	0x3e18ec83	0.14933972
191	0x3e3d677c	0.18496507
192	0xbb675d7b	-0.0035303521
193	0x3d7a2d0f	0.061078127
194	0xbd0d1714	-0.034445837
195	0xbe0045f3	-0.12526684
196	0x3d81c998	0.06337279
197	0x3e3d1a60	0.18467093
198	0x3a6b1e08	0.00089690136
199	0xbdc386d3	-0.095472
200	0x3d869a93	0.065724514
201	0x3ca5d2ec	0.020242177
202	0xbd1f146c	-0.038837835
203	0x3db9e462	0.09076764
204	0xbb4d916a	-0.003136719
205	0x3df3dbe3	0.119071744
206	0xbd8cf909	-0.06883437
207	0xbb8ec6b5	-0.004357184
208	0x3d133282	0.03593684
209	0x3d973194	0.07382503
210	0xbe0031d3	-0.12519006
211	0x3ddcbaef	0.10777842
212	0xbd3a97d3	-0.045554947
213	0x3c430acb	0.011904429
214	0x3c2beef5	0.0104939835
215	0x3d3200ac	0.043457672
216	0xbd248f3e	-0.04017567
217	0xbdbf805a	-0.09350653
218	0xbcadee9c	-0.021231942
219	0xbd4c530f	-0.0498839
220	0x3daea85c	0.08528206
221	0xbc473586	-0.012158757
222	0x3c184e56	0.0092960205
223	0xbdc83779	-0.097762056
224	0x3bd32900	0.0064440966
225	0x3d032a9e	0.032023065
226	0xbd04671d	-0.0323249
227	0x3dd653c0	0.10465193
228	0x3d8ddf3b	0.069273435
229	0xbd6f0892	-0.058357783
230	0x3e1e804f	0.15478633
231	0x3e02f410	0.12788415
232	0xbc9d71e2	-0.019219343
233	0x3baedf3b	0.0053366697
234	0x3de2c508	0.11072737
235	0x3d148d50	0.03626758
236	0x3ced26a7	0.028949095
237	0xbd45c51a	-0.048283674
238	0x3ac8e62f	0.0015327389
239	0xbd8297f6	-0.063766405
240	0xbe0c0bad	-0.13676329
241	0xbdbbd4af	-0.091714256
242	0x3c1987ee	0.009370787
243	0x3cc566ad	0.024096811
244	0x3bb8db35	0.005641366
245	0xbc624517	-0.013810418
246	0x3d3ef3ab	0.0466191
247	0x3c731e98	0.014838837
248	0x3d4c0199	0.04980621
249	0xbd710eb2	-0.058851905
250	0x3bdf8b90	0.006822057
251	0x3ddfecbd	0.10933826
252	0xbd4edb25	-0.05050196
253	0xbd060426	-0.0327188
254	0xbe01fdd3	-0.12694483
255	0xbb302c2e	-0.0026881802

fc2.bias f4 [256]
0	0xbb801160	-0.0039083213
1	0x3d2d1018	0.042251676
2	0xbd8a27da	-0.06745882
3	0x3cd2c408	0.02572824
4	0xbd2f2a10	-0.042764723
5	0xbd5109c4	-0.051034704
6	0xbd699910	-0.057030737
7	0x3d0f51e8	0.03499022
8	0x3dd1877e	0.10230921
9	0xbd4238ec	-0.047417566
10	0xbdbb4d82	-0.09145643
11	0xbb61cc40	-0.0034454018
12	0x3d8650d4	0.065583855
13	0xbd5c23e0	-0.05374515
14	0xbc9a15c0	-0.0188092
15	0xbcf35508	-0.029703632
16	0xbd0711e4	-0.032976046
17	0xbc3907f0	-0.011293396
18	0xbdc321f6	-0.09527962
19	0x3cfb8a00	0.030705452
20	0xbdc5ae26	-0.09652357
21	0xbcdbbc08	-0.026823059
22	0xbc007dd0	-0.007842496
23	0xbd9bf3fe	-0.07614897
24	0xbd8deebc	-0.069303006
25	0xbc2e5e50	-0.010642603
26	0xbd90547a	-0.070473626
27	0x3dd22ea0	0.10262799
28	0xbd64bdec	-0.055845186
29	0xbd809e1a	-0.062801555
30	0x3d040464	0.03223075
31	0xbd188500	-0.037236214
32	0x3d248230	0.04016322
33	0xbcf97000	-0.030448914
34	0x3dab3b98	0.08360976
35	0xbc24ab10	-0.01005055
36	0x3dd4efa6	0.10397272
37	0x3c5ebb00	0.013594389
38	0xbd4110b4	-0.04713507
39	0xbccc4f50	-0.024940163
40	0x3dce4fd8	0.10073823
41	0xbc24c2d0	-0.010056213
42	0x3cf7e278	0.030259356
43	0x3da2dc96	0.0795223
44	0xbd7d77ec	-0.061881945
45	0xbd32a4dc	-0.043614253
46	0xbd89c8fc	-0.06727788
47	0xbb8a9a60	-0.0042298287
48	0xbd6c29b8	-0.057656974
49	0xbdaf80f2	-0.08569516
50	0x3de40c9c	0.111352175
51	0xbdd3bb62	-0.10338475
52	0x3ca12740	0.019672036
53	0xbddb8cc8	-0.10720211
54	0x3dec4a28	0.11537582
55	0x3cb92348	0.022599831
56	0x3dfbdac0	0.122975826
57	0xbd06897c	-0.03284596
58	0xbd93e872	-0.0722207
59	0x3df8daee	0.121511325
60	0xba5d1600	-0.0008433759
61	0xbc2ef4b0	-0.010678455
62	0x3c3bc6c0	0.01146096
63	0xbbbb9240	-0.0057242215
64	0x3dd71bb6	0.10503332
65	0xbd83ad34	-0.0642952
66	0x3de0426a	0.109501675
67	0xbc8bc508	-0.017061725
68	0x3d8fd8a2	0.07023741
69	0xbd191d28	-0.03738132
70	0x3dabb542	0.083841816
71	0x3cd4a780	0.025958776
72	0x3d92740e	0.07151042
73	0xbdf8338e	-0.12119208
74	0x3d905d94	0.070490986
75	0x3c069530	0.00821428
76	0xbb198240	-0.0023423582
77	0x3d327244	0.043566003
78	0xbdab145e	-0.08353494
79	0x3dea9b20	0.11455369
80	0xbcf650d8	-0.030067846
81	0xbd206cd8	-0.0391663
82	0xbddc4664	-0.107556134
83	0xbdaa8ece	-0.08328019
84	0x3dd8ba8e	0.105824575
85	0xbd3578a8	-0.04430452
86	0x3da60b4e	0.08107625
87	0xbd7187d4	-0.058967426
88	0xbbfe11c0	-0.007753581
89	0x3dc65b3c	0.0968537
90	0xbdd55d00	-0.10418129
91	0x3bcb6e60	0.006208226
92	0xbdbd7828	-0.092514336
93	0xbc8780f0	-0.016540974
94	0xbdf44d62	-0.11928822
95	0xbdbe862a	-0.093029335
96	0xbdb25bdc	-0.08708927
97	0x3d5c634c	0.053805634
98	0xbdc423e0	-0.09577155
99	0xbce8c9e8	-0.028416589
100	0xbd7d22b8	-0.06180069
101	0x3c976b58	0.018483803
102	0xbdb89c4a	-0.09014185
103	0x3d10db8c	0.035365626
104	0xbdaef570	-0.08542907
105	0xbd95ee32	-0.07320823
106	0x3de63e32	0.112423316
107	0xbd53df48	-0.05172661
108	0xbd9ee872	-0.07759179
109	0xbc311e50	-0.01081045
110	0x3dd284f8	0.10279268
111	0x3cc276d8	0.02373831
112	0x3db4ffac	0.08837828
113	0x3dc1999a	0.09453125
114	0xbb96eae0	-0.004605636
115	0x3a92fa80	0.0011213571
116	0x3dcb6280	0.09930897
117	0x3dd211fc	0.102573365
118	0x3c4affe0	0.012390107
119	0x3ccc9ff8	0.024978623
120	0xbc4a5920	-0.012350351
121	0xbd157354	-0.03648694
122	0xbdfe4cb2	-0.12416972
123	0xbde47f22	-0.11157061
124	0x3d7ca8b8	0.06168434
125	0xbdc49160	-0.095980406
126	0xbdb7e238	-0.08978695
127	0xbcf83fa0	-0.030303776
128	0xbd907070	-0.07052696
129	0xbdafadb4	-0.08578053
130	0x3d9645f2	0.0733756
131	0x3dc64496	0.096810505
132	0x3d94d17e	0.0726652
133	0xbdeae1e0	-0.114688635
134	0xbd960ca8	-0.07326633
135	0x3d1d96a4	0.03847374
136	0x3cfdafb0	0.030967563
137	0x3cf28738	0.029605493
138	0xbd202ae4	-0.039103404
139	0xbdffd152	-0.124910966
140	0xbbf2abc0	-0.007405728
141	0xbc2d3da0	-0.010573775
142	0xbc9d3c18	-0.019193694
143	0xbdfef6b8	-0.124494016
144	0x3df93ece	0.12170182
145	0xbcbff7a0	-0.023433506
146	0x3dc13280	0.0943346
147	0xbdb4e0e8	-0.0883196
148	0x3d4b2444	0.049595132
149	0xbdebd098	-0.115143955
150	0x3c360ac0	0.011110961
151	0x3db78258	0.08960408
152	0xbd560aa4	-0.05225624
153	0x3bee03e0	0.0072636455
154	0x3c53c9f0	0.012926564
155	0xbd686b94	-0.05674322
156	0x3df5a1fe	0.11993788
157	0xbd9b5cec	-0.07586083
158	0xbde24504	-0.1104832
159	0x3d525178	0.051347226
160	0xbd539078	-0.051651448
161	0x3d868d6c	0.06569943
162	0x3c8e1e38	0.017348394
163	0xbd17d1f4	-0.03706546
164	0x3dc08a9e	0.09401439
165	0x3dde3336	0.108496115
166	0x3de712f8	0.11282915
167	0x3d5f21e8	0.054475695
168	0xbdaeb1cc	-0.08530006
169	0xbd4077f0	-0.04698938
170	0xbd17025c	-0.036867484
171	0xbcf9e820	-0.030506194
172	0xbb98ca00	-0.004662752
173	0x3dff9026	0.12478666
174	0x3ddbc2d0	0.10730517
175	0xbc503910	-0.012708917
176	0x3ddb363a	0.10703702
177	0x3c212430	0.009835288
178	0x3cfc4920	0.030796587
179	0x3d3ecae8	0.046580225
180	0x3d0c4628	0.034246594
181	0x3cf35970	0.029705733
182	0xbcb0f858	-0.021602795
183	0xbdc40486	-0.09571175
184	0x3dfe6f4c	0.12423572
185	0xbd339ba0	-0.043849587
186	0x3c518fb0	0.012790605
187	0x3ca0e9d0	0.01964274
188	0xbd7b70d8	-0.061386913
189	0x3d21af3c	0.039473757
190	0x3dc60032	0.09668006
191	0x3cbb1328	0.022836283
192	0xbde7f09c	-0.113251895
193	0x3da686b6	0.08131163
194	0x3da4a8de	0.08040021
195	0x3cdd2878	0.026996836
196	0xbd6ce7a8	-0.057838112
197	0xbd835f52	-0.06414665
198	0x3d47ca48	0.048776895
199	0xbd410628	-0.04712501
200	0x3c15d920	0.009146005
201	0xbda36d60	-0.07979846
202	0x3d4cf26c	0.05003588
203	0x3c0840b0	0.008316204
204	0xbddf9c6e	-0.109185085
205	0xbcf97ce8	-0.030455068
206	0x3dd0911a	0.10183926
207	0xbd9e6606	-0.07734303
208	0xbda502b8	-0.08057159
209	0xbdd9e49a	-0.106393054
210	0xbcedeea8	-0.029044464
211	0x3dfddc08	0.12395483
212	0xbd4c5ec4	-0.049895063
213	0x3dab9242	0.08377506
214	0xbd010a8c	-0.0315042
215	0x3df2e10e	0.11859332
216	0xbdd226b8	-0.10261291
217	0x3d1e8420	0.038700223
218	0xbc915568	-0.01774092
219	0xbdaed714	-0.08537117
220	0x3dc0eaec	0.09419808
221	0x3c90b300	0.017663479
222	0x3d4aa770	0.049476087
223	0x3dbabcfc	0.09118077
224	0xbd68e824	-0.05686201
225	0xbb499600	-0.0030759573
226	0xbcacc270	-0.021088809
227	0x3d33db9c	0.043910608
228	0x3dd268f4	0.102739245
229	0xbdac2a90	-0.08406556
230	0xbd2185bc	-0.03943418
231	0x3c09e640	0.008416712
232	0x3d8b47bc	0.068007916
233	0x3d8b5498	0.06803244
234	0x3d7d6468	0.061863333
235	0x3d5b4618	0.053533643
236	0x3d002a08	0.031290084
237	0x3c34bc90	0.011031285
238	0xbd827654	-0.063702255
239	0x3d81bd4a	0.06334932
240	0xbd12c49c	-0.035832033
241	0xbd823ea2	-0.063596025
242	0xbd818ac0	-0.063252926
243	0xbd8ab5b8	-0.06772941
244	0x3d865d64	0.065607816
245	0x3cd67788	0.026180044
246	0xbd7bec9c	-0.061504945
247	0x3d91ec70	0.07125175
248	0xbdf37512	-0.11887564
249	0xbdebde42	-0.11517002
250	0xbd45a194	-0.048249796
251	0x3d891a4e	0.0669447
252	0xbd719364	-0.058978453
253	0x3dc0a386	0.094061896
254	0xbd3290b0	-0.043595016
255	0x3cff11d8	0.031136438

fc3.weight f4 [25, 256]
0	0xbe0d5c28	-0.13804686
1	0xbe06e6cd	-0.13173981
2	0xbdcd24cf	-0.10016786
3	0xbdf3dae2	-0.11906983
4	0xbbd82588	-0.006596271
5	0x3e54a38b	0.20765512
6	0xbd3fc764	-0.046821013
7	0xbb69f28d	-0.003569755
8	0xbd05dec2	-0.03268314
9	0xbe153ba9	-0.1457354
10	0xbe136be6	-0.14396629
11	0x3caaf162	0.020867053
12	0xbd68ee32	-0.056867786
13	0x3d188942	0.037240274
14	0xbde9e3ed	-0.114204265
15	0xbdc94bb7	-0.098288946
16	0x3ddd13cf	0.10794794
17	0x3d0c2961	0.03421915
18	0xbb0add80	-0.0021189153
19	0x3da0bda4	0.07848671
20	0xbd6f3a72	-0.058405347
21	0xbe22f06b	-0.15912025
22	0x3d254e4d	0.040357877
23	0xbdbb654b	-0.091501795
24	0xbdbaf02d	-0.09127841
25	0x3cc59cdc	0.024122648
26	0xbc0ca857	-0.008585057
27	0xbdfa4f6d	-0.122221805
28	0x3de57500	0.112039566
29	0x3e4fd433	0.20295791
30	0x3cddccef	0.027075259
31	0x3c6edbe5	0.014578794
32	0xbdebf018	-0.115204036
33	0xbe11060d	-0.14162464
34	0x3da4f37f	0.08054256
35	0xbdce7098	-0.10080069
36	0xbc803fae	-0.015655365
37	0x3da0bb6a	0.078482464
38	0xbc3360a6	-0.010948336
39	0xbdbf7e42	-0.09350254
40	0xbe6e548d	-0.23274441
41	0x3d48b081	0.048996452
42	0x3d3c0d6b	0.045911234
43	0xb88f419c	-6.830992e-05
44	0x3d96de26	0.0736659
45	0xbddc05e5	-0.10743312
46	0x3e39fada	0.18162099
47	0x3c6c7927	0.014433182
48	0xbd37a02a	-0.04483048
49	0xbe18ca91	-0.14921023
50	0xbdd6d013	-0.10488906
51	0x3dcb82bf	0.09937047
52	0x3d8489e1	0.06471611
53	0xbcb97053	-0.022636568
54	0x3e1182e5	0.14210089
55	0x3d8dc27b	0.0692186
56	0xbcbbbfd4	-0.02291862
57	0x3b62e79a	0.0034622909
58	0xbe772117	-0.24133717
59	0x3d8fe66c	0.07026371
60	0x3e64d6f7	0.22347628
61	0x3d2cc96f	0.04218429
62	0x3d801a52	0.0625502
63	0xbd37275b	-0.044715267
64	0x3b36592a	0.0027824142
65	0xbdfbbc12	-0.12291731
66	0xbdeb9210	-0.115024686
67	0x3d82e81f	0.0639193
68	0xbc4ece82	-0.0126224775
69	0x3c04e98f	0.008112325
70	0x3e1f6a1b	0.1556782
71	0x3d94ccd5	0.07265631
72	0x3e5de340	0.2166872
73	0x3d25dd03	0.040493976
74	0xbd2aae56	-0.041670166
75	0xbd478ebe	-0.048720114
76	0x3cdedda8	0.027205303
77	0x3bbfef70	0.0058574006
78	0x3cbaf0b0	0.022819847
79	0xbcec83f5	-0.028871516
80	0x3dfa1c0b	0.1221238
81	0x3d234fca	0.039871015
82	0x3dbf0230	0.09326589
83	0x3e10628c	0.14100093
84	0xbdef75ca	-0.11692388
85	0xbcc9a283	-0.024613624
86	0x3daa1db7	0.08306449
87	0x3e0aba43	0.13547616
88	0x3cdb1d13	0.026747262
89	0xbdce080d	-0.10060129
90	0x3e4c9d56	0.19981894
91	0x3e3ab567	0.18233262
92	0xbe198a03	-0.14994054
93	0xbd99266e	-0.07478033
94	0x3d79d450	0.060993493
95	0x3d00a917	0.031411257
96	0xbddefc7b	-0.108880006
97	0x3dbeaac7	0.09309917
98	0x3dc9d52d	0.09855113
99	0x3c8d8673	0.017276024
100	0x3d387e48	0.045042306
101	0x3e2c6753	0.1683629
102	0x3e8493ab	0.25893912
103	0x3dea2905	0.11433605
104	0x3d62adf5	0.05534168
105	0x3dbfe97f	0.09370708
106	0x3e12bd19	0.14329948
107	0x3cfbf0bd	0.030754441
108	0xbd224ce4	-0.03962411
109	0xbd3d7351	-0.046252552
110	0xbdf709d5	-0.12062422
111	0x3d5e4e70	0.054274023
112	0x3d87a757	0.066237144
113	0xbe92efcd	-0.28698578
114	0x3d977cb7	0.07396834
115	0xbb5ab397	-0.0033371204
116	0xbd927fb6	-0.07153265
117	0x3e42c2bb	0.19019596
118	0x3dad216b	0.084536396
119	0x3d1bb6aa	0.038016
120	0x3d9e5ce5	0.07732562
121	0x3d8da5fe	0.06916426
122	0x3c9a4c77	0.01883529
123	0x3c09d547	0.008412666
124	0xbe582f97	-0.21111904
125	0x3db88fc9	0.090118
126	0xbdaa63d2	-0.083198205
127	0xbc0dc51a	-0.00865295
128	0x3da688b8	0.08131546
129	0xbce5f07b	-0.028068772
130	0xbdd87712	-0.10569586
131	0xbd3fc833	-0.046821784
132	0xbd1e5498	-0.038654894
133	0x3e37f05f	0.17962788
134	0x3e587480	0.21138191
135	0x3c0aeed5	0.008479794
136	0xbd3a5fa4	-0.045501366
137	0xbd603f85	-0.054748077
138	0xbcf9070f	-0.030398874
139	0x3d068eb1	0.032850925
140	0x3dcf5043	0.101227306
141	0xbd8ed5e4	-0.0697439
142	0xbe1dfcb3	-0.15428428
143	0x3dbe8dd3	0.093043946
144	0xbd64d40b	-0.055866282
145	0x3c32805b	0.01089486
146	0xbd129867	-0.035789873
147	0x3dae7179	0.08517737
148	0x3cb9675f	0.022632299
149	0x3dfcbf52	0.12341179
150	0xbd6de252	-0.058077164
151	0xbd8447c6	-0.06459002
152	0x3ca3e61b	0.020007184
153	0xbc2d99ed	-0.010595781
154	0xbc886cab	-0.01665338
155	0xbd676617	-0.056493845
156	0xbe4eceaa	-0.20196024
157	0x3e91aa73	0.28450355
158	0xbd61aad2	-0.055094548
159	0x3db080ab	0.086182915
160	0xbc965464	-0.018350787
161	0x3daf9fa1	0.08575369
162	0xbda0cc4b	-0.07851466
163	0xbda848d8	-0.08217019
164	0x3dd095ad	0.101847984
165	0xbdbc7855	-0.09202639
166	0x3d85d010	0.065338254
167	0x3cba6e38	0.022757635
168	0x3d38ace1	0.045086745
169	0xbcd22dff	-0.025656698
170	0xbdcf8e70	-0.1013459
171	0x3d8ccdb3	0.068751715
172	0x3ddb3a10	0.10704434
173	0x3debb7b3	0.11509647
174	0x3de2fa0a	0.110828474
175	0xbde523d5	-0.11188475
176	0xbd4fb5e2	-0.050710566
177	0xbc9d3149	-0.01918854
178	0xbdef5f9f	-0.1168816
179	0x3d27d09a	0.040970422
180	0x3d9bb80c	0.076034635
181	0xbe340c32	-0.17582777
182	0xbcccb62c	-0.02498921
183	0xbdff4f20	-0.12466264
184	0xbddababb	-0.10680147
185	0xbdda418f	-0.106570356
186	0x3c5b8930	0.013399407
187	0xbd8965cc	-0.06708869
188	0x3c0efae3	0.008726808
189	0x3decebad	0.11568389
190	0x3dfcb36f	0.12338912
191	0xbdcd23e5	-0.10016612
192	0xbde542ff	-0.11194419
193	0xbdc21475	-0.09476558
194	0xbdc50b15	-0.09621254
195	0x3d8c9c57	0.06865757
196	0xbd3ba207	-0.04580882
197	0xbd98d311	-0.07462133
198	0x3b411687	0.002946289
199	0x3dcf176a	0.10111888
200	0xbc869bc3	-0.016431695
201	0x3db02797	0.08601301
202	0xbd4fdcef	-0.050747808
203	0x3e1f2a6f	0.15543531
204	0x3e044274	0.12915975
205	0x3d8b77b5	0.06809942
206	0x3cbde942	0.023182515
207	0x3d56cdf3	0.052442502
208	0x3d9927fd	0.0747833
209	0xbc34c210	-0.011032596
210	0x3d12b4f4	0.0358171
211	0x3e18a44d	0.14906426
212	0xbc81321b	-0.015770962
213	0x3e2214a7	0.1582819
214	0x3dad1ccf	0.084527604
215	0xbda050fb	-0.07827946
216	0x3dbff521	0.093729265
217	0x3d566de8	0.05235091
218	0xbd392e57	-0.04521021
219	0x3d81a05c	0.06329414
220	0xbcfb31e8	-0.030663446
221	0xbc287331	-0.01028137
222	0x3c225f40	0.009910405
223	0xbe5c8865	-0.21536405
224	0xbddba6ab	-0.10725149
225	0xbd27262c	-0.040807888
226	0x3c3c683b	0.01149946
227	0x3b1d25fc	0.002397894
228	0x3cec757d	0.028864617
229	0xbc750b9a	-0.014956379
230	0x3e672d8b	0.22575967
231	0x3e032c45	0.12809856
232	0xbb89e890	-0.004208632
233	0xbd4f6fdd	-0.05064379
234	0x3e174729	0.14773239
235	0x3c2b72b7	0.010464362
236	0x3d246123	0.0401317
237	0x3e740d37	0.23833166
238	0xbd84bf67	-0.064818196
239	0x3cc8c89f	0.024509726
240	0x3bae6d20	0.0053230673
241	0xbdc429d7	-0.09578293
242	0x3e1d59c8	0.1536628
243	0x3cb4b608	0.022059456
244	0x3d9473dd	0.07248662
245	0x3d602495	0.054722387
246	0xbda7c6d5	-0.08192221
247	0xbe49efef	-0.19720434
248	0xbc98a30f	-0.01863244
249	0x3e05f049	0.13079943
250	0xbe157f39	-0.14599313
251	0xbcd85ff8	-0.026412949
252	0x3df54268	0.119755566
253	0x3c2454e4	0.010030005
254	0x3c80dea3	0.015731161
255	0x3c8e3878	0.01736091

fc3.bias f4 [25]
0	0xbd529dfa	-0.05142019
1	0xbd074142	-0.03302122
2	0xbd518234	-0.051149562
3	0xbd325da8	-0.04354635
4	0x3c493ef8	0.012283079
5	0xbc894ce4	-0.016760297
6	0x3cf6f7f0	0.030147523
7	0xbd42b206	-0.047533058
8	0x3bdfb1f0	0.0068266317
9	0x3c8e8adc	0.017400198
10	0xbd3e7616	-0.046499334
11	0x3c41fde0	0.011840314
12	0xbc00ba38	-0.007856898
13	0xbd140fae	-0.036147766
14	0x3c829aec	0.015943013
15	0xbd48ed7e	-0.049054615
16	0xbba1b490	-0.004934855
17	0xbd68003c	-0.05664085
18	0xbc9ad7a0	-0.018901646
19	0x3d4aa0c6	0.04946973
20	0x3d33199c	0.043725595
21	0xbc701a40	-0.014654696
22	0xbc0069a0	-0.007837683
23	0x3cc89554	0.024485268
24	0x3d6aa1d0	0.057283223
