examples/carla_scenic/Carla_Challenge/agent_scalar/target_net_700.pt (torch, 96407 bytes, 6 tensors)

fc1.weight f4 [64, 8]
000000 be 2b 02 bf a7 40 f5 be 4c c3 8c bc 91 a3 b0 bc
       -0.50847995 -0.47900888 -0.017182969 -0.02156237
000010 89 d2 e0 3c ac d0 bf be 0b bf 4a bf 73 1b e5 be
       0.027444141 -0.37463892 -0.7919776 -0.44747505
000020 28 9c 31 3e a5 f7 de bd ae ab 20 be 3b b0 03 bc
       0.17344725 -0.10887078 -0.1569049 -0.008037622
000030 2f ae 0d 3c 53 1b da bd e4 60 43 be ea d0 04 be
       0.008647486 -0.10649743 -0.1907993 -0.1297032
000040 75 fa 6f be 52 71 13 be 93 74 bc be f7 b4 2e bc
       -0.23435386 -0.14398697 -0.3680769 -0.010663263
000050 b0 3c 47 bc cf 7f 41 3e 17 da 79 be 75 80 9f be
       -0.012160465 0.18896411 -0.24399601 -0.31152692
000060 35 4c 73 be 4d c8 a1 bd fe 90 ff bd c8 dc d2 3c
       -0.2375954 -0.078995325 -0.12478827 0.025740042
000070 50 8e 9b bc 3a 68 aa 3e d8 54 82 be 3d 27 c8 be
       -0.018988758 0.33282644 -0.25455356 -0.39092436
000080 58 35 03 3f 06 f4 2e bf 72 c3 1b 3f 96 e3 2e 3e
       0.5125327 -0.683411 0.608451 0.17079005
000090 18 60 43 3e ff d5 c9 bf a7 02 af be f1 38 5c bc
       0.19079626 -1.5768431 -0.3418171 -0.01344131
0000a0 6f 48 21 c0 a2 f1 9a 3d 91 01 9f 3e 1f 3d 22 be
       -2.520046 0.07565619 0.31055883 -0.15843628
0000b0 24 af 18 3e 7b 6a b2 40 31 2f 4a 3e 36 63 eb bd
       0.14910561 5.575498 0.19744565 -0.11493532
0000c0 1f 7e 5d bf b8 0f 9d bf 7b 95 b3 3e ec 5f a0 bc
       -0.8652057 -1.2270422 0.35074982 -0.01957699
0000d0 33 65 91 bd c9 b5 01 40 e3 18 9f bf 38 57 2d bf
       -0.0709938 2.0267203 -1.242947 -0.6771121
0000e0 f7 b4 52 40 e6 77 93 bd 58 5b b7 3f fc 2b 7b 3d
       3.2922952 -0.07200603 1.4324751 0.061321244
0000f0 11 a3 07 bd da d7 ab 3e a6 51 33 bf 5c 31 98 bf
       -0.033114497 0.3356312 -0.7004646 -1.1890063
000100 ce 6b f8 3e 28 f9 db be b6 f1 63 be ac 65 48 bd
       0.48519748 -0.4296353 -0.22260174 -0.048925087
000110 46 79 8e bb c6 16 f5 be 98 42 70 bf 4c b2 ec be
       -0.004347953 -0.47868937 -0.93851614 -0.4622978
000120 b0 e3 f4 3e 98 f1 ef bf f0 15 50 3e a7 23 6a be
       0.47829962 -1.8745604 0.20320868 -0.22865163
000130 1c 4a 28 be f3 c5 5d 40 e1 2d 9a be 94 71 2e bc
       -0.1643452 3.4652069 -0.30113128 -0.010647196
000140 02 77 99 be fb 56 02 c0 88 c8 5b 3c 21 3a 98 be
       -0.29973608 -2.0365589 0.01341451 -0.2973185
000150 4e 90 98 3e da 57 4d 3f 27 6b 9a bd c9 fe 75 3c
       0.29797596 0.80212176 -0.07539969 0.015014359
000160 30 fd 93 3b 4e 18 47 be f7 35 58 be 63 90 f7 3b
       0.0045162663 -0.19442865 -0.21114336 0.007555054
000170 62 9c be bb 21 3d c5 3d 5b 6e 93 be 0f 87 c3 bd
       -0.005816982 0.096308 -0.28795132 -0.09547245
000180 99 c7 a2 bc df ef b1 bc 0c 90 4c be 09 c1 d5 3c
       -0.019870566 -0.021720825 -0.19976825 0.026093023
000190 66 62 f3 3b 45 6a 6c be 1d 86 ec be 4d 39 94 be
       0.0074275015 -0.23087414 -0.4619607 -0.28949967
0001a0 ff 65 55 bd 01 2f d0 be 84 84 7d be 19 14 f0 bc
       -0.052099224 -0.4066086 -0.24757582 -0.029306458
0001b0 e8 b8 97 3c ef e8 15 3f 58 0e 69 be 81 ac b5 be
       0.018520787 0.58558553 -0.22759378 -0.35483173
0001c0 8e 33 a7 3e 48 7b 6f 3e a0 68 6f bf e7 12 9a bd
       0.3265652 0.23386872 -0.9351902 -0.075231366
0001d0 23 50 ef 3d bb 24 99 bf 75 1a f4 3e 8f 71 6d 3e
       0.11685207 -1.1964334 0.47676435 0.2318785
0001e0 e0 43 29 be 61 2b 85 be 42 2d 3a be f3 91 92 3d
       -0.16529799 -0.26009658 -0.18181327 0.07156744
0001f0 a9 a4 76 bb 1f 8e f1 be ef 65 14 bf 58 14 f1 be
       -0.0037634766 -0.47178742 -0.5796804 -0.47085834
000200 3f 28 89 3c 8a 0a ea bc da ae ca 3d 20 fd 73 bb
       0.016742824 -0.028569479 0.098966315 -0.0037229732
000210 91 1f d2 3a 57 85 49 bd 0b aa 42 3d 53 91 28 be
       0.0016031136 -0.04919943 0.047525447 -0.16461687
000220 6e c9 11 be d2 14 06 be 01 bf 6e bf b9 16 6f bc
       -0.14236996 -0.1309388 -0.932602 -0.01459282
000230 60 25 0c bd 42 13 d9 3e 53 e2 b2 3f ff aa 1a bf
       -0.03421533 0.42397505 1.3975319 -0.6041717
000240 d8 f0 44 3e 8d 88 d2 3e 05 89 7b bf f2 48 f1 bd
       0.192325 0.41119805 -0.9825595 -0.11781491
000250 a9 3a 9e 3c a3 77 37 bf 52 98 6e 3f 24 94 b0 bf
       0.01931508 -0.71666926 0.9320117 -1.3795209
000260 55 4b f6 bf a7 e0 37 3d 63 61 1c bf c3 8f f2 bd
       -1.924174 0.04489198 -0.610861 -0.118438266
000270 fe 56 44 3d 47 21 15 bf 52 d8 f6 3e 53 66 f7 3c
       0.047934525 -0.582539 0.48211914 0.03020016
000280 58 eb 98 bf 21 eb f5 be cc 06 14 c0 22 d5 1f be
       -1.1946821 -0.48030952 -2.3129148 -0.15608647
000290 8b 30 3f 3e 4c a1 e2 3f 90 1b a4 3e 2f b6 4d 3e
       0.18670861 1.7705474 0.3205228 0.20089029
0002a0 bd db 39 c0 78 af 7e be 36 1c e8 3e fd 67 4c be
       -2.9040368 -0.24871624 0.45334023 -0.19961543
0002b0 e4 49 99 bd 9d a8 a0 3d 1c 5e 76 bc ed ad f8 bc
       -0.07484797 0.078446604 -0.015037086 -0.030356372
0002c0 af 34 1f 3f 6c 47 f8 be f3 e4 bc 3f bb 7e ed 3d
       0.62189764 -0.4849199 1.475737 0.115964375
0002d0 3d 46 05 bd e8 f1 07 c1 df 58 40 bd 0b 51 b6 bd
       -0.032537688 -8.496559 -0.046959754 -0.089021765
0002e0 07 03 75 c0 9f 84 27 bf 6d 23 9d 3f ec 47 e5 bd
       -3.8283098 -0.6543674 1.2276436 -0.11195359
0002f0 3a 95 ae 3c 41 4d 44 3f c3 f8 54 be 7b 58 bb bd
       0.021311391 0.7668038 -0.2079802 -0.09147736
000300 e5 f9 96 3f 51 24 04 be 63 67 58 bf c2 36 38 3c
       1.1795012 -0.12904479 -0.84532756 0.011243524
000310 d0 20 d7 bd 95 e6 a7 40 ae 5d cd be 35 f7 0c bf
       -0.10504305 5.246897 -0.40110534 -0.5506471
000320 c3 45 54 3f e9 5e 9a bf 07 0e 59 3e 08 41 23 3e
       0.8291895 -1.2060214 0.21196757 0.15942776
000330 2a 91 61 be db c1 16 c0 b6 c0 c2 3e 69 0d 88 bc
       -0.22028032 -2.355582 0.38037652 -0.016607957
000340 69 6b 1b c0 36 3b 73 bf 80 bd 05 bf f9 9a 5e 3e
       -2.4284308 -0.95012224 -0.5224228 0.21738805
000350 59 1b 20 3c 07 38 a5 c0 1b b0 43 3c a8 65 4e bf
       0.009772145 -5.1630893 0.011943842 -0.80623865
000360 99 11 fc bf 0b 7e 95 bf 63 79 98 3f b0 18 75 3d
       -1.969287 -1.167909 1.1912044 0.059837997
000370 ad b5 c5 bd 6a 84 e9 bf 61 ca 98 bc 83 bd 00 3f
       -0.096537925 -1.8243535 -0.01865119 0.5028917
000380 7f d0 ef 3d dd 36 b7 be 61 9f 3a bf fd f7 9f 3d
       0.11709689 -0.35784045 -0.7289944 0.07810972
000390 d6 82 39 bb 06 ee a2 c0 39 da 22 bf 7f 47 2d bf
       -0.0028306744 -5.0915556 -0.6361423 -0.6768722
0003a0 06 24 01 3f 24 d3 4d bd 2b ca e8 bf 86 92 4b bb
       0.5044559 -0.050250188 -1.8186697 -0.0031062677
0003b0 c3 e2 8d 3e 60 ff e2 3f b1 9f cb bf 9e fe 0c 3d
       0.27712068 1.7734184 -1.5908109 0.03442251
0003c0 55 68 b9 be 02 6f d3 bf 2e c4 f0 3e 43 49 43 bd
       -0.36212412 -1.6518252 0.47024673 -0.04767729
0003d0 b3 cd 71 3c 2d b0 0f 3f 42 7f 58 3f 53 ae 10 bf
       0.014758515 0.561282 0.8456918 -0.56516
0003e0 f4 fa 20 bf e4 63 22 3f b9 79 2b 3f fe 03 2a 3d
       -0.62882924 0.6343367 0.6698261 0.041507713
0003f0 a1 4b 8f bd 45 9c 1d c1 9d 2b 23 3d 97 19 cf be
       -0.06996847 -9.850652 0.039836515 -0.4044921

fc1.bias f4 [64]
000000 57 a2 80 be f9 aa e4 bd d1 f5 94 be aa c9 95 be
       -0.25123855 -0.11165423 -0.29093793 -0.2925542
000010 4c cc de be 05 3a 85 3c e0 0b 24 bf 04 5c 83 bf
       -0.4351524 0.016263017 -0.6408062 -1.0262456
000020 a1 5f 03 bf 7d 3a c3 bc 8d 6b c3 3e b5 5d e4 3d
       -0.51317793 -0.0238316 0.38167992 0.11150686
000030 7c 31 de bd 8e d5 23 bf 73 20 61 3d 78 71 df be
       -0.10849282 -0.63997734 0.054962587 -0.43641257
000040 8c 56 b6 3d c2 f4 c8 be b5 1c b9 bf 07 f5 a5 be
       0.08903226 -0.39249235 -1.4461886 -0.32413504
000050 d7 4a b9 be b6 6b 6a bc d6 1c 83 be ef 6e 63 be
       -0.3618991 -0.014307907 -0.25607938 -0.22210287
000060 03 48 99 be 1c 7e 88 3e fb 18 45 bf f0 4a 97 3e
       -0.29937753 0.26658714 -0.7699124 0.2954936
000070 ae 77 45 bf d3 7f 9c be 89 25 1c bf d4 bf b3 be
       -0.7713574 -0.30566272 -0.60994774 -0.3510729
000080 92 6d 70 3e 25 cd 62 3e ac ac 98 3d 59 c7 a3 3e
       0.23479298 0.22148569 0.074548095 0.31988028
000090 31 5a a1 bd 01 7b b1 be 4a bd 26 bf aa 54 f3 be
       -0.07878531 -0.34664157 -0.6513258 -0.4752553
0000a0 68 da 2b be 50 96 14 bf e1 b8 5c 3e db 29 e7 be
       -0.16782534 -0.5804186 0.215549 -0.4514912
0000b0 72 28 21 be 8c fe fb 3a b4 48 be be c2 ab 94 be
       -0.15738085 0.0019225641 -0.37164843 -0.2903729
0000c0 fc f8 12 be 13 1f 90 be 1b 73 ad 3e dc 23 01 bf
       -0.14352793 -0.28148708 0.3387688 -0.5044534
0000d0 11 20 a0 be 9d 86 a0 be 01 54 ed 3e 2d ff 83 3e
       -0.31274465 -0.31352702 0.46353152 0.2578062
0000e0 38 9a 65 bf 4b 04 1c bf e9 02 3c 3e 35 98 f4 be
       -0.89688444 -0.6094405 0.18360485 -0.47772375
0000f0 a4 89 d6 bd 58 01 c2 be b5 85 bc be ae 1a 4f bf
       -0.104754716 -0.3789165 -0.3682076 -0.80900085

fc2.weight f4 [256, 64]
000000 6e 27 85 3d 54 22 fa 3b 47 d8 78 bd f3 de 46 bd
       0.06501661 0.0076334868 -0.060753133 -0.048552465
000010 da ce 03 bc 24 19 16 3d 90 da 2f be 65 f5 b9 3c
       -0.008044923 0.03664507 -0.17173219 0.022700021
000020 36 a6 c0 bd 1d aa 3f be ed 8a 2d bd f3 a4 10 3c
       -0.09406702 -0.18717237 -0.042368818 0.008828389
000030 b2 7c 3b bc 5f 5b 26 be 63 84 14 be bb 61 23 be
       -0.011443304 -0.16245793 -0.14503627 -0.1595525
000040 c9 d3 dc 3c 13 99 96 3d 68 cf b0 bc 8a f0 1c be
       0.026956456 0.07353415 -0.021583274 -0.15326133
000050 df 87 cc bd 0a 85 8f be 27 af 90 be b4 75 0f 3d
       -0.09986853 -0.28031188 -0.2825863 0.03502436
000060 c0 3a fb 3b 31 91 a5 bd 49 dc 1c be a5 3a 3a be
       0.0076669157 -0.08084334 -0.15318407 -0.18186434
000070 c6 c2 13 be 80 d5 03 be eb 70 27 be 6b 53 ae bd
       -0.14429769 -0.12874413 -0.16351669 -0.085120045
000080 af 00 e3 3d fe d8 26 be 86 a1 a1 be b8 f6 2c be
       0.11084115 -0.16293713 -0.31568545 -0.1689099
000090 ef 9b e3 bc 24 13 03 be c7 a5 8e be 52 10 06 bd
       -0.027784316 -0.1280027 -0.27860853 -0.032730408
0000a0 00 bb cb bd d2 ac 34 bd a3 a8 47 ba 9d 05 f8 bd
       -0.09947777 -0.044110127 -0.00076163764 -0.12110446
0000b0 dd e7 22 be b5 8c ba 3d f3 50 4a be ca 28 01 3e
       -0.15908761 0.09108869 -0.19757442 0.12613216
0000c0 e1 d4 0e 3c b4 d9 9f bd e1 09 25 3d 6c f5 ff bd
       0.0087177465 -0.078051955 0.040292624 -0.124979824
0000d0 8a 1e c0 bd 48 c2 94 be 0d 0d 41 bd 40 15 21 3e
       -0.09380825 -0.29054475 -0.047131587 0.15730762
0000e0 09 f9 d7 bd f4 5b 68 be 51 83 71 be ed ff de bd
       -0.105455466 -0.22691327 -0.2358525 -0.10888658
0000f0 e4 2a db bd 84 90 39 3e ae a6 5f bd 99 74 5d bc
       -0.1070154 0.18121535 -0.054602318 -0.013516569
000100 35 98 41 3e 4d 01 21 bd ef 41 c5 3d 20 78 91 3d
       0.18905719 -0.03930788 0.096317165 0.0710299
000110 fc f4 d0 bd 94 57 90 be 3c a8 0e bd eb 6f f3 bd
       -0.10202977 -0.28191817 -0.03482841 -0.11886581
000120 eb 94 c4 bd 75 0e 6a be da aa 08 be 37 0c c8 bd
       -0.09598716 -0.22857077 -0.13346425 -0.09767955
000130 25 ea 0c bd e6 f1 da bd 69 17 db bd 8b eb 8a bd
       -0.034402985 -0.1069067 -0.106978245 -0.067832075
000140 fc 22 21 be 9a 5d 3a 3d a9 ce 25 bc 4b d9 03 be
       -0.15736002 0.04549942 -0.010120072 -0.1287586
000150 d7 99 95 bd 92 0c 00 be a7 67 af be a7 17 87 bb
       -0.07304733 -0.12504795 -0.34258768 -0.0041226926
000160 c6 37 f2 bb d4 23 e9 bc b3 85 18 be e0 bf 1a 3d
       -0.0073919026 -0.028459467 -0.14894752 0.037780643
000170 d3 84 9b bd 9e 6e 20 3d 15 a8 f3 bd 3a 9c 39 3d
       -0.075936936 0.039167993 -0.118972935 0.045315005
000180 79 39 62 bd 8e bc b1 bd c5 49 42 bc b5 c5 86 3d
       -0.05523059 -0.08678542 -0.011858408 0.065806784
000190 87 bf 53 bd 16 b0 c3 ba 3d cc ca 3a 11 39 d7 bd
       -0.051696327 -0.0014929797 0.0015472245 -0.105089314
0001a0 7a 06 cd bd 46 60 f0 bc 82 26 17 3d 67 61 27 3d
       -0.10011001 -0.029342782 0.03690196 0.040864374
0001b0 dc d6 be 3c 16 ad 12 3e 57 26 09 be e2 3c be 3b
       0.023295812 0.1432384 -0.13393532 0.0058055976
0001c0 8d 86 2b be c5 bd 94 3d 64 7a 91 bd 3f e8 d9 3d
       -0.16750546 0.07262758 -0.07103422 0.106400006
0001d0 ad 44 27 3d cf 54 2e be 86 d7 1a bd c7 01 28 3d
       0.04083698 -0.1702454 -0.037803195 0.04101732
0001e0 77 f2 04 bd 07 48 6f bd ad ff 0a bd 62 01 2b be
       -0.032457795 -0.0584183 -0.033935238 -0.16699746
0001f0 b0 69 7b bd 3e ac c5 bd 76 03 9e 3d 43 8b da bd
       -0.06138009 -0.09651993 0.07715504 -0.10671093
000200 50 92 b4 be 2f c5 a0 bc 73 09 3f 3c 5a df 91 3e
       -0.35267878 -0.019625274 0.011659968 0.28490716
000210 59 be 0d bf db a2 67 bf 1b c2 d9 be 25 09 c7 be
       -0.5536857 -0.9048287 -0.42530903 -0.38874164
000220 15 63 71 be 8f 51 88 3e 33 d7 ee be 79 df 13 be
       -0.23572953 0.26624724 -0.4664856 -0.14440717
000230 42 42 7f bd 56 db d1 3c 58 e2 19 be b7 87 6c 3d
       -0.062319048 0.025617283 -0.1502775 0.057746615
000240 72 5c 6f bd 6c 46 d5 be 2c b7 07 3d 36 65 39 3e
       -0.058437772 -0.4165529 0.03313367 0.18105015
000250 e1 76 b4 3d 79 99 af 3d 98 9f 15 be 0c ab 5a bf
       0.08811737 0.085741945 -0.14611661 -0.85417247
000260 50 a1 4b 3d 75 e8 e4 be fc 05 a0 3c 71 a9 2e bf
       0.049714386 -0.447086 0.019534104 -0.682273
000270 61 78 9b be 60 a6 ef be 21 77 f7 bd aa 65 a2 be
       -0.3036528 -0.46806622 -0.12083269 -0.3171819
000280 16 3f 39 bf fc 10 88 3c 8e b5 d6 be 6c 07 17 be
       -0.72361887 0.016609661 -0.4193539 -0.14748925
000290 e2 29 62 bd 80 3f e4 3d 59 da 4f 3e ca a9 26 be
       -0.055215724 0.11144924 0.20298137 -0.16275707
0002a0 57 e3 c7 3d 52 a6 9f bf 9f be fd 3c 15 aa 41 be
       0.097601585 -1.2472632 0.030974684 -0.18912537
0002b0 c5 ec 0b bd cf 48 f9 3c 1b 59 33 3e 70 c6 36 be
       -0.034161348 0.030430226 0.1751446 -0.17849135
0002c0 41 df 81 bd 12 83 b2 be 18 1f 7a bf f2 56 1f 3e
       -0.063414104 -0.34865624 -0.97703695 0.15560511
0002d0 c3 cc aa 3d 49 f2 42 be 1a 17 ac bf 95 ac dc 3c
       0.083398364 -0.19037737 -1.344455 0.026937762
0002e0 32 1d 77 be 73 f7 51 be cf 8c d8 bd ce 4f 0e be
       -0.24132231 -0.2050455 -0.10573732 -0.1389763
0002f0 d3 e4 03 be d6 4b a3 bc 63 32 c8 bd 2d 11 24 be
       -0.12880258 -0.019933622 -0.097752355 -0.16022177
000300 ca a7 c3 3d 76 7a 60 be 30 af 86 bd 08 32 cb bd
       0.095534876 -0.21921715 -0.06576383 -0.09921652
000310 eb 78 7c be 1c d6 2b bf e9 8e 7c be 81 25 8b be
       -0.24655502 -0.6712358 -0.24663891 -0.2717705
000320 d2 eb 75 3e 96 93 2a be e0 55 c1 be 64 b8 9d bc
       0.2401574 -0.16657862 -0.3776083 -0.019252963
000330 30 e6 ff bc 18 f6 30 be c9 5f 9e be 7a bd 8e be
       -0.031237692 -0.17281377 -0.30932453 -0.27878934
000340 10 12 f7 3d f2 5c 12 3f 06 1f 02 3f 44 4b dd bd
       0.12063992 0.57173073 0.5082859 -0.108053714
000350 e8 bd 4b 3d de 16 8e bf aa 3b 92 be ef 21 69 bf
       0.049741656 -1.1100729 -0.28561145 -0.91067404
000360 27 a7 ab 3d 97 48 bd 3d 0e 38 a0 be 95 1b 6d bf
       0.08381491 0.09242361 -0.31292766 -0.9262021
000370 e2 59 25 bf cf 4b 72 bf 02 fa c6 3e e7 c9 1f 3e
       -0.64590275 -0.94646925 0.38862616 0.15604363
000380 16 67 ad bf a4 28 9a bd 95 0d 39 bf 45 12 61 bf
       -1.3547084 -0.07527283 -0.7228635 -0.879185
000390 5d bf 09 bf 33 8a 11 3e 5a 70 89 be a2 27 4b bf
       -0.5380762 0.14212875 -0.2684353 -0.7935735
0003a0 e3 65 fe bc 1e 0c d9 be 23 45 e9 3d bf 0a 0b be
       -0.031054443 -0.42392057 0.1139014 -0.13578318
0003b0 b8 08 9c 3b ab b9 73 3d 4e d9 21 bf fa 18 e2 bd
       0.0047617815 0.05950324 -0.63222206 -0.1103992
0003c0 63 75 d4 3c 81 8f 2f be 28 63 97 bd 26 af 2a be
       0.02593488 -0.17144586 -0.073919594 -0.16668376
0003d0 53 cc 6d 3d 4c b8 43 bf dc 41 ac be 00 bb be bd
       0.058056187 -0.7645309 -0.33643997 -0.09313011
0003e0 a9 12 52 bf 67 d8 d7 be 53 13 d2 3e e5 81 3d bc
       -0.82059723 -0.4215729 0.41030368 -0.011566614
0003f0 b4 26 5c bf 67 5b a0 bd 88 91 33 3e 9a fc bf bd
       -0.85996556 -0.078299336 0.17535985 -0.09374352

fc2.bias f4 [256]
000000 91 6f 96 be 1c e5 46 bd 32 69 18 3e 7d e9 1f bf
       -0.29381993 -0.04855834 0.14883879 -0.6246565
000010 d5 dc 88 be 15 4d 85 bd 0b 0a 77 bd 58 b1 09 be
       -0.2673098 -0.06508843 -0.060312312 -0.13446558
000020 f5 f3 87 be 7c ee f8 bd 0e 95 d8 be b6 ff 3f be
       -0.26553312 -0.12154862 -0.4230122 -0.1874989
000030 97 80 78 bd 7e 6b 7a bd d0 58 07 bf 49 e8 67 be
       -0.060669508 -0.06113767 -0.5286989 -0.22647204
000040 28 d4 89 be 04 d0 67 bd f4 d3 ce bd 9b cb 00 be
       -0.26919675 -0.056594864 -0.100990206 -0.1257767
000050 16 e3 b1 be 55 dc 57 be 6e b5 d2 bd 5b e8 b5 3c
       -0.34743565 -0.21080144 -0.10288511 0.022205522
000060 d0 df 67 bd f4 54 ac be 17 58 95 be 58 fe 70 be
       -0.05660993 -0.33658564 -0.2916877 -0.23534524
000070 0a 60 8c be e7 73 3d be 69 59 87 be 0c f0 62 bd
       -0.27417022 -0.18501244 -0.26435402 -0.055404708
000080 84 a0 06 bf 4a 90 c1 be 3f 97 2f bf e5 43 c1 bd
       -0.5258868 -0.37805396 -0.6859016 -0.09436778
000090 3c 63 a6 be 91 de aa be 62 e2 73 be dc 65 5b be
       -0.32497585 -0.3337293 -0.23816827 -0.21425575
0000a0 9d 40 42 be e2 fb c9 bc 60 cb 18 be 94 49 9a be
       -0.1896996 -0.02465624 -0.14921331 -0.3013426
0000b0 9c 04 3c be a9 75 0f 3f 0e 31 80 be 96 19 94 be
       -0.18361133 0.5603891 -0.25037426 -0.2892577
0000c0 4c 47 6a be ac 93 6e be 73 f0 b4 be 1e 26 74 be
       -0.2287876 -0.2329852 -0.35339698 -0.23842666
0000d0 e6 0c ce be 85 e0 63 be 39 c9 9a be 13 58 0a bf
       -0.40244216 -0.22253616 -0.30231646 -0.5404064
0000e0 1e 1b 0e bf b4 0a 97 be b2 81 8d bd c1 bd ec bd
       -0.5551013 -0.29500353 -0.06909503 -0.1155963
0000f0 43 f7 82 be c3 38 52 3f c8 0b 5b be d4 66 18 be
       -0.2557927 0.8211786 -0.21391213 -0.14882976
000100 fb 70 b1 be 21 eb f5 bd 92 20 7b be 1f f7 1b be
       -0.3465651 -0.12007738 -0.24524143 -0.15230988
000110 b5 64 43 be b9 93 86 be ff 40 1c bf a7 64 9e bd
       -0.19081385 -0.26284578 -0.61036676 -0.07734042
000120 84 04 26 3f 14 b6 1e be 70 ab 82 bd 8d 99 2e 3e
       0.6485064 -0.15499145 -0.06380355 0.17050762
000130 d6 fb 44 bb eb 3f 7a be 49 5d ae bc 7f 4c 23 bf
       -0.0030057332 -0.24438445 -0.021284716 -0.637886
000140 9b b0 8e bd 22 34 00 be fe 36 5e bd a9 0f 11 bf
       -0.069672786 -0.12519887 -0.054251663 -0.5666452
000150 be 7c b5 bd e8 01 53 be 4c 41 69 be 6e 09 b1 3c
       -0.08861683 -0.20606196 -0.22778815 0.021610942
000160 bf 45 0f bd 1b 1c 43 3d f0 05 2d be cf 8d 24 be
       -0.034978624 0.047634225 -0.16896796 -0.1606972
000170 17 a1 8a be 0f 1d d4 be e2 a3 9f be 45 35 17 3f
       -0.27076027 -0.4142842 -0.3117972 0.5906566
000180 65 75 c1 bd 71 23 21 bf ca 9b 19 bd be 3e e9 be
       -0.09446219 -0.62944704 -0.037502088 -0.4555568
000190 f1 8a e5 bd 6e 81 22 be 33 0e 8b be 19 d5 0e be
       -0.112081416 -0.15869686 -0.2715927 -0.13948478
0001a0 ba 6f a2 be d1 de a0 bd 03 67 a5 be 1e 46 ba be
       -0.31725866 -0.07854999 -0.32305154 -0.3638162
0001b0 fa 8e c5 be 79 07 a5 be 29 26 8d be b0 c9 82 be
       -0.38585645 -0.32232264 -0.27568176 -0.255445
0001c0 06 98 88 bf 26 b4 03 be 16 64 6d be 84 96 40 be
       -1.0671394 -0.1286169 -0.23182711 -0.18807417
0001d0 df da 76 be 7c 81 62 be de 61 88 be 62 f0 e3 bd
       -0.2410693 -0.22119707 -0.26637167 -0.11129834
0001e0 c1 96 4c bd 14 10 15 bd 96 38 c1 bd 65 9d f4 bd
       -0.049948458 -0.036392286 -0.09434621 -0.11944083
0001f0 74 22 82 be 6b f9 19 be 51 bd d5 be ad 24 86 be
       -0.2541691 -0.15036552 -0.41746 -0.26199856
000200 82 eb a1 be 9c fc be be 36 30 77 be f2 a4 36 be
       -0.3162499 -0.373021 -0.24139485 -0.17836359
000210 be 6f f0 bd cf 54 5d be b0 2e 40 be 2c 27 45 be
       -0.11740063 -0.21614383 -0.1876781 -0.19253224
000220 21 20 53 bf 76 81 9f bd 99 01 bd bd e1 ab 1d be
       -0.824709 -0.077883646 -0.0922882 -0.15397598
000230 bd 25 89 be 2d 6a 38 bc 39 2a f8 bd d9 9f 81 be
       -0.26786605 -0.011255783 -0.12117428 -0.25317267
000240 f9 49 33 be a5 52 ec bd 54 4f 8a be 83 0f 81 be
       -0.17508687 -0.11539201 -0.27013648 -0.25207147
000250 0f c2 82 bd ca 82 fd bd a7 b9 3f be bc 5f 8c be
       -0.0638467 -0.12378462 -0.18723164 -0.2741679
000260 a2 f6 74 be f4 e8 c1 be 34 e2 12 bf 24 77 62 be
       -0.23922208 -0.37873042 -0.5737641 -0.22115761
000270 a6 c5 3d be 21 72 14 bf 9f 0e 10 be 8d 72 a4 be
       -0.18532428 -0.57986647 -0.14068078 -0.32118645
000280 ac 45 ab bd e1 40 f7 bd de 50 a7 be 13 c5 cf be
       -0.08362898 -0.120729215 -0.32678884 -0.40580043
000290 82 14 2a 3f 38 52 24 be ef 39 9b bd 9f df 48 be
       0.6643754 -0.16046989 -0.07579409 -0.19616555
0002a0 b0 69 50 be 8b d8 28 be 6d 39 50 bd 58 bd 50 be
       -0.20352817 -0.16488855 -0.050836015 -0.20384729
0002b0 ce f8 aa be d6 09 20 be cf 10 0a bd 57 42 b8 bb
       -0.33392948 -0.15628752 -0.033707436 -0.0056231427
0002c0 1d 46 92 be 32 86 1d be 8e 6d a8 be d9 c7 74 be
       -0.28569117 -0.15383223 -0.32896084 -0.23904361
0002d0 fa fc 51 be 80 78 3c 3c ef f4 46 3e 68 f7 10 be
       -0.20506659 0.011503339 0.19429372 -0.14156878
0002e0 e3 03 fe bd 49 d2 d2 3e a0 c6 13 bf 3b d9 c0 be
       -0.12403085 0.4117606 -0.5772495 -0.37665734
0002f0 52 8c 33 be 59 49 c2 3c d4 17 71 be f6 47 24 be
       -0.17533997 0.023716616 -0.23544246 -0.16043076
000300 8b fa 8a 3d 51 98 98 be d6 fb 38 be 32 70 d9 bd
       0.067860685 -0.29803708 -0.18064818 -0.10617103
000310 2a e5 ab be 7f 95 66 be d6 67 48 bd f0 3b 23 3f
       -0.33573276 -0.22517966 -0.04892715 0.6376333
000320 25 c1 87 be 49 d5 40 be 21 08 3a be 1e c1 89 bd
       -0.26514545 -0.18831362 -0.18167163 -0.06726287
000330 9a 17 b7 be e4 cd 88 be 6b a7 92 be 96 d4 9a bb
       -0.35760194 -0.26719582 -0.28643355 -0.0047250492
000340 02 eb 8e be 73 29 7e be fd 47 91 be 09 18 9e be
       -0.27913672 -0.24820499 -0.28375235 -0.30877712
000350 be eb 59 bd 6c b6 97 be d0 28 03 be c8 e3 a7 bd
       -0.053203337 -0.29631364 -0.12808537 -0.08197743
000360 60 8d 30 3d 10 1b 98 be c5 0b 5f bd 27 2f 83 be
       0.043103576 -0.29708147 -0.054454584 -0.25621912
000370 1b e1 87 be e9 e0 82 be b0 05 d6 bd ca ca 3b be
       -0.2653893 -0.25562218 -0.104503036 -0.18339077
000380 f4 e3 80 bd 9d 83 36 bd bb 09 81 bf d3 3f 19 bd
       -0.062934786 -0.04455911 -1.0081095 -0.037414383
000390 24 cc 15 be 03 1d 16 be ab 9e 42 be 34 9a 85 be
       -0.14628655 -0.14659505 -0.1900584 -0.2609421
0003a0 86 0f 43 be dc c9 97 be e3 6d c6 bd 13 0b b5 be
       -0.1904889 -0.29646194 -0.09688928 -0.3536001
0003b0 54 a1 3a be 42 9b 23 be 79 d2 c1 bd c0 ce 32 be
       -0.18225604 -0.15977195 -0.094639726 -0.17461681
0003c0 2b 18 d9 3c da 63 7e be 1a a6 33 be 2f 07 7d 3e
       0.026500782 -0.24842778 -0.17543831 0.24709772
0003d0 9d 99 8c be f8 3c da bd ad e0 be be 5a 57 a2 3d
       -0.27460948 -0.1065616 -0.3728079 0.07926817
0003e0 9f 3b 51 be 0e 99 b7 3e 1b 63 dc bd 32 dd 5d be
       -0.204329 0.3585896 -0.1076109 -0.2166641
0003f0 63 bc 13 bd b1 5f 60 be 26 d4 13 be 2c 50 06 be
       -0.03606833 -0.21911503 -0.14436397 -0.1311652

fc3.weight f4 [25, 256]
000000 f3 e1 a0 bd 19 c2 bc 3c 03 96 3c 3e ad ed 00 3c
       -0.078555964 0.023041772 0.184166 0.007869166
000010 07 3e 8c 3e 02 cd c2 3e cc 74 c4 3c ff e6 51 3e
       0.27391073 0.38047034 0.023981474 0.20498274
000020 7f b8 3c be c8 2f cc 3e 66 1c 21 3e 1d ce 00 be
       -0.18429755 0.39880204 0.1573349 -0.12578626
000030 1d 76 9b 3d a3 b4 2f be df 9f ab be 6c 6f 9b bd
       0.07590888 -0.17158751 -0.3352041 -0.075896114
000040 f1 52 c3 bd 15 b9 e7 bc 42 e4 36 3e 50 c4 f6 3c
       -0.09537304 -0.028286496 0.17860511 0.030122906
000050 78 2e c9 3e c1 47 75 3e cd 15 c2 3d 67 b2 d4 bd
       0.39293265 0.23953153 0.094768144 -0.1038559
000060 a4 02 d2 bc d5 a3 d5 3d 5a c9 53 bc 73 c7 ab 3d
       -0.025636025 0.10431639 -0.012926424 0.08387651
000070 e4 c7 45 3d 9a 20 97 bb 4b a1 5c bd 73 ec 78 be
       0.048286334 -0.0046120407 -0.05386476 -0.24308948
000080 9c ee 86 be 5f ec 08 be f2 95 36 be 6f 27 af bd
       -0.2635392 -0.13371418 -0.17830637 -0.08552443
000090 8b e9 60 3d b6 81 80 be 39 5d 6d bc 59 d5 e9 3d
       0.054910224 -0.25098962 -0.014487558 0.11417646
0000a0 24 8c 46 bd 19 64 34 be 34 60 84 3e 4a f0 57 bd
       -0.048473492 -0.17616309 0.25854647 -0.052719392
0000b0 8d 5b df bd cf 15 2c 3f 33 95 9a 3d d2 45 5c 3e
       -0.10906134 0.6722078 0.07547989 0.2151101
0000c0 29 5b 37 bd 99 e1 01 3d a6 dd 09 3d 41 f3 28 3d
       -0.04476467 0.031709287 0.033658646 0.04124761
0000d0 eb a6 f9 3d 16 e9 cc bc 11 2a c6 bd 84 57 04 3d
       0.1219004 -0.025013488 -0.09675992 0.032310024
0000e0 a5 92 88 3e 15 57 a9 3d 7d 5e 0d bc 1d 81 c1 3e
       0.2667438 0.08268563 -0.008628485 0.37793818
0000f0 4f 1a 4e 3d f6 59 9d 3e f8 60 08 3e 7a 5a 39 3e
       0.05031806 0.30732697 0.1331824 0.1810092
000100 69 b2 04 be f1 d9 f5 3e 0b 4d 59 3e 9b 7a 00 be
       -0.12958683 0.4801784 0.21220796 -0.1254677
000110 ce 7f f3 bc 19 17 f2 bd 6b 19 fe 3e 5b bc c7 3b
       -0.029724028 -0.11820812 0.49628767 0.006095452
000120 5c 44 28 3f 83 21 4b be a2 6d 03 bd 02 01 a0 3e
       0.6572931 -0.19837002 -0.032086976 0.3125077
000130 32 91 07 be 6e 9a 6a 3c 5d 18 c7 3d 5e c9 0d 3e
       -0.13238981 0.0143190455 0.09721444 0.13846347
000140 42 8f aa 3e 2f db 98 3d f6 74 0d 3f 5b 9d 6b be
       0.33312422 0.07463681 0.55256593 -0.23009245
000150 00 9c 5b be 86 be 96 3b be 60 ca 3d 44 b3 c3 3d
       -0.21446228 0.004600349 0.09881733 0.095556766
000160 88 1b fc 3d cc 46 ce 3d 46 9c 16 be cd 6f 60 3d
       0.12309939 0.10072097 -0.14708051 0.05479412
000170 d2 91 46 3f 60 c1 51 3e af 89 4b 3e 3b 7d cf 3e
       0.77566254 0.20483923 0.19876741 0.4052523
000180 a0 85 b3 3e 98 69 0d 3e 52 66 00 bd cb b9 10 bd
       0.35062885 0.13809812 -0.03134758 -0.035333436
000190 4e 18 90 bd 5c 0f a5 be 7e 61 6e bd 62 d0 07 be
       -0.07035886 -0.3223828 -0.058198445 -0.13263085
0001a0 a3 c9 6e be 1a 8d d2 3d 1d 26 8c 3d b6 1d 9e b9
       -0.23319106 0.10280819 0.06843207 -0.00030158245
0001b0 9a 28 94 3c a8 34 2f be 08 6a 1a bd b1 4e a2 bd
       0.018085767 -0.1710993 -0.037698776 -0.079251654
0001c0 67 ab ff bd 31 c9 71 be c1 86 86 bd 31 68 d3 bc
       -0.12483864 -0.23611905 -0.06568671 -0.025806518
0001d0 e9 ba b7 3e c4 69 84 3d 20 95 95 bd 9b 73 22 be
       0.3588479 0.06465486 -0.07303834 -0.15864412
0001e0 6b cf 8b bd b5 4d fd 3e b3 d7 c5 be ec ad 3d 3d
       -0.06826671 0.49473348 -0.38641128 0.046308443
0001f0 d9 2d 5e 3d 7c fc 1e 3e 5d 8b 30 bc 65 94 7a 3e
       0.054242942 0.15526003 -0.010775414 0.2447067
000200 34 29 b3 3c 2b c5 bd be be 42 3e be b5 0a af bc
       0.021870233 -0.3706449 -0.18580148 -0.02136741
000210 7c 3f 12 3e 8f 71 89 3d 7d 00 2e be 60 76 8d 3d
       0.1428203 0.06711113 -0.16992374 0.06907344
000220 6c ec fb bd 53 b9 29 bc fb 38 a5 bb 39 dd de 3c
       -0.12300953 -0.010359126 -0.005042193 0.027205097
000230 67 2c 99 be 77 99 bb 3e 6b a7 3e 3e ad 36 11 be
       -0.2991669 0.36640522 0.18618552 -0.14181013
000240 0e 1b 1e 3d 38 58 ba bd ec f6 3e bd 82 63 86 bd
       0.03860002 -0.09098858 -0.0466222 -0.06561948
000250 6f 6e b5 bd 56 bc 5a be 7f 6d d5 3d f2 93 d1 bd
       -0.08858954 -0.21360907 0.10421275 -0.102332965
000260 8e 98 48 bd 3b 6a d6 3d 58 01 5c 3c f3 6b da bd
       -0.048973612 0.104694806 0.013428055 -0.10665121
000270 98 7b 9e 3e 56 b2 61 3f 46 1b c0 bd cf bd 6a be
       0.3095367 0.88162744 -0.09380202 -0.22923969
000280 3b ee bd bd a5 ca d8 3d 5e 74 28 3e d8 9e b4 bd
       -0.092739545 0.105855264 0.1645064 -0.088193595
000290 ae 4a df 3e e1 ae 5e 3e a5 e4 40 be ae 7e d5 3d
       0.43611664 0.21746399 -0.18837221 0.10424553
0002a0 cf de 41 bd 47 ac 0e be 02 92 1e 3e eb eb 65 3e
       -0.047331627 -0.13932906 0.15485385 0.22453277
0002b0 6c 30 a3 bd 49 fb 44 3c 38 70 a2 3b b1 fc 88 3e
       -0.0796822 0.012022802 0.004957225 0.26755288
0002c0 1a 3e 2e be eb 3e 03 3d 79 a8 af be 0b f0 6a bc
       -0.17015877 0.032042425 -0.34308222 -0.014339457
0002d0 ee 6c 04 3e c6 b1 33 3d c1 87 4a 3e 1c fc 0b be
       0.12932178 0.04387071 0.19778349 -0.13670391
0002e0 c5 fd 3a be 17 22 e5 3e 65 a0 c6 3e db 8b 8c 3e
       -0.18260868 0.4475257 0.38794246 0.2745045
0002f0 08 29 e9 bc f7 8e fa 3d 52 de d8 3d 96 f5 81 bd
       -0.028461948 0.122343 0.10589279 -0.0634567
000300 9a 66 f6 3e f1 ac 6d 3e 90 c3 cb bd 85 da af bd
       0.48125154 0.23210503 -0.0994941 -0.08586601
000310 6e 8f 3a 3e ee c1 3e 3e 44 41 42 3d cd c0 56 be
       0.18218777 0.18628666 0.047425523 -0.20971985
000320 28 fa 4e 3e 80 f0 12 bd d4 86 e1 bd df eb b6 3e
       0.20212615 -0.03587389 -0.110120445 0.3572683
000330 cd fc 9d bd 71 43 18 3e ef c6 3d 3c 79 f9 05 3f
       -0.077142335 0.14869477 0.011583074 0.5233379
000340 fc 99 8f be 67 27 9b 3d 8e 83 a2 bc 77 80 01 3e
       -0.28047168 0.07575875 -0.01983812 0.12646662
000350 cc b8 07 3d 41 44 30 bc 3b 3b 8b 3d 37 04 0a 3d
       0.03313522 -0.0107584605 0.06798407 0.033695426
000360 33 f6 9c 3e 40 62 e5 bc 0b 3b c0 bd 57 b1 f9 bc
       0.30656585 -0.02800095 -0.093862616 -0.03048007
000370 80 a4 a0 be 41 ec 2e bc b1 92 9c bc df 35 51 3e
       -0.31375504 -0.0106764445 -0.019112917 0.20430706
000380 ec c2 88 3d ca 72 8d 3d 46 c6 ec 3d a9 20 81 bd
       0.066778034 0.0690666 0.11561255 -0.063050576
000390 ca 64 87 bd f0 e0 82 bc 1d 25 1c 3c 4a 5f 02 bd
       -0.06611021 -0.0159764 0.009530333 -0.031829156
0003a0 1d e6 05 be ef 31 02 be 8f 09 a4 3c cd f5 38 be
       -0.13076063 -0.1271436 0.02002409 -0.18062516
0003b0 47 b4 ae be 27 65 de bd c5 1c 09 bb 54 57 27 3e
       -0.34121916 -0.10859137 -0.002092169 0.16341907
0003c0 5a 2b f5 bb a0 c5 3d 3f fd cc 65 bd a4 5e eb 3e
       -0.0074819745 0.74129677 -0.056103695 0.45970643
0003d0 f8 9b 8d bd ac c0 5e 3e c0 d8 82 bd 00 11 04 3f
       -0.06914514 0.21753186 -0.06388998 0.5158844
0003e0 69 fa 80 3c d7 4e d2 3e 3f 99 3c bd 65 ff 85 bd
       0.015744405 0.41075775 -0.046044584 -0.06542853
0003f0 c0 9c be bd 15 19 d1 3e dd 61 76 3e c9 da da bc
       -0.093072414 0.4083945 0.2406077 -0.026715653

fc3.bias f4 [25]
000000 8a ac 59 3f 6c 2d 8f 3f b5 fd 8a 3f 3c 86 5c 3f
       0.850289 1.1185737 1.0858675 0.86142325
000010 a7 11 58 3f de ac 6f 3f 9e 5b 6d 3f 71 1c 64 3f
       0.84401935 0.9362315 0.9271792 0.891059
000020 3c 24 4e 3f 89 36 6d 3f 64 09 76 3f a7 69 84 3f
       0.8052404 0.9266134 0.9610808 1.0344743
000030 38 5c 87 3f 03 1b 5e 3f 08 1a 69 3f 3d 4e 9f 3f
       1.0575018 0.86759967 0.91055346 1.2445751
000040 bf a8 50 3f 41 3b 75 3f fb 12 42 3f 15 65 47 3f
       0.81507486 0.9579354 0.7581021 0.77888614
000050 5c 5c b1 3f d1 98 a6 3f 30 bf 64 3f 4d a1 20 3f
       1.3856311 1.3015386 0.8935423 0.62746125
000060 7d 8b 70 3f
       0.9396284
