examples/carla_scenic/Carla_Challenge/trained_model_2022-06-11/agent_path/policy_net_1400.pt (torch, 79447 bytes, 6 tensors)

fc1.weight f4 [64, 10]
000000 9f a6 85 bf f6 b4 a3 3b 45 5f f8 be c9 ec b8 3e
       -1.0441474 0.0049959375 -0.48510185 0.36118153
000010 82 c2 92 3d 42 5f 2d bf ac b1 04 40 98 65 2d 3f
       0.07166006 -0.67723477 2.0733442 0.67733145
000020 1d e8 07 bd 92 2d 8d bf ae ed 91 3f 88 49 7f be
       -0.033180345 -1.1029532 1.1400659 -0.24930394
000030 13 0e de 3d cd 61 d5 3e 89 07 2b bf f1 da 78 3f
       0.10842528 0.4167618 -0.6680837 0.9720908
000040 69 49 59 3f c6 86 5a 40 86 d5 9a c0 b5 25 b2 bf
       0.8487764 3.414476 -4.838565 -1.3917757
000050 68 33 f2 bf b0 cf 84 bf 33 bb 8b bd 94 07 0e bf
       -1.8921938 -1.0375881 -0.06822815 -0.55480313
000060 c9 3e f2 3e 58 0b fe be ae b8 1f bf 80 cd 9b bf
       0.47313526 -0.4961803 -0.62391174 -1.2172089
000070 69 80 1d bf 11 77 c2 3c 90 15 9b be 20 33 00 be
       -0.61524063 0.023738416 -0.30289888 -0.12519503
000080 79 34 91 bf 84 5f d3 bc 64 f2 48 3a 4f 6f f6 bd
       -1.1344138 -0.025802381 0.00076655135 -0.12032949
000090 aa b0 e9 3e 9f 91 d8 be dd d3 33 c0 03 68 63 bf
       0.45642596 -0.422986 -2.809806 -0.88830584
0000a0 52 37 1a c0 61 69 a5 be cb 73 18 3d 85 97 6a 3e
       -2.4096265 -0.3230696 0.037219804 0.22909363
0000b0 50 b4 98 3e 53 99 af 3d b7 64 95 3e 3c 56 d6 bf
       0.29825068 0.08574166 0.29178402 -1.6745067
0000c0 e5 e8 4f 3d cf 7e 98 bf ee e3 b9 c0 79 10 d1 bf
       0.050759215 -1.1913699 -5.8090734 -1.6333152
0000d0 d6 f1 2b 3c 36 b2 d3 3d dc 91 67 bc 06 62 28 3c
       0.01049467 0.103367254 -0.014133897 0.010277277
0000e0 f0 ab 5d 3d 56 0d 8c 3e e5 7c 95 3f 66 cd 64 3d
       0.05411905 0.27353925 1.167874 0.055859946
0000f0 57 8f 05 bf d6 b5 8c 3f 5f 01 4f bf 6c 59 a6 3e
       -0.52171844 1.0992992 -0.8086147 0.32490098
000100 01 5a 36 3e c3 e6 2f bd e8 d6 83 bf 32 81 8a 40
       0.17807771 -0.04294468 -1.0299959 4.328271
000110 ca b1 d5 c0 d0 d4 2f c0 5f db 11 40 4a ae a3 3f
       -6.677953 -2.747364 2.2790143 1.2787564
000120 57 91 3c be 25 b0 07 bf 15 80 ea 3e 32 61 c9 3e
       -0.18414818 -0.5300315 0.45800844 0.39331967
000130 18 a7 79 3f 25 90 c3 c0 06 3b c2 3f ce b4 d7 be
       0.9752059 -6.111346 1.5174263 -0.4213013
000140 d3 1c 97 3f 52 04 5c bf bc f2 41 be 53 92 17 bb
       1.1805671 -0.8594409 -0.18940252 -0.0023127988
000150 73 11 0d 3d d2 8c 6f 3f f7 61 43 3f f7 84 5b bd
       0.03444047 0.9357425 0.7632136 -0.053593602
000160 78 ed d4 3e bc d8 cb be df e4 0a 40 ac bf 3b 40
       0.41587424 -0.39813793 2.1702192 2.9335737
000170 98 0b 20 bf be fa b9 bd b5 63 c2 bd 84 d9 66 3f
       -0.6251769 -0.090810284 -0.09491674 0.9017565
000180 32 34 f7 3f d4 2d d6 bf f9 38 b7 3f 64 b7 1e be
       1.9312804 -1.6732736 1.4314262 -0.15499645
000190 bc 49 cc 40 0a 31 03 40 d9 6a ca 3d 14 31 38 bd
       6.384001 2.049868 0.09883661 -0.04496868
0001a0 78 a3 45 3b 9f 43 fa 3d e9 a8 c4 3e a0 17 d6 bc
       0.003015725 0.12219929 0.38410118 -0.026134312
0001b0 80 02 33 3f 9b a5 32 be 36 ec b2 be c9 15 2e 40
       0.6992569 -0.17445986 -0.3494584 2.7200797
0001c0 19 e4 87 bf 15 51 2d 3c da d3 81 3e 08 0a 91 3f
       -1.0616485 0.0105784135 0.25356942 1.1331186
0001d0 d6 d5 7e 3f f0 e3 c8 3f 98 df c4 c0 79 66 9f bf
       0.9954504 1.5694561 -6.152294 -1.2453147
0001e0 fe d2 a4 3f 02 fd f7 3e 8b 6b c8 bc aa 3f a2 3e
       1.287689 0.48435217 -0.024465343 0.31689197
0001f0 e2 42 87 be d2 90 b8 bc c7 b3 85 3e 12 50 9d c0
       -0.26418215 -0.022529993 0.26113722 -4.916024
000200 32 1a 0b 3f e4 a8 17 3f 54 06 3b be 39 22 5f bf
       0.54336846 0.5924208 -0.18264133 -0.87161595
000210 a7 e8 53 bf 15 1c 7e be bb 16 73 3d 5e 5e 21 bd
       -0.82776874 -0.248154 0.05934785 -0.039396636
000220 5a 6c 24 3f 99 c1 48 40 ed 61 8e c0 fe fb 17 c0
       0.6422783 3.1368163 -4.449454 -2.3747554
000230 e6 7b 88 bf e5 1f 8a bf 38 10 e0 be 48 c6 64 be
       -1.0662811 -1.0790983 -0.43762374 -0.22341263
000240 dc d3 0e be 38 d6 71 3f a4 88 94 3f e8 1f 65 c0
       -0.13948005 0.94467497 1.16042 -3.5800724
000250 3f ce 40 3f d1 86 39 3e ad 58 85 be 57 5b fe 3d
       0.75314707 0.18117835 -0.26044217 0.124197654
000260 19 bd 94 bf f2 ab af bb 8c f8 91 bc 40 91 b7 3b
       -1.1620208 -0.0053610737 -0.017818712 0.005602032
000270 3f 0f 84 3d fe a3 87 3c 65 a5 ac bf 1c b6 4c be
       0.064482205 0.01655769 -1.3487974 -0.19991344
000280 2f 67 86 bf 81 66 45 bd fa 18 5f 3e 69 0f 75 3e
       -1.0500239 -0.04819346 0.21786872 0.2393166
000290 c7 1a 46 3f 9f 81 0f 3f b1 10 9a bd 34 eb 9d be
       0.7738461 0.5605716 -0.07522715 -0.30843508
0002a0 3f 7d f0 3f 89 bb b6 3e 46 45 50 c0 5c ae 0f c0
       1.8788222 0.35689953 -3.254228 -2.245017
0002b0 fc 56 6c bf ac fe 76 be 35 28 98 3c 66 f3 8c 3f
       -0.9232023 -0.24120587 0.01857386 1.1011779
0002c0 44 4d 25 40 2d 6f ea be bc ae c1 bf 1e 56 c8 bf
       2.582841 -0.45787945 -1.513145 -1.5651281
0002d0 0e 3e b5 3f cf e4 26 3f 3a 8b ae bf 20 27 19 be
       1.4159563 0.65192884 -1.3636239 -0.14956331
0002e0 8e 0b 91 be 98 fd 40 3f 4c 0a d6 3f 81 e7 aa be
       -0.28329128 0.75386953 1.6721892 -0.33379748
0002f0 f9 3e 89 3f e1 ac 2e bf bf 1a f4 3e f9 ce 28 40
       1.0722343 -0.6823254 0.47676656 2.6376326
000300 a1 4e 01 bf 87 5f 88 3e 9d 73 51 3d 1e 82 3b 3f
       -0.50510603 0.26635382 0.051135648 0.7324542
000310 27 52 7e 3f 59 40 8f bf 77 de 68 bf 32 d4 dc 3e
       0.99344105 -1.1191512 -0.90964454 0.43130642
000320 11 26 81 bf e7 2d df 3f 49 df 4a c0 bb e9 bf 3c
       -1.0089742 1.7435883 -3.1698782 0.023426881
000330 50 f1 18 bd 8d 71 02 3f 9d 89 de be 21 e0 15 3f
       -0.03733951 0.50954515 -0.43464366 0.5854512
000340 69 c2 ea be 50 60 05 bf 71 76 41 3f 42 bd 48 3f
       -0.45851448 -0.52100086 0.7557135 0.78413785
000350 bf 9f 0a c0 d9 39 3b 3e b9 7a d0 3e 12 a3 55 bf
       -2.1660001 0.18283786 0.4071863 -0.8345195
000360 70 f2 af bf d2 e4 8e c0 ac 7f 07 40 e0 c4 41 be
       -1.3745861 -4.465432 2.1171675 -0.18922758
000370 76 47 cc 3f f0 7f e0 3f ec c9 72 be 4e 4c ee bd
       1.5959308 1.7539043 -0.2370984 -0.11635648
000380 c4 6e b9 3e 46 58 88 3f fa 86 ae bf 9d 82 70 c0
       0.3621732 1.0651939 -1.3634942 -3.757972
000390 29 c9 3b 3f b7 4d 1e 3f 44 4d 99 3f fd 48 d8 3f
       0.7335382 0.61837333 1.1976705 1.6897274
0003a0 31 d0 33 bf c5 9f c8 3d f4 ee d7 3d ba 3f 87 3f
       -0.7023955 0.097960986 0.105436236 1.0566323
0003b0 46 81 0f 40 a0 97 95 c0 cc 33 e5 3f 1e 74 af bd
       2.2422652 -4.674759 1.7906432 -0.085670695
0003c0 b3 48 36 bf c7 1b 4a bf c7 b3 ec bf e0 b5 29 bb
       -0.7120468 -0.78948635 -1.8492364 -0.002589576
0003d0 4e fe 34 bc 30 1b dd bc da 5a 89 3f 7e 5d 14 be
       -0.011046959 -0.026990503 1.0730851 -0.1448879
0003e0 6c 1c 59 c0 1a 7d 7f bf 73 65 57 3f ea c5 ad bf
       -3.3923597 -0.99800265 0.84139174 -1.3576024
0003f0 e4 74 5f 3d 3e 89 da bd 5b 82 2d be 42 76 76 3e
       0.054554835 -0.10670708 -0.16944258 0.2406855

fc1.bias f4 [64]
000000 2c 35 1f 40 82 d7 b7 bf 0e 46 e6 3f 4b 0e 5e bf
       2.4876204 -1.4362643 1.7990129 -0.8674056
000010 31 ce 00 be cb 55 d5 be 8b aa d4 bf 6c 4f 29 c0
       -0.12578656 -0.41667017 -1.6614546 -2.6454725
000020 f3 27 42 be 32 5c 06 c0 ef 97 ac bf e3 46 aa bf
       -0.18960552 -2.0993772 -1.3483866 -1.3302883
000030 6a 95 cf be 16 5d be 3f 10 2a f2 bf 8d ad b4 bf
       -0.4054368 1.4872158 -1.8919086 -1.4115463
000040 84 6b e2 bf e4 25 51 be 40 95 06 40 12 16 81 be
       -1.7689061 -0.2042461 2.1028595 -0.2521215
000050 46 a1 46 3f db a1 0e bf 81 ec 50 c0 32 bd 60 bf
       0.77589834 -0.5571572 -3.264435 -0.8778869
000060 9f 68 18 c0 30 56 bb bf e4 f3 f0 bf fb e8 ac 40
       -2.3813856 -1.4635677 -1.882443 5.40344
000070 60 d3 60 bf a2 2b dd be c4 6a cc 3f b6 dc 36 be
       -0.8782253 -0.43197352 1.5970082 -0.17857632
000080 04 fe 91 bf 7d e3 f7 bf 71 73 83 bf 2c 32 a5 bf
       -1.1405644 -1.9366299 -1.0269605 -1.2905936
000090 7d d9 59 c0 0c 16 32 bf 85 93 22 40 68 87 80 be
       -3.4038994 -0.6956489 2.5402539 -0.25103307
0000a0 02 ba b6 bf a3 a0 03 40 b4 5b 0c c0 6e 19 dc bf
       -1.4275515 2.0566795 -2.193097 -1.719526
0000b0 b2 e8 0b 40 86 27 c6 be e4 94 7a bf bf 26 87 be
       2.1860776 -0.3870203 -0.9788344 -0.26396748
0000c0 67 ed 4b c0 6f 0a 50 40 aa 5b 27 40 ef c3 0e 40
       -3.186365 3.2506368 2.6149697 2.2307088
0000d0 12 f3 52 3e 76 1e 9b bf 93 a7 a3 bf e5 7b ca bf
       0.20600536 -1.2118671 -1.2785515 -1.581906
0000e0 9d a6 46 40 02 c4 6a bf c1 43 89 3f 12 83 4e 3f
       3.1039193 -0.91705334 1.0723802 0.8066875
0000f0 62 02 0e 40 a7 da 39 3d 97 ea 13 bf ea 08 09 bf
       2.2188954 0.04537454 -0.5777983 -0.53529227

fc2.weight f4 [256, 64]
000000 39 00 36 be 8d 76 85 bd 4e cb c8 be fc aa 11 be
       -0.17773522 -0.065167524 -0.3921761 -0.14225382
000010 33 6a 7e 3f 10 07 b7 3b b2 51 5a bd d7 00 61 bf
       0.993808 0.0055855587 -0.053300567 -0.87891906
000020 62 6b 0e bf 02 dc 92 3d 89 55 b5 be 9a 64 86 ba
       -0.55632603 0.071708694 -0.3541682 -0.001025337
000030 2a c6 a8 3c 2b 83 3e 3e c7 a5 8f 3e e6 39 31 bd
       0.020602304 0.18604724 0.28056166 -0.043268107
000040 28 16 99 be b1 4c a4 3a f1 06 2b bf 2d 8a ee 3b
       -0.29899716 0.0012535063 -0.66807467 0.0072796554
000050 83 33 a0 3e fb cd 9a bf 14 0a 4b be eb b2 4c 3e
       0.312893 -1.209411 -0.19828063 0.19990127
000060 4b 00 74 3d 01 e2 40 bf b6 d0 36 bf 46 1a d1 be
       0.059570592 -0.75344855 -0.7141222 -0.40840358
000070 68 3c dc be c7 b2 45 3d 02 7e 62 bf 25 82 90 be
       -0.43014836 0.0482662 -0.8847352 -0.28224292
000080 8f 52 c7 bf 51 af 5b bf ea 06 3a be db a1 77 bf
       -1.557207 -0.85814387 -0.181667 -0.96731347
000090 06 f5 ba 3d a2 0d bb 3b a3 63 e0 bd f0 4e 62 3e
       0.09128766 0.0057084123 -0.10956504 0.22100425
0000a0 74 bc 0e bf e2 cc e6 bd ff 4e 1f bf 58 67 16 be
       -0.55756307 -0.11269547 -0.62229913 -0.1468786
0000b0 55 0e 01 bf 5d f1 12 bf b6 01 0e be 77 9f 20 be
       -0.50412494 -0.5739954 -0.1386784 -0.15685831
0000c0 6e 20 d0 be d5 f3 c1 3e 82 9b 64 bd 3b 7e c0 be
       -0.40649742 0.37881342 -0.055812366 -0.37596306
0000d0 2f 92 48 bf 5b 08 4c bf d2 3d 94 3d 39 db 84 bf
       -0.7834806 -0.7970025 0.07238354 -1.0379401
0000e0 80 21 aa be a0 5c 3d be 92 54 f0 3e a3 92 1b bf
       -0.33228683 -0.18492365 0.46939522 -0.60770625
0000f0 c7 6c 6f be 27 05 e8 bd 20 d6 14 c0 86 8f 84 bf
       -0.23381339 -0.11329108 -2.3255692 -1.03563
000100 93 92 1e bf a6 36 92 3e 08 fb cc be 39 94 d8 be
       -0.61942405 0.28557318 -0.40035272 -0.42300585
000110 25 28 ac 3e 97 3d fb be 71 56 a8 be 5e d8 2f be
       0.33624378 -0.49070427 -0.3287845 -0.17172381
000120 5c c0 b6 be c3 cf 9c bf 68 4a 83 bd 64 84 20 3d
       -0.35693634 -1.2250904 -0.06410676 0.039188758
000130 5e 75 16 c0 b8 db 78 be b6 f7 24 be 35 7a f1 bd
       -2.3509135 -0.24302566 -0.16110119 -0.11790887
000140 68 39 54 bd f0 b6 48 be 58 57 05 bc c0 f8 20 bf
       -0.05181256 -0.19601035 -0.0081385 -0.6287956
000150 53 fc f6 bc 7c b4 c9 be 2f 54 d9 3d cc 4e 06 be
       -0.030149614 -0.3939551 0.1061176 -0.13115996
000160 82 61 b9 bd 87 f2 13 bf a8 77 99 be 0b c5 b3 be
       -0.09051801 -0.5779194 -0.29974103 -0.3511127
000170 04 dc c8 be 74 32 9e 3d 1b 7f 82 be 76 85 06 bf
       -0.3923036 0.07724467 -0.254876 -0.52547395
000180 af 19 87 3e 2f a2 28 3f 4f 15 a2 be 15 c3 6d 3d
       0.26386783 0.6587247 -0.31656882 0.058047373
000190 47 4c 13 3f 53 10 c4 be 46 42 22 3e 2b b7 b2 be
       0.57538265 -0.38293704 0.15845594 -0.3490537
0001a0 73 59 4b bf 6a 05 4a 3c 9b 5e 1d bf 06 2f ea be
       -0.79433364 0.012330392 -0.6147248 -0.45739
0001b0 06 fd 5a be 20 36 bc bd a1 38 e9 bd be df 3a 3e
       -0.21385583 -0.09190011 -0.11387754 0.18249413
0001c0 11 b1 ed 3e b7 4d 47 3e 9a 78 06 be e0 7a 99 be
       0.46424153 0.1946324 -0.13131943 -0.2997656
0001d0 52 3d 05 bf 1a bd 96 be 1e b1 13 bf af 8a 4b bf
       -0.5204669 -0.29441148 -0.57692134 -0.7950849
0001e0 a7 e5 30 bf b2 05 fa be 51 01 3a bf 64 e8 d1 bd
       -0.6910042 -0.4883247 -0.7265826 -0.10249403
0001f0 94 e4 5a be 7f 96 0e bd af d6 fc bf 9d 41 ce be
       -0.21376258 -0.034811493 -1.9753016 -0.40284434
000200 d6 08 58 3e b0 0d d3 be 4d b3 bc be 30 f9 81 be
       0.2109712 -0.4122138 -0.36855546 -0.25385427
000210 87 fb 20 be ba 92 ee 3d 28 83 90 3d e0 8f 51 bd
       -0.1572095 0.116490796 0.07056266 -0.0511626
000220 b6 e0 0d bf 75 17 43 be 02 3d d7 3d 83 59 dc be
       -0.55421007 -0.19051917 0.10509683 -0.43037042
000230 e5 94 a6 be 4c ef 21 be c3 0e 56 be 58 a7 93 be
       -0.32535473 -0.15813941 -0.20904069 -0.2883861
000240 08 2d 71 bf b5 e3 fd 3e dc ff 55 3e 6f 06 06 be
       -0.9420934 0.4958779 0.20898384 -0.13088392
000250 ee 2e 32 bf 9b d0 26 bf 2a 57 11 bd d9 02 4e be
       -0.6960286 -0.65162057 -0.035483517 -0.20118274
000260 32 f9 21 3e 12 fd b8 be 0b c1 95 be 5b 52 50 bf
       0.15817717 -0.36130577 -0.29248843 -0.81375664
000270 04 c7 d4 be f2 09 51 3f 05 02 8f bf a2 20 55 be
       -0.41558087 0.816558 -1.1172491 -0.2081323
000280 6f 1b 28 bf d5 ab 2d bf 6e e7 aa be 96 66 ce bc
       -0.6566686 -0.6784032 -0.33379692 -0.025195401
000290 0e ce 07 bf d6 f2 f6 bd 2c a1 f9 be 6c 11 78 3e
       -0.5304879 -0.12058036 -0.48755777 0.24225396
0002a0 9b 8e 8a bf 5e 6c d7 be 99 5f 7c bf 49 94 ba be
       -1.082477 -0.42074865 -0.9858337 -0.36441258
0002b0 f5 0a 22 bf 5f 13 85 bf 4b 57 80 3d 0a 4c 45 bd
       -0.6329797 -1.0396537 0.0626665 -0.04816822
0002c0 18 5e 3a bf 82 29 bf bf 48 d1 b1 be 25 ea 2b bf
       -0.72799826 -1.4934542 -0.3472998 -0.6715415
0002d0 df bd 9f bf 59 3f 9a bd 60 f5 45 be d2 15 4a bf
       -1.2479819 -0.07531614 -0.19331884 -0.78939545
0002e0 2c 6e 09 bf 3e 31 d2 be 94 b4 b6 be 89 70 eb 3e
       -0.53683734 -0.41053194 -0.35684645 0.45984295
0002f0 16 ae 52 bf 13 19 ae be 22 b5 a2 bd e1 d8 3b bf
       -0.82296884 -0.34003505 -0.079447046 -0.73377806
000300 02 7a ba be b0 fc cf bd 00 8b 82 be 9e eb 98 be
       -0.3642121 -0.10155618 -0.25496674 -0.29867262
000310 b7 0f 0c bf 4d cd 07 3e 2c 73 ed bd 94 fa d2 bc
       -0.5471148 0.1326191 -0.11594233 -0.02575425
000320 8b 77 09 bf 89 90 69 bd 6c a0 59 bc e8 9b 9f be
       -0.53698033 -0.057022605 -0.013282876 -0.31173635
000330 d7 17 2a bd db ca 13 bf 64 40 c2 be 1a 3b 9c 3d
       -0.04152664 -0.5773141 -0.3793975 0.0762846
000340 a5 2b 9d bf be 27 03 bf 12 10 26 bf ce fd 81 be
       -1.2278944 -0.51232517 -0.6486827 -0.2538895
000350 d9 31 e6 bd 4f 7a 02 3f 7d 77 b2 be 5a ab 2e 3c
       -0.112399764 0.5096788 -0.34856787 0.010660971
000360 fb 24 85 bd b9 86 e1 be cb b9 d6 be e3 e1 01 bf
       -0.06501194 -0.44048098 -0.41938624 -0.507353
000370 da 08 93 3e e0 2f cb 3d 01 58 8f 3e 20 04 6c bd
       0.2871769 0.09921241 0.2799683 -0.05762112
000380 8a a8 09 bf c0 e5 a0 be 78 8e 08 bd 01 b4 af bd
       -0.53772795 -0.31425285 -0.033338994 -0.08579255
000390 c5 10 db 3c e3 2b e1 be 6a fc 05 bf 61 7d 98 be
       0.026741395 -0.43978795 -0.5233828 -0.29783157
0003a0 ea 14 26 3d c6 6b 7f be 38 95 8d be 69 e8 62 be
       0.04054729 -0.24943456 -0.27652907 -0.2215897
0003b0 e7 c7 cb be 1e 4f 8f be 48 af 98 3c c2 31 dd be
       -0.3980095 -0.2799005 0.018638268 -0.43202025
0003c0 be 15 07 bf a7 3d c2 be 38 c6 b1 be 91 f3 25 be
       -0.5276755 -0.37937662 -0.3472154 -0.16206194
0003d0 65 8f 76 be 58 f4 1a bf da ee 51 3e 6a aa 68 3c
       -0.24078138 -0.6052909 0.20501271 0.014200786
0003e0 ac f3 a4 bc cf 71 34 bf bc 83 4f bd 79 53 d6 bd
       -0.020135723 -0.7048616 -0.05066274 -0.1046514
0003f0 4c 86 12 bf 2a bc 3c 3d d4 ce ac bd 8c c5 2f be
       -0.5723617 0.046077885 -0.08437887 -0.17165202

fc2.bias f4 [256]
000000 b5 b3 39 bf 42 d9 fa be 94 28 72 be 96 dd 12 bf
       -0.72539836 -0.4899388 -0.23648292 -0.57369363
000010 67 17 1c 40 62 94 43 bf ab 4d c9 be 9f df d5 be
       2.4389284 -0.7639829 -0.39317068 -0.41772172
000020 75 75 72 be 8f 79 3c bf 93 26 4c 3e 48 4c 88 be
       -0.23677619 -0.73622984 0.1993659 -0.26620698
000030 d2 de 65 be 7a 8b bd 40 90 b0 b2 be 41 c8 d2 be
       -0.2244828 5.923276 -0.34900331 -0.41168407
000040 be 63 00 be 3f b0 c3 bd c2 76 03 3e 54 3d 1b bd
       -0.12538049 -0.09555101 0.12838271 -0.037900284
000050 57 38 f5 bd 83 67 6b bf f1 38 a4 be 03 9f 00 bf
       -0.119736366 -0.9195482 -0.32074693 -0.5024263
000060 56 2c 54 bf 65 16 c0 be e3 44 03 3f a7 13 50 3f
       -0.8288015 -0.37517086 0.5127699 0.8127999
000070 35 19 13 bf bd c8 b5 bc f4 73 69 bf b6 2b fb 3a
       -0.5746034 -0.022190446 -0.91192555 0.0019162807
000080 ef 90 66 bf 82 3c a2 3f 79 1d f8 bd ae 11 57 bf
       -0.900649 1.2674716 -0.121149965 -0.8401135
000090 a6 d7 e2 be 2c f5 25 bf 58 7d f7 be 4a a7 db bf
       -0.44305152 -0.6482723 -0.48337817 -1.7160428
0000a0 bd cd 33 bf 41 49 e5 be c4 b7 39 be 10 d6 f4 bc
       -0.70235807 -0.4478245 -0.18136507 -0.02988723
0000b0 ad 09 94 3e 8c b9 48 40 af af b1 bf 8d 5e 99 3f
       0.28913632 3.136325 -1.3881739 1.198198
0000c0 69 24 24 3e 3e 06 bd be 0a ef 7f 3f 5d dd a6 bf
       0.16029514 -0.36918825 0.9997412 -1.3036305
0000d0 be e0 60 3e 6b b4 85 bf fd d6 0e bf 7e 40 1f 3e
       0.21960732 -1.0445684 -0.55796796 0.15551946
0000e0 1a 44 29 bf 3a 01 3a bf 62 1e e7 3d 5b d8 92 be
       -0.6611954 -0.7265812 0.11285092 -0.2868069
0000f0 26 27 02 bf 8f 34 b0 be f6 0e 9c bf 69 0e 24 bf
       -0.50840986 -0.344151 -1.2192066 -0.6408449
000100 db 20 c8 be ce f8 1a c0 94 f9 fe bd b6 fe 15 bf
       -0.39087567 -2.4214358 -0.12449947 -0.58591783
000110 f1 53 a3 be c3 88 4d 3f 82 0d 33 bc 00 96 2e bf
       -0.3189998 0.80286807 -0.0109285135 -0.6819763
000120 8f 60 0c bf a4 e1 69 bf 5f 04 c6 bf b5 1a 23 bd
       -0.54834837 -0.91359925 -1.5470084 -0.03982039
000130 ec 21 85 be 5e 59 c7 be 2b e8 07 be 7e 8b 14 be
       -0.26002443 -0.3893537 -0.13272159 -0.14506337
000140 16 da ac bf b3 9b 63 bf a4 5e 80 3f 0a f6 87 bf
       -1.3504055 -0.88909453 1.0028882 -1.062196
000150 ea c7 e8 3e f2 9b c7 3c f5 3b 89 3f 46 82 10 bf
       0.45465022 0.024366353 1.0721422 -0.5644878
000160 79 a8 a8 bc 53 48 4b be 6a bd 39 bf d4 36 24 be
       -0.020588147 -0.19851808 -0.7255465 -0.1603654
000170 87 d7 3c bf 8a cd b6 bf bc 96 48 3d a7 93 4a bf
       -0.7376637 -1.4281476 0.048971877 -0.7913155
000180 16 50 01 bf 8f d6 16 bf 04 6a 48 3f d3 1a 18 3f
       -0.50512826 -0.5892114 0.78286767 0.5941593
000190 3e 87 37 bf 93 d0 f1 3d d9 8f 8a be 5f 35 a8 3e
       -0.7169074 0.118073605 -0.27062872 0.3285322
0001a0 95 ef 61 bf d5 ca 22 bf 4f 68 5e bd ef 4e 89 bf
       -0.882562 -0.6359075 -0.054298695 -1.0727214
0001b0 f0 4f 71 bf de eb 18 bf 1f 8a 13 3f 4d c4 b4 bf
       -0.942626 -0.59734905 0.5763263 -1.4122406
0001c0 4d ad 83 bf c0 a4 d1 3e 54 6d c3 be 8b 7f f6 be
       -1.0287262 0.40946007 -0.38169348 -0.48144183
0001d0 7a 8f 72 be 94 cf 96 be ea 84 4a bf b0 53 aa bf
       -0.23687544 -0.29455245 -0.7910906 -1.3306789
0001e0 7e 87 6d bf bb 56 dc bd 0d 00 b9 be 46 b8 3e bf
       -0.9278487 -0.1075873 -0.3613285 -0.7449993
0001f0 99 f6 9a bf 2a 65 ff bf 50 40 c6 be 70 dd 3c bf
       -1.2106506 -1.9952748 -0.38720942 -0.73775387
000200 9c 04 84 bf 14 ea b9 be 27 40 65 bf 59 8a 96 bf
       -1.0313907 -0.363114 -0.89551014 -1.176097
000210 d7 4c 0f bf bf dc 27 bf a3 81 a4 be cd 6c e3 3e
       -0.55976623 -0.65571207 -0.32130155 0.44418946
000220 a4 da 4c bf 62 ec f8 bf 98 9f 72 3e 75 ff e1 3f
       -0.8002112 -1.9447138 0.23693693 1.7656084
000230 4c 3b 72 bf 88 6a 06 bf e1 c8 4e bf ba 30 62 bf
       -0.9462173 -0.52506304 -0.80775267 -0.883556
000240 48 74 a2 bd 34 f7 e0 3f ff dc d0 be d0 77 a5 bf
       -0.07932335 1.757544 -0.40793607 -1.2927189
000250 ad 8e 82 be 7f ac 7d bf 28 ed b2 be 78 5e 89 bc
       -0.25499478 -0.99091333 -0.3494656 -0.016768679
000260 8d 50 b7 bf 6b 3c 5f bf f9 c1 85 be 7c e4 98 40
       -1.4321457 -0.87201566 -0.26124552 4.777891
000270 c8 f2 53 be cc 26 ae bf 99 af 25 bf 6f f5 e9 be
       -0.20698082 -1.360559 -0.64721066 -0.45695063
000280 71 7a 81 bf da bc bb be 71 0f 14 3e fc 7f 10 bf
       -1.0115491 -0.3666752 0.14459015 -0.5644529
000290 0b a7 35 3e 2d f7 4a bf 3a b0 1f bf 3b 33 9f bd
       0.17739503 -0.7928341 -0.62378275 -0.07773443
0002a0 04 1d e9 be c3 73 80 3f da 17 d2 bf d9 44 9a bf
       -0.4552995 1.0035328 -1.6413529 -1.2052261
0002b0 6d cf da be 3d 41 d0 be be df 7e bf c0 71 82 3f
       -0.42736378 -0.40674773 -0.99560153 1.0190964
0002c0 78 c3 28 bf 87 99 36 bf 72 ee df 3e 80 2c 76 3e
       -0.6592326 -0.71328014 0.43736607 0.24040413
0002d0 76 b1 c7 be 4c 99 9f bf de 01 85 3d f2 04 0f bf
       -0.3900258 -1.2468657 0.06494497 -0.5586692
0002e0 8c 66 1e be a5 3e 12 bf 72 74 63 bf f1 e3 34 be
       -0.15468806 -0.5712684 -0.88849556 -0.17665078
0002f0 2a 43 5a bf 8d fb 44 bd 2c e2 11 bf b8 42 5d bf
       -0.85258734 -0.04809146 -0.56985736 -0.8642993
000300 e3 e8 23 40 96 30 2a bf 28 fe bf be 7e 21 74 bd
       2.5610893 -0.66480386 -0.37498593 -0.059602253
000310 63 93 db bd d3 fe b8 be 20 7f eb 3e 82 92 5c bf
       -0.10721471 -0.36131915 0.45995426 -0.86161053
000320 4c 2d 84 3f de 81 a3 bf 8e 79 3d bf a1 eb 17 bf
       1.0326324 -1.2774007 -0.740136 -0.59343916
000330 9d 6e b2 be 4b 4e 23 be da 28 3b bf 16 79 09 bf
       -0.34850016 -0.15947835 -0.7310921 -0.5370039
000340 94 d9 53 bf 06 8f f7 bd 94 69 d0 3d 6b 91 2f bf
       -0.8275387 -0.120878264 0.101763874 -0.68581265
000350 3f 25 b2 3d d3 26 2a bf b7 d5 0d be f6 c6 a9 be
       0.086985104 -0.6646549 -0.13851057 -0.33159608
000360 a5 0b 5b bf 69 07 4a bf df 3c 9f 40 9e de b7 be
       -0.85564643 -0.78917557 4.9761806 -0.3591203
000370 9a 44 ae bd b1 44 87 bf 03 0d 63 be fb d1 f9 be
       -0.085091785 -1.0567838 -0.22172932 -0.48793015
000380 8d 48 2c be 2e a3 5b bf 3f ae 6d bf ef 30 d3 bc
       -0.16824551 -0.8579587 -0.92844003 -0.02578017
000390 3e ed 86 bf 2e a2 2c bf e7 4a 09 bf 82 e8 47 be
       -1.054115 -0.67434967 -0.53629917 -0.19522288
0003a0 68 2f 86 3f 71 75 c7 3e 5c 1c 12 bf 53 c1 cb 3c
       1.0483217 0.38956788 -0.5707452 0.024872458
0003b0 05 86 4c be 23 03 d3 be d6 e0 01 bf 35 8c fe be
       -0.19973 -0.4121333 -0.507337 -0.49716344
0003c0 b0 da 21 3f a2 4f 78 bf 86 09 21 be 02 a3 58 bf
       0.63224316 -0.9699651 -0.15726289 -0.8462373
0003d0 91 85 49 be 97 b2 a0 bf 91 af f4 be 6f b2 c3 3e
       -0.19679858 -1.2554501 -0.47790197 0.38222072
0003e0 4c d3 70 3e 1a 6a 7a bf eb 0c 42 bf 47 96 28 bf
       0.23518103 -0.9781815 -0.7580096 -0.65854305
0003f0 da cd 52 bf c7 cb d9 3d 0a b6 58 bf 27 d8 97 3d
       -0.82345355 0.106345706 -0.8465277 0.07414275

fc3.weight f4 [8, 256]
000000 31 7d 98 3d 8c 63 53 3e 2d e9 1a 3d 4e 74 15 be
       0.07445753 0.20643443 0.03782003 -0.14595148
000010 3c 4e e5 3e 2c db 0e be fe 10 3e be 61 f8 1b be
       0.4478625 -0.13950795 -0.1856117 -0.15231468
000020 a9 bf 5a 3e f8 af b0 be c8 73 ba 3e 80 73 d5 3d
       0.21362175 -0.34509254 0.3641646 0.104224205
000030 4d 8f 4a bd a4 8b ba 3e 31 a1 8e 3e af 5b fc be
       -0.04945307 0.36434662 0.27857354 -0.492887
000040 d6 ab 39 be 89 c3 d8 be 3d ce 1d 3f 87 54 f3 3e
       -0.18131956 -0.4233668 0.6164282 0.47525427
000050 91 94 46 be 96 ec ae 3e fa 45 f8 3e e3 ba a4 3e
       -0.19392611 0.34164876 0.48490888 0.32173833
000060 da fd 5e 3d 1a 5f 42 bd c1 96 08 3f 2f 5c 66 be
       0.05444131 -0.047453977 0.5335503 -0.22496103
000070 7e 5f fe 3e 08 3c bc 3e 0c f9 7c be ea c1 84 3e
       0.4968223 0.3676455 -0.24704379 0.25929195
000080 17 4e 36 3d 0a 1c ba be 5d 3c 08 3e 7f 42 d9 be
       0.044508066 -0.36349517 0.13304277 -0.42433545
000090 f5 08 e2 3e f1 99 85 bd ab e9 49 3f 8e 98 77 bf
       0.4414746 -0.065235026 0.78872174 -0.96717155
0000a0 15 8b f2 3e 1a aa 8d 3e 13 9a 90 3c fd d8 a4 3e
       0.47371736 0.2766884 0.017651593 0.321968
0000b0 38 cc d3 3e 05 5f 6a 3e e4 76 b6 3b c4 9a 88 3f
       0.41366744 0.2288781 0.005568372 1.0672231
0000c0 42 2a a5 3e 34 7c 15 3e 55 21 96 be 57 99 92 3e
       0.32258803 0.14598161 -0.29322305 0.28632614
0000d0 26 f9 8d be dd 6c 1b 3d 3e 18 0a 3d be c7 55 be
       -0.27729148 0.037945617 0.033714525 -0.20876977
0000e0 2a 79 0b 3e 17 79 a2 3d 83 08 11 3f dd 42 72 3d
       0.13620439 0.07933252 0.5665361 0.059145797
0000f0 1b 60 86 be a4 cb dd bd 97 4d 1a be 5b b7 a1 3e
       -0.26245198 -0.10829857 -0.1506866 0.31585202
000100 ad a4 a4 3e a9 1e b8 3c aa b1 08 3f 0d 4a ef 3e
       0.32156888 0.022475557 0.53396094 0.46736184
000110 ee 9f 40 3f 2c 21 a1 3e 9b bc 8e 3e e3 54 3d 3e
       0.75244033 0.3147062 0.2787827 0.18489413
000120 4e 37 b6 3d 89 ae bb be 2b 69 12 bc 37 07 29 be
       0.08897267 -0.36656597 -0.008936207 -0.16506658
000130 ed 70 15 bf 1c 71 1c bd 1c a4 3f be a5 6e 22 3e
       -0.58375436 -0.038193807 -0.18714947 0.1586252
000140 20 0c 0a 3f 1f e9 ee be 13 57 84 3f 75 a7 51 3f
       0.5392475 -0.46662232 1.0339073 0.81896144
000150 f8 aa ce be 5a d5 9a be 4c b5 ba be eb 34 19 3f
       -0.40364814 -0.302409 -0.36466444 0.5984637
000160 e0 a5 eb bd 1e 8f 06 3f 53 3f 30 be 97 c8 2f 3d
       -0.115062475 0.5256213 -0.17211656 0.042915907
000170 d3 d8 12 bf 47 48 a6 3e 37 ed a1 3e 0f a6 98 3e
       -0.573621 0.32477018 0.31626293 0.29814193
000180 1f c0 c5 3c 2d 39 00 bd 23 52 8b 3d a5 31 32 3e
       0.024139462 -0.031304527 0.06802776 0.1740175
000190 24 f3 08 3e e6 77 92 3e d8 e8 f6 3d 43 0a 53 be
       0.13374001 0.286071 0.1205613 -0.20609383
0001a0 04 95 1d bf 36 ed 30 3d 56 e9 90 3e 2d f0 48 3e
       -0.61555505 0.043194972 0.2830302 0.1962287
0001b0 ee 00 d1 3e 0d 5f 4f 3e b4 1d 8a 3f f7 64 ff 3d
       0.40821022 0.20251103 1.0790315 0.124704294
0001c0 ac 32 0e 3f 39 da 76 3e 31 2f e5 3c 97 19 7b be
       0.5554607 0.24106683 0.027976604 -0.2452148
0001d0 5e a6 7d be 7f 62 28 3e da 33 8e 3e 6b 0e 5b 3d
       -0.24770495 0.16443823 0.27773935 0.053480547
0001e0 2a a1 bc be e3 e1 02 3e cc 84 a3 3e 63 ac e1 bd
       -0.36841708 0.12781481 0.31937253 -0.11019208
0001f0 1e 44 8c 3e 0d a1 99 3e c5 30 9a be 86 cd f7 be
       0.2739572 0.30005684 -0.30115333 -0.4839899
000200 96 f1 1c 3e b5 fd 9f 3e eb de aa 3e 96 30 38 3e
       0.15326533 0.3124825 0.33373198 0.17987284
000210 c9 4a bc 3e f6 4d 00 3c 1b 99 11 be b5 80 1c 3f
       0.36775807 0.007831087 -0.14218561 0.6113389
000220 53 9e d9 be e9 8a fb 3e 18 ba 4e 3e eb af f2 3e
       -0.42503604 0.49129418 0.20188177 0.4739984
000230 9c b4 32 3f fc ac 17 be 8a a5 12 3f e2 4f 3e 3f
       0.6980684 -0.14812082 0.5728384 0.7434064
000240 47 d8 3a be 5f b5 05 3f 05 0c 99 3d 31 94 1b 3f
       -0.18246566 0.52229875 0.07472996 0.60773
000250 fb 76 5d 3f 3b 82 d4 3e 5d 05 61 3e 60 82 7c 3e
       0.86509675 0.41505608 0.21974702 0.24659109
000260 db b3 ee bd 80 72 85 3e 7c f9 8e 3e 9e c9 43 3e
       -0.116553985 0.2606392 0.27924716 0.1911988
000270 0a 3f ee 3d 50 c9 a9 be 39 90 d5 3e cb 63 ed 3e
       0.116331175 -0.33161402 0.41711596 0.46365198
000280 74 df 49 3e bd d9 1c be a4 6c 64 3e 6a 4f 0f be
       0.19714147 -0.15317436 0.22307068 -0.13995138
000290 6f 85 4c 3e 86 02 2d 3e 43 62 24 3d 95 3d 8b 3e
       0.19972776 0.16895494 0.040132772 0.2719542
0002a0 90 17 ea 3d 9f 9e 04 3e 9e 02 f9 3e 15 74 9d 3e
       0.114302754 0.12951134 0.4863481 0.30752626
0002b0 9f 6c fe 3d 2f d4 11 3d c9 28 66 be 2e e9 64 3e
       0.124230616 0.035602745 -0.22476496 0.22354576
0002c0 1a 6c 08 3f c5 28 26 3e 98 a4 93 be 1e 02 7f be
       0.5328995 0.1622649 -0.28836513 -0.24903151
0002d0 48 09 1f be 0c 82 38 3c 34 48 8c 3e 56 fe 36 be
       -0.15530884 0.011261474 0.27398837 -0.17870459
0002e0 03 4f c8 3e 0f 68 78 be 33 d4 13 3f b0 e7 1a 3f
       0.3912278 -0.24258445 0.57745665 0.6050978
0002f0 e5 4b 5f 3d a5 1d 42 3f 7b e6 b3 3e fa 9f 12 bc
       0.054515738 0.75826484 0.3513678 -0.008949274
000300 c7 9a b2 3d 67 b9 f8 be 8b 33 b1 3d 3d 14 13 3f
       0.08720928 -0.4857895 0.08652409 0.57452756
000310 0a cf 66 be 14 1e 30 3f 80 62 5d bf c3 85 30 3e
       -0.22539917 0.68795896 -0.86478424 0.17238526
000320 a5 b8 25 3f 38 dd de 3e 13 e3 d2 bd c1 1f c4 be
       0.6473487 0.43528152 -0.10297217 -0.38305476
000330 1d 47 18 3f 4f 46 27 3f 10 27 d1 be 55 52 92 3d
       0.5948351 0.6534166 -0.40850115 0.0714461
000340 74 50 4e 3e 14 76 d5 be 9a 7d 1d bd 92 95 94 3e
       0.20147878 -0.4169165 -0.03844986 0.29020363
000350 fc 15 6b 3f 4a 0d 52 3f 2c db dd 3e c0 84 66 be
       0.9183042 0.8205153 0.43331277 -0.22511578
000360 8d ab 07 bf e5 dc 73 be 7a 3f 8e 3e e7 14 8d 3e
       -0.5299614 -0.23814733 0.27782804 0.2755501
000370 80 d8 a7 bc c1 ea 20 bf b2 1d ee bd 26 c5 e7 3d
       -0.020488977 -0.62858206 -0.11626758 0.113169
000380 e4 bc cf 3e 6d 12 ce be bd 95 5c 3e 40 6d 12 3f
       0.405738 -0.40248433 0.21541496 0.5719795
000390 8c 22 0e 3e bc 30 07 3f 2e 56 1d 3f e4 dd 28 bd
       0.13880366 0.5280874 0.61459625 -0.041227236
0003a0 b4 89 47 3e 8e f1 a6 39 e5 3b 96 3e d5 c7 f0 3e
       0.19486123 0.0003184196 0.2934257 0.4702746
0003b0 07 f6 99 bd 89 c6 cb b8 09 1c 19 3e d2 46 9b bd
       -0.07517629 -9.7167744e-05 0.14952101 -0.07581867
0003c0 2e 7c db be bc 21 46 be 76 c4 b4 bb 8b 33 c0 3e
       -0.4286818 -0.19348806 -0.005516584 0.37539324
0003d0 06 8a 47 3f 13 e6 cd 3e 34 fa 63 3e a5 dd 28 3d
       0.7794498 0.40214595 0.22263414 0.041227
0003e0 b6 16 24 3f e3 f8 15 3e ba 1d 03 3f f3 20 ba 3d
       0.64097154 0.14645724 0.51217234 0.09088316
0003f0 38 09 6a bf 1d 5e 2f 3f 4d 1d b6 3e 77 e9 84 bf
       -0.91420317 0.6850298 0.3556923 -1.0383748

fc3.bias f4 [8]
000000 c9 58 8b be 54 21 6c be d5 31 13 bf da fd 0f 40
       -0.27216175 -0.23059589 -0.5749791 2.2498689
000010 4f f4 0b be e7 81 14 3d c1 fe 58 3f 8b 87 f5 bf
       -0.13667415 0.036256697 0.84763724 -1.918199
