examples/carla_scenic/Carla_Challenge/trained_model_2022-06-11/agent_path/policy_net_400.pt (torch, 79447 bytes, 6 tensors)

fc1.weight f4 [64, 10]
0	0x3e80a44a	0.25125343
1	0xbf01e6a8	-0.5074258
2	0xbf592caa	-0.84833777
3	0xbe001240	-0.12506962
4	0xbe8bb61a	-0.2728737
5	0x3e18d568	0.14925158
6	0x3fb2a067	1.3955201
7	0xbf7f6e87	-0.99778026
8	0x3fb69e86	1.4267128
9	0x3ea17457	0.31534073
10	0xbe6c532c	-0.23078603
11	0xbe972a17	-0.295243
12	0xbe1eec39	-0.155198
13	0xbda7984f	-0.081833474
14	0xbd23e8be	-0.040016882
15	0x3e8d0e01	0.27549747
16	0x3e8e3657	0.27775833
17	0x3f07da2a	0.53067267
18	0xbf3fbe63	-0.7489988
19	0xbe833e85	-0.25633636
20	0xbda7b437	-0.0818867
21	0xbe25fab7	-0.16208921
22	0x3e0428af	0.12906145
23	0xbd3fd1bf	-0.04683089
24	0x3e22c4a9	0.15895332
25	0x3c978db1	0.01850018
26	0x3e3f76b7	0.1869763
27	0x3fab9e90	1.3407764
28	0xbebf72e3	-0.3739234
29	0x3d5cdc5a	0.05392108
30	0xbe9e55dd	-0.30924883
31	0xbde679c7	-0.11253696
32	0xbf8f17d0	-1.1179142
33	0xbd5b1436	-0.05348607
34	0x3d1f4717	0.038886156
35	0xbe0929a4	-0.13394791
36	0x3eddfcbc	0.43356884
37	0xbed11627	-0.40837213
38	0xc0322a6e	-2.7838397
39	0xbf5ec68c	-0.8702171
40	0xbf20e30b	-0.6284644
41	0xbdb1e47f	-0.0868616
42	0xbf1fd855	-0.6243947
43	0xbe78c18c	-0.24292582
44	0xbd4f8f6d	-0.05067389
45	0x3cb77014	0.02239231
46	0xbfb2e43e	-1.3975904
47	0x3f93fa6f	1.1560801
48	0xbeedc0ce	-0.4643616
49	0x3da43aac	0.08019003
50	0xc0010bbd	-2.0163414
51	0xbec3dc83	-0.38254175
52	0x3c9edade	0.019391473
53	0xb9ebcb19	-0.00044974012
54	0xbb2d5a87	-0.0026451664
55	0xbb7c3534	-0.003848386
56	0x3d2fd7c1	0.04293037
57	0x3da453f6	0.08023827
58	0x3e1cc6dc	0.15310234
59	0x3d946169	0.07245142
60	0xbe9ef5f0	-0.3104701
61	0x3f288e4a	0.65842116
62	0xbedb7930	-0.42865896
63	0xbe25a15c	-0.16174835
64	0xbccff8f7	-0.02538727
65	0xbe0e2fef	-0.13885473
66	0x3c4419a2	0.011969002
67	0x3f28cca9	0.65937287
68	0xbfbb0847	-1.4611901
69	0xbf15c2c7	-0.5850033
70	0x3fecd681	1.8502961
71	0x3ea7e3eb	0.32791075
72	0xbee58877	-0.44830677
73	0xbb99e714	-0.004696736
74	0xbb80dd50	-0.0039326325
75	0x3d675504	0.05647756
76	0xbe12ce49	-0.14336504
77	0x3d06b37b	0.03288601
78	0xbf29fe6c	-0.6640384
79	0xbd9a29aa	-0.07527478
80	0x3f933d05	1.1502997
81	0x3cde9c87	0.027174247
82	0xbf0769df	-0.5289592
83	0xbd16e90a	-0.036843337
84	0x3d8dbf3b	0.0692124
85	0x3e99327a	0.29921323
86	0x3f4966fa	0.78672755
87	0xbf42959a	-0.76009524
88	0xbdc9bee1	-0.098508604
89	0xbe398cd1	-0.18120123
90	0x3c8ce0be	0.01719701
91	0x3e3fb3be	0.1872091
92	0xbf0690c2	-0.5256463
93	0xbe2699fd	-0.1626968
94	0xbcc21475	-0.023691395
95	0x3e168180	0.14697838
96	0xbe5fddbc	-0.21861929
97	0x3e91cc93	0.2847639
98	0xbf2f5ffc	-0.68505836
99	0xbef0b145	-0.47010246
100	0x400402ae	2.0626636
101	0x3f23861b	0.63876504
102	0x3c3b392d	0.011427206
103	0xbb31bd13	-0.0027120754
104	0x3c14453b	0.009049709
105	0x3ce68fd5	0.028144756
106	0x3dfa205b	0.122132026
107	0x3cf07a37	0.029355152
108	0xbe648748	-0.2231723
109	0xbd55cb30	-0.052195728
110	0xbec219ed	-0.37910405
111	0x3eaf713f	0.34266087
112	0x3d113e4f	0.035459813
113	0x3d5eef3c	0.05442737
114	0xbbe88348	-0.007095728
115	0x3dee81e1	0.11645866
116	0x3ff0e0cd	1.8818604
117	0xbfd14dc2	-1.6351855
118	0xbe1f3330	-0.1554687
119	0xbf201d65	-0.6254485
120	0x3ec455c7	0.38346693
121	0xbd089097	-0.033341017
122	0xbeb70b9f	-0.35751054
123	0x3e3029fc	0.17203516
124	0xbd4ce1e5	-0.050020117
125	0x3da69291	0.08133424
126	0xbf4e5cb5	-0.8061021
127	0x3f84420f	1.033266
128	0xbfac05e0	-1.3439293
129	0x3de0d9b4	0.109790236
130	0xbf4502a8	-0.7695718
131	0xbf596b34	-0.84929204
132	0xbf176d01	-0.591507
133	0x3d1adb71	0.037806932
134	0x3dff9144	0.12478879
135	0xbeba845e	-0.36429113
136	0x3dfe91aa	0.12430127
137	0x3f2dd6ab	0.6790568
138	0xbf36c24e	-0.71390235
139	0xbea08c01	-0.31356815
140	0xbeb0115d	-0.34388247
141	0xbef410a8	-0.47668958
142	0x3ca8f724	0.020625658
143	0xbe2c6eb2	-0.16839102
144	0x3da79b44	0.081839114
145	0x3ec8a5cb	0.3918899
146	0x3f39d6ed	0.72593576
147	0xbea65f1b	-0.32494435
148	0xbf419aaa	-0.75626624
149	0xbf7de0a0	-0.99170876
150	0xbe8558ad	-0.26044217
151	0x3dfe5b57	0.124197654
152	0xbf94bd19	-1.1620208
153	0xbbafabf2	-0.0053610737
154	0xbc91f88c	-0.017818712
155	0x3bb79140	0.005602032
156	0x3d840f3f	0.064482205
157	0x3c87a3fe	0.01655769
158	0xbfaca565	-1.3487974
159	0xbe4cb61c	-0.19991344
160	0xbf2d7b27	-0.6776604
161	0xbdc98fb8	-0.09841865
162	0xbe1b21b6	-0.15149578
163	0x3daab31a	0.08334942
164	0x3cc00c6b	0.023443421
165	0xbe0c79a1	-0.13718273
166	0x3f4e191a	0.8050705
167	0xbf33b94e	-0.7020463
168	0x3f8346da	1.0255997
169	0x3ec83fba	0.3911112
170	0xbf1a7296	-0.60331094
171	0xbe8a6bee	-0.2703547
172	0xbf5261ae	-0.821803
173	0xbdef7efd	-0.11694143
174	0x3cc7193b	0.024304023
175	0xbbe5e288	-0.00701553
176	0x3f8d1db7	1.1024693
177	0xbec43a7c	-0.3832587
178	0xbf9c056e	-1.2189157
179	0xbf567fd8	-0.83788824
180	0xbf0050d6	-0.50123346
181	0xbf368907	-0.7130284
182	0xbeaaf3e2	-0.33389193
183	0xbdac85e8	-0.08423978
184	0xbd9d6cca	-0.076867655
185	0x3e8d5c48	0.27609468
186	0x3d6ff083	0.05857898
187	0x3f3753df	0.7161235
188	0xbf8bd103	-1.092316
189	0xbee6d080	-0.45080948
190	0x3ef47dc8	0.47752213
191	0xbdaf99df	-0.085742705
192	0xbf08ab7f	-0.5338668
193	0xbde56f0f	-0.11202823
194	0xbe44d6ac	-0.19222516
195	0xbe9584ea	-0.29202968
196	0xbf16d426	-0.5891746
197	0xbeb7d5f7	-0.3590543
198	0xbee4e521	-0.4470606
199	0xbe63cdfb	-0.22246544
200	0x3f3dc691	0.74131113
201	0x3f8b643b	1.0889963
202	0xbdc346a8	-0.09534961
203	0x3d5836de	0.0527867
204	0xbb9c6163	-0.0047723516
205	0x3e6a16d6	0.22860274
206	0x3ed401c0	0.41407585
207	0x3e386dab	0.18010585
208	0xbf6abb6c	-0.91692233
209	0xbf128f48	-0.5724988
210	0xbda49f05	-0.08038143
211	0x3e3d449a	0.184832
212	0xbf89aa8e	-1.0755174
213	0xbdcc86a2	-0.09986617
214	0x3ca60b3b	0.020269027
215	0x3e773a40	0.24143314
216	0x3e237110	0.15961099
217	0xbfde67f6	-1.7375476
218	0x3fb109df	1.3831137
219	0xbbb4a7c3	-0.005513163
220	0x3f425145	0.7590526
221	0x3f71fcb1	0.945262
222	0xbc118ab2	-0.008883165
223	0xbdbdc147	-0.0926538
224	0xbc130fb5	-0.008975913
225	0x3b6ddf12	0.003629629
226	0x3f340c25	0.7033103
227	0xc06127a5	-3.5180447
228	0x3f4ed211	0.80789286
229	0xbf51f439	-0.8201328
230	0xbee940a6	-0.45557135
231	0x3d1370a7	0.035996106
232	0xbefb90bf	-0.4913387
233	0xbced9319	-0.029000806
234	0xbd9ef4a2	-0.07761504
235	0x3e21ca5b	0.15799849
236	0x3f637df1	0.88864046
237	0xbee61058	-0.44934344
238	0x3e0a6f02	0.13518909
239	0x3f22b260	0.6355343
240	0xbf35ddc3	-0.71041507
241	0xbe46614b	-0.19373052
242	0xbed55686	-0.41667575
243	0x3c8dc984	0.017308004
244	0x3cec82d6	0.028870981
245	0xbd69ca44	-0.05707766
246	0x3edf5a6c	0.43623674
247	0x3f388b76	0.720878
248	0xbfea058e	-1.8282945
249	0xbea9bb46	-0.3315069
250	0x3ea427ec	0.32061708
251	0xbee0da18	-0.43916392
252	0x3dc6761e	0.09690498
253	0xbe19b384	-0.15009886
254	0xbd6270c3	-0.05528332
255	0x3d89c956	0.06727855

fc1.bias f4 [64]
0	0x3ecd48ea	0.40094692
1	0xbf8e8f4f	-1.1137484
2	0x3fd495ab	1.6608175
3	0xbf546713	-0.8296978
4	0xbd91e46d	-0.07123647
5	0xbf0583cf	-0.5215425
6	0xbfdf0877	-1.7424458
7	0xbf47b2e1	-0.7800732
8	0xbe16c8e6	-0.14725074
9	0xbf2f46c9	-0.68467385
10	0xbefb9468	-0.49136662
11	0xbeba7c28	-0.3642285
12	0xbe87a10b	-0.26490054
13	0xbcd3dad0	-0.025861174
14	0xbf1524a0	-0.5825901
15	0xbfb4ad8d	-1.4115463
16	0xbf0da82f	-0.5533475
17	0xbfb1051b	-1.3829683
18	0x3dbbed62	0.091761366
19	0xbf74f93a	-0.9569279
20	0x3e5549c0	0.20828915
21	0x3e70b90e	0.23508093
22	0xbf8b14b0	-1.0865688
23	0x3e909db9	0.28245333
24	0xbf92997e	-1.1453092
25	0xbf8b1d81	-1.0868379
26	0xbfb76581	-1.4327852
27	0x4047d8bf	3.1226041
28	0x3f786cd8	0.9704108
29	0xbf2b76f2	-0.6697837
30	0x3ecac50b	0.39603457
31	0xbd9be95f	-0.076128714
32	0xbf478f51	-0.7795306
33	0xbf974de7	-1.1820649
34	0xbf9e2e8e	-1.2357957
35	0xbf5b544a	-0.8567549
36	0xbff9eee5	-1.952603
37	0xbf9b4076	-1.2129047
38	0x3f614fdf	0.880125
39	0xbf506ba8	-0.8141427
40	0xbebbe92a	-0.36701328
41	0x3f06fa52	0.5272571
42	0xbf85fcb8	-1.0467749
43	0xbf6e287c	-0.93030524
44	0x3f99fc80	1.2030182
45	0x3fd7c7a2	1.6857798
46	0xbec1257f	-0.3772392
47	0xbf2d6122	-0.6772634
48	0xbfaac978	-1.3342733
49	0x3fdd961c	1.7311435
50	0x3f0f686d	0.56018716
51	0x3fe1fe5b	1.7655748
52	0x3de17672	0.1100892
53	0xbf82f538	-1.0231085
54	0xbc58dfec	-0.013236981
55	0xbea7616c	-0.32691514
56	0x3fc57387	1.5425881
57	0xbe9ebeff	-0.31005093
58	0xbf265fab	-0.6498973
59	0xbf8f0e37	-1.1176213
60	0x3e9c4b71	0.30526307
61	0xbe5ca669	-0.21547855
62	0xbd8cc2d7	-0.068731
63	0xbf6e4f55	-0.930898

fc2.weight f4 [256, 64]
0	0xbd03d0f8	-0.03218171
1	0x3dd5db62	0.104422346
2	0xbed19f60	-0.40941906
3	0xbe11aafc	-0.14225382
4	0xbdbbacba	-0.09163804
5	0xbe02ed8d	-0.12785931
6	0xbe18085c	-0.14846939
7	0x3d8b01cd	0.06787453
8	0x3e1e6433	0.1546791
9	0xbf3e9d39	-0.7445865
10	0x3e5272eb	0.2055165
11	0xbe991db5	-0.29905477
12	0xbe3def37	-0.18548284
13	0x3e3d68df	0.18497036
14	0xbbaeedae	-0.005338392
15	0xbd3139e6	-0.043268107
16	0xbe60311a	-0.21893731
17	0x3e0b3f5b	0.13598387
18	0x3c70024d	0.014648986
19	0xbebcc97a	-0.36872464
20	0x3ec7ded8	0.39037204
21	0xbddf959c	-0.109172076
22	0xbe94c6b8	-0.2905786
23	0x3d438119	0.04773054
24	0x3d0bd682	0.034140117
25	0xbeece9e6	-0.462722
26	0xbeea89ec	-0.4580835
27	0xbe8551ac	-0.26038873
28	0xbdadbecd	-0.08483658
29	0xbe965297	-0.29359886
30	0xbdd1cec2	-0.10244514
31	0xbe1e4624	-0.15456444
32	0xbe89a8b2	-0.26886517
33	0xbeeb4278	-0.4594915
34	0xbdab585d	-0.08366463
35	0xbdd66b3c	-0.10469672
36	0x3d1d41b3	0.038392734
37	0xbeb8c9c2	-0.3609143
38	0xbee806d0	-0.45317698
39	0xbf0615c9	-0.5237699
40	0xbebd267e	-0.3694343
41	0x3dc812a0	0.097691774
42	0xbeabe082	-0.33569723
43	0x3ee0d2a3	0.43910703
44	0xbeb39eec	-0.35082185
45	0xbecf16d3	-0.404471
46	0xbeb0eb08	-0.34554315
47	0xbef9c2f5	-0.48781553
48	0xbd566042	-0.052337892
49	0x3f131cd5	0.5746587
50	0x3ad3736b	0.001613242
51	0xbeb61173	-0.35560188
52	0xbd9b6756	-0.07588069
53	0xbe9a1da6	-0.30100745
54	0xbeb4c4aa	-0.35306293
55	0xbf212a62	-0.62955296
56	0xbe297880	-0.16549873
57	0xbead6d1d	-0.3387231
58	0x3d2a894e	0.04163485
59	0xbf052146	-0.52003896
60	0xbea846ca	-0.32866508
61	0xbee680a6	-0.45020026
62	0xbed6ae8b	-0.4193004
63	0xbf1b5bfd	-0.6068724
64	0xbe4c75b3	-0.19966774
65	0xbe195b20	-0.14976168
66	0xbdef4606	-0.11683278
67	0xbed89439	-0.42300585
68	0x3e1d89d5	0.1538461
69	0xbe7a471b	-0.24441187
70	0xbe02a9d1	-0.12760092
71	0x3dba23b8	0.09088844
72	0xbe20cdc7	-0.15703498
73	0xbeff323a	-0.49843007
74	0x3dbd7e50	0.09252608
75	0xbe48a241	-0.19593145
76	0xbecdb0e0	-0.40174007
77	0xbd733b42	-0.059382685
78	0xbddfa707	-0.1092053
79	0xbdf17a35	-0.11790887
80	0xbe53915e	-0.20660922
81	0x3e46fa4c	0.19431418
82	0xbdd1d764	-0.102461606
83	0xbec42930	-0.38312674
84	0xbd692147	-0.0569165
85	0xbe7d4b6c	-0.24735802
86	0xbd4c8fe6	-0.04994192
87	0xbcbfaf80	-0.023399115
88	0xbc881ccb	-0.016615292
89	0xbe85101d	-0.25988856
90	0x3dc4f58d	0.096171476
91	0x3d6d43ef	0.057926115
92	0xbe63dbf2	-0.22251871
93	0xbd983874	-0.074326426
94	0x3cd354aa	0.025797207
95	0xbe8f580c	-0.27996862
96	0xbebe5944	-0.3717748
97	0xbe918d7c	-0.28428257
98	0x3be902a5	0.007110911
99	0xbdb706d7	-0.089368515
100	0xbe030c0a	-0.12797561
101	0xbe9a6942	-0.3015843
102	0xbe86c137	-0.26319286
103	0x3b3c8206	0.0028764023
104	0xbf0317e2	-0.5120832
105	0xbc615100	-0.013752222
106	0xbd427bac	-0.047481224
107	0xbec3973c	-0.3820132
108	0xbc5af0d2	-0.01336308
109	0xbb8ad7d8	-0.0042371564
110	0xbdb9cbe1	-0.0907209
111	0xbec61366	-0.38686675
112	0x3e2c79ec	0.16843385
113	0x3d827fc1	0.063720234
114	0xbd832e24	-0.06405285
115	0xbe163ec7	-0.14672385
116	0xbf02c535	-0.51082164
117	0xbed101ab	-0.40821585
118	0xbdeab75b	-0.114607535
119	0xbebe259d	-0.37138072
120	0xbe2e93f1	-0.17048623
121	0xbce99504	-0.028513439
122	0xbe9313e7	-0.28726122
123	0xbdf8c894	-0.12147632
124	0x3cef69c2	0.029225234
125	0xbe9e88c9	-0.30963734
126	0xbe990594	-0.29887068
127	0xbe93f854	-0.28900397
128	0xbdf3914b	-0.11892947
129	0xbe6a5733	-0.22884826
130	0xbc970406	-0.018434536
131	0xbe81f930	-0.25385427
132	0x3d0361f1	0.032075826
133	0xbe813619	-0.25236586
134	0x3d908328	0.07056266
135	0x3e352493	0.17689733
136	0xbf08c0d0	-0.5341921
137	0xbe899c8b	-0.26877245
138	0xbdcd839a	-0.10034867
139	0xbe2a9543	-0.16658501
140	0xbe765654	-0.24056369
141	0x3dded9dc	0.10881397
142	0xbd15bbe4	-0.03655614
143	0xbe93a758	-0.2883861
144	0xbeefb280	-0.46815872
145	0x3eebe41d	0.46072474
146	0x3f251930	0.6449156
147	0x3db50611	0.08839048
148	0xbef712fe	-0.48256677
149	0xbebbe16c	-0.3669542
150	0x3e13220d	0.14368458
151	0xbe477e61	-0.19481803
152	0x3eb22806	0.3479616
153	0xbe72c182	-0.2370663
154	0x3d9af16e	0.0756558
155	0x3e85c605	0.2612764
156	0xbe29fc5e	-0.16600177
157	0x3f39b989	0.7254873
158	0xbefbf0db	-0.49207196
159	0x3ec1208b	0.3772014
160	0x3d7683fe	0.06018447
161	0xbf09a0fe	-0.5376128
162	0x3d9d9cb9	0.07695908
163	0x3e91aa20	0.28450108
164	0xbe5e4606	-0.217064
165	0xbde7105b	-0.112824164
166	0x3eb4efd6	0.3533923
167	0xbcf406aa	-0.029788334
168	0xbec41d03	-0.38303384
169	0x3eb53954	0.353953
170	0xbf6995f6	-0.9124445
171	0xbf118eac	-0.56858325
172	0xbd5e0b35	-0.054209907
173	0xbea1fd8b	-0.3163875
174	0x3c9e5d58	0.01933162
175	0xbda45b92	-0.08025278
176	0xbeacc94c	-0.33747327
177	0xbfaea1dd	-1.3643147
178	0xbd709679	-0.058737252
179	0xbe6ec8f1	-0.2331884
180	0xbf3ac920	-0.7296314
181	0xbd9a3f59	-0.07531614
182	0xbe13188c	-0.14364833
183	0xbf152c5c	-0.5827081
184	0xbec62ed0	-0.3870759
185	0xbf06d980	-0.5267563
186	0xbe878a42	-0.2647267
187	0x3ec252a6	0.3795368
188	0xbec2a3d4	-0.38015616
189	0xbe071f50	-0.13195539
190	0x3d9aef7e	0.07565211
191	0xbecf02fc	-0.40431964
192	0xbe8343d5	-0.2563769
193	0xbd77dd84	-0.060513988
194	0xbe599c0e	-0.21250936
195	0xbe98eb9e	-0.29867262
196	0xbf0c0fb7	-0.5471148
197	0x3e388441	0.18019201
198	0xbded732c	-0.11594233
199	0x3bc498a5	0.005999642
200	0xbf09778b	-0.53698033
201	0x3cda203a	0.026626695
202	0x3ddad419	0.10684986
203	0xbe9f9be8	-0.31173635
204	0xbd2a17d7	-0.04152664
205	0xbf13cadb	-0.5773141
206	0xbec24064	-0.3793975
207	0x3d9c3b1a	0.0762846
208	0xbf991ad5	-1.1961313
209	0xbf0327be	-0.51232517
210	0xbf261012	-0.6486827
211	0xbe81fdce	-0.2538895
212	0xbde631d9	-0.112399764
213	0x3f0a9c12	0.54144394
214	0xbeb2777d	-0.34856787
215	0x3c2eab5a	0.010660971
216	0xbd8524fb	-0.06501194
217	0xbebb06c8	-0.3652861
218	0xbed6b9cb	-0.41938624
219	0xbeef4b07	-0.4673693
220	0x3ea8870a	0.32915527
221	0x3e0f977a	0.14022627
222	0x3e8f5801	0.2799683
223	0xbd6c0420	-0.05762112
224	0xbeea4c42	-0.45761305
225	0xbe8b68e6	-0.2722847
226	0x3e05d5e3	0.13069873
227	0xbcb6635b	-0.022264173
228	0x3cdb10c5	0.026741395
229	0xbee12be3	-0.43978795
230	0xbf05fc6a	-0.5233828
231	0xbea03cd0	-0.31296396
232	0x3d2614ea	0.04054729
233	0xbe514819	-0.2043766
234	0xbe8d9538	-0.27652907
235	0xbe62e869	-0.2215897
236	0xbebb8463	-0.3662444
237	0xbe8f4f1e	-0.2799005
238	0x3c98af48	0.018638268
239	0xbedc2b6d	-0.4300188
240	0xbeeef83a	-0.46673757
241	0xbec23da7	-0.37937662
242	0xbec02b54	-0.37533057
243	0xbdda5207	-0.10660177
244	0xbe768f65	-0.24078138
245	0xbf1af458	-0.6052909
246	0x3e51eeda	0.20501271
247	0x3cc4d620	0.024027884
248	0xbca4f3ac	-0.020135723
249	0xbf3471cf	-0.7048616
250	0xbc9ace32	-0.01889715
251	0xbdd65379	-0.1046514
252	0xbf12864c	-0.5723617
253	0x3d3cbc2a	0.046077885
254	0xbdacced4	-0.08437887
255	0xbe0f3e83	-0.1398869

fc2.bias f4 [256]
0	0xbf1f3f18	-0.6220565
1	0xbe4ac17a	-0.19800368
2	0x3f57106d	0.8400944
3	0xbee1e022	-0.44116312
4	0x400aa7a4	2.166482
5	0xbe689b7e	-0.22715566
6	0xbe9ae609	-0.30253628
7	0x3d4d9371	0.05018944
8	0x3a28235b	0.000641396
9	0x3e1c1436	0.15242085
10	0x3e531ec0	0.20617199
11	0xbdf948d9	-0.12172098
12	0x3def2137	0.11676257
13	0x4025d34d	2.5910218
14	0x3e0a741d	0.13520856
15	0x3e137df4	0.14403516
16	0x3d1c61ee	0.03817933
17	0x3d3e562d	0.046468902
18	0xbdaffc0b	-0.08592995
19	0xbc4f9aed	-0.0126712145
20	0xbdf53857	-0.119736366
21	0x3e010bb3	0.12602119
22	0x3e69406a	0.22778478
23	0xbe92ae37	-0.2864854
24	0xbe86676e	-0.26250786
25	0xbe7a31b8	-0.24433029
26	0xbe354d31	-0.17705227
27	0x3dd94769	0.106093235
28	0xbe48183a	-0.19540492
29	0xbd7a9960	-0.061181426
30	0xbeb18af4	-0.34676325
31	0x3c2708a0	0.010194927
32	0xbf0f1a4b	-0.55899495
33	0x3fd55c88	1.6668863
34	0x3d9a35d3	0.075297974
35	0xbf3dde1e	-0.7416705
36	0x3deae37d	0.11469171
37	0xbec56db1	-0.3856025
38	0xbe5b3f5f	-0.21410893
39	0xbe85b0e1	-0.2611151
40	0xbe27e9fb	-0.1639785
41	0xbdbba1c4	-0.09161714
42	0x3e924da2	0.28574854
43	0x3db9d2b7	0.09073394
44	0x3f55b867	0.834845
45	0x4009283c	2.1430807
46	0xbee1e243	-0.44117936
47	0x3de85527	0.113443665
48	0xbe35d500	-0.17757034
49	0xbcd7bdd1	-0.026335629
50	0xbe13f000	-0.14447021
51	0xbf67d6dc	-0.90562224
52	0xbe959263	-0.29213247
53	0x3d9037a6	0.07041864
54	0x3dd7f7d5	0.10545317
55	0x3ea74210	0.3266759
56	0xbd860c05	-0.06545261
57	0xbe610498	-0.21974409
58	0xbee364e0	-0.444129
59	0xbe63ec5d	-0.22258134
60	0xbeefb8a7	-0.46820566
61	0xbe3d7625	-0.185021
62	0xbf198450	-0.5996752
63	0xbf05046a	-0.5195986
64	0xbeb10e16	-0.3458106
65	0xbfa06faa	-1.2534077
66	0x3e842d5d	0.2581586
67	0xbe965404	-0.29360974
68	0xbf02b620	-0.5105915
69	0x3f196c8b	0.5993125
70	0x3caaafc7	0.02083577
71	0xbf0884a2	-0.5332738
72	0xbebbe6ed	-0.3669962
73	0xbe7cb53b	-0.24678509
74	0xbdbf96e4	-0.09354952
75	0xbe8be68c	-0.2732433
76	0xbe1bed11	-0.15227152
77	0xbe675bec	-0.22593659
78	0x3f975141	1.1821672
79	0xbe7d6c1d	-0.24748273
80	0xbf538344	-0.8262217
81	0xbf1d9efa	-0.61570704
82	0x3fa8e32f	1.3194331
83	0xbf18e84b	-0.5972945
84	0xba2e92ac	-0.0006659429
85	0xbe8d2954	-0.27570593
86	0x3fa77bb6	1.3084629
87	0xbef2ad57	-0.47397873
88	0x3f4be87a	0.79651606
89	0x3e46b572	0.19405153
90	0x3e658210	0.22412896
91	0xbe1972cd	-0.149852
92	0xbe9eaa43	-0.30989274
93	0xbf125bfe	-0.5717162
94	0x3d85d65a	0.06535025
95	0xbe8c2f5a	-0.27379876
96	0xbe2a366d	-0.16622324
97	0xbeeca4ab	-0.46219382
98	0x3d138df6	0.036024056
99	0x3f878641	1.0587846
100	0xbec479c5	-0.38374153
101	0xbeb95a02	-0.36201483
102	0x3c922bea	0.017843205
103	0x3fd22cde	1.6419942
104	0xbd8cfb8e	-0.06883918
105	0xbed9afc1	-0.42516902
106	0x3e8ce5ba	0.27519017
107	0xbf4fae3c	-0.81125236
108	0xbe603bac	-0.21897763
109	0xbefdd122	-0.49573618
110	0x3f8f09d7	1.1174878
111	0xbfa3f968	-1.2810488
112	0xbecd835d	-0.40139285
113	0xbd9379dd	-0.07200978
114	0xbdbf2178	-0.093325555
115	0xbed18a7e	-0.40925974
116	0xbcf25cf3	-0.029585337
117	0x3dad5b64	0.08464697
118	0xbedd3964	-0.43207848
119	0x3c68bad3	0.014204699
120	0xbe2c6aa7	-0.1683756
121	0x3e24cfd8	0.16094911
122	0xbe53c879	-0.20681943
123	0xbeec8cc7	-0.46201155
124	0x3e018d7a	0.12651625
125	0xbefdb0c7	-0.49548933
126	0xbd377f18	-0.04479894
127	0xbf1a4a57	-0.60269684
128	0xbe943f22	-0.28954417
129	0xbe0d6533	-0.13808136
130	0xbf455243	-0.77078646
131	0xbe24c7b4	-0.16091806
132	0xbf28ee19	-0.6598831
133	0x399cc2fd	0.00029899916
134	0xbe476407	-0.19471751
135	0x3f5b4240	0.85647964
136	0xbe12e5dc	-0.14345497
137	0xbf35df1f	-0.7104358
138	0x3ecb5e78	0.3972051
139	0x3e94620a	0.28981048
140	0xbf2bec00	-0.6715698
141	0xbe77067f	-0.24123572
142	0xbf1d1318	-0.6135726
143	0xbde72612	-0.11286558
144	0x3d85f115	0.065401234
145	0xbe6d5514	-0.23176986
146	0x3e95698a	0.29182082
147	0xbf72b55a	-0.9480797
148	0x3f48bf62	0.78417027
149	0xbf021efa	-0.50828516
150	0xbe9d28ef	-0.30695292
151	0x3f28f242	0.65994656
152	0xbf050ef6	-0.51975954
153	0xbed5afff	-0.41735837
154	0xbe36517e	-0.17804524
155	0x3ff06371	1.8780347
156	0x3e3a6583	0.18202786
157	0x3e141537	0.14461218
158	0xbe8ccbae	-0.27499145
159	0xbe899d40	-0.26877785
160	0xbe3ba818	-0.18325841
161	0xbe186057	-0.148805
162	0xbe4ffcc8	-0.20311272
163	0xbd994838	-0.07484478
164	0x3edced62	0.4314986
165	0xbe826d37	-0.2547395
166	0xbecf82d3	-0.40529498
167	0xbeb12eb1	-0.34605935
168	0xbeb8b382	-0.36074454
169	0x3f35148b	0.7073447
170	0xbf77cc7f	-0.9679641
171	0x3d13265a	0.035925247
172	0xbe7945b7	-0.24343
173	0x3fc8c8e5	1.5686308
174	0xbe04145a	-0.12898389
175	0x4011ba78	2.2770061
176	0xbd9334d2	-0.07187809
177	0xbecafbc8	-0.3964522
178	0xbe1cce35	-0.15313037
179	0xbe939208	-0.2882235
180	0xbe3b79f4	-0.1830824
181	0xbf55e222	-0.83548176
182	0x3f9b8226	1.2149093
183	0xbea0bbf7	-0.31393406
184	0xbe2070cc	-0.15668029
185	0xbef83b63	-0.48482808
186	0xbf1d0f90	-0.6135187
187	0x3e864482	0.26224142
188	0x3c9c89f5	0.019108752
189	0x3fc99eca	1.5751584
190	0x3ede71de	0.4344625
191	0x3ec14e18	0.37754893
192	0x3e62ac5b	0.22136061
193	0xbdede6a3	-0.11616256
194	0xbc6d8e65	-0.0144992815
195	0x3e9290d8	0.28626132
196	0x3e841e89	0.25804546
197	0x3d0d4b7d	0.03449582
198	0xbe4f94f7	-0.2027167
199	0xbebdddad	-0.37083188
200	0x3e34d973	0.17661075
201	0xbf2cb5d3	-0.6746494
202	0xbf26d423	-0.65167445
203	0xbf05e1e9	-0.52297837
204	0x3be16d06	0.0068794517
205	0xbe0d9126	-0.13824901
206	0xbf0c1a6a	-0.54727805
207	0xbef44609	-0.47709683
208	0xbe22ea14	-0.15909606
209	0xbdd11cd9	-0.102105804
210	0x3eb7ece9	0.35922936
211	0xbe113980	-0.14182091
212	0x3f7bc320	0.9834461
213	0xbdbccf43	-0.092192195
214	0xbe817b3c	-0.25289333
215	0xbe83f736	-0.25774544
216	0xbf0a3848	-0.5399213
217	0xbe622a0d	-0.22086354
218	0x4030aa06	2.7603774
219	0xbe13b508	-0.14424527
220	0xbcf8a19c	-0.030350499
221	0xbe99796c	-0.2997545
222	0xbe2c8761	-0.16848518
223	0xbf24fc67	-0.64447635
224	0x3edda071	0.4328647
225	0xbe128cb2	-0.14311484
226	0xbf398755	-0.72472125
227	0xbddaf1a8	-0.106906235
228	0xbf1a2252	-0.6020862
229	0xbefbcbc0	-0.49178886
230	0xbf047b6b	-0.5175082
231	0xbe16f52e	-0.14741966
232	0x3f21cfa6	0.6320747
233	0xbdd0c36d	-0.101935245
234	0x3e00d12a	0.1257979
235	0x3d8beb1c	0.06831953
236	0xbe8e434d	-0.2778572
237	0xbeb122bd	-0.34596816
238	0xbeb67d04	-0.35642254
239	0xbe90cad3	-0.28279743
240	0x3e95a4ef	0.29227397
241	0xbf14aa9a	-0.5807282
242	0xbea1a276	-0.3156926
243	0xbeb25eff	-0.348381
244	0x3e4dfd54	0.20116168
245	0xbec780a2	-0.38965327
246	0x3d2ced69	0.0422186
247	0x3f9ed809	1.2409679
248	0xbe0f5fe0	-0.14001417
249	0xbe83c2b2	-0.25734478
250	0x3ed57767	0.4169266
251	0xbf230acb	-0.63688344
252	0xbd864fb6	-0.065581724
253	0x3daf2ec0	0.08553839
254	0xbe9c8f76	-0.30578202
255	0xbed068af	-0.40704867

fc3.weight f4 [8, 256]
0	0x3e519d48	0.20470154
1	0xbedef6ec	-0.4354776
2	0x3df65f02	0.1202984
3	0xbe15744e	-0.14595148
4	0x3ec8c62d	0.39213696
5	0xbe274cc1	-0.16337873
6	0xbe473251	-0.19452788
7	0xbeab7a49	-0.33491734
8	0x3e87641d	0.26443568
9	0xbe5bc1f7	-0.2146071
10	0x3ec675d2	0.38761765
11	0x3e0b3e5a	0.13598004
12	0xbe448646	-0.19191846
13	0x3eec7ebc	0.4619044
14	0xbebddc6d	-0.37082234
15	0xbe8fa8f2	-0.28058583
16	0xbe5a31a5	-0.21308
17	0xbee8f277	-0.45497486
18	0xbc98a41a	-0.018632937
19	0x3e8341a4	0.25636017
20	0xbe469491	-0.19392611
21	0xbed0d2e5	-0.407859
22	0x3f1efea7	0.6210732
23	0xbe28352c	-0.16426533
24	0xbc699fbf	-0.014259278
25	0xbda2283b	-0.079178296
26	0x3db5c67f	0.08875751
27	0xbdc2e3d8	-0.09516114
28	0x3f09d4e2	0.5384046
29	0x3df3fa82	0.11913015
30	0xbea507de	-0.32232565
31	0xbeaa8932	-0.33307797
32	0xbc689850	-0.01419647
33	0x3eeda5d4	0.4641558
34	0x3d204863	0.039131533
35	0xbe4ed6b9	-0.20199098
36	0xbf1e1657	-0.6175284
37	0xbddcc5e5	-0.10779933
38	0x3e95c4f9	0.2925184
39	0xbe473286	-0.19452867
40	0xbe6876e0	-0.22701597
41	0x3dfc15b8	0.1230883
42	0xbe2e658a	-0.17030922
43	0x3e83f650	0.2577386
44	0x3f077fcf	0.52929395
45	0x3ec2cd63	0.38047323
46	0xbd868322	-0.0656798
47	0x3c59d91c	0.013296392
48	0xbce0ef8e	-0.027457979
49	0x3cb31fda	0.021865774
50	0xbd75d8ad	-0.06002109
51	0xbd58a989	-0.052896056
52	0xbd9cef07	-0.07662778
53	0xbe0da6ac	-0.13833112
54	0xbece8a36	-0.40339822
55	0x3e036944	0.12833124
56	0xbe8cecd7	-0.27524444
57	0x3cf1c8b9	0.029514657
58	0xbda7cd92	-0.08193506
59	0x3d7242dd	0.059145797
60	0xbe86601b	-0.26245198
61	0xbdddcba4	-0.10829857
62	0xbf122640	-0.57089615
63	0xbd1ce59a	-0.038304903
64	0x3ea4a4ad	0.32156888
65	0x3d1c92b0	0.03822583
66	0xbec4b18c	-0.38416708
67	0x3f4a7960	0.79091454
68	0x3f29669d	0.661722
69	0xbda45f45	-0.08025984
70	0x3e8ebc9b	0.2787827
71	0x3e5ddc1c	0.21665996
72	0x3e0c0968	0.13675463
73	0x3c02324d	0.007946563
74	0xbef01209	-0.4688876
75	0xbf028526	-0.5098442
76	0xbc8912c0	-0.016732574
77	0xbe8a755a	-0.27042657
78	0x3e698ee2	0.22808412
79	0xbe2bc4da	-0.16774312
80	0x3f1cd212	0.6125804
81	0xbcf8a10c	-0.03035023
82	0x3ec39a1f	0.38203523
83	0xbcd4f698	-0.025996491
84	0xbe6aa94d	-0.22916146
85	0xbe223498	-0.15840375
86	0x3eb92d58	0.36167407
87	0x3f1934eb	0.5984637
88	0xbef1c373	-0.47219428
89	0x3f166ea4	0.58762574
90	0xbe85b84e	-0.26117176
91	0xbd31031c	-0.043215856
92	0x3e0a7928	0.1352278
93	0xbda6ee8c	-0.08150968
94	0xbd1a6964	-0.037698165
95	0x3edbdb36	0.42940682
96	0xbd854461	-0.06507183
97	0xbd00392d	-0.031304527
98	0xbb03c9df	-0.0020109338
99	0x3ec8a225	0.39186206
100	0x3e51189d	0.20419545
101	0xbdfd0589	-0.12354571
102	0x3c8d44fd	0.01724481
103	0x3e7923a0	0.24329996
104	0xbe8d0980	-0.2754631
105	0x3d2394fc	0.039937004
106	0x3c66b69b	0.0140816225
107	0x3f0425e1	0.516203
108	0x3ece0a4a	0.40242225
109	0xbe09d69b	-0.13460772
110	0x3ec02d44	0.37534535
111	0x3d8a9aad	0.06767783
112	0x3ef61bab	0.48067984
113	0xbf07cf4a	-0.53050673
114	0x3e264085	0.1623555
115	0xbe82d57f	-0.2555351
116	0x3e398516	0.18117175
117	0x3ebeabba	0.37240392
118	0xbe026ecb	-0.12737577
119	0xbe0e2e89	-0.13884939
120	0x3c21ae24	0.0098681785
121	0x3ecb2a79	0.39680842
122	0x3eb1bf0a	0.34716064
123	0xbe1e4f23	-0.15459876
124	0xbde5d0d4	-0.112214714
125	0xbe555037	-0.20831381
126	0x3eca532c	0.3951658
127	0x3cd6c1cf	0.026215462
128	0x3de38ee2	0.11111237
129	0x3e3aa377	0.1822642
130	0x3eaadeeb	0.33373198
131	0x3dfa2dd8	0.12215775
132	0x3e5a4910	0.21316934
133	0xbea529a5	-0.32258335
134	0xbdd7a443	-0.10529377
135	0x3e9e527d	0.3092231
136	0xbd3025a9	-0.043004666
137	0xbe9fe42b	-0.31228766
138	0xbea0ce9a	-0.31407624
139	0xbe0a29a4	-0.13492447
140	0x3ee2099d	0.4414796
141	0x3b93e511	0.004513391
142	0x3ee5f052	0.44909912
143	0x3e1b5ff2	0.15173319
144	0xbf102850	-0.5631151
145	0xbcb51b1a	-0.02210765
146	0xbcfdb0ca	-0.030968089
147	0x3f1b9431	0.60773
148	0x3e3bbeef	0.18334554
149	0x3db5c902	0.0887623
150	0x3c9052d8	0.017617628
151	0x3f4dea30	0.80435467
152	0xbc774563	-0.015092227
153	0x3ebd8c4b	0.37021098
154	0x3e8ef97c	0.27924716
155	0x3ef5fcbf	0.48044392
156	0xbea85c4b	-0.32882914
157	0x3e364dae	0.1780307
158	0x3e854838	0.2603166
159	0x3eed63cb	0.46365198
160	0xbe029315	-0.1275142
161	0xbf4200ce	-0.7578248
162	0xbd5778e1	-0.052605513
163	0x3d456e8f	0.04820114
164	0x3df46212	0.11932768
165	0xbe1b7fe8	-0.15185511
166	0x3e201310	0.15632272
167	0x3e4a00a3	0.19726805
168	0x3dea1790	0.114302754
169	0x3f005d9f	0.50142854
170	0x3e9f8731	0.3115783
171	0xbe466560	-0.19374609
172	0x3e366a13	0.17813902
173	0x3e9c6609	0.30546597
174	0xbe4a0521	-0.19728519
175	0x3edf7f21	0.4365168
176	0x3e8ea18b	0.27857623
177	0x3e67372e	0.22579643
178	0xbe91e5e7	-0.28495714
179	0xbd8a9593	-0.0676681
180	0xbece6123	-0.40308484
181	0xbc8477e3	-0.016170448
182	0x3e766431	0.24061657
183	0x3e4ef09b	0.20208971
184	0xbc6e90ac	-0.01456086
185	0xbe9c8a67	-0.30574343
186	0x3e887a92	0.26656014
187	0xbe1002fa	-0.14063635
188	0xbe2e77d2	-0.17037895
189	0x3da62288	0.08112055
190	0xbde9528d	-0.113926984
191	0xbe834768	-0.25640416
192	0x3d5c0a61	0.053720836
193	0x3c7515a4	0.014958773
194	0x3db1338b	0.08652409
195	0x3f176a40	0.591465
196	0xbe8f599f	-0.27998063
197	0x3f6618b0	0.8988142
198	0x3d87bc7c	0.066277474
199	0xbdb98d26	-0.09060125
200	0x3efd00d1	0.49414685
201	0xbe42430c	-0.18970889
202	0x3d03410d	0.03204446
203	0x3df082c2	0.1174369
204	0xbed05097	-0.40686485
205	0xbe01d542	-0.12679008
206	0xbe04bc64	-0.1296249
207	0x3f09b586	0.5379261
208	0xbd0df4d6	-0.034657322
209	0x3e5009fa	0.20316306
210	0x3e71c4c1	0.23610212
211	0xbe0fe458	-0.1405195
212	0x3ea7ea1d	0.32795802
213	0xbe27df49	-0.1639377
214	0x3d38658a	0.04501871
215	0xbe5feff4	-0.21868879
216	0xbe52487c	-0.20535463
217	0x3d8832b0	0.06650293
218	0x3edd7b6f	0.43258235
219	0x3d421a48	0.047388345
220	0x3c38be86	0.011275893
221	0xbe54e466	-0.20790252
222	0xbdee1db2	-0.11626758
223	0x3d6330a0	0.055466294
224	0x3e912b58	0.2835338
225	0xbe6605b9	-0.2246312
226	0x3e8a0755	0.2695872
227	0x3dda4fc4	0.10659745
228	0x3e816335	0.25271
229	0x3f0f518b	0.559838
230	0x3f103aa0	0.56339455
231	0xbe19160f	-0.14949821
232	0xbe77d88e	-0.24203703
233	0xbd359cd3	-0.044339012
234	0xbe0a3f3f	-0.13500689
235	0x3e143e3a	0.14476863
236	0x3e4a42e5	0.1975208
237	0x3cfc7e38	0.030821905
238	0x3e47f6c2	0.19527724
239	0xbe7ababd	-0.24485298
240	0xbddfc2c2	-0.10925819
241	0xbe1c7dfb	-0.15282433
242	0xbea2b308	-0.31777215
243	0x3ececd8a	0.4039119
244	0x3d55f6ac	0.052237198
245	0x3d80ed89	0.06295306
246	0xbc5cebf6	-0.013483992
247	0x3e966c42	0.2937947
248	0x3d442aa7	0.04789224
249	0xbe80b6f8	-0.25139594
250	0x3d168bfc	0.036754593
251	0x3e080a31	0.13285138
252	0xbe80d02c	-0.25158823
253	0x3f0af313	0.5427715
254	0x3f0aea1b	0.54263467
255	0xbdf17a41	-0.11790896

fc3.bias f4 [8]
0	0xbec5d998	-0.38642573
1	0xbd93eb64	-0.072226316
2	0xbede496b	-0.43415388
3	0x3e139e35	0.1441582
4	0xbd3735c5	-0.044729013
5	0xbdacbc51	-0.08434356
6	0x3db597ea	0.08866866
7	0xbd560b5b	-0.052256923
