examples/carla_scenic/Carla_Challenge/trained_model_2022-06-11/agent_path/target_net_1500.pt (torch, 79447 bytes, 6 tensors)

fc1.weight f4 [64, 10]
000000 90 a5 a5 bf 33 ba a7 bd ba ac d2 be 23 fa 36 3e
       -1.2941151 -0.081898116 -0.41147405 0.17868857
000010 78 0f 52 3e 82 c9 4d bf 79 e6 4f 3f 65 16 84 3f
       0.20513713 -0.803856 0.8121105 1.0319334
000020 a5 e8 91 be 6f c4 29 bf 61 97 39 40 5e 4a 8a 3d
       -0.28497806 -0.6631536 2.8998644 0.06752466
000030 62 3e 11 bd 10 d3 07 3e a5 46 1b bf 2e f0 a7 3f
       -0.035459884 0.13264108 -0.6065467 1.3120172
000040 1d b5 46 3e e6 00 5e 40 2e 6d c3 c0 ca 27 78 bf
       0.19405027 3.4688048 -6.1070776 -0.96935713
000050 26 24 03 c0 07 bf e1 bf 4e e4 f8 3c 04 bb 2b bf
       -2.0490813 -1.7636422 0.030382302 -0.6708224
000060 b6 57 b6 3e 95 47 80 be 19 05 c4 be d6 fa 28 c0
       0.35613793 -0.25054613 -0.3828514 -2.6403098
000070 db fb 91 3d 4d 8b 0d 3f 90 15 9b be 20 33 00 be
       0.07128116 0.5529068 -0.30289888 -0.12519503
000080 79 34 91 bf 84 5f d3 bc 64 f2 48 3a 4f 6f f6 bd
       -1.1344138 -0.025802381 0.00076655135 -0.12032949
000090 aa b0 e9 3e 9f 91 d8 be dd d3 33 c0 03 68 63 bf
       0.45642596 -0.422986 -2.809806 -0.88830584
0000a0 ae 38 09 c0 8f 79 1e bf 9b 8b 7c 3d 2f d1 05 3f
       -2.1440845 -0.61904234 0.061656576 0.52272314
0000b0 02 27 1c be 15 56 40 3b 37 d0 aa 3e cd 78 9e bf
       -0.15249255 0.0029348184 0.3336198 -1.2380615
0000c0 85 1f e1 bf b8 00 82 bf 44 8b c3 c0 e9 a5 af bf
       -1.7587744 -1.0156469 -6.11075 -1.3722507
0000d0 54 0c c7 be e2 82 95 3e 4b 11 6c be db 36 1f 3e
       -0.38876593 0.29201418 -0.23053472 0.1554827
0000e0 37 ef 22 be a7 d0 24 3f 7e 4b 44 3f 4b 75 de be
       -0.15911566 0.6438088 0.7667769 -0.43448862
0000f0 9d 8b 60 bf 13 16 c0 3f c8 80 00 bf 30 32 17 3f
       -0.8771303 1.5006737 -0.50196505 0.59060955
000100 8e 07 71 3e 9f a5 0d bf 97 42 a1 bf 58 48 86 40
       0.23538038 -0.5533084 -1.2598447 4.196331
000110 ec 8d ae c0 e3 a7 2e c0 5c 61 06 40 03 b4 b2 3f
       -5.4548244 -2.728997 2.0996923 1.3961185
000120 e8 12 81 bf 1c 40 f4 be cf 4e 70 3d 2c 0c 07 3f
       -1.0083895 -0.47705162 0.058668908 0.5275295
000130 92 b0 bd 3f da e9 bf c0 73 5e 5f 3f aa 97 13 bf
       1.481951 -5.9972963 0.87253493 -0.57653296
000140 b2 b6 2e 3f 7e fe 89 bf aa d4 fc bd 42 42 a7 be
       0.6824752 -1.078079 -0.1234525 -0.32667738
000150 05 5e e1 3e 87 b7 36 3f cd 58 ce 3f b5 c6 ea bf
       0.44017044 0.7137379 1.612085 -1.834189
000160 7e 6f 54 3f 21 de 81 be e9 db 30 40 1a 64 2d 40
       0.82982624 -0.25364783 2.7634223 2.7092347
000170 3e 5a 92 3d 83 e2 2f bd 77 cf 42 bf 68 97 0f 3f
       0.071461186 -0.042940628 -0.76097816 0.560904
000180 98 5b 32 40 c5 c2 9f bf f6 48 b3 3f a9 38 46 bd
       2.7868404 -1.2481314 1.4006641 -0.04839388
000190 3a 22 de 40 64 ce 1e 40 58 76 3c 3d 96 62 2e be
       6.941678 2.481347 0.0460113 -0.17029795
0001a0 03 37 ba bd ba 78 6d bd 84 b3 a8 bd 45 0a d3 3d
       -0.09092524 -0.057976462 -0.08237365 0.10304693
0001b0 e3 cd 2e 3f 93 40 6e be 2b 04 8b bf c3 24 98 3f
       0.6828291 -0.2326682 -1.0860647 1.1886219
0001c0 3c a4 cd bf ec e8 a3 be dd 24 33 be 88 3c cb 3f
       -1.6065745 -0.32013643 -0.17494531 1.5877848
0001d0 c3 06 1f 40 a8 09 74 3f 20 21 bd c0 0c eb 60 bf
       2.4847877 0.95327234 -5.9102936 -0.87858653
0001e0 c5 cc 3a 40 d0 17 27 3e 43 13 f1 bc 09 a9 47 3e
       2.9187481 0.16317677 -0.02942813 0.19498076
0001f0 d7 72 ad be ea a2 62 3e 70 25 05 be b8 11 78 c0
       -0.33876678 0.2213246 -0.13002563 -3.8760815
000200 a4 0e 25 bf 75 cd 8d 3e fa 13 99 bf 9a 1d d0 bf
       -0.64475465 0.27695814 -1.1959221 -1.6259034
000210 17 2d 29 bf ee 57 b0 be bb 5c 62 be 4c 1c 1c 3c
       -0.66084427 -0.34442085 -0.22105686 0.009528231
000220 ec 28 24 3e 32 4f 53 40 80 e1 96 c0 bf ac 24 c0
       0.16031235 3.3017087 -4.715027 -2.5730436
000230 ed 48 1e bf f1 c4 21 bf 30 00 08 bd aa ad 4d 3e
       -0.61830026 -0.63191134 -0.033203304 0.20085779
000240 46 fc 2d be dd 9f c1 3f f9 b6 85 40 21 69 ad c0
       -0.16990766 1.5126911 4.1785855 -5.419083
000250 42 a7 14 40 bf 58 85 3e ad 58 85 be 57 5b fe 3d
       2.3227086 0.2604427 -0.26044217 0.124197654
000260 19 bd 94 bf f2 ab af bb 8c f8 91 bc 40 91 b7 3b
       -1.1620208 -0.0053610737 -0.017818712 0.005602032
000270 3f 0f 84 3d fe a3 87 3c 65 a5 ac bf 1c b6 4c be
       0.064482205 0.01655769 -1.3487974 -0.19991344
000280 0b 70 52 bf cb 7a eb be c2 3f 06 3d df e2 43 3f
       -0.82202214 -0.4599212 0.032775648 0.7651805
000290 f6 99 13 3f ea fd 86 3e e9 6c 03 bf b5 1b 1b 3f
       0.576568 0.26365596 -0.5133806 0.6058915
0002a0 85 9c 74 3f d1 2f 3e 3f 69 cf 5d c0 04 54 0a c0
       0.9555133 0.7429171 -3.4657843 -2.161378
0002b0 ad f6 7c bf 6a 9d 21 3d e1 8b 5f 3d bb c5 88 3f
       -0.988139 0.039456762 0.05457676 1.0685343
0002c0 0f 5c be 3f 2a 33 f2 bf b7 5d 9d bf a8 26 da bf
       1.4871844 -1.8921864 -1.2294225 -1.7043047
0002d0 94 96 a2 3f 53 32 98 3f 6a 22 84 bf 05 41 e0 bd
       1.2702203 1.1890358 -1.0323002 -0.109499015
0002e0 48 77 1e bf 8d d8 31 3f 83 3c af 3f 77 cc 73 3f
       -0.6190076 0.69471055 1.3690342 0.95233864
0002f0 d3 db 44 3f 5c 28 57 bf 6d 80 91 3f 5f d8 3d 40
       0.76897925 -0.8404596 1.1367317 2.9663312
000300 5a 2f ae bf 34 4d 21 bb 0a 35 01 be 43 5a 50 3f
       -1.36082 -0.0024612667 -0.12617889 0.8138773
000310 72 64 41 3f e5 02 69 bf af 93 a0 bf 0c d5 77 3e
       0.7554389 -0.9102004 -1.254507 0.24202365
000320 9f 5c 81 bf 2a 9c e8 3f 41 74 60 c0 36 39 be be
       -1.0106391 1.8172657 -3.5070956 -0.37153023
000330 5b fc 62 be ba de 83 3f 49 20 ac bf 20 b8 97 bd
       -0.22166578 1.0302346 -1.3447353 -0.07408166
000340 35 ed 85 bd 3f f4 0c be ff b7 49 3f 6b 33 d4 3f
       -0.06539384 -0.13765047 0.7879638 1.6578192
000350 97 49 26 c0 6a f1 64 bd 7b cc d5 3d a6 76 05 bf
       -2.5982416 -0.055894293 0.10439392 -0.5213417
000360 b2 6e 1f bf de fe af c0 6f 87 f0 3f 5c 88 ef be
       -0.6227828 -5.4998617 1.8791331 -0.4678372
000370 8c f0 9b 3f 86 c0 0f 40 24 6d 9e bc ef c3 0b 3f
       1.2182784 2.2461257 -0.019339152 0.54595846
000380 e7 c2 f3 3e fb 47 9e 3f 3b 39 3e bf 2f 46 42 c0
       0.47609636 1.2365717 -0.74306077 -3.0355337
000390 32 61 9b 3f d7 3b 53 3f 34 68 ce 3f dc 66 27 40
       1.2139037 0.82513183 1.612555 2.615653
0003a0 f9 a3 94 bf 89 7e 0f 3d 26 e0 b7 3e 94 40 84 3f
       -1.161254 0.035032783 0.359132 1.0332208
0003b0 ac 92 3d 40 dc 62 8d c0 e1 3c ac 3f f3 56 83 3e
       2.9620771 -4.418318 1.3456079 0.25652274
0003c0 b3 48 36 bf c7 1b 4a bf c7 b3 ec bf e0 b5 29 bb
       -0.7120468 -0.78948635 -1.8492364 -0.002589576
0003d0 4e fe 34 bc 30 1b dd bc da 5a 89 3f 7e 5d 14 be
       -0.011046959 -0.026990503 1.0730851 -0.1448879
0003e0 6c 1c 59 c0 1a 7d 7f bf 6d b1 bd 3f 23 cf af bf
       -3.3923597 -0.99800265 1.4819771 -1.3735088
0003f0 77 c2 39 3c 53 9a 04 bf c6 d6 d2 3d 0e b6 99 3e
       0.011337868 -0.5179798 0.10294871 0.3002171

fc1.bias f4 [64]
000000 be 8b 41 40 36 eb 1d c0 0b 38 eb 3f 4b 0e 5e bf
       3.0241542 -2.4674811 1.8376478 -0.8674056
000010 bb 76 c7 be 8d cd 98 be d7 7b 01 bf c5 d8 53 c0
       -0.38957772 -0.29844323 -0.5057959 -3.3101056
000020 c2 7b fd be 15 a8 cf bf 7c 27 af bf 81 c8 88 bf
       -0.49508482 -1.622317 -1.3683925 -1.0686189
000030 f1 3e ff be e0 90 da 3f 9c 81 b3 bf 8d ad b4 bf
       -0.49852708 1.7075462 -1.4023929 -1.4115463
000040 cf 52 09 c0 b5 ad a6 be e6 4e 2b 40 58 34 df be
       -2.1456792 -0.32554403 2.6766906 -0.43594623
000050 5d 84 fa 3e de b1 b5 bf 1b 81 3a c0 7c a1 ad bf
       0.4892911 -1.4194906 -2.91413 -1.3564906
000060 9f 68 18 c0 b3 43 f0 bf 95 25 08 c0 f9 ee bc 40
       -2.3813856 -1.877066 -2.1272938 5.9041715
000070 a8 e4 68 bf 71 30 55 3e b0 0b 06 40 b4 e3 83 bd
       -0.909739 0.2081926 2.0944633 -0.06439915
000080 9a 31 e4 bf 65 c6 03 c0 11 4c b0 bf 6d 02 c6 bf
       -1.7827637 -2.058984 -1.3773214 -1.546949
000090 b9 cd 74 c0 0e 4a a4 bf bf 5c 0a 40 d7 80 77 bf
       -3.8250563 -1.28351 2.1619108 -0.9668097
0000a0 a3 c5 c0 bf 47 54 f7 3f 3f dc 0e c0 76 a0 f9 bf
       -1.5060314 1.9322594 -2.2321928 -1.9502094
0000b0 a7 63 09 40 d5 3b 16 bf f7 ee ac bf 28 0c 34 bf
       2.1467073 -0.58685046 -1.3510426 -0.7033105
0000c0 59 de 45 c0 9f e5 4c 40 54 5d 52 40 d5 be 0b 40
       -3.091696 3.201515 3.2869463 2.1835225
0000d0 5b 46 9a 3e 76 1e 9b bf f1 8f 8b bf 1f 9f ff bf
       0.30131802 -1.2118671 -1.0903302 -1.9970435
0000e0 02 89 74 40 79 28 0f bf 2f 4c 92 3f b2 fd d4 3f
       3.8208623 -0.5592113 1.1429499 1.6639922
0000f0 20 48 f5 3f 63 20 c3 3e 32 a1 48 3e c7 0b 08 bf
       1.9162636 0.38110647 0.19592741 -0.5314297

fc2.weight f4 [256, 64]
000000 39 00 36 be 8d 76 85 bd 4e cb c8 be fc aa 11 be
       -0.17773522 -0.065167524 -0.3921761 -0.14225382
000010 33 6a 7e 3f 10 07 b7 3b b2 51 5a bd d7 00 61 bf
       0.993808 0.0055855587 -0.053300567 -0.87891906
000020 62 6b 0e bf 02 dc 92 3d 89 55 b5 be 9a 64 86 ba
       -0.55632603 0.071708694 -0.3541682 -0.001025337
000030 2a c6 a8 3c 2b 83 3e 3e c7 a5 8f 3e e6 39 31 bd
       0.020602304 0.18604724 0.28056166 -0.043268107
000040 28 16 99 be b1 4c a4 3a f1 06 2b bf 2d 8a ee 3b
       -0.29899716 0.0012535063 -0.66807467 0.0072796554
000050 83 33 a0 3e fb cd 9a bf 14 0a 4b be eb b2 4c 3e
       0.312893 -1.209411 -0.19828063 0.19990127
000060 4b 00 74 3d 01 e2 40 bf b6 d0 36 bf 46 1a d1 be
       0.059570592 -0.75344855 -0.7141222 -0.40840358
000070 68 3c dc be c7 b2 45 3d 02 7e 62 bf 25 82 90 be
       -0.43014836 0.0482662 -0.8847352 -0.28224292
000080 8f 52 c7 bf 51 af 5b bf ea 06 3a be db a1 77 bf
       -1.557207 -0.85814387 -0.181667 -0.96731347
000090 06 f5 ba 3d a2 0d bb 3b a3 63 e0 bd f0 4e 62 3e
       0.09128766 0.0057084123 -0.10956504 0.22100425
0000a0 74 bc 0e bf e2 cc e6 bd ff 4e 1f bf 58 67 16 be
       -0.55756307 -0.11269547 -0.62229913 -0.1468786
0000b0 55 0e 01 bf 5d f1 12 bf b6 01 0e be 77 9f 20 be
       -0.50412494 -0.5739954 -0.1386784 -0.15685831
0000c0 6e 20 d0 be d5 f3 c1 3e 82 9b 64 bd 3b 7e c0 be
       -0.40649742 0.37881342 -0.055812366 -0.37596306
0000d0 2f 92 48 bf 5b 08 4c bf d2 3d 94 3d 39 db 84 bf
       -0.7834806 -0.7970025 0.07238354 -1.0379401
0000e0 80 21 aa be a0 5c 3d be 92 54 f0 3e a3 92 1b bf
       -0.33228683 -0.18492365 0.46939522 -0.60770625
0000f0 c7 6c 6f be 27 05 e8 bd 20 d6 14 c0 86 8f 84 bf
       -0.23381339 -0.11329108 -2.3255692 -1.03563
000100 93 92 1e bf 8b 96 be 3d fa bb 9a bf 39 94 d8 be
       -0.61942405 0.093060575 -1.2088616 -0.42300585
000110 a9 21 c1 3e 6d fd 75 bf 71 56 a8 be 5e d8 2f be
       0.37720993 -0.9608982 -0.3287845 -0.17172381
000120 8a 4a a5 be c3 cf 9c bf 05 52 76 be 64 84 20 3d
       -0.3228343 -1.2250904 -0.24054725 0.039188758
000130 5e 75 16 c0 b8 db 78 be b6 f7 24 be 35 7a f1 bd
       -2.3509135 -0.24302566 -0.16110119 -0.11790887
000140 13 09 12 be f0 b6 48 be 58 57 05 bc c0 f8 20 bf
       -0.14261274 -0.19601035 -0.0081385 -0.6287956
000150 53 fc f6 bc 7c b4 c9 be 88 ae b3 3e cc 4e 06 be
       -0.030149614 -0.3939551 0.35094094 -0.13115996
000160 82 61 b9 bd c0 ab 63 bf 8c 9f 2a bf 60 7a b6 be
       -0.09051801 -0.88933945 -0.666497 -0.3564024
000170 04 dc c8 be 0c 0c 72 3e 1b 7f 82 be 8b 22 90 bf
       -0.3923036 0.23637408 -0.254876 -1.1260542
000180 af 19 87 3e 2f a2 28 3f b9 2c b2 be 52 8a 15 bd
       0.26386783 0.6587247 -0.34799746 -0.036508866
000190 43 db 0d 3f 53 10 c4 be 74 99 29 3e d2 e2 84 bf
       0.5541269 -0.38293704 0.16562444 -1.038172
0001a0 73 59 4b bf d4 39 33 bd 9b 5e 1d bf 06 2f ea be
       -0.79433364 -0.04375632 -0.6147248 -0.45739
0001b0 e3 4d 2d be 20 36 bc bd a1 38 e9 bd 65 a7 0c 3e
       -0.16924243 -0.09190011 -0.11387754 0.13735731
0001c0 75 95 cd 3e b7 4d 47 3e 9a 78 06 be e0 7a 99 be
       0.4015309 0.1946324 -0.13131943 -0.2997656
0001d0 52 3d 05 bf 1a bd 96 be 9b 15 f0 be af 8a 4b bf
       -0.5204669 -0.29441148 -0.46891484 -0.7950849
0001e0 a7 e5 30 bf b2 05 fa be d3 36 4c bf 64 e8 d1 bd
       -0.6910042 -0.4883247 -0.79771155 -0.10249403
0001f0 94 e4 5a be 7f 96 0e bd af d6 fc bf 33 04 c0 be
       -0.21376258 -0.034811493 -1.9753016 -0.37503204
000200 d6 08 58 3e 47 51 e3 be e4 f6 cc be 30 f9 81 be
       0.2109712 -0.44397947 -0.40032113 -0.25385427
000210 87 fb 20 be 50 84 ad 3d 28 83 90 3d e0 8f 51 bd
       -0.1572095 0.08472502 0.07056266 -0.0511626
000220 b6 e0 0d bf 75 17 43 be 02 3d d7 3d 83 59 dc be
       -0.55421007 -0.19051917 0.10509683 -0.43037042
000230 e5 94 a6 be 4c ef 21 be fd 95 76 be 58 a7 93 be
       -0.32535473 -0.15813941 -0.24080653 -0.2883861
000240 08 2d 71 bf 1e a0 ed 3e dc ff 55 3e 6f 06 06 be
       -0.9420934 0.46411222 0.20898384 -0.13088392
000250 ee 2e 32 bf 9b d0 26 bf 2a 57 11 bd d9 02 4e be
       -0.6960286 -0.65162057 -0.035483517 -0.20118274
000260 32 f9 21 3e a9 40 c9 be 0b c1 95 be 24 74 58 bf
       0.15817717 -0.39307144 -0.29248843 -0.84552217
000270 04 c7 d4 be 29 e8 48 3f 05 02 8f bf a2 20 55 be
       -0.41558087 0.7847925 -1.1172491 -0.2081323
000280 6f 1b 28 bf 9e cd 35 bf 6e e7 aa be 96 66 ce bc
       -0.6566686 -0.7101687 -0.33379692 -0.025195401
000290 0e ce 07 bf d6 f2 f6 bd 2c a1 f9 be 32 8a 57 3e
       -0.5304879 -0.12058036 -0.48755777 0.21048811
0002a0 9b 8e 8a bf 5e 6c d7 be 99 5f 7c bf 49 94 ba be
       -1.082477 -0.42074865 -0.9858337 -0.36441258
0002b0 f5 0a 22 bf 5f 13 85 bf 6f 23 fd 3c 70 b4 a3 bd
       -0.6329797 -1.0396537 0.030900685 -0.079934
0002c0 e1 7f 42 bf 82 29 bf bf 48 d1 b1 be 25 ea 2b bf
       -0.7597638 -1.4934542 -0.3472998 -0.6715415
0002d0 df bd 9f bf 59 3f 9a bd 60 f5 45 be 9b 37 52 bf
       -1.2479819 -0.07531614 -0.19331884 -0.821161
0002e0 2c 6e 09 bf 3e 31 d2 be 94 b4 b6 be f2 2c db 3e
       -0.53683734 -0.41053194 -0.35684645 0.42807728
0002f0 16 ae 52 bf 13 19 ae be 22 b5 a2 bd aa fa 43 bf
       -0.82296884 -0.34003505 -0.079447046 -0.7655436
000300 02 7a ba be b0 fc cf bd 00 8b 82 be 9e eb 98 be
       -0.3642121 -0.10155618 -0.25496674 -0.29867262
000310 b7 0f 0c bf 4d cd 07 3e 2c 73 ed bd 94 fa d2 bc
       -0.5471148 0.1326191 -0.11594233 -0.02575425
000320 8b 77 09 bf 89 90 69 bd 6c a0 59 bc e8 9b 9f be
       -0.53698033 -0.057022605 -0.013282876 -0.31173635
000330 d7 17 2a bd db ca 13 bf 64 40 c2 be 1a 3b 9c 3d
       -0.04152664 -0.5773141 -0.3793975 0.0762846
000340 a5 2b 9d bf be 27 03 bf 12 10 26 bf ce fd 81 be
       -1.2278944 -0.51232517 -0.6486827 -0.2538895
000350 d9 31 e6 bd 4f 7a 02 3f 7d 77 b2 be 5a ab 2e 3c
       -0.112399764 0.5096788 -0.34856787 0.010660971
000360 fb 24 85 bd b9 86 e1 be cb b9 d6 be e3 e1 01 bf
       -0.06501194 -0.44048098 -0.41938624 -0.507353
000370 da 08 93 3e e0 2f cb 3d 01 58 8f 3e 20 04 6c bd
       0.2871769 0.09921241 0.2799683 -0.05762112
000380 8a a8 09 bf c0 e5 a0 be 78 8e 08 bd 01 b4 af bd
       -0.53772795 -0.31425285 -0.033338994 -0.08579255
000390 c5 10 db 3c e3 2b e1 be 6a fc 05 bf 61 7d 98 be
       0.026741395 -0.43978795 -0.5233828 -0.29783157
0003a0 ea 14 26 3d c6 6b 7f be 38 95 8d be 69 e8 62 be
       0.04054729 -0.24943456 -0.27652907 -0.2215897
0003b0 e7 c7 cb be 1e 4f 8f be 48 af 98 3c c2 31 dd be
       -0.3980095 -0.2799005 0.018638268 -0.43202025
0003c0 be 15 07 bf a7 3d c2 be 38 c6 b1 be 91 f3 25 be
       -0.5276755 -0.37937662 -0.3472154 -0.16206194
0003d0 65 8f 76 be 58 f4 1a bf da ee 51 3e 6a aa 68 3c
       -0.24078138 -0.6052909 0.20501271 0.014200786
0003e0 ac f3 a4 bc cf 71 34 bf bc 83 4f bd 79 53 d6 bd
       -0.020135723 -0.7048616 -0.05066274 -0.1046514
0003f0 4c 86 12 bf 2a bc 3c 3d d4 ce ac bd 8c c5 2f be
       -0.5723617 0.046077885 -0.08437887 -0.17165202

fc2.bias f4 [256]
000000 b5 b3 39 bf 31 75 03 bf e2 57 89 be 96 dd 12 bf
       -0.72539836 -0.51350695 -0.26824862 -0.57369363
000010 53 39 18 40 f0 4c 2d bf ab 4d c9 be 9f df d5 be
       2.3784988 -0.6769552 -0.39317068 -0.41772172
000020 75 75 72 be 7d c2 1c bf dd c3 bb 3e 48 4c 88 be
       -0.23677619 -0.61234266 0.3667287 -0.26620698
000030 2c a4 84 be 45 85 d0 40 90 b0 b2 be 41 c8 d2 be
       -0.25906503 6.5162683 -0.34900331 -0.41168407
000040 be 63 00 be 3f b0 c3 bd 77 df c5 3d a8 29 97 bd
       -0.12538049 -0.09555101 0.09661763 -0.07380992
000050 57 38 f5 bd 83 67 6b bf f1 38 a4 be 03 9f 00 bf
       -0.119736366 -0.9195482 -0.32074693 -0.5024263
000060 7e 19 6a bf 65 16 c0 be e3 44 03 3f 68 ed fe 3e
       -0.9144515 -0.37517086 0.5127699 0.49790502
000070 35 19 13 bf a3 6e a9 bd f4 73 69 bf b6 2b fb 3a
       -0.5746034 -0.082730554 -0.91192555 0.0019162807
000080 ef 90 66 bf 82 3c a2 3f 79 1d f8 bd 23 32 5f bf
       -0.900649 1.2674716 -0.121149965 -0.8718588
000090 36 19 f3 be 2c f5 25 bf bb 79 0d bf d5 65 d3 bf
       -0.47480172 -0.6482723 -0.5526387 -1.6515452
0000a0 bd cd 33 bf d1 8c f5 be c4 b7 39 be 10 d6 f4 bc
       -0.70235807 -0.47958997 -0.18136507 -0.02988723
0000b0 ad 09 94 3e 55 d6 38 40 af af b1 bf 8d 5e 99 3f
       0.28913632 2.8880818 -1.3881739 1.198198
0000c0 0c e9 14 3f c6 f7 e8 be 0a ef 7f 3f 5d dd a6 bf
       0.581681 -0.45501536 0.9997412 -1.3036305
0000d0 7b 75 15 3e 6b b4 85 bf fd d6 0e bf 9b ec e8 3e
       0.14595596 -1.0445684 -0.55796796 0.45493016
0000e0 1a 44 29 bf 3a 01 3a bf 62 1e e7 3d 5b d8 92 be
       -0.6611954 -0.7265812 0.11285092 -0.2868069
0000f0 26 27 02 bf 8f 34 b0 be f6 0e 9c bf 69 0e 24 bf
       -0.50840986 -0.344151 -1.2192066 -0.6408449
000100 db 20 c8 be c5 43 25 c0 0c 8a 55 be b6 fe 15 bf
       -0.39087567 -2.5822613 -0.20853442 -0.58591783
000110 a1 de 90 be fa f9 40 3f 82 0d 33 bc 00 96 2e bf
       -0.28294852 0.75381434 -0.0109285135 -0.6819763
000120 8f 60 0c bf 99 07 55 bf 19 15 ca bf 9c 3e 1e bd
       -0.54834837 -0.8321472 -1.5787688 -0.038633928
000130 ec 21 85 be 5e 59 c7 be 99 e6 e7 3e 7e 8b 14 be
       -0.26002443 -0.3893537 0.4529312 -0.14506337
000140 16 da ac bf fb 73 80 bf a4 5e 80 3f 86 43 8b bf
       -1.3504055 -1.0035394 1.0028882 -1.0879982
000150 9a 87 d8 3e b8 c8 d2 3e f5 3b 89 3f 46 82 10 bf
       0.42290956 0.4116876 1.0721422 -0.5644878
000160 79 a8 a8 bc 53 48 4b be 6a bd 39 bf d4 36 24 be
       -0.020588147 -0.19851808 -0.7255465 -0.1603654
000170 f9 f7 44 bf e6 44 ad bf bc 96 48 3d a7 93 4a bf
       -0.76940876 -1.3536651 0.048971877 -0.7913155
000180 16 50 01 bf 8f d6 16 bf 04 6a 48 3f d3 1a 18 3f
       -0.50512826 -0.5892114 0.78286767 0.5941593
000190 0b 2b 3e bf 4b e6 56 be d9 8f 8a be 5f 35 a8 3e
       -0.7428443 -0.20986287 -0.27062872 0.3285322
0001a0 95 ef 61 bf d5 ca 22 bf 4f 68 5e bd ef 4e 89 bf
       -0.882562 -0.6359075 -0.054298695 -1.0727214
0001b0 7c 00 71 bf de eb 18 bf 1f 8a 13 3f 4d c4 b4 bf
       -0.94141364 -0.59734905 0.5763263 -1.4122406
0001c0 4d ad 83 bf c0 a4 d1 3e 54 6d c3 be 8b 7f f6 be
       -1.0287262 0.40946007 -0.38169348 -0.48144183
0001d0 7a 8f 72 be 94 cf 96 be 03 63 63 bf 2d 1f b8 bf
       -0.23687544 -0.29455245 -0.88822955 -1.4384514
0001e0 7e 87 6d bf bb 56 dc bd 0d 00 b9 be 1b c9 41 bf
       -0.9278487 -0.1075873 -0.3613285 -0.7569749
0001f0 7f ea 9f bf 41 b1 03 c0 50 40 c6 be 70 dd 3c bf
       -1.2493438 -2.0576937 -0.38720942 -0.73775387
000200 9c 04 84 bf ca 71 b9 be 27 40 65 bf c6 35 95 bf
       -1.0313907 -0.36219627 -0.89551014 -1.1657035
000210 d7 4c 0f bf 1c 39 51 bf a3 81 a4 be cd 6c e3 3e
       -0.55976623 -0.81727767 -0.32130155 0.44418946
000220 a4 da 4c bf 3e fd fc bf 98 9f 72 3e b2 e9 da 3f
       -0.8002112 -1.9764783 0.23693693 1.7102568
000230 4c 3b 72 bf 88 6a 06 bf e1 c8 4e bf ba 30 62 bf
       -0.9462173 -0.52506304 -0.80775267 -0.883556
000240 48 74 a2 bd e1 d7 ce 3f a8 10 ed be d0 77 a5 bf
       -0.07932335 1.6159631 -0.4630177 -1.2927189
000250 fb d0 92 be 80 0b 89 bf 28 ed b2 be ba f2 ae bd
       -0.28675064 -1.0706635 -0.3494656 -0.0854239
000260 55 9a c8 bf 6b 3c 5f bf f9 c1 85 be 6b 64 99 40
       -1.5672098 -0.87201566 -0.26124552 4.793508
000270 fb 6d 84 be 86 d3 9e bf 57 fd b0 be 6f f5 e9 be
       -0.25865158 -1.2408302 -0.34568283 -0.45695063
000280 71 7a 81 bf da bc bb be 4f da 66 3e fc 7f 10 bf
       -1.0115491 -0.3666752 0.22544216 -0.5644529
000290 0b a7 35 3e 2d f7 4a bf 37 13 c7 be 3b 33 9f bd
       0.17739503 -0.7928341 -0.38881847 -0.07773443
0002a0 04 1d e9 be 04 85 69 3f da 17 d2 bf cc ae a2 bf
       -0.4552995 0.9121859 -1.6413529 -1.2709594
0002b0 6d cf da be 3d 41 d0 be be df 7e bf c0 71 82 3f
       -0.42736378 -0.40674773 -0.99560153 1.0190964
0002c0 78 c3 28 bf 87 99 36 bf 72 ee df 3e 5e df 92 3e
       -0.6592326 -0.71328014 0.43736607 0.2868604
0002d0 76 b1 c7 be ff 0e b3 bf de 01 85 3d 23 17 1a bf
       -0.3900258 -1.3988951 0.06494497 -0.60191554
0002e0 8c 66 1e be a5 3e 12 bf 72 74 63 bf f1 e3 34 be
       -0.15468806 -0.5712684 -0.88849556 -0.17665078
0002f0 dd ef 6d bf dd 0f 29 be 2c e2 11 bf b8 42 5d bf
       -0.9294413 -0.16509958 -0.56985736 -0.8642993
000300 54 0e 23 40 96 30 2a bf 28 fe bf be 7e 21 74 bd
       2.5477495 -0.66480386 -0.37498593 -0.059602253
000310 63 93 db bd d3 fe b8 be ba 32 e0 3e 82 92 5c bf
       -0.10721471 -0.36131915 0.437887 -0.86161053
000320 4c 2d 84 3f de 81 a3 bf d2 be 37 bf a1 eb 17 bf
       1.0326324 -1.2774007 -0.71775544 -0.59343916
000330 9d 6e b2 be 4b 4e 23 be da 28 3b bf 77 b9 63 3e
       -0.34850016 -0.15947835 -0.7310921 0.22238718
000340 38 c7 62 bf 95 7d a0 bd 94 69 d0 3d 6b 91 2f bf
       -0.88585234 -0.07836453 0.101763874 -0.68581265
000350 8c 44 f9 bc d3 26 2a bf 2b 44 d8 bd d5 77 30 be
       -0.030428194 -0.6646549 -0.10559877 -0.17233212
000360 a5 0b 5b bf 69 07 4a bf df 3c 9f 40 d7 21 c8 be
       -0.85564643 -0.78917557 4.9761806 -0.39088318
000370 9a 44 ae bd 79 2d 8f bf 03 0d 63 be fb d1 f9 be
       -0.085091785 -1.1185752 -0.22172932 -0.48793015
000380 6e cf 4c be 2e a3 5b bf 3f ae 6d bf ef 30 d3 bc
       -0.20001003 -0.8579587 -0.92844003 -0.02578017
000390 3e ed 86 bf 2e a2 2c bf e7 4a 09 bf 82 e8 47 be
       -1.054115 -0.67434967 -0.53629917 -0.19522288
0003a0 e7 6b 1b 3f 71 75 c7 3e 5e 11 2c bf 8c 7e e1 bb
       0.6071152 0.38956788 -0.67214 -0.0068815406
0003b0 05 86 4c be c2 11 5a be d6 e0 01 bf ab 4d 1a bf
       -0.19973 -0.21295837 -0.507337 -0.6027476
0003c0 b0 da 21 3f a2 4f 78 bf 4c 90 41 be 02 a3 58 bf
       0.63224316 -0.9699651 -0.18902701 -0.8462373
0003d0 91 85 49 be 97 b2 a0 bf 91 af f4 be 6f b2 c3 3e
       -0.19679858 -1.2554501 -0.47790197 0.38222072
0003e0 4c d3 70 3e 1a 6a 7a bf eb 0c 42 bf b0 01 01 bf
       0.23518103 -0.9781815 -0.7580096 -0.503932
0003f0 da cd 52 bf 17 7f 82 3c 63 dc 39 bf 27 d8 97 3d
       -0.82345355 0.015929742 -0.7260191 0.07414275

fc3.weight f4 [8, 256]
000000 31 7d 98 3d d4 2a a0 3e 2d e9 1a 3d 4e 74 15 be
       0.07445753 0.31282675 0.03782003 -0.14595148
000010 3c 4e e5 3e bc 50 a6 bd fe 10 3e be 61 f8 1b be
       0.4478625 -0.081208676 -0.1856117 -0.15231468
000020 a9 bf 5a 3e c8 99 20 be cb 0c e4 3e 80 73 d5 3d
       0.21362175 -0.15683663 0.4454101 0.104224205
000030 28 be 6c bd 39 d1 e3 3e 31 a1 8e 3e af 5b fc be
       -0.057798535 0.44495562 0.27857354 -0.492887
000040 d6 ab 39 be 89 c3 d8 be 3d ce 1d 3f 87 54 f3 3e
       -0.18131956 -0.4233668 0.6164282 0.47525427
000050 91 94 46 be 96 ec ae 3e fa 45 f8 3e e3 ba a4 3e
       -0.19392611 0.34164876 0.48490888 0.32173833
000060 da fd 5e 3d 1a 5f 42 bd c1 96 08 3f e7 49 97 3e
       0.05444131 -0.047453977 0.5335503 0.2954857
000070 7e 5f fe 3e 97 07 af 3e 0c f9 7c be ea c1 84 3e
       0.4968223 0.34185478 -0.24704379 0.25929195
000080 17 4e 36 3d 0a 1c ba be 5d 3c 08 3e 7f 42 d9 be
       0.044508066 -0.36349517 0.13304277 -0.42433545
000090 f5 08 e2 3e f1 99 85 bd ab e9 49 3f fa 72 6c bf
       0.4414746 -0.065235026 0.78872174 -0.9236294
0000a0 15 8b f2 3e 1a aa 8d 3e 13 9a 90 3c fd d8 a4 3e
       0.47371736 0.2766884 0.017651593 0.321968
0000b0 38 cc d3 3e af e3 43 3e e4 76 b6 3b c4 9a 88 3f
       0.41366744 0.19129823 0.005568372 1.0672231
0000c0 5b e5 f1 3e a9 96 57 3d 55 21 96 be 57 99 92 3e
       0.47245297 0.052633915 -0.29322305 0.28632614
0000d0 26 f9 8d be dd 6c 1b 3d 3e 18 0a 3d 60 1c ec 3e
       -0.27729148 0.037945617 0.033714525 0.46115398
0000e0 2a 79 0b 3e 17 79 a2 3d 83 08 11 3f dd 42 72 3d
       0.13620439 0.07933252 0.5665361 0.059145797
0000f0 1b 60 86 be a4 cb dd bd 97 4d 1a be 5b b7 a1 3e
       -0.26245198 -0.10829857 -0.1506866 0.31585202
000100 ad a4 a4 3e a9 1e b8 3c aa b1 08 3f 0d 4a ef 3e
       0.32156888 0.022475557 0.53396094 0.46736184
000110 ee 9f 40 3f 2c 21 a1 3e 9b bc 8e 3e e3 54 3d 3e
       0.75244033 0.3147062 0.2787827 0.18489413
000120 4e 37 b6 3d 44 db 52 be 2b 69 12 bc d8 ee 70 bd
       0.08897267 -0.20591456 -0.008936207 -0.05882153
000130 ed 70 15 bf 1c 71 1c bd c5 22 c3 3e a5 6e 22 3e
       -0.58375436 -0.038193807 0.38112465 0.1586252
000140 20 0c 0a 3f 1f e9 ee be 13 57 84 3f 4c f8 48 3f
       0.5392475 -0.46662232 1.0339073 0.7850387
000150 f8 aa ce be 41 5b be 3d 4c b5 ba be eb 34 19 3f
       -0.40364814 0.09294749 -0.36466444 0.5984637
000160 e0 a5 eb bd 1e 8f 06 3f 53 3f 30 be 97 c8 2f 3d
       -0.115062475 0.5256213 -0.17211656 0.042915907
000170 d3 d8 12 bf f9 c2 84 3e 37 ed a1 3e 0f a6 98 3e
       -0.573621 0.25930002 0.31626293 0.29814193
000180 1f c0 c5 3c 2d 39 00 bd 23 52 8b 3d a5 31 32 3e
       0.024139462 -0.031304527 0.06802776 0.1740175
000190 24 f3 08 3e 10 50 32 3c d8 e8 f6 3d 43 0a 53 be
       0.13374001 0.010883346 0.1205613 -0.20609383
0001a0 04 95 1d bf 36 ed 30 3d 56 e9 90 3e 2d f0 48 3e
       -0.61555505 0.043194972 0.2830302 0.1962287
0001b0 60 74 fa 3e 0d 5f 4f 3e b4 1d 8a 3f f7 64 ff 3d
       0.48916912 0.20251103 1.0790315 0.124704294
0001c0 ac 32 0e 3f 39 da 76 3e 31 2f e5 3c 97 19 7b be
       0.5554607 0.24106683 0.027976604 -0.2452148
0001d0 5e a6 7d be 7f 62 28 3e 66 9f f3 3e 6a 1d 2f 3d
       -0.24770495 0.16443823 0.4758255 0.04275266
0001e0 2a a1 bc be e3 e1 02 3e cc 84 a3 3e b8 e2 0c be
       -0.36841708 0.12781481 0.31937253 -0.13758361
0001f0 1e 44 8c 3e 0d a1 99 3e c5 30 9a be 86 cd f7 be
       0.2739572 0.30005684 -0.30115333 -0.4839899
000200 96 f1 1c 3e b5 fd 9f 3e eb de aa 3e 96 30 38 3e
       0.15326533 0.3124825 0.33373198 0.17987284
000210 c9 4a bc 3e f6 4d 00 3c 1b 99 11 be b5 80 1c 3f
       0.36775807 0.007831087 -0.14218561 0.6113389
000220 53 9e d9 be e9 8a fb 3e 18 ba 4e 3e 1e ab d6 3e
       -0.42503604 0.49129418 0.20188177 0.41927427
000230 9c b4 32 3f fc ac 17 be 8a a5 12 3f e2 4f 3e 3f
       0.6980684 -0.14812082 0.5728384 0.7434064
000240 47 d8 3a be 70 2f c5 3e 05 0c 99 3d 31 94 1b 3f
       -0.18246566 0.38512754 0.07472996 0.60773
000250 fb 76 5d 3f 3b 82 d4 3e 5d 05 61 3e 9b c8 23 bd
       0.86509675 0.41505608 0.21974702 -0.039986234
000260 df a9 ee bd 80 72 85 3e 7c f9 8e 3e 1d c8 47 3e
       -0.11653494 0.2606392 0.27924716 0.19509931
000270 0a 3f ee 3d cd 51 22 3f ed 9d ae 3e cb 63 ed 3e
       0.116331175 0.6340607 0.34104863 0.46365198
000280 74 df 49 3e bd d9 1c be f8 dc 85 be 6a 4f 0f be
       0.19714147 -0.15317436 -0.26145148 -0.13995138
000290 6f 85 4c 3e 86 02 2d 3e b5 d7 18 be 95 3d 8b 3e
       0.19972776 0.16895494 -0.14926036 0.2719542
0002a0 90 17 ea 3d c5 2c f5 3d 9e 02 f9 3e f9 b6 89 3e
       0.114302754 0.1197143 0.4863481 0.2689741
0002b0 9f 6c fe 3d 2f d4 11 3d c9 28 66 be 2e e9 64 3e
       0.124230616 0.035602745 -0.22476496 0.22354576
0002c0 1a 6c 08 3f c5 28 26 3e 98 a4 93 be 94 2d 9e be
       0.5328995 0.1622649 -0.28836513 -0.30894148
0002d0 48 09 1f be 0c 82 38 3c 34 48 8c 3e 56 fe 36 be
       -0.15530884 0.011261474 0.27398837 -0.17870459
0002e0 03 4f c8 3e 0f 68 78 be 33 d4 13 3f b0 e7 1a 3f
       0.3912278 -0.24258445 0.57745665 0.6050978
0002f0 e5 4b 5f 3d b0 bc 3d 3f 7b e6 b3 3e fa 9f 12 bc
       0.054515738 0.7411604 0.3513678 -0.008949274
000300 4b 90 f4 3c 67 b9 f8 be 8b 33 b1 3d 3d 14 13 3f
       0.02985396 -0.4857895 0.08652409 0.57452756
000310 0a cf 66 be 14 1e 30 3f 09 a6 74 bf c3 85 30 3e
       -0.22539917 0.68795896 -0.9556585 0.17238526
000320 a5 b8 25 3f 38 dd de 3e 8b ef 99 bd c1 1f c4 be
       0.6473487 0.43528152 -0.07516392 -0.38305476
000330 1d 47 18 3f 4f 46 27 3f 10 27 d1 be 48 68 5c 3e
       0.5948351 0.6534166 -0.40850115 0.21524155
000340 74 50 4e 3e 14 76 d5 be 9a 7d 1d bd 92 95 94 3e
       0.20147878 -0.4169165 -0.03844986 0.29020363
000350 fc 15 6b 3f 4a 0d 52 3f 9c 98 9e 3e 57 5f da bd
       0.9183042 0.8205153 0.30975807 -0.10662716
000360 8d ab 07 bf e5 dc 73 be 7a 3f 8e 3e e7 14 8d 3e
       -0.5299614 -0.23814733 0.27782804 0.2755501
000370 80 d8 a7 bc f9 6a 16 bf b2 1d ee bd 26 c5 e7 3d
       -0.020488977 -0.5875698 -0.11626758 0.113169
000380 e4 bc cf 3e 6d 12 ce be bd 95 5c 3e 40 6d 12 3f
       0.405738 -0.40248433 0.21541496 0.5719795
000390 8c 22 0e 3e bc 30 07 3f 2e 56 1d 3f e4 dd 28 bd
       0.13880366 0.5280874 0.61459625 -0.041227236
0003a0 25 97 c9 3d 8e f1 a6 39 e5 3b 96 3e d5 c7 f0 3e
       0.09843282 0.0003184196 0.2934257 0.4702746
0003b0 07 f6 99 bd b1 75 ea 3d 09 1c 19 3e 10 5b 2f bd
       -0.07517629 0.11448229 0.14952101 -0.042811453
0003c0 2e 7c db be bc 21 46 be 76 c4 b4 bb 8b 33 c0 3e
       -0.4286818 -0.19348806 -0.005516584 0.37539324
0003d0 06 8a 47 3f 13 e6 cd 3e 34 fa 63 3e a5 dd 28 3d
       0.7794498 0.40214595 0.22263414 0.041227
0003e0 b6 16 24 3f e3 f8 15 3e ba 1d 03 3f 17 4a 98 3e
       0.64097154 0.14645724 0.51217234 0.29744026
0003f0 38 09 6a bf 1d 5e 2f 3f 4d 1d b6 3e 77 e9 84 bf
       -0.91420317 0.6850298 0.3556923 -1.0383748

fc3.bias f4 [8]
000000 64 24 ab 40 a1 9c a9 40 f0 7c a6 40 db 09 16 41
       5.348192 5.3003697 5.202751 9.377406
000010 c1 01 a5 40 56 db b3 40 2e 91 ab 40 d3 24 99 40
       5.156464 5.6205244 5.361472 4.785745
