examples/carla_scenic/Carla_Challenge/trained_model_2022-06-11/agent_path/target_net_1300.pt (torch, 79447 bytes, 6 tensors)

fc1.weight f4 [64, 10]
00000000: 6b68 6dbf 4c9a cebe e4ae 6ebf 6696 2a3e
00000010: 2303 143d beaa 27bf e96c 3740 fa5a 61be
00000020: 8542 d7be ef68 78bf c364 eb3f 7fa6 193f
00000030: 583e 3e3d 6264 f53d 83fa e2be 60d0 2a3f
00000040: cc5c 8a3f 98e2 4440 ec94 9fc0 ded6 04c0
00000050: c482 0ac0 6c4e d1bf 7db0 42bd 9a51 57be
00000060: e0fb 0f3f 3262 c5be 8563 ea3e c3e1 b8bf
00000070: 6829 debe f85d 6f3d 9015 9bbe 2033 00be
00000080: 7934 91bf 845f d3bc 64f2 483a 4f6f f6bd
00000090: aab0 e93e 9f91 d8be ddd3 33c0 0368 63bf
000000a0: d5de e3bf 7e94 39be afbc 36bf c40f 31be
000000b0: 6615 eabd 06ba 22be 6eeb 203f 7056 24bf
000000c0: 5d2c 013f 462a a0bf 3281 acc0 de28 6bbf
000000d0: 3b4f 9b3c 91c7 27be 8f59 2abd 5c80 03be
000000e0: 7279 333e 2d62 b4be 0f29 883f 3641 93bd
000000f0: 5b68 9dbe efcd df3f 8c9a b9be 82b8 7c3e
00000100: 3867 263e 34bb d23d 62d5 a7bf c34e 8540
00000110: 05e6 dcc0 8802 69c0 1c00 2640 a0f4 923f
00000120: ea34 b03d 2f1b 4fbf ed32 8f3e 7103 e03e
00000130: 9d9f 923f 1e54 8fc0 6068 593f b05e 19bf
00000140: 25ba be3f 3d03 55bf ef86 a03d 9b20 c5bc
00000150: bc2c 333d 278d 7a3f 6d45 ad3f 8d02 3dbf
00000160: cf97 b73e 49e7 2dbf df1a 2140 fa70 4940
00000170: a176 76be 7169 05be 3cfa c3bd 8e87 893f
00000180: 0276 3d40 e1ee e7bf 32d3 8c3f 3fce 0cbf
00000190: 9d63 bc40 22a0 d23f ac73 66be 5f0b 253e
000001a0: 5116 ae3d eb88 b5bb 28a5 45be 3850 373e
000001b0: 2302 ae3f faf4 9f3e 0e41 58bf b20e 0840
000001c0: 785e debe 2097 26be 23e3 9a3e 9fd5 9d3f
000001d0: b393 913f e207 6c40 eba2 d5c0 d24b 6bbf
000001e0: 1193 d43f ce29 763e 95ca 89bd 9fcd a8bd
000001f0: 8bfd 5bbe 5ecd f83d 38be 093d a375 90c0
00000200: e37c b23f 3f4b 193f 32ae 233e 0d49 753d
00000210: ca4b 76bf cac3 8cbe 2fce f33d 7f96 cf3d
00000220: 2dc6 ed3c 8102 1740 272e e1bf e4fe b5bf
00000230: a43f 0ebf d12d a0bf 3c6c 06be abb7 553d
00000240: ae72 bd3d 2e95 a93f 2672 e53f a8d3 e9bf
00000250: d35c a43e 2d67 bc3e ad58 85be 575b fe3d
00000260: 19bd 94bf f2ab afbb 8cf8 91bc 4091 b73b
00000270: 3f0f 843d fea3 873c 65a5 acbf 1cb6 4cbe
00000280: 9b17 95bf dd80 1ebf 23d4 d13d 8eb6 363e
00000290: 7d2f 043f 8b71 723e 9809 373f e44d bcbf
000002a0: 983e 0940 1385 c73b dac6 26c0 4416 08c0
000002b0: b134 5dbf aafb 50bc 2adc c2bd 8f7e 573f
000002c0: d359 1c40 c1c2 1dbf 74a2 b9bf 2232 ccbf
000002d0: 68e5 4c3f db5e 063f ab59 e4bf 9936 9dbc
000002e0: 65de 09bf 78d1 df3e 2efc d03f 4678 8ebe
000002f0: 4026 a63f 089b 42bf 4844 343f 412f e83f
00000300: 4744 3bbf 68e4 0a3f bb1b 8f3d 7ea5 e83e
00000310: 548d 443e 2d21 30c0 1c63 4fbf f70e 663e
00000320: 2934 dbbe d1c5 e23f b01f 00c0 dbf5 4e3d
00000330: 6b3d 82bd 4425 7e3f a062 02bf bd20 1140
00000340: cb9a afbf 7190 3ebf 40ba da3f 74de cb3f
00000350: cad4 c9bf 08d7 c73c fd87 b63e 09b6 0dbf
00000360: b528 76bf 9719 69c0 9edb 3940 8622 30be
00000370: bc2e f83f 0a47 f03f bf5d 26bf 55b1 993c
00000380: 0bc2 443e 373b 873f 6a82 cebf 58ef b1bf
00000390: d436 d63e 595e 4f3f 344e 803f d719 b83f
000003a0: a9a4 31bf 2038 6abd e5cd ec3b 8179 5c3f
000003b0: a6a7 e13f a08d 29c0 7444 9d3f f879 293e
000003c0: b348 36bf c71b 4abf c7b3 ecbf e0b5 29bb
000003d0: 4efe 34bc 301b ddbc da5a 893f 7e5d 14be
000003e0: 6c1c 59c0 1a7d 7fbf 71a1 823f 622f c7bf
000003f0: ffb5 fa3c 2e25 203e e81d 60bd 6c08 a63e
-0.92737454 -0.40352094 -0.9323561 0.16658935 0.036135804 -0.65494907 2.8660223 -0.22007361
-0.42042938 -0.97035116 1.8390125 0.6001968 0.046446174 0.11982037 -0.4433175 0.66724205
1.0809569 3.0763302 -4.986929 -2.0756145 -2.1642313 -1.6352057 -0.047531594 -0.21027222
0.56243706 -0.3855148 0.45779052 -1.4443897 -0.43390965 0.058439225 -0.30289888 -0.12519503
-1.1344138 -0.025802381 0.00076655135 -0.12032949 0.45642596 -0.422986 -2.809806 -0.88830584
-1.7802378 -0.18123052 -0.7138166 -0.1729117 -0.11429863 -0.15891275 0.6285924 -0.64194393
0.5045832 -1.2512901 -5.390771 -0.91859233 0.018958678 -0.16384722 -0.041589316 -0.12841934
0.17526796 -0.35231152 1.063753 -0.071901724 -0.3074368 1.7484721 -0.36250722 0.24679759
0.16250312 0.102896124 -1.3111994 4.1658645 -6.9030786 -3.6407795 2.5937567 1.1480904
0.086038426 -0.80900854 0.2796854 0.43752626 1.145496 -4.479018 0.8492489 -0.59910107
1.4900557 -0.83208066 0.078382365 -0.024063399 0.043743834 0.9787163 1.3536812 -0.7383202
0.35858008 -0.6793104 2.517265 3.1475205 -0.24068691 -0.13028504 -0.09569213 1.0744493
2.9603276 -1.8119775 1.1001952 -0.55002207 5.88716 1.6455119 -0.22505063 0.16117619
0.0850035 -0.0055400035 -0.19301283 0.17901695 1.3594402 0.3124159 -0.84474266 2.125897
-0.4343145 -0.16268587 0.30251417 1.2330817 1.1373199 3.6879811 -6.6761374 -0.9191257
1.6607381 0.24039385 -0.067280926 -0.08242344 -0.21483438 0.12148546 0.033628672 -4.51436
1.3944362 0.5988044 0.15984419 0.05988412 -0.96209395 -0.27493125 0.11904561 0.10136127
0.029025162 2.3595278 -1.759221 -1.4218411 -0.5556586 -1.2513982 -0.13127226 0.052177113
0.09250389 1.3248651 1.792546 -1.8267717 0.3210207 0.36797467 -0.26044217 0.124197654
-1.1620208 -0.0053610737 -0.017818712 0.005602032 0.064482205 0.01655769 -1.3487974 -0.19991344
-1.1647829 -0.6191538 0.1024554 0.17843077 0.5163496 0.23676126 0.71499014 -1.471127
2.1444454 0.0060888617 -2.605887 -2.126359 -0.86408526 -0.012755314 -0.09514649 0.8417749
2.4429824 -0.61625296 -1.4502702 -1.5952799 0.80037546 0.5248849 -1.7839864 -0.019191073
-0.5385497 0.437145 1.6326959 -0.27826136 1.2980423 -0.7601781 0.7041669 1.8139421
-0.7315106 0.5425477 0.06987711 0.4543876 0.19194537 -2.752025 -0.81010604 0.22466646
-0.42813233 1.7716619 -2.001934 0.050527435 -0.06359371 0.9927561 -0.5093174 2.2676232
-1.3719114 -0.7443915 1.7088089 1.5927262 -1.5768063 0.024394527 0.35650626 -0.5535589
-0.96155864 -3.6421869 2.9040294 -0.1720067 1.9389262 1.8771679 -0.64986795 0.018761316
0.19214647 1.0564946 -1.6133549 -1.3901167 0.41838706 0.8100334 1.0023866 1.4382886
-0.69391876 -0.05718243 0.007226693 0.861229 1.7629287 -2.649269 1.2286515 0.16550434
-0.7120468 -0.78948635 -1.8492364 -0.002589576 -0.011046959 -0.026990503 1.0730851 -0.1448879
-3.3923597 -0.99800265 1.0205518 -1.5561335 0.03060436 0.15639183 -0.05471602 0.324283

fc1.bias f4 [64]
00000000: ee0d c53f 30ab a0bf 6957 0040 4b0e 5ebf
00000010: b722 cd3d ccb3 eebe 0d76 dfbf 9f8a edbf
00000020: e2a0 1a3e c385 cabf 33e0 cabf b729 69bf
00000030: db15 0bbf 46c9 c13f 13a0 4abf 8dad b4bf
00000040: e53c 01c0 3090 0bbe ece7 e43f 4da0 5bbf
00000050: f1cd a03f ab79 36bd 8648 4dc0 7ef4 39bf
00000060: 9f68 18c0 4656 cfbf 48b9 ebbf dc97 a240
00000070: bbe8 a7be 36be 3abf 3818 f93f a060 7cbe
00000080: b6a8 28bf 149c e5bf 4965 96bf 97fa fcbf
00000090: e1d8 4bc0 003b 8dbe b0e4 2b40 774f dcbe
000000a0: 231f 5cbf 25f4 1340 cc22 13c0 c616 edbf
000000b0: f928 2240 d171 17bf 6f2f 8ebe bfe6 0abf
000000c0: 87f0 34c0 1426 7340 5b4d 1a40 600c 0d40
000000d0: d6b1 e23b 761e 9bbf dfe7 f1bf 130f 96bf
000000e0: 53ac 2740 09bd 66bf c8ce 6c3f 9dc6 ce3e
000000f0: 2862 0f40 2c5d eebe c942 0fbf 0aa9 e0be
1.5394876 -1.2552242 2.005335 -0.8674056 0.10016387 -0.4662155 -1.7457901 -1.8557929
0.15100434 -1.5822071 -1.584967 -0.91079277 -0.54330224 1.5139549 -0.79150504 -1.4115463
-2.0193417 -0.13629222 1.7883277 -0.85791475 1.2562848 -0.044549625 -3.2075515 -0.7263869
-2.3813856 -1.6198204 -1.8415918 5.0810375 -0.32794747 -0.7294649 1.9460516 -0.24646235
-0.6588243 -1.7938256 -1.174966 -1.9763974 -3.1851122 -0.27584076 2.685833 -0.43029377
-0.8598501 2.3117764 -2.2989988 -1.8522575 2.5337508 -0.59158045 -0.27770564 -0.5425834
-2.8271806 3.799199 2.4109714 2.2038803 0.0069181724 -1.2118671 -1.8898886 -1.172335
2.6198928 -0.90132195 0.92503023 0.40385905 2.240366 -0.4655546 -0.5596128 -0.43878967

fc2.weight f4 [256, 64]
00000000: 3900 36be e6de e5bc 07d7 abbe fcaa 11be
00000010: 336a 7e3f 1007 b73b b251 5abd d700 61bf
00000020: 626b 0ebf 02dc 923d 8955 b5be 9a64 86ba
00000030: 2ac6 a83c 2240 5f3e c7a5 8f3e e639 31bd
00000040: 2816 99be b14c a43a f106 2bbf 2d8a ee3b
00000050: 8333 a03e fbcd 9abf 140a 4bbe ebb2 4c3e
00000060: 4b00 743d 01e2 40bf b6d0 36bf 5805 bebe
00000070: 683c dcbe c7b2 453d 027e 62bf 2582 90be
00000080: 8f52 c7bf 51af 5bbf ea06 3abe dba1 77bf
00000090: 06f5 ba3d a20d bb3b a363 e0bd f04e 623e
000000a0: 74bc 0ebf 3844 9cbd ff4e 1fbf 5867 16be
000000b0: 6f03 03bf 5df1 12bf b601 0ebe 779f 20be
000000c0: 6e20 d0be d5f3 c13e b235 acbc e041 c9be
000000d0: 2f92 48bf 5b08 4cbf d23d 943d 39db 84bf
000000e0: 8021 aabe a05c 3dbe dec4 003f a392 1bbf
000000f0: c76c 6fbe 2705 e8bd 20d6 14c0 257d 7cbf
00000100: 9392 1ebf 9bc3 8a3e 8089 cebe 3994 d8be
00000110: 66aa 873e 8473 03bf 7156 a8be 5ed8 2fbe
00000120: 2790 a7be c3cf 9cbf 54be cfbd 6484 203d
00000130: 5e75 16c0 b8db 78be b6f7 24be 357a f1bd
00000140: 3d5f b4bd f0b6 48be 5857 05bc c0f8 20bf
00000150: 53fc f6bc 7cb4 c9be 2f54 d93d cc4e 06be
00000160: 8261 b9bd d38f 1bbf bb7e b1be ddac c6be
00000170: 04dc c8be 82a6 b03b 1b7f 82be 7eb9 17bf
00000180: af19 873e 2fa2 283f 07b6 90be a6be 0a3d
00000190: 6c28 063f 5310 c4be 3177 913d 2bb7 b2be
000001a0: 7359 4bbf 7a74 6a3d 9b5e 1dbf 062f eabe
000001b0: e7f7 83be 2036 bcbd a138 e9bd 3c5a 103e
000001c0: db18 e43e b74d 473e 9a78 06be e07a 99be
000001d0: 523d 05bf 1abd 96be cfae 23bf af8a 4bbf
000001e0: a7e5 30bf b205 fabe f18a 2ebf 64e8 d1bd
000001f0: 94e4 5abe 7f96 0ebd afd6 fcbf b61d e0be
00000200: d608 583e b00d d3be 4db3 bcbe 30f9 81be
00000210: 87fb 20be ba92 ee3d 2883 903d e08f 51bd
00000220: b6e0 0dbf 7517 43be 023d d73d 8359 dcbe
00000230: e594 a6be 4cef 21be c30e 56be 58a7 93be
00000240: 082d 71bf b5e3 fd3e dcff 553e 6f06 06be
00000250: ee2e 32bf 9bd0 26bf 2a57 11bd d902 4ebe
00000260: 32f9 213e 12fd b8be 0bc1 95be 5b52 50bf
00000270: 04c7 d4be f209 513f 0502 8fbf a220 55be
00000280: 6f1b 28bf d5ab 2dbf 6ee7 aabe 9666 cebc
00000290: 0ece 07bf d6f2 f6bd 2ca1 f9be 6c11 783e
000002a0: 9b8e 8abf 5e6c d7be 995f 7cbf 4994 babe
000002b0: f50a 22bf 5f13 85bf 4b57 803d 0a4c 45bd
000002c0: 185e 3abf 8229 bfbf 48d1 b1be 25ea 2bbf
000002d0: dfbd 9fbf 593f 9abd 60f5 45be d215 4abf
000002e0: 2c6e 09bf 3e31 d2be 94b4 b6be 8970 eb3e
000002f0: 16ae 52bf 1319 aebe 22b5 a2bd e1d8 3bbf
00000300: 027a babe b0fc cfbd 008b 82be 9eeb 98be
00000310: b70f 0cbf 4dcd 073e 2c73 edbd 94fa d2bc
00000320: 8b77 09bf 8990 69bd 6ca0 59bc e89b 9fbe
00000330: d717 2abd dbca 13bf 6440 c2be 1a3b 9c3d
00000340: a52b 9dbf be27 03bf 1210 26bf cefd 81be
00000350: d931 e6bd 4f7a 023f 7d77 b2be 5aab 2e3c
00000360: fb24 85bd b986 e1be cbb9 d6be e3e1 01bf
00000370: da08 933e e02f cb3d 0158 8f3e 2004 6cbd
00000380: 8aa8 09bf c0e5 a0be 788e 08bd 01b4 afbd
00000390: c510 db3c e32b e1be 6afc 05bf 617d 98be
000003a0: ea14 263d c66b 7fbe 3895 8dbe 69e8 62be
000003b0: e7c7 cbbe 1e4f 8fbe 48af 983c c231 ddbe
000003c0: be15 07bf a73d c2be 38c6 b1be 91f3 25be
000003d0: 658f 76be 58f4 1abf daee 513e 6aaa 683c
000003e0: acf3 a4bc cf71 34bf bc83 4fbd 7953 d6bd
000003f0: 4c86 12bf 2abc 3c3d d4ce acbd 8cc5 2fbe
-0.17773522 -0.028060388 -0.3356249 -0.14225382 0.993808 0.0055855587 -0.053300567 -0.87891906
-0.55632603 0.071708694 -0.3541682 -0.001025337 0.020602304 0.21801808 0.28056166 -0.043268107
-0.29899716 0.0012535063 -0.66807467 0.0072796554 0.312893 -1.209411 -0.19828063 0.19990127
0.059570592 -0.75344855 -0.7141222 -0.37113452 -0.43014836 0.0482662 -0.8847352 -0.28224292
-1.557207 -0.85814387 -0.181667 -0.96731347 0.09128766 0.0057084123 -0.10956504 0.22100425
-0.55756307 -0.07630199 -0.62229913 -0.1468786 -0.51177114 -0.5739954 -0.1386784 -0.15685831
-0.40649742 0.37881342 -0.021021698 -0.3930807 -0.7834806 -0.7970025 0.07238354 -1.0379401
-0.33228683 -0.18492365 0.50300395 -0.60770625 -0.23381339 -0.11329108 -2.3255692 -0.98628455
-0.61942405 0.2710236 -0.4033928 -0.42300585 0.2649719 -0.5134814 -0.3287845 -0.17172381
-0.32727167 -1.2250904 -0.10143724 0.039188758 -2.3509135 -0.24302566 -0.16110119 -0.11790887
-0.08807228 -0.19601035 -0.0081385 -0.6287956 -0.030149614 -0.3939551 0.1061176 -0.13115996
-0.09051801 -0.60766333 -0.34667 -0.3880376 -0.3923036 0.005390943 -0.254876 -0.59267414
0.26386783 0.6587247 -0.28263876 0.033873223 0.5240543 -0.38293704 0.07102812 -0.3490537
-0.79433364 0.057239987 -0.6147248 -0.45739 -0.25775072 -0.09190011 -0.11387754 0.14096922
0.44550213 0.1946324 -0.13131943 -0.2997656 -0.5204669 -0.29441148 -0.6393861 -0.7950849
-0.6910042 -0.4883247 -0.6818076 -0.10249403 -0.21376258 -0.034811493 -1.9753016 -0.43772668
0.2109712 -0.4122138 -0.36855546 -0.25385427 -0.1572095 0.116490796 0.07056266 -0.0511626
-0.55421007 -0.19051917 0.10509683 -0.43037042 -0.32535473 -0.15813941 -0.20904069 -0.2883861
-0.9420934 0.4958779 0.20898384 -0.13088392 -0.6960286 -0.65162057 -0.035483517 -0.20118274
0.15817717 -0.36130577 -0.29248843 -0.81375664 -0.41558087 0.816558 -1.1172491 -0.2081323
-0.6566686 -0.6784032 -0.33379692 -0.025195401 -0.5304879 -0.12058036 -0.48755777 0.24225396
-1.082477 -0.42074865 -0.9858337 -0.36441258 -0.6329797 -1.0396537 0.0626665 -0.04816822
-0.72799826 -1.4934542 -0.3472998 -0.6715415 -1.2479819 -0.07531614 -0.19331884 -0.78939545
-0.53683734 -0.41053194 -0.35684645 0.45984295 -0.82296884 -0.34003505 -0.079447046 -0.73377806
-0.3642121 -0.10155618 -0.25496674 -0.29867262 -0.5471148 0.1326191 -0.11594233 -0.02575425
-0.53698033 -0.057022605 -0.013282876 -0.31173635 -0.04152664 -0.5773141 -0.3793975 0.0762846
-1.2278944 -0.51232517 -0.6486827 -0.2538895 -0.112399764 0.5096788 -0.34856787 0.010660971
-0.06501194 -0.44048098 -0.41938624 -0.507353 0.2871769 0.09921241 0.2799683 -0.05762112
-0.53772795 -0.31425285 -0.033338994 -0.08579255 0.026741395 -0.43978795 -0.5233828 -0.29783157
0.04054729 -0.24943456 -0.27652907 -0.2215897 -0.3980095 -0.2799005 0.018638268 -0.43202025
-0.5276755 -0.37937662 -0.3472154 -0.16206194 -0.24078138 -0.6052909 0.20501271 0.014200786
-0.020135723 -0.7048616 -0.05066274 -0.1046514 -0.5723617 0.046077885 -0.08437887 -0.17165202

fc2.bias f4 [256]
00000000: 1fae 30bf 0a20 09bf 9428 72be 96dd 12bf
00000010: 6717 1c40 8c5a 4cbf ab4d c9be 9fdf d5be
00000020: 7575 72be c40d 4ebf 7025 e9bd 484c 88be
00000030: d2de 65be 4bb1 b040 90b0 b2be 41c8 d2be
00000040: be63 00be 3fb0 c3bd c754 243e 543d 1bbd
00000050: 5738 f5bd 8586 5abf f138 a4be 039f 00bf
00000060: 562c 54bf 6516 c0be 4166 0b3f 9ac6 413f
00000070: 3519 13bf 434d 85be f473 69bf b62b fb3a
00000080: ef90 66bf 823c a23f 791d f8bd ae11 57bf
00000090: a6d7 e2be 2cf5 25bf 587d f7be 3b16 b7bf
000000a0: bdcd 33bf 4149 e5be c4b7 39be 10d6 f4bc
000000b0: f24c a43e 47f6 6140 afaf b1bf 8d5e 993f
000000c0: 2ff8 d9bd 8ac5 9cbe 0aef 7f3f c9bb 9ebf
000000d0: 242a 003e 6bb4 85bf fdd6 0ebf 1c66 683e
000000e0: 8702 19bf 3a01 3abf 621e e73d 5bd8 92be
000000f0: 2627 02bf 8f34 b0be f60e 9cbf 690e 24bf
00000100: db20 c8be 4e09 1ac0 31a7 0c3c b6fe 15bf
00000110: f153 a3be c388 4d3f 820d 33bc 0096 2ebf
00000120: cf3e 04bf cda8 19bf 5f04 c6bf 0013 cebd
00000130: ec21 85be 5e59 c7be 2be8 07be 7e8b 14be
00000140: 25df 9ebf 29fd 6fbf 5920 853f 0af6 87bf
00000150: 1a48 003f 6ead 913e f53b 893f 4682 10bf
00000160: 79a8 a8bc 55c1 2abe 6abd 39bf d436 24be
00000170: 87d7 3cbf 8acd b6bf bc96 483d a793 4abf
00000180: 1650 01bf 8fd6 16bf 046a 483f 8e3c 203f
00000190: 929e 26bf e827 81be d98f 8abe cefb 073f
000001a0: 95ef 61bf d5ca 22bf 4f68 5ebd ef4e 89bf
000001b0: 3f2e 69bf deeb 18bf 1f8a 133f 4dc4 b4bf
000001c0: 4dad 83bf 6c39 053f 546d c3be 0a3d e6be
000001d0: 76a7 4bbe 94cf 96be 33fe 1fbf e542 a6bf
000001e0: 7e87 6dbf bb56 dcbd 0d00 b9be e26b ffbe
000001f0: 99f6 9abf b036 f0bf 5040 c6be 804b 05bf
00000200: 9c04 84bf 14ea b9be 2740 65bf 7d79 92bf
00000210: d74c 0fbf 6811 2ebf a381 a4be cd6c e33e
00000220: a4da 4cbf 62ec f8bf 989f 723e f97b e63f
00000230: 4c3b 72bf 886a 06bf e1c8 4ebf 180f 5abf
00000240: 4874 a2bd 5818 bf3f d8c0 8fbe d077 a5bf
00000250: 3684 82be 724d 61bf 28ed b2be df85 453e
00000260: 4239 a8bf 6b3c 5fbf f9c1 85be 4eba 9640
00000270: c362 60be fd4e c6bf 99af 25bf 6ff5 e9be
00000280: da59 64bf fa90 b5be 7d0e 633e fc7f 10bf
00000290: 0ba7 353e 2df7 4abf 42e2 1fbf 3b33 9fbd
000002a0: 041d e9be 9daa 8e3f da17 d2bf 2334 96bf
000002b0: 6dcf dabe 5d6c 9abe bedf 7ebf c071 823f
000002c0: 78c3 28bf 8799 36bf 8fc4 d23e d3a9 db3e
000002d0: 76b1 c7be fbbe 6abf de01 853d 2dfe f6be
000002e0: 8c66 1ebe a53e 12bf 7274 63bf f1e3 34be
000002f0: 2a43 5abf 8dfb 44bd 2ce2 11bf b842 5dbf
00000300: ba6d 1d40 9630 2abf 28fe bfbe 7e21 74bd
00000310: 1ddd f5bc d3fe b8be 3efc 253e 2cdd 4cbf
00000320: 4c2d 843f 6534 9abf 7d02 4abf a1eb 17bf
00000330: 9d6e b2be 4b4e 23be da28 3bbf 1679 09bf
00000340: f7b7 4bbf b345 adbc 9469 d03d 6b91 2fbf
00000350: 3f25 b23d d326 2abf 72ef c83d 07df a2be
00000360: a50b 5bbf 6dae 57bf 0755 a840 9ede b7be
00000370: 9a44 aebd 1d91 81bf 030d 63be fbd1 f9be
00000380: 8d48 2cbe 2ea3 5bbf 3fae 6dbf 8ca1 3d3d
00000390: 3eed 86bf 2ea2 2cbf e74a 09bf 82e8 47be
000003a0: 28b4 8b3f bf08 1d3f 1e77 03bf fac4 b33c
000003b0: 0586 4cbe 2303 d3be d6e0 01bf a813 c3be
000003c0: b0da 213f a24f 78bf 8609 21be 02a3 58bf
000003d0: 0ffc 6cbe 97b2 a0bf 91af f4be 6fb2 c33e
000003e0: 4cd3 703e 1a6a 7abf 7ac9 31bf 3775 20bf
000003f0: dacd 52bf c80e bd3d 0ab6 58bf 27d8 973d
-0.6901569 -0.5356451 -0.23648292 -0.57369363 2.4389284 -0.79825664 -0.39317068 -0.41772172
-0.23677619 -0.80489755 -0.11384094 -0.26620698 -0.2244828 5.521642 -0.34900331 -0.41168407
-0.12538049 -0.09555101 0.16047965 -0.037900284 -0.119736366 -0.8536151 -0.32074693 -0.5024263
-0.8288015 -0.37517086 0.544529 0.75693667 -0.5746034 -0.2603551 -0.91192555 0.0019162807
-0.900649 1.2674716 -0.121149965 -0.8401135 -0.44305152 -0.6482723 -0.48337817 -1.4303659
-0.70235807 -0.4478245 -0.18136507 -0.02988723 0.32089955 3.5306566 -1.3881739 1.198198
-0.106430404 -0.3061946 0.9997412 -1.2401057 0.12516075 -1.0445684 -0.55796796 0.22695202
-0.5976948 -0.7265812 0.11285092 -0.2868069 -0.50840986 -0.344151 -1.2192066 -0.6408449
-0.39087567 -2.406818 0.008584783 -0.58591783 -0.3189998 0.80286807 -0.0109285135 -0.6819763
-0.5165834 -0.60023195 -1.5470084 -0.10062218 -0.26002443 -0.3893537 -0.13272159 -0.14506337
-1.2411848 -0.93745667 1.0400497 -1.062196 0.5011002 0.2845263 1.0721422 -0.5644878
-0.020588147 -0.16675313 -0.7255465 -0.1603654 -0.7376637 -1.4281476 0.048971877 -0.7913155
-0.50512826 -0.5892114 0.78286767 0.625924 -0.6508571 -0.2522576 -0.27062872 0.531186
-0.882562 -0.6359075 -0.054298695 -1.0727214 -0.9108619 -0.59734905 0.5763263 -1.4122406
-1.0287262 0.52040744 -0.38169348 -0.44968444 -0.198881 -0.29455245 -0.6249725 -1.2989165
-0.9278487 -0.1075873 -0.3613285 -0.49886996 -1.2106506 -1.8766689 -0.38720942 -0.5206833
-1.0313907 -0.363114 -0.89551014 -1.1443325 -0.55976623 -0.6799531 -0.32130155 0.44418946
-0.8002112 -1.9447138 0.23693693 1.8006583 -0.9462173 -0.52506304 -0.80775267 -0.8517928
-0.07932335 1.4929304 -0.28076816 -1.2927189 -0.25491494 -0.880088 -0.3494656 0.19289349
-1.3142474 -0.87201566 -0.26124552 4.7102423 -0.21912675 -1.5492855 -0.64721066 -0.45695063
-0.891996 -0.3546217 0.22173496 -0.5644529 0.17739503 -0.7928341 -0.6245462 -0.07773443
-0.4552995 1.1145817 -1.6413529 -1.1734661 -0.42736378 -0.301608 -0.99560153 1.0190964
-0.6592326 -0.71328014 0.41165587 0.42903003 -0.3900258 -0.91697663 0.06494497 -0.48240796
-0.15468806 -0.5712684 -0.88849556 -0.17665078 -0.85258734 -0.04809146 -0.56985736 -0.8642993
2.4598222 -0.66480386 -0.37498593 -0.059602253 -0.030012662 -0.36131915 0.16209504 -0.8002498
1.0326324 -1.204724 -0.78910047 -0.59343916 -0.34850016 -0.15947835 -0.7310921 -0.5370039
-0.79577583 -0.0211514 0.101763874 -0.68581265 0.086985104 -0.6646549 0.098112956 -0.3181078
-0.85564643 -0.8425053 5.2603793 -0.3591203 -0.085091785 -1.012241 -0.22172932 -0.48793015
-0.16824551 -0.8579587 -0.92844003 0.04629664 -1.054115 -0.67434967 -0.53629917 -0.19522288
1.0914354 0.6134147 -0.51353633 0.021944512 -0.19973 -0.4121333 -0.507337 -0.38100934
0.63224316 -0.9699651 -0.15726289 -0.8462373 -0.23143028 -1.2554501 -0.47790197 0.38222072
0.23518103 -0.9781815 -0.69448054 -0.62678856 -0.82345355 0.09231335 -0.8465277 0.07414275

fc3.weight f4 [8, 256]
00000000: 34e5 603d 14e8 0e3e 2de9 1a3d 4e74 15be
00000010: 3c4e e53e 3970 5bbe fe10 3ebe 61f8 1bbe
00000020: a9bf 5a3e ec17 d8be bf82 a03e 8073 d53d
00000030: 4d8f 4abd 0063 153f 31a1 8e3e af5b fcbe
00000040: d6ab 39be 89c3 d8be 3dce 1d3f 8754 f33e
00000050: 9194 46be 2c30 bf3e fa45 f83e e3ba a43e
00000060: dafd 5e3d 1a5f 42bd c196 083f 69b5 d2be
00000070: 7e5f fe3e 82fa f33d 0cf9 7cbe eac1 843e
00000080: 174e 363d 0a1c babe 5d3c 083e 7f42 d9be
00000090: f508 e23e f199 85bd abe9 493f 13b3 8fbf
000000a0: 158b f23e 1aaa 8d3e 139a 903c fdd8 a43e
000000b0: 38cc d33e c2f1 86bd e476 b63b c49a 883f
000000c0: 1461 d13e 347c 153e 5521 96be 5799 923e
000000d0: 26f9 8dbe dd6c 1b3d 3e18 0a3d bec7 55be
000000e0: 2a79 0b3e 1779 a23d 8308 113f dd42 723d
000000f0: 1b60 86be a4cb ddbd 974d 1abe 5bb7 a13e
00000100: ada4 a43e a2f4 c23c 82fb 033f 0d4a ef3e
00000110: ee9f 403f 2c21 a13e 9bbc 8e3e e354 3d3e
00000120: 4e37 b63d 9c3d 11bf 2b69 12bc bb0a b5be
00000130: ed70 15bf 1c71 1cbd 1ca4 3fbe a56e 223e
00000140: 200c 0a3f 1fe9 eebe 1357 843f 75a7 513f
00000150: f8aa cebe 0d60 eabe 4cb5 babe eb34 193f
00000160: e0a5 ebbd 1e8f 063f 533f 30be 97c8 2f3d
00000170: d3d8 12bf 4748 a63e 37ed a13e 0fa6 983e
00000180: 1fc0 c53c 2d39 00bd 2352 8b3d a531 323e
00000190: 24f3 083e ee66 363e d8e8 f63d 430a 53be
000001a0: 0495 1dbf 36ed 303d 56e9 903e 2df0 483e
000001b0: ee00 d13e 0d5f 4f3e b41d 8a3f f764 ff3d
000001c0: ac32 0e3f dfeb be3d 312f e53c 9719 7bbe
000001d0: 5ea6 7dbe 7f62 283e d158 993e 6c95 ae3d
000001e0: 2aa1 bcbe e3e1 023e cc84 a33e 4a33 e4bd
000001f0: 1e44 8c3e 0da1 993e c530 9abe 86cd f7be
00000200: 96f1 1c3e b5fd 9f3e ebde aa3e 9630 383e
00000210: c94a bc3e 0f62 493c 1b99 11be b580 1c3f
00000220: 539e d9be e98a fb3e 18ba 4e3e ebaf f23e
00000230: 9cb4 323f fcac 17be 8aa5 123f e24f 3e3f
00000240: 47d8 3abe b827 8f3e c7be 173e 3194 1b3f
00000250: fb76 5d3f 3b82 d43e 5d05 613e ff35 dcbd
00000260: 76c7 e6be 8072 853e 7cf9 8e3e 8ce4 ae3e
00000270: 0bbf 143c edc4 6bbe 3990 d53e cb63 ed3e
00000280: 4d58 293e bdd9 1cbe a16c 643e 6a4f 0fbe
00000290: 6f85 4c3e 8602 2d3e 990d 983d 953d 8b3e
000002a0: 9017 ea3d 0939 173e 9e02 f93e 1574 9d3e
000002b0: 9f6c fe3d 5bf3 5e3d c928 66be 2ee9 643e
000002c0: 1a6c 083f c528 263e 4013 bdbe 9d2c 663e
000002d0: 4809 1fbe 8773 933c 3448 8c3e cee9 dbbd
000002e0: 034f c83e 0f68 78be 33d4 133f b0e7 1a3f
000002f0: e54b 5f3d a51d 423f 7be6 b33e fa9f 12bc
00000300: dcb2 a63e 67b9 f8be 8b33 b13d 3d14 133f
00000310: 5fcd 87be 141e 303f 2504 82be c385 303e
00000320: a5b8 253f 38dd de3e 4850 8e3e c11f c4be
00000330: 1d47 183f 4f46 273f 1027 d1be 5552 923d
00000340: 7450 4e3e ba33 04bf 9a7d 1dbd 9295 943e
00000350: fc15 6b3f 4a0d 523f c9a3 4a3f 7ba8 01bf
00000360: 8dab 07bf 4844 5ebe 2183 893e e714 8d3e
00000370: 80d8 a7bc c1ea 20bf b21d eebd 26c5 e73d
00000380: e4bc cf3e 6d12 cebe bd95 5c3e b444 293f
00000390: 8c22 0e3e bc30 073f 2e56 1d3f e4dd 28bd
000003a0: a5e2 433e ebbc 8cbd e53b 963e d5c7 f03e
000003b0: 07f6 99bd 89c6 cbb8 091c 193e 0536 5abe
000003c0: 2e7c dbbe bc21 46be 76c4 b4bb 8b33 c03e
000003d0: 7016 f03e 13e6 cd3e 34fa 633e a5dd 283d
000003e0: b616 243f e3f8 153e 743f 0b3f 706f fa3d
000003f0: 3809 6abf 1d5e 2f3f 4d1d b63e 77e9 84bf
0.054906085 0.13955718 0.03782003 -0.14595148 0.4478625 -0.21429528 -0.1856117 -0.15231468
0.21362175 -0.4220575 0.3134975 0.104224205 -0.04945307 0.58354187 0.27857354 -0.492887
-0.18131956 -0.4233668 0.6164282 0.47525427 -0.19392611 0.3734144 0.48490888 0.32173833
0.05444131 -0.047453977 0.5335503 -0.4115403 0.4968223 0.11913015 -0.24704379 0.25929195
0.044508066 -0.36349517 0.13304277 -0.42433545 0.4414746 -0.065235026 0.78872174 -1.1226524
0.47371736 0.2766884 0.017651593 0.321968 0.41366744 -0.065890804 0.005568372 1.0672231
0.40894377 0.14598161 -0.29322305 0.28632614 -0.27729148 0.037945617 0.033714525 -0.20876977
0.13620439 0.07933252 0.5665361 0.059145797 -0.26245198 -0.10829857 -0.1506866 0.31585202
0.32156888 0.02379829 0.51555645 0.46736184 0.75244033 0.3147062 0.2787827 0.18489413
0.08897267 -0.56734633 -0.008936207 -0.3535975 -0.58375436 -0.038193807 -0.18714947 0.1586252
0.5392475 -0.46662232 1.0339073 0.81896144 -0.40364814 -0.45776406 -0.36466444 0.5984637
-0.115062475 0.5256213 -0.17211656 0.042915907 -0.573621 0.32477018 0.31626293 0.29814193
0.024139462 -0.031304527 0.06802776 0.1740175 0.13374001 0.17812702 0.1205613 -0.20609383
-0.61555505 0.043194972 0.2830302 0.1962287 0.40821022 0.20251103 1.0790315 0.124704294
0.5554607 0.093223326 0.027976604 -0.2452148 -0.24770495 0.16443823 0.29950574 0.08524594
-0.36841708 0.12781481 0.31937253 -0.11142595 0.2739572 0.30005684 -0.30115333 -0.4839899
0.15326533 0.3124825 0.33373198 0.17987284 0.36775807 0.012291445 -0.14218561 0.6113389
-0.42503604 0.49129418 0.20188177 0.4739984 0.6980684 -0.14812082 0.5728384 0.7434064
-0.18246566 0.2795999 0.1481887 0.60773 0.86509675 0.41505608 0.21974702 -0.107524864
-0.45074052 0.2606392 0.27924716 0.34158742 0.009078751 -0.2302434 0.41711596 0.46365198
0.1653759 -0.15317436 0.22307064 -0.13995138 0.19972776 0.16895494 0.074244685 0.2719542
0.114302754 0.14767851 0.4863481 0.30752626 0.124230616 0.0544313 -0.22476496 0.22354576
0.5328995 0.1622649 -0.3692875 0.22477956 -0.15530884 0.017999424 0.27398837 -0.10737954
0.3912278 -0.24258445 0.57745665 0.6050978 0.054515738 0.75826484 0.3513678 -0.008949274
0.32558334 -0.4857895 0.08652409 0.57452756 -0.26523873 0.68795896 -0.25393787 0.17238526
0.6473487 0.43528152 0.27795625 -0.38305476 0.5948351 0.6534166 -0.40850115 0.0714461
0.20147878 -0.5164143 -0.03844986 0.29020363 0.9183042 0.8205153 0.79156166 -0.50647706
-0.5299614 -0.21705735 0.26857856 0.2755501 -0.020488977 -0.62858206 -0.11626758 0.113169
0.405738 -0.40248433 0.21541496 0.6612046 0.13880366 0.5280874 0.61459625 -0.041227236
0.19129427 -0.06871971 0.2934257 0.4702746 -0.07517629 -9.7167744e-05 0.14952101 -0.2130967
-0.4286818 -0.19348806 -0.005516584 0.37539324 0.46892118 0.40214595 0.22263414 0.041227
0.64097154 0.14645724 0.54393697 0.12228286 -0.91420317 0.6850298 0.3556923 -1.0383748

fc3.bias f4 [8]
00000000: 3922 12c0 bfc4 fabf 1564 37c0 a67f 02c0
00000010: e50d 27c0 8a73 12c0 dd1b 16c0 2284 eabf
-2.2833388 -1.9591292 -2.8654835 -2.039041 -2.610223 -2.288302 -2.3454506 -1.8321574
