examples/carla_scenic/Carla_Challenge/trained_model_2022-06-11/agent_path/target_net_1400.pt (torch, 79447 bytes, 6 tensors)

fc1.weight f4 [64, 10]
000000 e4 97 85 bf 01 06 b8 3b f5 40 f7 be 69 e0 b8 3e
       -1.0436978 0.00561595 -0.48291746 0.3610871
000010 b8 11 93 3d f8 75 2d bf e9 c5 04 40 d8 a5 2d 3f
       0.07181114 -0.6775813 2.0745795 0.6783118
000020 b2 53 0f bd 0f 45 8d bf fa df 91 3f 0a b5 7f be
       -0.034991927 -1.10367 1.1396477 -0.24971405
000030 90 7e d7 3d 92 a7 d4 3e bb 63 2b bf 7f 7c 78 3f
       0.10522187 0.41534096 -0.6694905 0.97064966
000040 07 b2 57 3f 4d 31 5a 40 d8 ce 9a c0 36 40 b2 bf
       0.84256023 3.409259 -4.8377495 -1.3925846
000050 dc 2b f2 bf c5 cd 84 bf ac f0 8f bd 1d ec 0d bf
       -1.8919635 -1.0375296 -0.070283264 -0.55438405
000060 9b 7d f2 3e b3 67 fe be 16 31 1f bf d4 fc 9b bf
       0.47361454 -0.4968849 -0.62184274 -1.2186532
000070 17 d6 1d bf 47 17 ac 3c 90 15 9b be 20 33 00 be
       -0.616548 0.021007193 -0.30289888 -0.12519503
000080 79 34 91 bf 84 5f d3 bc 64 f2 48 3a 4f 6f f6 bd
       -1.1344138 -0.025802381 0.00076655135 -0.12032949
000090 aa b0 e9 3e 9f 91 d8 be dd d3 33 c0 03 68 63 bf
       0.45642596 -0.422986 -2.809806 -0.88830584
0000a0 d6 31 1a c0 35 32 a5 be 3a d2 0d 3d 43 8a 6a 3e
       -2.4092917 -0.32264867 0.034624316 0.22904305
0000b0 45 bd 98 3e 44 bc ae 3d 3c 4d 95 3e 36 2e d6 bf
       0.298319 0.085320026 0.29160488 -1.6732852
0000c0 4c 49 4d 3d c4 83 98 bf e3 e5 b9 c0 a7 1c d1 bf
       0.05011873 -1.1915212 -5.8093123 -1.6336869
0000d0 d7 69 58 3c 23 21 d5 3d aa 00 5f bc 9c 28 3b 3c
       0.013208828 0.10406711 -0.013610998 0.011423256
0000e0 aa 9a 64 3d c4 d9 8c 3e 84 9d 95 3f c4 e1 66 3d
       0.05581156 0.27509892 1.1688695 0.05636765
0000f0 50 91 05 bf ac b4 8c 3f 44 fb 4e bf b0 5f a6 3e
       -0.52174854 1.0992637 -0.8085215 0.3249488
000100 7d 64 36 3e 95 eb 2e bd 6e cd 83 bf 0a 83 8a 40
       0.1781177 -0.042705137 -1.0297067 4.328496
000110 83 b1 d5 c0 7f d1 2f c0 37 ca 11 40 e5 7e a3 3f
       -6.677919 -2.7471616 2.2779672 1.27731
000120 64 3e 41 be a0 34 08 bf 7f 7a e9 3e 9c c0 c8 3e
       -0.18871456 -0.532053 0.4560127 0.3920945
000130 19 ef 78 3f 74 af c3 c0 74 a7 c2 3f 54 ab d7 be
       0.97239834 -6.1151676 1.5207353 -0.421229
000140 00 25 97 3f 3a 02 5c bf 91 39 41 be b6 c7 79 ba
       1.1808167 -0.859409 -0.18869616 -0.00095283554
000150 e9 c5 12 3d 71 a2 6f 3f b8 91 43 3f 94 54 57 bd
       0.035833273 0.9360724 0.76394224 -0.052570894
000160 14 f0 d3 3e 1c de cb be e1 f6 0a 40 ac d1 3b 40
       0.41394103 -0.39817894 2.1713183 2.9346724
000170 38 b6 1f bf 8b 0b b8 bd 74 74 c0 bd a1 75 67 3f
       -0.6238742 -0.08986577 -0.09397212 0.9041386
000180 63 3b f7 3f 2d 5c d6 bf c6 8d b7 3f d8 f5 1b be
       1.9314998 -1.674688 1.4340141 -0.152305
000190 09 44 cc 40 21 2d 03 40 83 c5 c9 3d 52 f5 38 bd
       6.383305 2.0496294 0.098521255 -0.04515583
0001a0 08 5b 36 3b 18 e2 fa 3d 09 3d c4 3e 6d 69 bf bc
       0.0027825255 0.12250155 0.38327816 -0.0233657
0001b0 0f 34 33 3f 48 fe 31 be cc dc b2 be b5 17 2e 40
       0.7000131 -0.17382157 -0.3493408 2.720197
0001c0 25 d1 87 bf 87 63 2c 3c 57 cc 81 3e 6c 24 91 3f
       -1.0610701 0.010521776 0.2535121 1.133924
0001d0 76 05 7f 3f ab 1d c9 3f d7 e1 c4 c0 70 53 9f bf
       0.9961771 1.5712179 -6.1525683 -1.2447338
0001e0 f5 12 a5 3f 0b 56 f9 3e e2 ef eb bc c4 73 a0 3e
       1.289641 0.48698458 -0.028800908 0.31338322
0001f0 a7 da 88 be fe 20 b4 bc c7 65 88 3e 4f 52 9d c0
       -0.26729318 -0.021988388 0.2664015 -4.9162974
000200 14 0e 0a 3f 1f 4c 17 3f 26 4d 3b be c6 f8 5e bf
       0.5392773 0.59100527 -0.18291149 -0.8709835
000210 13 ab 53 bf ce d1 7e be 36 a3 6f 3d 35 7b 14 bd
       -0.82682914 -0.24884722 0.05850526 -0.036250312
000220 cc 26 24 3f c9 f6 48 40 82 67 8e c0 b3 cd 17 c0
       0.641217 3.1400626 -4.450135 -2.37193
000230 c7 96 88 bf 17 3d 8a bf da cf df be 92 70 65 be
       -1.0671014 -1.0799893 -0.43713266 -0.22406223
000240 2d 7e 0f be 0c 80 71 3f 5e cc 94 3f 46 45 65 c0
       -0.14012976 0.9433601 1.1624868 -3.582353
000250 ab 41 40 3f b3 b5 36 3e ad 58 85 be 57 5b fe 3d
       0.751002 0.1784275 -0.26044217 0.124197654
000260 19 bd 94 bf f2 ab af bb 8c f8 91 bc 40 91 b7 3b
       -1.1620208 -0.0053610737 -0.017818712 0.005602032
000270 3f 0f 84 3d fe a3 87 3c 65 a5 ac bf 1c b6 4c be
       0.064482205 0.01655769 -1.3487974 -0.19991344
000280 2a 81 86 bf d0 f8 48 bd 24 83 60 3e 2d 8f 73 3e
       -1.0508168 -0.04906541 0.21925026 0.23785086
000290 ef b1 45 3f 8f da 0e 3f d3 01 98 bd 7e 6f 9f be
       0.7722463 0.55802244 -0.07422223 -0.3113975
0002a0 63 81 f0 3f 0a 66 b5 3e bb 4a 50 c0 1b b3 0f c0
       1.8789486 0.35429412 -3.2545612 -2.2453067
0002b0 6f 6e 6c bf f7 78 78 be 1d 9e 8c 3c 4b b5 8c 3f
       -0.9235601 -0.24264894 0.017165238 1.0992826
0002c0 39 54 25 40 31 1a ed be c8 12 c2 bf 4a c5 c8 bf
       2.5832655 -0.46309045 -1.5161982 -1.5685208
0002d0 ce 49 b5 3f dd fc 26 3f ee a2 ae bf 8c 5e 19 be
       1.4163148 0.6522959 -1.3643472 -0.14977473
0002e0 c0 26 91 be fe 03 41 3f 13 b5 d5 3f d8 82 a9 be
       -0.28349876 0.75396717 1.6695884 -0.33107638
0002f0 9c 94 89 3f fe 54 2e bf ca ff f3 3e 80 cb 28 40
       1.0748477 -0.6809844 0.4765609 2.6374207
000300 35 74 01 bf 87 62 88 3e 45 84 51 3d dd 0a 3b 3f
       -0.5056794 0.2663767 0.051151533 0.7306345
000310 58 99 7d 3f 02 59 8f bf d3 12 69 bf 6d 12 dc 3e
       0.9906211 -1.1199038 -0.9104435 0.42982808
000320 11 26 81 bf e7 2d df 3f 49 df 4a c0 bb e9 bf 3c
       -1.0089742 1.7435883 -3.1698782 0.023426881
000330 50 f1 18 bd 8d 71 02 3f 9d 89 de be 21 e0 15 3f
       -0.03733951 0.50954515 -0.43464366 0.5854512
000340 69 c2 ea be 50 60 05 bf ea 71 41 3f af b6 48 3f
       -0.45851448 -0.52100086 0.75564444 0.78403753
000350 86 96 0a c0 9b 6d 3b 3e 3a 8f d0 3e 84 ba 55 bf
       -2.1654372 0.1830353 0.40734273 -0.83487725
000360 77 22 b0 bf d2 e4 8e c0 6f 88 07 40 4a 87 41 be
       -1.3760518 -4.465432 2.1177022 -0.18899265
000370 be 53 cc 3f 5e 91 e0 3f 0a 37 72 be c1 b9 ef bd
       1.5963056 1.7544363 -0.23653808 -0.117053516
000380 f2 10 b9 3e 3b 7b 88 3f 70 7d ae bf 7c 63 70 c0
       0.3614574 1.0662607 -1.363203 -3.756072
000390 50 a8 3c 3f e0 c2 1e 3f 06 4a 99 3f 0d 46 d8 3f
       0.73694324 0.62016106 1.1975715 1.6896378
0003a0 dd 1b 34 bf 06 82 c8 3d 0c d0 d7 3d 63 42 87 3f
       -0.70355016 0.09790425 0.10537729 1.0567135
0003b0 bf 54 0f 40 23 89 95 c0 08 a8 e5 3f ca 63 ac bd
       2.2395475 -4.6729903 1.7941904 -0.08417471
0003c0 b3 48 36 bf c7 1b 4a bf c7 b3 ec bf e0 b5 29 bb
       -0.7120468 -0.78948635 -1.8492364 -0.002589576
0003d0 4e fe 34 bc 30 1b dd bc da 5a 89 3f 7e 5d 14 be
       -0.011046959 -0.026990503 1.0730851 -0.1448879
0003e0 6c 1c 59 c0 1a 7d 7f bf ec 5c 57 3f ad db ad bf
       -3.3923597 -0.99800265 0.8412616 -1.3582665
0003f0 28 a5 61 3d b4 ee d8 bd 3a a9 2c be 27 f8 76 3e
       0.055089146 -0.10592404 -0.1686143 0.241181

fc1.bias f4 [64]
000000 ab 09 1f 40 4c 92 b8 bf 44 0a e6 3f 4b 0e 5e bf
       2.484965 -1.4419646 1.7971883 -0.8674056
000010 75 11 04 be a7 09 d3 be 1e a1 d4 bf a9 95 29 c0
       -0.12897284 -0.41218302 -1.6611669 -2.6497595
000020 9b d2 41 be 75 50 06 c0 c3 7e ac bf a4 34 aa bf
       -0.18927996 -2.0986607 -1.3476185 -1.3297315
000030 9b 68 d4 be e9 92 be 3f 49 33 f2 bf 8d ad b4 bf
       -0.41486058 1.4888583 -1.8921901 -1.4115463
000040 42 50 e2 bf 99 cd 51 be a8 7f 06 40 b4 86 81 be
       -1.7680743 -0.20488586 2.1015415 -0.25298083
000050 46 a1 46 3f e9 47 0e bf 87 df 50 c0 41 fa 60 bf
       0.77589834 -0.55578476 -3.263643 -0.8788186
000060 9f 68 18 c0 50 4d bb bf dc 28 f1 bf 5b d9 ac 40
       -2.3813856 -1.4632969 -1.8840594 5.4015326
000070 48 93 60 bf 69 74 de be f3 55 cc 3f 07 9a 3b be
       -0.87724733 -0.4344819 1.596373 -0.18320476
000080 04 fe 91 bf 17 b0 f7 bf da 3f 84 bf 70 36 a5 bf
       -1.1405644 -1.9350613 -1.0331986 -1.2907238
000090 e6 e7 59 c0 d0 57 31 bf 9d 3e 22 40 13 df 7f be
       -3.404779 -0.69274616 2.5350716 -0.2498744
0000a0 0c e4 b6 bf 7e 39 04 40 77 62 0c c0 c1 fd db bf
       -1.4288344 2.066009 -2.1935098 -1.7186815
0000b0 e7 29 0c 40 05 04 c6 be b1 9b 7a bf 2c 4a 87 be
       2.1900575 -0.38674942 -0.97893816 -0.26423776
0000c0 6a e4 4b c0 93 fb 4f 40 46 54 27 40 10 af 0e 40
       -3.1858163 3.2497299 2.6145186 2.229435
0000d0 2a 4b 57 3e 76 1e 9b bf c8 45 a3 bf f4 f9 c9 bf
       0.21024767 -1.2118671 -1.275567 -1.5779405
0000e0 fc 6d 46 40 02 c4 6a bf 2d 58 89 3f 34 f7 4e 3f
       3.100463 -0.91705334 1.0730034 0.8084595
0000f0 c4 6c 0e 40 10 f3 43 3d 42 d6 13 bf e5 c8 07 bf
       2.2253885 0.047839224 -0.57748806 -0.53040916

fc2.weight f4 [256, 64]
000000 39 00 36 be 8d 76 85 bd 4e cb c8 be fc aa 11 be
       -0.17773522 -0.065167524 -0.3921761 -0.14225382
000010 33 6a 7e 3f 10 07 b7 3b b2 51 5a bd d7 00 61 bf
       0.993808 0.0055855587 -0.053300567 -0.87891906
000020 62 6b 0e bf 02 dc 92 3d 89 55 b5 be 9a 64 86 ba
       -0.55632603 0.071708694 -0.3541682 -0.001025337
000030 2a c6 a8 3c 2b 83 3e 3e c7 a5 8f 3e e6 39 31 bd
       0.020602304 0.18604724 0.28056166 -0.043268107
000040 28 16 99 be b1 4c a4 3a f1 06 2b bf 2d 8a ee 3b
       -0.29899716 0.0012535063 -0.66807467 0.0072796554
000050 83 33 a0 3e fb cd 9a bf 14 0a 4b be eb b2 4c 3e
       0.312893 -1.209411 -0.19828063 0.19990127
000060 4b 00 74 3d 01 e2 40 bf b6 d0 36 bf 46 1a d1 be
       0.059570592 -0.75344855 -0.7141222 -0.40840358
000070 68 3c dc be c7 b2 45 3d 02 7e 62 bf 25 82 90 be
       -0.43014836 0.0482662 -0.8847352 -0.28224292
000080 8f 52 c7 bf 51 af 5b bf ea 06 3a be db a1 77 bf
       -1.557207 -0.85814387 -0.181667 -0.96731347
000090 06 f5 ba 3d a2 0d bb 3b a3 63 e0 bd f0 4e 62 3e
       0.09128766 0.0057084123 -0.10956504 0.22100425
0000a0 74 bc 0e bf e2 cc e6 bd ff 4e 1f bf 58 67 16 be
       -0.55756307 -0.11269547 -0.62229913 -0.1468786
0000b0 55 0e 01 bf 5d f1 12 bf b6 01 0e be 77 9f 20 be
       -0.50412494 -0.5739954 -0.1386784 -0.15685831
0000c0 6e 20 d0 be d5 f3 c1 3e 82 9b 64 bd 3b 7e c0 be
       -0.40649742 0.37881342 -0.055812366 -0.37596306
0000d0 2f 92 48 bf 5b 08 4c bf d2 3d 94 3d 39 db 84 bf
       -0.7834806 -0.7970025 0.07238354 -1.0379401
0000e0 80 21 aa be a0 5c 3d be 92 54 f0 3e a3 92 1b bf
       -0.33228683 -0.18492365 0.46939522 -0.60770625
0000f0 c7 6c 6f be 27 05 e8 bd 20 d6 14 c0 86 8f 84 bf
       -0.23381339 -0.11329108 -2.3255692 -1.03563
000100 93 92 1e bf ab cf 97 3e 03 09 ec be 39 94 d8 be
       -0.61942405 0.29650626 -0.46100625 -0.42300585
000110 b3 b2 a2 3e 78 ff 00 bf 71 56 a8 be 5e d8 2f be
       0.31776962 -0.50389814 -0.3287845 -0.17172381
000120 5c c0 b6 be c3 cf 9c bf 06 34 38 bd 64 84 20 3d
       -0.35693634 -1.2250904 -0.04497149 0.039188758
000130 5e 75 16 c0 b8 db 78 be b6 f7 24 be 35 7a f1 bd
       -2.3509135 -0.24302566 -0.16110119 -0.11790887
000140 77 5a 94 bd f0 b6 48 be 58 57 05 bc c0 f8 20 bf
       -0.07243817 -0.19601035 -0.0081385 -0.6287956
000150 53 fc f6 bc 7c b4 c9 be 2f 54 d9 3d cc 4e 06 be
       -0.030149614 -0.3939551 0.1061176 -0.13115996
000160 82 61 b9 bd 26 96 0d bf 1b a6 94 be 60 da b5 be
       -0.09051801 -0.55307233 -0.29032978 -0.3551817
000170 04 dc c8 be 96 83 86 3d 1b 7f 82 be 68 76 08 bf
       -0.3923036 0.06568067 -0.254876 -0.53305674
000180 af 19 87 3e 2f a2 28 3f 4f 15 a2 be dc d8 65 3d
       0.26386783 0.6587247 -0.31656882 0.056115016
000190 2e 5f 14 3f 53 10 c4 be e4 9b 0d 3e 2b b7 b2 be
       0.5795773 -0.38293704 0.13828999 -0.3490537
0001a0 73 59 4b bf 7a 74 6a 3d 9b 5e 1d bf 06 2f ea be
       -0.79433364 0.057239987 -0.6147248 -0.45739
0001b0 cd 45 42 be 20 36 bc bd a1 38 e9 bd 3d 51 2a 3e
       -0.1897194 -0.09190011 -0.11387754 0.16632552
0001c0 8c ae e3 3e b7 4d 47 3e 9a 78 06 be e0 7a 99 be
       0.44469106 0.1946324 -0.13131943 -0.2997656
0001d0 52 3d 05 bf 1a bd 96 be 93 2b 14 bf af 8a 4b bf
       -0.5204669 -0.29441148 -0.5787899 -0.7950849
0001e0 a7 e5 30 bf b2 05 fa be f1 8a 2e bf 64 e8 d1 bd
       -0.6910042 -0.4883247 -0.6818076 -0.10249403
0001f0 94 e4 5a be 7f 96 0e bd af d6 fc bf b4 17 d2 be
       -0.21376258 -0.034811493 -1.9753016 -0.4103371
000200 d6 08 58 3e b0 0d d3 be 4d b3 bc be 30 f9 81 be
       0.2109712 -0.4122138 -0.36855546 -0.25385427
000210 87 fb 20 be ba 92 ee 3d 28 83 90 3d e0 8f 51 bd
       -0.1572095 0.116490796 0.07056266 -0.0511626
000220 b6 e0 0d bf 75 17 43 be 02 3d d7 3d 83 59 dc be
       -0.55421007 -0.19051917 0.10509683 -0.43037042
000230 e5 94 a6 be 4c ef 21 be c3 0e 56 be 58 a7 93 be
       -0.32535473 -0.15813941 -0.20904069 -0.2883861
000240 08 2d 71 bf b5 e3 fd 3e dc ff 55 3e 6f 06 06 be
       -0.9420934 0.4958779 0.20898384 -0.13088392
000250 ee 2e 32 bf 9b d0 26 bf 2a 57 11 bd d9 02 4e be
       -0.6960286 -0.65162057 -0.035483517 -0.20118274
000260 32 f9 21 3e 12 fd b8 be 0b c1 95 be 5b 52 50 bf
       0.15817717 -0.36130577 -0.29248843 -0.81375664
000270 04 c7 d4 be f2 09 51 3f 05 02 8f bf a2 20 55 be
       -0.41558087 0.816558 -1.1172491 -0.2081323
000280 6f 1b 28 bf d5 ab 2d bf 6e e7 aa be 96 66 ce bc
       -0.6566686 -0.6784032 -0.33379692 -0.025195401
000290 0e ce 07 bf d6 f2 f6 bd 2c a1 f9 be 6c 11 78 3e
       -0.5304879 -0.12058036 -0.48755777 0.24225396
0002a0 9b 8e 8a bf 5e 6c d7 be 99 5f 7c bf 49 94 ba be
       -1.082477 -0.42074865 -0.9858337 -0.36441258
0002b0 f5 0a 22 bf 5f 13 85 bf 4b 57 80 3d 0a 4c 45 bd
       -0.6329797 -1.0396537 0.0626665 -0.04816822
0002c0 18 5e 3a bf 82 29 bf bf 48 d1 b1 be 25 ea 2b bf
       -0.72799826 -1.4934542 -0.3472998 -0.6715415
0002d0 df bd 9f bf 59 3f 9a bd 60 f5 45 be d2 15 4a bf
       -1.2479819 -0.07531614 -0.19331884 -0.78939545
0002e0 2c 6e 09 bf 3e 31 d2 be 94 b4 b6 be 89 70 eb 3e
       -0.53683734 -0.41053194 -0.35684645 0.45984295
0002f0 16 ae 52 bf 13 19 ae be 22 b5 a2 bd e1 d8 3b bf
       -0.82296884 -0.34003505 -0.079447046 -0.73377806
000300 02 7a ba be b0 fc cf bd 00 8b 82 be 9e eb 98 be
       -0.3642121 -0.10155618 -0.25496674 -0.29867262
000310 b7 0f 0c bf 4d cd 07 3e 2c 73 ed bd 94 fa d2 bc
       -0.5471148 0.1326191 -0.11594233 -0.02575425
000320 8b 77 09 bf 89 90 69 bd 6c a0 59 bc e8 9b 9f be
       -0.53698033 -0.057022605 -0.013282876 -0.31173635
000330 d7 17 2a bd db ca 13 bf 64 40 c2 be 1a 3b 9c 3d
       -0.04152664 -0.5773141 -0.3793975 0.0762846
000340 a5 2b 9d bf be 27 03 bf 12 10 26 bf ce fd 81 be
       -1.2278944 -0.51232517 -0.6486827 -0.2538895
000350 d9 31 e6 bd 4f 7a 02 3f 7d 77 b2 be 5a ab 2e 3c
       -0.112399764 0.5096788 -0.34856787 0.010660971
000360 fb 24 85 bd b9 86 e1 be cb b9 d6 be e3 e1 01 bf
       -0.06501194 -0.44048098 -0.41938624 -0.507353
000370 da 08 93 3e e0 2f cb 3d 01 58 8f 3e 20 04 6c bd
       0.2871769 0.09921241 0.2799683 -0.05762112
000380 8a a8 09 bf c0 e5 a0 be 78 8e 08 bd 01 b4 af bd
       -0.53772795 -0.31425285 -0.033338994 -0.08579255
000390 c5 10 db 3c e3 2b e1 be 6a fc 05 bf 61 7d 98 be
       0.026741395 -0.43978795 -0.5233828 -0.29783157
0003a0 ea 14 26 3d c6 6b 7f be 38 95 8d be 69 e8 62 be
       0.04054729 -0.24943456 -0.27652907 -0.2215897
0003b0 e7 c7 cb be 1e 4f 8f be 48 af 98 3c c2 31 dd be
       -0.3980095 -0.2799005 0.018638268 -0.43202025
0003c0 be 15 07 bf a7 3d c2 be 38 c6 b1 be 91 f3 25 be
       -0.5276755 -0.37937662 -0.3472154 -0.16206194
0003d0 65 8f 76 be 58 f4 1a bf da ee 51 3e 6a aa 68 3c
       -0.24078138 -0.6052909 0.20501271 0.014200786
0003e0 ac f3 a4 bc cf 71 34 bf bc 83 4f bd 79 53 d6 bd
       -0.020135723 -0.7048616 -0.05066274 -0.1046514
0003f0 4c 86 12 bf 2a bc 3c 3d d4 ce ac bd 8c c5 2f be
       -0.5723617 0.046077885 -0.08437887 -0.17165202

fc2.bias f4 [256]
000000 b5 b3 39 bf c2 f6 fd be 94 28 72 be 96 dd 12 bf
       -0.72539836 -0.49602324 -0.23648292 -0.57369363
000010 67 17 1c 40 61 ef 42 bf ab 4d c9 be 9f df d5 be
       2.4389284 -0.76146513 -0.39317068 -0.41772172
000020 75 75 72 be fb 48 3c bf 48 3b 4d 3e 48 4c 88 be
       -0.23677619 -0.7354886 0.20042145 -0.26620698
000030 d2 de 65 be ef 6d bd 40 90 b0 b2 be 41 c8 d2 be
       -0.2244828 5.9196696 -0.34900331 -0.41168407
000040 be 63 00 be 3f b0 c3 bd c2 76 03 3e 54 3d 1b bd
       -0.12538049 -0.09555101 0.12838271 -0.037900284
000050 57 38 f5 bd 83 67 6b bf f1 38 a4 be 03 9f 00 bf
       -0.119736366 -0.9195482 -0.32074693 -0.5024263
000060 56 2c 54 bf 65 16 c0 be e3 44 03 3f 6e d6 4f 3f
       -0.8288015 -0.37517086 0.5127699 0.8118657
000070 35 19 13 bf bd c8 b5 bc f4 73 69 bf b6 2b fb 3a
       -0.5746034 -0.022190446 -0.91192555 0.0019162807
000080 ef 90 66 bf 82 3c a2 3f 79 1d f8 bd ae 11 57 bf
       -0.900649 1.2674716 -0.121149965 -0.8401135
000090 a6 d7 e2 be 2c f5 25 bf 58 7d f7 be 4a a7 db bf
       -0.44305152 -0.6482723 -0.48337817 -1.7160428
0000a0 bd cd 33 bf 41 49 e5 be c4 b7 39 be 10 d6 f4 bc
       -0.70235807 -0.4478245 -0.18136507 -0.02988723
0000b0 ad 09 94 3e 8c b9 48 40 af af b1 bf 8d 5e 99 3f
       0.28913632 3.136325 -1.3881739 1.198198
0000c0 1c 91 1c 3e 3e 06 bd be 0a ef 7f 3f 5d dd a6 bf
       0.1528973 -0.36918825 0.9997412 -1.3036305
0000d0 89 d4 61 3e 6b b4 85 bf fd d6 0e bf 7e 40 1f 3e
       0.22053732 -1.0445684 -0.55796796 0.15551946
0000e0 1a 44 29 bf 3a 01 3a bf 62 1e e7 3d 5b d8 92 be
       -0.6611954 -0.7265812 0.11285092 -0.2868069
0000f0 26 27 02 bf 8f 34 b0 be f6 0e 9c bf 69 0e 24 bf
       -0.50840986 -0.344151 -1.2192066 -0.6408449
000100 db 20 c8 be ce f8 1a c0 94 f9 fe bd b6 fe 15 bf
       -0.39087567 -2.4214358 -0.12449947 -0.58591783
000110 f1 53 a3 be c3 88 4d 3f 82 0d 33 bc 00 96 2e bf
       -0.3189998 0.80286807 -0.0109285135 -0.6819763
000120 8f 60 0c bf a4 e1 69 bf 5f 04 c6 bf b5 1a 23 bd
       -0.54834837 -0.91359925 -1.5470084 -0.03982039
000130 ec 21 85 be 5e 59 c7 be 2b e8 07 be 7e 8b 14 be
       -0.26002443 -0.3893537 -0.13272159 -0.14506337
000140 16 da ac bf b3 9b 63 bf a4 5e 80 3f 0a f6 87 bf
       -1.3504055 -0.88909453 1.0028882 -1.062196
000150 ea c7 e8 3e f2 9b c7 3c f5 3b 89 3f 46 82 10 bf
       0.45465022 0.024366353 1.0721422 -0.5644878
000160 79 a8 a8 bc 53 48 4b be 6a bd 39 bf d4 36 24 be
       -0.020588147 -0.19851808 -0.7255465 -0.1603654
000170 87 d7 3c bf 8a cd b6 bf bc 96 48 3d a7 93 4a bf
       -0.7376637 -1.4281476 0.048971877 -0.7913155
000180 16 50 01 bf 8f d6 16 bf 04 6a 48 3f d3 1a 18 3f
       -0.50512826 -0.5892114 0.78286767 0.5941593
000190 3e 87 37 bf 26 c3 f1 3d d9 8f 8a be 5f 35 a8 3e
       -0.7169074 0.118048 -0.27062872 0.3285322
0001a0 95 ef 61 bf d5 ca 22 bf 4f 68 5e bd ef 4e 89 bf
       -0.882562 -0.6359075 -0.054298695 -1.0727214
0001b0 f0 4f 71 bf de eb 18 bf 1f 8a 13 3f 4d c4 b4 bf
       -0.942626 -0.59734905 0.5763263 -1.4122406
0001c0 4d ad 83 bf c0 a4 d1 3e 54 6d c3 be 8b 7f f6 be
       -1.0287262 0.40946007 -0.38169348 -0.48144183
0001d0 7a 8f 72 be 94 cf 96 be 09 38 4a bf b0 53 aa bf
       -0.23687544 -0.29455245 -0.7899175 -1.3306789
0001e0 7e 87 6d bf bb 56 dc bd 0d 00 b9 be 46 b8 3e bf
       -0.9278487 -0.1075873 -0.3613285 -0.7449993
0001f0 99 f6 9a bf 2a 65 ff bf 50 40 c6 be 70 dd 3c bf
       -1.2106506 -1.9952748 -0.38720942 -0.73775387
000200 9c 04 84 bf 14 ea b9 be 27 40 65 bf 59 8a 96 bf
       -1.0313907 -0.363114 -0.89551014 -1.176097
000210 d7 4c 0f bf bf dc 27 bf a3 81 a4 be cd 6c e3 3e
       -0.55976623 -0.65571207 -0.32130155 0.44418946
000220 a4 da 4c bf 62 ec f8 bf 98 9f 72 3e 75 ff e1 3f
       -0.8002112 -1.9447138 0.23693693 1.7656084
000230 4c 3b 72 bf 88 6a 06 bf e1 c8 4e bf ba 30 62 bf
       -0.9462173 -0.52506304 -0.80775267 -0.883556
000240 48 74 a2 bd 9c 63 e0 3f 9a 41 d1 be d0 77 a5 bf
       -0.07932335 1.7530398 -0.40870363 -1.2927189
000250 ad 8e 82 be 7f ac 7d bf 28 ed b2 be 2f c1 81 bc
       -0.25499478 -0.99091333 -0.3494656 -0.015839187
000260 8d 50 b7 bf 6b 3c 5f bf f9 c1 85 be fb c5 98 40
       -1.4321457 -0.87201566 -0.26124552 4.7741675
000270 c8 f2 53 be f1 71 ad bf 99 af 25 bf 6f f5 e9 be
       -0.20698082 -1.3550397 -0.64721066 -0.45695063
000280 71 7a 81 bf da bc bb be 71 0f 14 3e fc 7f 10 bf
       -1.0115491 -0.3666752 0.14459015 -0.5644529
000290 0b a7 35 3e 2d f7 4a bf 3a b0 1f bf 3b 33 9f bd
       0.17739503 -0.7928341 -0.62378275 -0.07773443
0002a0 04 1d e9 be 3f 63 80 3f da 17 d2 bf d9 44 9a bf
       -0.4552995 1.0030288 -1.6413529 -1.2052261
0002b0 6d cf da be 3d 41 d0 be be df 7e bf c0 71 82 3f
       -0.42736378 -0.40674773 -0.99560153 1.0190964
0002c0 78 c3 28 bf 87 99 36 bf 72 ee df 3e 8e 92 73 3e
       -0.6592326 -0.71328014 0.43736607 0.23786375
0002d0 76 b1 c7 be 37 89 9f bf de 01 85 3d f2 04 0f bf
       -0.3900258 -1.246375 0.06494497 -0.5586692
0002e0 8c 66 1e be a5 3e 12 bf 72 74 63 bf f1 e3 34 be
       -0.15468806 -0.5712684 -0.88849556 -0.17665078
0002f0 2a 43 5a bf 8d fb 44 bd 2c e2 11 bf b8 42 5d bf
       -0.85258734 -0.04809146 -0.56985736 -0.8642993
000300 52 e8 23 40 96 30 2a bf 28 fe bf be 7e 21 74 bd
       2.5610547 -0.66480386 -0.37498593 -0.059602253
000310 63 93 db bd d3 fe b8 be d2 31 ea 3e 82 92 5c bf
       -0.10721471 -0.36131915 0.45741135 -0.86161053
000320 4c 2d 84 3f de 81 a3 bf af 7d 3d bf a1 eb 17 bf
       1.0326324 -1.2774007 -0.740199 -0.59343916
000330 9d 6e b2 be 4b 4e 23 be da 28 3b bf 16 79 09 bf
       -0.34850016 -0.15947835 -0.7310921 -0.5370039
000340 94 d9 53 bf 06 8f f7 bd 94 69 d0 3d 6b 91 2f bf
       -0.8275387 -0.120878264 0.101763874 -0.68581265
000350 3f 25 b2 3d d3 26 2a bf 8a f2 0a be 4d 17 ac be
       0.086985104 -0.6646549 -0.13569084 -0.33611527
000360 a5 0b 5b bf 69 07 4a bf df 3c 9f 40 9e de b7 be
       -0.85564643 -0.78917557 4.9761806 -0.3591203
000370 9a 44 ae bd b1 44 87 bf 03 0d 63 be fb d1 f9 be
       -0.085091785 -1.0567838 -0.22172932 -0.48793015
000380 8d 48 2c be 2e a3 5b bf 3f ae 6d bf ef 30 d3 bc
       -0.16824551 -0.8579587 -0.92844003 -0.02578017
000390 3e ed 86 bf 2e a2 2c bf e7 4a 09 bf 82 e8 47 be
       -1.054115 -0.67434967 -0.53629917 -0.19522288
0003a0 cb 3e 87 3f 71 75 c7 3e 5c 1c 12 bf 53 c1 cb 3c
       1.0566038 0.38956788 -0.5707452 0.024872458
0003b0 05 86 4c be 23 03 d3 be d6 e0 01 bf 35 8c fe be
       -0.19973 -0.4121333 -0.507337 -0.49716344
0003c0 b0 da 21 3f a2 4f 78 bf 86 09 21 be 02 a3 58 bf
       0.63224316 -0.9699651 -0.15726289 -0.8462373
0003d0 91 85 49 be 97 b2 a0 bf 91 af f4 be 6f b2 c3 3e
       -0.19679858 -1.2554501 -0.47790197 0.38222072
0003e0 4c d3 70 3e 1a 6a 7a bf eb 0c 42 bf 47 96 28 bf
       0.23518103 -0.9781815 -0.7580096 -0.65854305
0003f0 da cd 52 bf c0 10 d8 3d 0a b6 58 bf 27 d8 97 3d
       -0.82345355 0.1055007 -0.8465277 0.07414275

fc3.weight f4 [8, 256]
000000 31 7d 98 3d 78 5c 50 3e 2d e9 1a 3d 4e 74 15 be
       0.07445753 0.20347774 0.03782003 -0.14595148
000010 3c 4e e5 3e 17 db 0f be fe 10 3e be 61 f8 1b be
       0.4478625 -0.1404842 -0.1856117 -0.15231468
000020 a9 bf 5a 3e f8 af b0 be 8c af c0 3e 80 73 d5 3d
       0.21362175 -0.34509254 0.37633932 0.104224205
000030 4d 8f 4a bd 84 8a b9 3e 31 a1 8e 3e af 5b fc be
       -0.04945307 0.36238492 0.27857354 -0.492887
000040 d6 ab 39 be 89 c3 d8 be 3d ce 1d 3f 87 54 f3 3e
       -0.18131956 -0.4233668 0.6164282 0.47525427
000050 91 94 46 be 96 ec ae 3e fa 45 f8 3e e3 ba a4 3e
       -0.19392611 0.34164876 0.48490888 0.32173833
000060 da fd 5e 3d 1a 5f 42 bd c1 96 08 3f fb 48 66 be
       0.05444131 -0.047453977 0.5335503 -0.22488777
000070 7e 5f fe 3e 08 3c bc 3e 0c f9 7c be ea c1 84 3e
       0.4968223 0.3676455 -0.24704379 0.25929195
000080 17 4e 36 3d 0a 1c ba be 5d 3c 08 3e 7f 42 d9 be
       0.044508066 -0.36349517 0.13304277 -0.42433545
000090 f5 08 e2 3e f1 99 85 bd ab e9 49 3f 8e 98 77 bf
       0.4414746 -0.065235026 0.78872174 -0.96717155
0000a0 15 8b f2 3e 1a aa 8d 3e 13 9a 90 3c fd d8 a4 3e
       0.47371736 0.2766884 0.017651593 0.321968
0000b0 38 cc d3 3e 05 5f 6a 3e e4 76 b6 3b c4 9a 88 3f
       0.41366744 0.2288781 0.005568372 1.0672231
0000c0 5a 48 aa 3e 34 7c 15 3e 55 21 96 be 57 99 92 3e
       0.33258325 0.14598161 -0.29322305 0.28632614
0000d0 26 f9 8d be dd 6c 1b 3d 3e 18 0a 3d be c7 55 be
       -0.27729148 0.037945617 0.033714525 -0.20876977
0000e0 2a 79 0b 3e 17 79 a2 3d 83 08 11 3f dd 42 72 3d
       0.13620439 0.07933252 0.5665361 0.059145797
0000f0 1b 60 86 be a4 cb dd bd 97 4d 1a be 5b b7 a1 3e
       -0.26245198 -0.10829857 -0.1506866 0.31585202
000100 ad a4 a4 3e a9 1e b8 3c aa b1 08 3f 0d 4a ef 3e
       0.32156888 0.022475557 0.53396094 0.46736184
000110 ee 9f 40 3f 2c 21 a1 3e 9b bc 8e 3e e3 54 3d 3e
       0.75244033 0.3147062 0.2787827 0.18489413
000120 4e 37 b6 3d 89 ae bb be 2b 69 12 bc 37 07 29 be
       0.08897267 -0.36656597 -0.008936207 -0.16506658
000130 ed 70 15 bf 1c 71 1c bd 1c a4 3f be a5 6e 22 3e
       -0.58375436 -0.038193807 -0.18714947 0.1586252
000140 20 0c 0a 3f 1f e9 ee be 13 57 84 3f 75 a7 51 3f
       0.5392475 -0.46662232 1.0339073 0.81896144
000150 f8 aa ce be 5a d5 9a be 4c b5 ba be eb 34 19 3f
       -0.40364814 -0.302409 -0.36466444 0.5984637
000160 e0 a5 eb bd 1e 8f 06 3f 53 3f 30 be 97 c8 2f 3d
       -0.115062475 0.5256213 -0.17211656 0.042915907
000170 d3 d8 12 bf 47 48 a6 3e 37 ed a1 3e 0f a6 98 3e
       -0.573621 0.32477018 0.31626293 0.29814193
000180 1f c0 c5 3c 2d 39 00 bd 23 52 8b 3d a5 31 32 3e
       0.024139462 -0.031304527 0.06802776 0.1740175
000190 24 f3 08 3e b7 3f 92 3e d8 e8 f6 3d 43 0a 53 be
       0.13374001 0.28564236 0.1205613 -0.20609383
0001a0 04 95 1d bf 36 ed 30 3d 56 e9 90 3e 2d f0 48 3e
       -0.61555505 0.043194972 0.2830302 0.1962287
0001b0 ee 00 d1 3e 0d 5f 4f 3e b4 1d 8a 3f f7 64 ff 3d
       0.40821022 0.20251103 1.0790315 0.124704294
0001c0 ac 32 0e 3f 39 da 76 3e 31 2f e5 3c 97 19 7b be
       0.5554607 0.24106683 0.027976604 -0.2452148
0001d0 5e a6 7d be 7f 62 28 3e da 33 8e 3e 6b 0e 5b 3d
       -0.24770495 0.16443823 0.27773935 0.053480547
0001e0 2a a1 bc be e3 e1 02 3e cc 84 a3 3e 63 ac e1 bd
       -0.36841708 0.12781481 0.31937253 -0.11019208
0001f0 1e 44 8c 3e 0d a1 99 3e c5 30 9a be 86 cd f7 be
       0.2739572 0.30005684 -0.30115333 -0.4839899
000200 96 f1 1c 3e b5 fd 9f 3e eb de aa 3e 96 30 38 3e
       0.15326533 0.3124825 0.33373198 0.17987284
000210 c9 4a bc 3e f6 4d 00 3c 1b 99 11 be b5 80 1c 3f
       0.36775807 0.007831087 -0.14218561 0.6113389
000220 53 9e d9 be e9 8a fb 3e 18 ba 4e 3e eb af f2 3e
       -0.42503604 0.49129418 0.20188177 0.4739984
000230 9c b4 32 3f fc ac 17 be 8a a5 12 3f e2 4f 3e 3f
       0.6980684 -0.14812082 0.5728384 0.7434064
000240 47 d8 3a be 69 20 06 3f 05 0c 99 3d 31 94 1b 3f
       -0.18246566 0.52393204 0.07472996 0.60773
000250 fb 76 5d 3f 3b 82 d4 3e 5d 05 61 3e d6 78 77 3e
       0.86509675 0.41505608 0.21974702 0.24167189
000260 db b3 ee bd 80 72 85 3e 7c f9 8e 3e c8 5c 45 3e
       -0.116553985 0.2606392 0.27924716 0.19273674
000270 0a 3f ee 3d 12 ef aa be 39 90 d5 3e cb 63 ed 3e
       0.116331175 -0.3338552 0.41711596 0.46365198
000280 74 df 49 3e bd d9 1c be a4 6c 64 3e 6a 4f 0f be
       0.19714147 -0.15317436 0.22307068 -0.13995138
000290 6f 85 4c 3e 86 02 2d 3e 43 62 24 3d 95 3d 8b 3e
       0.19972776 0.16895494 0.040132772 0.2719542
0002a0 90 17 ea 3d 9f 9e 04 3e 9e 02 f9 3e 15 74 9d 3e
       0.114302754 0.12951134 0.4863481 0.30752626
0002b0 9f 6c fe 3d 2f d4 11 3d c9 28 66 be 2e e9 64 3e
       0.124230616 0.035602745 -0.22476496 0.22354576
0002c0 1a 6c 08 3f c5 28 26 3e 98 a4 93 be 45 09 7e be
       0.5328995 0.1622649 -0.28836513 -0.24808224
0002d0 48 09 1f be 0c 82 38 3c 34 48 8c 3e 56 fe 36 be
       -0.15530884 0.011261474 0.27398837 -0.17870459
0002e0 03 4f c8 3e 0f 68 78 be 33 d4 13 3f b0 e7 1a 3f
       0.3912278 -0.24258445 0.57745665 0.6050978
0002f0 e5 4b 5f 3d a5 1d 42 3f 7b e6 b3 3e fa 9f 12 bc
       0.054515738 0.75826484 0.3513678 -0.008949274
000300 71 d6 b1 3d 67 b9 f8 be 8b 33 b1 3d 3d 14 13 3f
       0.086834796 -0.4857895 0.08652409 0.57452756
000310 0a cf 66 be 14 1e 30 3f 80 62 5d bf c3 85 30 3e
       -0.22539917 0.68795896 -0.86478424 0.17238526
000320 a5 b8 25 3f 38 dd de 3e 79 0a d6 bd c1 1f c4 be
       0.6473487 0.43528152 -0.10451216 -0.38305476
000330 1d 47 18 3f 4f 46 27 3f 10 27 d1 be 55 52 92 3d
       0.5948351 0.6534166 -0.40850115 0.0714461
000340 74 50 4e 3e 14 76 d5 be 9a 7d 1d bd 92 95 94 3e
       0.20147878 -0.4169165 -0.03844986 0.29020363
000350 fc 15 6b 3f 4a 0d 52 3f d4 5c df 3e 2a e7 5b be
       0.9183042 0.8205153 0.4362551 -0.21474901
000360 8d ab 07 bf e5 dc 73 be 7a 3f 8e 3e e7 14 8d 3e
       -0.5299614 -0.23814733 0.27782804 0.2755501
000370 80 d8 a7 bc c1 ea 20 bf b2 1d ee bd 26 c5 e7 3d
       -0.020488977 -0.62858206 -0.11626758 0.113169
000380 e4 bc cf 3e 6d 12 ce be bd 95 5c 3e 40 6d 12 3f
       0.405738 -0.40248433 0.21541496 0.5719795
000390 8c 22 0e 3e bc 30 07 3f 2e 56 1d 3f e4 dd 28 bd
       0.13880366 0.5280874 0.61459625 -0.041227236
0003a0 15 33 41 3e 8e f1 a6 39 e5 3b 96 3e d5 c7 f0 3e
       0.18867142 0.0003184196 0.2934257 0.4702746
0003b0 07 f6 99 bd 89 c6 cb b8 09 1c 19 3e d2 46 9b bd
       -0.07517629 -9.7167744e-05 0.14952101 -0.07581867
0003c0 2e 7c db be bc 21 46 be 76 c4 b4 bb 8b 33 c0 3e
       -0.4286818 -0.19348806 -0.005516584 0.37539324
0003d0 06 8a 47 3f 13 e6 cd 3e 34 fa 63 3e a5 dd 28 3d
       0.7794498 0.40214595 0.22263414 0.041227
0003e0 b6 16 24 3f e3 f8 15 3e ba 1d 03 3f f3 20 ba 3d
       0.64097154 0.14645724 0.51217234 0.09088316
0003f0 38 09 6a bf 1d 5e 2f 3f 4d 1d b6 3e 77 e9 84 bf
       -0.91420317 0.6850298 0.3556923 -1.0383748

fc3.bias f4 [8]
000000 30 a1 8d be d1 ac 71 be 2c eb 13 bf 08 88 0b 40
       -0.2766204 -0.2360108 -0.5778072 2.1801777
000010 3e 6d 14 be 83 62 dc 3c c8 f5 57 3f 7b 39 f6 bf
       -0.14494798 0.026902443 0.8435941 -1.9236292
