examples/carla_scenic/Carla_Challenge/trained_model_2022-06-11/agent_speed/policy_net_300.pt (torch, 77911 bytes, 6 tensors)

fc1.weight f4 [64, 4]
000000 ee 9a b1 be 31 67 ba bd 45 b6 52 bc 04 40 73 3c
       -0.34688514 -0.091017134 -0.012860839 0.0148468055
000010 71 4d 14 bf 94 a1 5a be cd 70 4b 3e 0d 6b a2 bd
       -0.57930666 -0.213507 0.19867249 -0.079305746
000020 6f cd 97 3d 84 82 85 3d b2 9d c2 bd 49 ce 11 be
       0.0741223 0.065190345 -0.09502734 -0.14238848
000030 76 78 45 bd c6 6e 83 3d f6 b2 87 bc 03 35 82 3c
       -0.048210584 0.06417613 -0.016564827 0.015894419
000040 8c 05 df 3d 4f d4 fb 3b 3b 9e 50 3d b3 90 a7 3d
       0.1088973 0.0076852213 0.05093215 0.08181896
000050 4f 7c 5f bf a5 ed 11 3f 0b 84 fd 3c d4 f5 43 be
       -0.87299055 0.5700324 0.030946752 -0.19136745
000060 e3 de 3a 3e 6f e4 17 c0 3f 08 e6 3d 2e ab 94 bd
       0.18249087 -2.3733175 0.112320416 -0.072592124
000070 3d 89 e3 bd 5e 7d b8 bc 1f 9b 23 bd 59 3e 3a bd
       -0.111101605 -0.022520717 -0.039942857 -0.045469616
000080 86 58 83 be 83 6f 81 3e 04 49 0f 3e 97 81 b8 be
       -0.25653476 0.2528039 0.13992697 -0.3603637
000090 ea d7 9f bf b0 bf 77 3f bd 28 a5 be 0a 04 d9 bc
       -1.2487767 0.96776867 -0.32257643 -0.026491184
0000a0 9d 98 1f bf ea ce 99 3f 74 f7 b7 3d ba 5b 34 be
       -0.62342244 1.201627 0.08982745 -0.17613116
0000b0 76 07 cf be 0e c3 3b be d3 18 01 3c 76 c4 3f 3b
       -0.4043538 -0.18336126 0.007879454 0.0029261387
0000c0 e8 83 e4 3d 59 2b c7 3d c1 36 bd bc b7 c9 47 be
       0.111579716 0.09725065 -0.023097398 -0.19510542
0000d0 68 4e d1 bc 30 fd 71 bc 0b 02 a1 bd 67 06 6f bc
       -0.025550082 -0.014769837 -0.07861718 -0.014588929
0000e0 6b 5a d2 3e 8f 64 1c bf b0 6e 10 be 03 fa d7 bc
       0.41084608 -0.6109094 -0.14104724 -0.026364332
0000f0 2f 00 b9 3b eb 78 85 3e c9 31 e3 bc 46 86 b1 bc
       0.005645774 0.26068816 -0.0277337 -0.021670472
000100 82 ea a7 be 90 31 34 3d 4d cc e0 bc b8 0e 48 3c
       -0.32796103 0.04399258 -0.027441168 0.0122105405
000110 0c 5a b6 3e 7b 4b 84 3d 02 93 cf bc 94 26 31 be
       0.35615575 0.06459709 -0.025338653 -0.17299873
000120 ce 37 b8 bf 22 17 88 3f c7 dd a9 bc 65 68 80 b9
       -1.439203 1.063206 -0.020735634 -0.00024491842
000130 8b d6 d3 3d 88 5a b0 bd 57 68 ec 3c 47 2b 7f be
       0.10343655 -0.086110175 0.028858347 -0.24918853
000140 f8 30 a6 be 65 38 dd bd 17 4c f4 bc 0e d4 67 3c
       -0.32459235 -0.10801772 -0.029821439 0.014149679
000150 56 16 04 39 19 16 a7 3c 8d c2 c9 bd f3 3e 8c bd
       0.00012596822 0.02039628 -0.09851561 -0.06847944
000160 52 8f 0e bf 9c 69 07 3f 0e 2c a2 3d 8a 53 7c be
       -0.5568744 0.5289552 0.07918559 -0.24641243
000170 ae fd a7 3f f6 f2 1c c0 93 64 15 be ce b0 64 3c
       1.3124292 -2.4523292 -0.14589147 0.013958169
000180 d5 17 ec 3e a5 43 b6 be fb 56 2c bc 33 5b 88 bb
       0.46111932 -0.35598484 -0.010518785 -0.0041612624
000190 8c 97 b8 bc 8a 24 07 be b7 3c f4 bd 1b 77 83 bd
       -0.0225332 -0.13197532 -0.11925643 -0.06419202
0001a0 7b ac 81 3f 64 21 59 bf 19 11 d2 be 44 b1 a4 3d
       1.0130762 -0.84816575 -0.4102867 0.08041623
0001b0 89 28 5c be ff 36 6b be 22 3a 64 3b 10 d1 ce 3a
       -0.21499838 -0.22970198 0.003482469 0.0015778858
0001c0 a7 5a 97 bf 0a e1 b0 3f 26 27 13 3e fa aa fb bd
       -1.182454 1.3818676 0.14370403 -0.122884706
0001d0 fc 42 43 be c5 05 dc 3d d8 3c 6f 3c 07 7a 6e be
       -0.19068521 0.10743288 0.014601909 -0.23288737
0001e0 85 be a9 be 28 f9 f5 3e 29 8f 28 3e 23 a0 9a be
       -0.33153167 0.48041654 0.16460861 -0.302003
0001f0 ea 0a c6 bd d6 73 3a 3e 3c 36 b6 3b 59 f7 14 be
       -0.096700504 0.1820825 0.0055606645 -0.1454748
000200 4f 94 e2 3d e9 f4 22 bf 9f d7 db 3d ac 53 2e be
       0.11063444 -0.63654953 0.10734486 -0.17024106
000210 31 68 58 bf 5f bd e3 3e 28 3a 19 3d d7 94 b4 bd
       -0.84533983 0.44480416 0.037408978 -0.088174514
000220 94 b6 b4 be 55 85 e4 bd 83 34 c5 3b f3 23 b4 bc
       -0.35295546 -0.111582436 0.006018223 -0.021989798
000230 ff 35 03 3e 1f 78 48 bf d3 82 a0 be c7 51 e6 3d
       0.12813567 -0.7830829 -0.3134981 0.112460665
000240 f6 0c 28 3e 09 f6 df bd 11 ba b9 bd ad 8b 88 bb
       0.16411194 -0.10935599 -0.090686925 -0.0041670413
000250 79 87 0c c0 07 61 b3 bf a0 de aa bf 80 72 dd 3d
       -2.1957686 -1.4013985 -1.334919 0.10812855
000260 28 f0 c5 be dc c5 1c 3e 4e cb 85 bb 7b 9d af 3d
       -0.38659787 0.15309852 -0.0040830737 0.08574959
000270 c6 96 93 bf e3 06 4f 3f 19 63 56 3e 49 92 56 be
       -1.1530387 0.80869883 0.2093624 -0.20954241
000280 d6 10 be be b3 96 79 bd 60 f6 85 bf 09 82 ac bb
       -0.3712222 -0.060934734 -1.0465813 -0.005264525
000290 79 a1 7b be 31 07 f1 3d 3a 56 77 3d 61 87 27 3e
       -0.24573316 0.1176895 0.060384966 0.16360237
0002a0 a8 70 c9 be 3b ba 1d 3e 70 ee 12 bd 03 4c 65 bb
       -0.39343762 0.15403073 -0.035871923 -0.0034987933
0002b0 7b 63 12 be 7f 05 67 3d 10 88 49 bc e9 19 76 3b
       -0.14295761 0.056401726 -0.012300506 0.0037552065
0002c0 d0 ad f5 3d 7f 2a e3 bd 1b 90 3f be 30 46 0b bd
       0.11996043 -0.1109209 -0.18707316 -0.034002483
0002d0 38 05 03 3f 77 d0 90 bf a9 45 55 be 8c eb 8c 3d
       0.5117984 -1.1313618 -0.20827354 0.068808645
0002e0 b7 e9 3d 3d f6 fd 7b 3d 0c f6 85 bd 4e f2 97 3b
       0.046365466 0.061521493 -0.0654107 0.0046370393
0002f0 3c f1 be bd 63 67 49 3d e8 d0 7d bc b7 dc 24 ba
       -0.093233556 0.049170863 -0.015491702 -0.00062889926
000300 73 a1 58 bf f9 3e 46 3b 2a c1 f9 be d6 6e e3 3b
       -0.8462135 0.0030249937 -0.48780185 0.006940703
000310 34 7f a5 bd 90 96 d7 be c7 a0 b0 bd 58 d3 37 3a
       -0.08080903 -0.42107058 -0.08624416 0.00070123887
000320 76 54 77 be 27 af 53 be 63 dc a0 be 3c 4d d3 3d
       -0.24153313 -0.20672284 -0.31418142 0.10317466
000330 27 63 4d 3d eb 5c 89 be 74 41 a2 be df 78 2b 3c
       0.050143387 -0.26828703 -0.31690562 0.01046583
000340 e5 43 34 bf e1 bd bb 3f d6 80 11 be e7 64 86 bd
       -0.704161 1.4667321 -0.14209303 -0.06562214
000350 19 5a 21 3d ee 1e aa bd f3 c0 b5 bd ce 93 8b bd
       0.039392564 -0.083066806 -0.08874693 -0.06815301
000360 c3 9d 37 bf 01 fa 8c 3f ba 6e 12 3e de 6e 84 bd
       -0.717251 1.1013795 0.14300051 -0.06466459
000370 b0 7b f7 3d 5d 2c f8 bd 0f 47 58 3b 2c 25 a5 bb
       0.120841384 -0.121178366 0.0033001339 -0.0050398316
000380 0d 64 cd be 81 52 77 3d 8c 80 93 be 2a 7d 60 bc
       -0.40115395 0.060381416 -0.2880901 -0.013701716
000390 db f7 60 bd 67 61 cb bd 47 0c 6b bd 20 a6 5d be
       -0.054923873 -0.099306874 -0.057384755 -0.21645403
0003a0 2e f8 8c bc 90 72 ed 3e 65 c6 b5 3e 63 29 b2 be
       -0.017208185 0.46376467 0.35502926 -0.347972
0003b0 bb e1 b4 be 4d e8 9d bd 4c 49 07 3e f5 9e a0 3c
       -0.3532847 -0.077103235 0.13211554 0.019607047
0003c0 a3 99 8d 3d 6f e3 8d 3d 01 de 80 3c b3 b3 10 be
       0.069140695 0.06928145 0.01573086 -0.1413105
0003d0 64 53 c3 3d 57 98 4a 3d cc a7 90 be 5d ff 14 3c
       0.0953739 0.04946169 -0.2825302 0.0090940865
0003e0 74 f1 01 be 21 4b c3 bd 59 99 18 bc c4 ac f5 3b
       -0.12689763 -0.09535814 -0.009313905 0.007497402
0003f0 ca 0d 1d 3e a8 42 28 3e 2d 2e 8c 3d 3f 37 3f be
       0.15337291 0.16431677 0.06844745 -0.18673418

fc1.bias f4 [64]
000000 4c 7c e7 be ca 31 c0 3d 00 95 76 3e cb 35 0c bf
       -0.45212018 0.093844965 0.24080276 -0.5476958
000010 d1 f8 f2 3e 7f f9 16 3e 8e 03 1e bf b0 08 d1 be
       0.47455457 0.14743613 -0.61724174 -0.4082694
000020 68 9f 3f bf f7 a7 32 be e9 aa 18 bf 7a a4 16 bf
       -0.7485261 -0.17446886 -0.5963579 -0.5884472
000030 8c 56 9d 3e 50 65 4f 3e a7 31 a6 3e 0c 62 a5 3e
       0.30730093 0.20253491 0.32459757 0.32301366
000040 f7 58 d2 be 3e a6 d5 be b9 9a cc 3e 38 28 0b 3e
       -0.410835 -0.41728395 0.39961794 0.13589561
000050 2a 48 da be f4 88 96 be 01 61 91 be 22 ba cf 3e
       -0.42633182 -0.29401362 -0.2839432 0.40571696
000060 2a 68 b9 be f0 58 b9 3e 28 4f 30 be a7 ab 46 be
       -0.36212283 0.36200666 -0.17217696 -0.19401418
000070 6c b5 4d 3e 60 75 b1 bd 7b f5 dc be a5 4f 1f bd
       0.20088738 -0.08664966 -0.43156037 -0.038894314
000080 3c 67 e1 be da e9 d5 b9 f1 61 16 3e 09 ba af bd
       -0.44024074 -0.0004080076 0.14685799 -0.08580405
000090 ac c5 1e be a3 29 db be 45 61 53 be 83 ed c5 3c
       -0.15505093 -0.42805204 -0.20642574 0.024161106
0000a0 6d 5c 15 3e 8a e6 81 3e 91 f7 86 bd 63 88 2d be
       0.14586039 0.253712 -0.06590188 -0.16946559
0000b0 90 1f 75 3e 71 aa 49 3e cf 57 52 be e2 41 55 bd
       0.23937821 0.19693924 -0.20541309 -0.052064784
0000c0 3c f6 62 be 76 31 c6 bc cb 7f 12 3f d6 6f dd be
       -0.22164243 -0.024193507 0.57226247 -0.43249387
0000d0 f8 ae 86 3e 1a c2 ec 3e 6d bc 91 be 9a 63 9d be
       0.26305366 0.46241838 -0.2846407 -0.30740052
0000e0 48 36 b3 3e e0 70 56 bd 1e b5 be 3e 1d 0c 3b 3e
       0.3500235 -0.05235374 0.37247556 0.1826634
0000f0 00 5a 97 be 14 ef ce be c3 6f 6a be 31 06 2c bf
       -0.29560852 -0.40416777 -0.22894196 -0.6719695

fc2.weight f4 [256, 64]
000000 df d2 fc 3d 4d f4 82 3b bb af c0 3d 3b 58 ad 3a
       0.12344908 0.003996408 0.09408518 0.0013225147
000010 ac 07 32 bd d5 c3 5b bd fb 9b c8 bd e5 ed 51 3d
       -0.043464348 -0.053653557 -0.09795376 0.051252265
000020 e3 3c 8a bd 26 55 42 be 8c 98 ab bd d0 51 3e 3d
       -0.067498945 -0.18977794 -0.083787054 0.04646474
000030 cd 1d fa bb e3 af df bd 2b 02 3e 3e b0 22 2c be
       -0.007632947 -0.109222196 0.18555515 -0.16810107
000040 3d b4 ff bb 45 96 f4 bd 3c 0d 82 bc b3 7a 22 3b
       -0.0078034685 -0.11942724 -0.015875451 0.0024792373
000050 3b 62 2a bb 29 13 c5 3d 73 8e b3 bc 6a ec f0 bd
       -0.0025998491 0.09622795 -0.021918511 -0.117638424
000060 98 5f fc 3d 14 19 0a 3d a2 af 0d bd 7e 71 07 3e
       0.123229206 0.033715323 -0.034591325 0.13226888
000070 81 eb 05 be 3f 9b 50 3e 8a 4b 47 3d 8d 4c 55 3d
       -0.13078119 0.20371722 0.048656024 0.052074958
000080 7e 43 ff 3a 8c 7b 0f be 6a 2d 2c be ff f6 1d be
       0.001947507 -0.14011973 -0.16814199 -0.15426253
000090 97 e6 a6 bc 19 26 ac bc 26 05 a7 3c d7 7b e6 3d
       -0.020373626 -0.02101426 0.020388197 0.11254089
0000a0 0b dd 0f bd 3a 45 be bd 2a ef cb bd c3 80 9f bd
       -0.035122912 -0.09290548 -0.09957726 -0.07788231
0000b0 e7 fd 79 bc 4d ae 59 3d 2d ad 02 3e c7 8e 1d bd
       -0.015258289 0.05314474 0.12761374 -0.03846624
0000c0 90 7f f7 bc b7 7c e7 3c 80 33 88 3d 1d c0 40 bd
       -0.030212194 0.02825771 0.06650448 -0.047058214
0000d0 72 3d a7 bd e7 1b ee bd 66 12 2d be ef 86 b2 bd
       -0.08166017 -0.11626416 -0.1690155 -0.08717143
0000e0 81 e8 9c bd 07 ff 38 3d e2 f7 49 3e 40 12 4d be
       -0.07661534 0.045165088 0.19723466 -0.20026493
0000f0 51 13 c0 bd 1f 88 27 be 3d b7 3d be 48 b6 a3 bc
       -0.09378684 -0.1636052 -0.18526931 -0.01998438
000100 ad 9b e1 bd a9 ef 79 bd 73 4e 67 3c 22 34 91 3c
       -0.11016021 -0.061019573 0.014117825 0.017725054
000110 c2 7e 43 be e3 b2 a3 3d 76 cb d5 bd 71 f3 03 bc
       -0.19091323 0.07993104 -0.10439198 -0.008053646
000120 05 9a 41 3d fb 51 2f bd 19 f7 27 be 83 a1 89 3d
       0.047266025 -0.042802792 -0.16402854 0.06720259
000130 81 c3 c7 3b e3 7b 44 3e b4 b7 0b bd 01 3b f7 bb
       0.006096304 0.19187884 -0.03411074 -0.0075448756
000140 ff 70 a3 bd bb 5c 8a bd 8c ee 0a be 1d ac 61 3d
       -0.07980537 -0.06755968 -0.13567561 0.05509578
000150 c6 0d 8c 3d 47 9a 56 ba a8 0b 76 bc 93 9f dd bd
       0.068385646 -0.0008186441 -0.0150174275 -0.10821452
000160 9f c7 64 3b a0 97 79 bd 62 17 d7 bd 2a 4c 82 3d
       0.0034909023 -0.060935616 -0.10502507 0.063621834
000170 18 f7 86 3d 90 b3 02 bd 89 28 a0 3c c2 52 82 3c
       0.06590098 -0.031909525 0.019550579 0.015908603
000180 38 27 db 3d 24 58 3e be f8 68 f5 bd 71 d7 34 bd
       0.1070084 -0.1858831 -0.11982912 -0.044150773
000190 03 1b 48 bd 12 05 60 3d 2d 0a 12 be 96 c9 58 bd
       -0.048853885 0.054692335 -0.14261694 -0.052926622
0001a0 28 c9 cf 3d 52 b6 96 be 98 09 47 bd 33 58 20 bb
       0.101457894 -0.29435974 -0.048593134 -0.0024466633
0001b0 47 15 31 3d ea 92 63 3c d7 2c d8 3c 69 fb 39 3e
       0.043233182 0.0138900075 0.026388569 0.18162312
0001c0 16 65 10 be 5e cf 1e be ae ff ef bd d1 a2 12 be
       -0.14101061 -0.15508792 -0.11718689 -0.14319922
0001d0 75 9f cf ba fb c5 18 be a7 72 fb bd 8f 88 95 be
       -0.0015840369 -0.14919274 -0.122777276 -0.29205748
0001e0 3d d7 a1 be f4 01 0a 3b de bc 3f 3d 12 6d 91 bd
       -0.31609526 0.0021058293 0.046810977 -0.07100882
0001f0 0a 8f ec bc 26 de 95 3c 3c d7 af 3d 24 97 44 bd
       -0.0288768 0.018294405 0.085859746 -0.0479957
000200 ea d5 cd bc 2f 8d 22 3d dc 7c 03 bd f0 f0 28 be
       -0.025126416 0.039685424 -0.032101497 -0.1649816
000210 b1 56 45 bd 61 0f c6 3b 88 9f 77 bd 2c 3b 9c 3c
       -0.04817838 0.006044314 -0.060454875 0.019071184
000220 31 ff a0 3d ac 26 79 bd 25 f7 d8 bc 56 0a 7b bc
       0.07861174 -0.060827896 -0.026485035 -0.0153222885
000230 5b 63 5b 3d db 13 ec bd 17 83 c5 3c 3a 16 7a 3c
       0.05356155 -0.11527225 0.02411036 0.015264088
000240 5a 53 15 be 54 12 99 bd c3 3f b9 3d b5 b3 4c 3d
       -0.14582577 -0.07474199 0.09045365 0.04997607
000250 ba 83 34 3d 5f 50 1f bd 6d 19 87 be cd e5 fd 3c
       0.044070937 -0.038895007 -0.26386586 0.030993367
000260 e4 b0 17 be 2d db f5 bd e7 70 ef bb 4b a5 2f 3e
       -0.14813572 -0.12004695 -0.00730716 0.17152898
000270 17 a2 2e be 95 28 ce bd c8 a3 36 3e 0a fb cd 3d
       -0.1705402 -0.10066334 0.17835915 0.100576475
000280 74 03 2f be 96 06 ac bc c3 4f 10 bc d3 44 92 bb
       -0.17091161 -0.020999234 -0.008808079 -0.004463771
000290 d1 2b 9f bd b4 75 3b be ae f1 b9 bd e2 e7 32 3d
       -0.07772029 -0.18306619 -0.090793 0.043678172
0002a0 43 a9 78 bd 29 4a 27 3b b0 97 a3 3d 8a a3 ca 3d
       -0.060708296 0.002552638 0.079879165 0.09894474
0002b0 27 0c b7 3d 3b ed 5a bd ca 88 88 3c 10 51 68 bb
       0.08937865 -0.053448897 0.016666789 -0.0035448708
0002c0 c7 2b f4 3b d2 e5 93 3c b8 60 9b bd ff bf 48 3d
       0.0074515077 0.018053923 -0.07586807 0.049011227
0002d0 de d5 9b 3d 37 8e e1 bb cf fc 6e 3c 1e 66 0a be
       0.07609151 -0.0068834084 0.014586641 -0.13515517
0002e0 b3 e2 b2 bc f4 5c 3d 3c 3f ad 2c bd c8 22 4a bd
       -0.021836614 0.011557806 -0.042157408 -0.049349576
0002f0 93 97 9b 3d 3b ea ca 3d 55 8d eb 3d 33 1f 97 3d
       0.0759727 0.09907957 0.11501566 0.07378998
000300 8d 4c ba bd c8 7f d6 bd bf 23 61 3e 87 80 a1 bd
       -0.09096632 -0.10473591 0.21986292 -0.07885843
000310 98 c3 04 be 30 bd 7e 3d 6e 6c fa bd 95 50 d3 bd
       -0.12965238 0.062192142 -0.122277126 -0.10318104
000320 89 7d cf bc e4 26 11 3d fd a7 d5 bb 30 24 0f 3d
       -0.025328415 0.03543748 -0.00652027 0.03494662
000330 0b 88 84 3b b3 d1 88 bd b4 fb 10 3c 3c 6c 9c bd
       0.004044538 -0.06680622 0.008849073 -0.076378316
000340 63 45 44 3c 93 39 04 3c 08 3f 13 3e 73 0f 2e 3d
       0.011979434 0.008070367 0.14379513 0.042495202
000350 6e b8 fb bd 6f d3 08 3d a4 8d 80 bd 69 46 75 bd
       -0.122910365 0.033404764 -0.06277016 -0.0598816
000360 c6 d1 c1 bd 87 12 06 3d 92 2d 7f 3d fe 88 4d be
       -0.09463839 0.032732513 0.06229932 -0.2007179
000370 e2 ef df 3d 93 b2 12 be f2 5b 60 3d 65 83 0d 3c
       0.10934426 -0.14325933 0.054775186 0.008637284
000380 a7 ca b7 bd 38 de 32 bd 54 d7 3c bc d3 df 00 be
       -0.089742 -0.043668956 -0.011525948 -0.12585382
000390 de 6e 5d 3e 80 b1 e4 3d a0 e0 36 bd 7f 0c d0 bd
       0.21624324 0.11166668 -0.044647813 -0.101586334
0003a0 ad c6 e9 3d 2b 45 36 3b 82 b9 a8 3d 6a 88 5d bd
       0.114148475 0.0027812223 0.08238508 -0.054085173
0003b0 8b 6c ed 3b 15 1a 5f 3d 74 d1 c4 bd 65 8e ea 3c
       0.0072456053 0.054468233 -0.096102625 0.028632352
0003c0 90 9a ee 3c 94 e7 cd 3d ee 20 a5 bd a2 60 a2 3c
       0.029126436 0.10053936 -0.080629215 0.019821469
0003d0 96 78 33 3d c9 03 98 3d 1b 1f 17 bd f9 92 46 bd
       0.04381617 0.07422597 -0.0368949 -0.048480008
0003e0 d1 51 17 be 9b f6 56 bd 80 39 f5 bc 39 64 6c 3d
       -0.14777304 -0.052481275 -0.029934645 0.057712767
0003f0 da 45 b5 3d ac 1b a7 3b 20 04 c4 bb a8 ed f6 bd
       0.08851214 0.0050997343 -0.005981937 -0.12057048

fc2.bias f4 [256]
000000 83 3c 18 be 9d 63 77 bd 62 76 df bd c4 b7 ec bd
       -0.14866833 -0.060397733 -0.109112516 -0.11558488
000010 a0 23 27 bc d4 ae da 3e 5a 48 4e 3d fc ab e4 3c
       -0.010201365 0.42711508 0.05036197 0.02791404
000020 3c 47 82 bd 68 f2 28 bd ac d8 4d be 00 2e 77 3d
       -0.06361243 -0.0412468 -0.20102185 0.060346603
000030 53 01 88 bd ac 0f d4 3a ea 5e 03 bd 34 c8 cd bd
       -0.066408776 0.0016178987 -0.03207294 -0.10047951
000040 c9 a5 3a be a7 f8 e4 bd 5c 19 46 3e 34 b2 3a be
       -0.18227305 -0.11180239 0.19345611 -0.18232042
000050 2f 4d 63 3d 63 51 63 bd 7d 32 f9 bd 05 fd 1e be
       0.05549353 -0.05549754 -0.12167833 -0.15526207
000060 5f 5c de 3c 2b 83 23 3e 80 c9 9d 3e 7d f0 30 bd
       0.027143655 0.15968005 0.30817795 -0.043198097
000070 db 76 7e bd 3c d9 f1 bd 80 f4 a4 bc 2c 5a a6 bc
       -0.06212507 -0.11809012 -0.020136118 -0.02030667
000080 bf 4b a3 bd 62 d3 46 3d 32 7b fd bd 93 02 f5 bc
       -0.07973432 0.048541434 -0.12377013 -0.029908454
000090 73 e3 ef 3d bc d4 44 be 40 78 c3 bc 0f 9f 0a be
       0.11713304 -0.19221777 -0.02386105 -0.13537239
0000a0 3f 30 7a be b5 e4 bd 3c 7c b9 0a be 34 23 2d be
       -0.24432467 0.023180345 -0.13547319 -0.1690796
0000b0 ec a7 6b bc 14 55 cf bd ba f9 fc 3c b3 89 61 be
       -0.014383297 -0.10123649 0.030880798 -0.22025184
0000c0 bd b2 91 bd dd 7b 6f bd 5a c5 03 be 9a fa dd bc
       -0.0711417 -0.058467735 -0.12868252 -0.027097035
0000d0 39 74 ae 3e 26 8d 41 3d c8 09 8c bd be 02 d1 bd
       0.34073046 0.04725375 -0.06837803 -0.10205601
0000e0 35 ef 01 be 58 6e 35 be 26 9b 23 be b4 9b 8d bd
       -0.12688906 -0.17717874 -0.15977153 -0.06914464
0000f0 6c 98 3b bd b4 dc 25 bd 70 98 31 3d b5 41 ad 3c
       -0.045799658 -0.040493682 0.043358266 0.021149496
000100 4a d5 1a be 49 51 18 3d fa 3a 05 be 84 7a 2b bd
       -0.15120426 0.037186895 -0.13010779 -0.041864887
000110 4e 95 33 3d f8 16 e7 bd 83 88 21 be 40 71 10 be
       0.04384356 -0.11283678 -0.15774731 -0.14105701
000120 10 1f 54 bd a1 aa 9b bd 2b af a5 be f2 2d 20 be
       -0.051787436 -0.07600904 -0.32360205 -0.15642527
000130 cd 28 dc 3b 76 1e d8 bd 2a af 90 3d 10 7b 8c 3c
       0.006718731 -0.10552685 0.0706466 0.017148525
000140 fb 9e 28 3c b6 63 1a 3e 24 fe 1e be ad 39 cf 3c
       0.01029181 0.15077099 -0.15526634 0.025296057
000150 ac 03 90 3c 9e dd 87 3d f4 34 4d bc 60 11 02 bc
       0.017579876 0.06634067 -0.012524832 -0.007938713
000160 80 8e 7c 3e 02 3c 2d be 8a a9 5a bb bb e1 1b be
       0.24663734 -0.16917422 -0.0033365213 -0.15222828
000170 e0 c5 a4 bd fa 88 99 3c 93 88 08 be da e1 40 3c
       -0.08045554 0.018742073 -0.13333349 0.011772597
000180 e6 a2 4a be 96 4b ab bd c6 ff 0a 3d 83 81 79 3d
       -0.19788703 -0.08364026 0.03393533 0.060914528
000190 8a b2 3b bd bd 6d 15 3d 88 29 ab bd d5 ac 00 3e
       -0.045824565 0.036481608 -0.08357531 0.1256593
0001a0 c6 f0 15 be c1 f6 1a bd 9c 87 97 bc 82 e8 83 3d
       -0.14642629 -0.03783298 -0.01849728 0.06440832
0001b0 11 4b 24 bd 15 ae 1e 3d 59 74 88 bd 60 27 fb 3b
       -0.04011065 0.038740236 -0.066628166 0.007664606
0001c0 ff 1e 90 bd 48 90 b9 3d 59 95 65 bd 3c ac f7 bd
       -0.07037162 0.090607226 -0.056050632 -0.12093398
0001d0 1d c8 bb 3e 84 1d d0 3e 6e 4f 3a bd 6b 61 72 3d
       0.36676112 0.4064752 -0.045485906 0.059174936
0001e0 44 26 72 3d f7 be 24 be 70 f9 4e 3d f8 09 54 3d
       0.059118524 -0.16088472 0.05053085 0.05176732
0001f0 38 8a 6f bd 87 7e 9e 3d 6c 1a 48 bd 28 87 ad bd
       -0.058481425 0.07738977 -0.048853323 -0.08473045
000200 53 07 19 3d 34 ab 40 3e 8a 55 46 3d 2a 53 bb bd
       0.0373605 0.18815309 0.04842142 -0.09146722
000210 5e 10 80 be 60 3c b2 bc 55 d0 f1 bd 9d 4c 6c 3c
       -0.25012487 -0.021757305 -0.11807314 0.014422563
000220 10 d0 3e 3c b0 44 d4 3d 55 27 45 bd 90 83 0d bd
       0.011646286 0.103646636 -0.048133213 -0.034549296
000230 0b 0c 27 3b 16 fa 7c 3d 20 45 6c bd 38 45 77 bd
       0.0025489356 0.061761938 -0.05768311 -0.060368747
000240 30 7c 78 be f0 41 f4 bd fa b2 d0 bd e1 73 a7 3d
       -0.24266124 -0.11926639 -0.10190387 0.08176399
000250 c5 49 6f be 93 88 0c 3c d4 48 9e 3e f3 c7 bd 3c
       -0.23367985 0.008577484 0.30914938 0.023166632
000260 93 33 25 be 17 e7 c8 bd 3a c3 60 3d 3c c4 db 3e
       -0.16132955 -0.09809702 0.054873683 0.42923152
000270 e5 45 23 3d 17 05 b8 bd dc b2 81 3b 91 cc 03 bd
       0.03986158 -0.08985346 0.0039580893 -0.03217751
000280 0d 16 22 3e cf 27 9a bd f2 bb d2 3d 49 a0 22 bd
       0.15828724 -0.07527124 0.10289754 -0.03970364
000290 b5 5d 11 be 07 b8 0e bc 0f f2 41 be 82 d3 c6 3d
       -0.14195903 -0.008710868 -0.18939994 0.09708311
0002a0 62 4d 27 3b cc 9c f9 bd 59 8a 2c 3e e9 83 0b bd
       0.0025528301 -0.1218811 0.1684965 -0.034061346
0002b0 aa e8 0c 3b 1d 02 dd be a2 41 6c bd f4 a5 65 3d
       0.0021500983 -0.43165675 -0.05767978 0.05606647
0002c0 98 e5 7d 3d 4c d7 74 3d b6 23 af 3d b9 9f 5c be
       0.061986536 0.059775636 0.08551733 -0.21545304
0002d0 4c d3 ad 3c 3f 29 c6 bd ed 85 aa 3e 99 77 f6 3c
       0.021218918 -0.09675836 0.33305302 0.030086325
0002e0 12 be a8 3c 63 0b 0d 3d 8d 67 94 bd da 33 ac 3d
       0.020598445 0.034434687 -0.07246313 0.084083274
0002f0 0d a4 b9 be 71 38 f8 3b 6a 62 96 3e 11 b8 db bd
       -0.36257973 0.0075750877 0.2937196 -0.10728467
000300 26 14 40 bd bd 52 b1 bd 7e 30 7a bd 2a 17 84 3e
       -0.046894215 -0.08658359 -0.061081402 0.25798923
000310 2a bd bc bd 8f 24 0a 3d ca 05 13 3d 42 9b 26 be
       -0.09215768 0.03372627 0.035894193 -0.16270164
000320 01 ae 16 be 64 3f d2 bc 06 c0 ae 3d e8 0f 41 bb
       -0.14714815 -0.025664993 0.08532719 -0.0029458944
000330 af 42 ab bc 14 fb c6 3d 66 ba c6 3b 6e bc 8c 3c
       -0.02090582 0.09715858 0.006064701 0.017179694
000340 36 b1 10 3d ec 52 21 3e a4 97 84 3e fc 80 b5 bd
       0.03532525 0.15754288 0.25896943 -0.088624924
000350 e9 76 1a be 81 f6 f7 bd 9f 25 9d be 14 73 67 bc
       -0.15084423 -0.12107564 -0.30692765 -0.014126558
000360 db 1d 6e be 76 1f fe 3d 4c f6 9b 3e 9e 66 a4 3d
       -0.23253576 0.124083444 0.30461347 0.08027385
000370 21 81 94 bc 1f d7 47 3c ce 0c 8c 3d bc a9 a0 3c
       -0.01812798 0.012197285 0.0683838 0.019612186
000380 68 8c 14 bd 6d 5b d8 bd 05 62 6a bd ef 74 e0 bd
       -0.036266714 -0.10564313 -0.057222385 -0.10959803
000390 76 4e b7 3e 50 0a 99 3e 4e 9c 00 be b0 d8 53 bd
       0.35802048 0.2989068 -0.12559626 -0.05172032
0003a0 10 71 2b be 6a b6 f3 bd 44 04 8b 3c a8 5d cc bd
       -0.16742349 -0.11900027 0.016969807 -0.09978801
0003b0 90 e1 14 be 9c db 0d bd 16 de c1 3d 2a ca 76 ba
       -0.1453917 -0.034633264 0.09466188 -0.000941428
0003c0 cf 1c 36 3d 40 82 b5 3d 9e bf 32 be 85 66 9e 3e
       0.044461068 0.08862734 -0.17455909 0.3093759
0003d0 4f 21 e1 3e e9 f2 38 be 32 4a d2 bd fc 92 78 bd
       0.43970725 -0.18061413 -0.10268058 -0.06068705
0003e0 6f 96 bc 3d 52 52 c4 bd 5b 3f 9d 3c db 67 6e be
       0.092083804 -0.09586014 0.01919525 -0.23281805
0003f0 5d ad d7 be 12 54 a7 bc b7 d4 5b 3c a1 40 14 3d
       -0.42124453 -0.02042583 0.013417414 0.036194447

fc3.weight f4 [8, 256]
000000 2f c7 04 3d eb c1 4f bd 51 f4 16 3d 3a cb 06 be
       0.03241652 -0.050722044 0.036854092 -0.13163462
000010 a7 8f d7 3c 59 9a a2 3e b5 af e5 3d f6 d6 af bd
       0.026313616 0.31758383 0.11215154 -0.085859224
000020 23 21 a2 3d 1d c1 73 bd 2a dc 0d be 8d ca 05 3c
       0.079164766 -0.05951034 -0.13853517 0.008165968
000030 a8 bb 25 be 46 42 ef bd cb 9f ab 3d 15 72 95 3d
       -0.16184866 -0.116825625 0.083800875 0.0729715
000040 2b 44 c1 3e b4 1f 53 bd 5c 5d f4 3d a3 a6 56 bc
       0.3774732 -0.051543906 0.119318694 -0.013101253
000050 c3 85 58 bc 8a 81 da bd 91 2b f5 bc ca eb 96 3d
       -0.013215485 -0.10669239 -0.029928 0.07369192
000060 d7 58 97 bb 91 02 ba 3c 33 51 21 3e d5 2f 33 3d
       -0.004618745 0.022706302 0.15753631 0.043746788
000070 25 37 7c bc 74 a2 94 bd 81 78 ee 3e 74 4f 4f 3d
       -0.015394007 -0.07257548 0.46576312 0.05061288
000080 8c 5a 00 3e 7b 97 9f bd 3c 43 e1 3d ff d7 66 be
       0.12534541 -0.077925645 0.10999152 -0.22543333
000090 56 c1 3b 3d b8 96 fd bd 32 76 3a be 7d 80 0c 3d
       0.045838676 -0.12382263 -0.1820915 0.034302223
0000a0 1d 6b aa 3e 66 e4 bb 3d 4f 8a c9 bd 32 5a 51 3d
       0.33284846 0.09174423 -0.098408334 0.051111408
0000b0 b8 4d fd bd 05 04 6f be 81 94 be 3c eb a5 4a 3e
       -0.12368339 -0.23341377 0.023264172 0.19789855
0000c0 ed ef da 3c ef 26 8c bd 03 bf 8f 3d 7d c6 26 bb
       0.026725734 -0.068433635 0.070188545 -0.0025447898
0000d0 e0 4b 13 bd 1e 45 22 3d 65 cb 7a 3d b5 6a 92 3d
       -0.035961032 0.039616697 0.06122913 0.07149259
0000e0 3d 92 f7 bb 17 7e 84 bd ec b8 a1 3d da a4 35 bc
       -0.0075552748 -0.06469362 0.07896599 -0.011086667
0000f0 c3 2e 3e 3e 42 b0 0f 3d aa 33 05 bf 1d 3f 1c 3e
       0.18572526 0.035080202 -0.5203196 0.15258451
000100 6e d4 10 3d 9b fa fe bb 2c 56 8f be 17 ce d6 3c
       0.03535884 -0.0077813393 -0.2799543 0.026221318
000110 d9 0c 1b be bc 51 9d bb 4e 89 10 bd fc d0 41 3e
       -0.1514162 -0.0048010033 -0.035287194 0.18927377
000120 f4 36 18 bd 1b 08 bb bd d8 cf 9a 3e 82 35 6d 3b
       -0.037161782 -0.09132405 0.30236697 0.0036195223
000130 5b 7c 0a 3d 83 5c 87 3e 24 bb 96 3d af 34 36 3e
       0.03381 0.26437768 0.07359913 0.17793535
000140 28 df e2 bc be 99 36 3e 15 d9 42 be 17 c7 4b bd
       -0.0276943 0.17832085 -0.19028123 -0.049750414
000150 42 41 3e 3e 87 7d 8b 3d 91 66 c7 bd 24 c8 4b 3d
       0.18579581 0.06811052 -0.0973636 0.049751416
000160 95 1b 40 3d 6b 2e b4 3b 88 e7 f9 3c 1d 79 df bc
       0.046901304 0.0054986975 0.03050591 -0.027279431
000170 40 55 d5 bd 6f ff e7 3d 74 b2 4d be 14 25 46 3d
       -0.10416651 0.11328017 -0.20087606 0.048375204
000180 4a ce db 3d 3c fe 33 3d 5d d7 66 3c 42 57 66 bc
       0.10732706 0.04394363 0.014089433 -0.01405889
000190 f8 d4 57 3d 57 7a fb 3d 45 96 1a bc 37 c7 d9 bd
       0.052693337 0.12279194 -0.009435241 -0.106337
0001a0 95 0a 54 3c b3 50 80 bd b6 1c 75 be ab ee 1f bd
       0.012941976 -0.06265392 -0.23936734 -0.03904597
0001b0 d8 96 b0 3c 0e 4c 40 bd 58 f5 96 3d c3 63 8b bd
       0.021556303 -0.04694753 0.07371014 -0.068061374
0001c0 6a 05 3e be 5f 33 01 3c 46 e8 87 3c 21 d2 dc 3d
       -0.18556753 0.007885783 0.016590249 0.107822664
0001d0 69 46 19 3e aa dc 5a 3e 81 2f 9e 3d 53 fb 84 bd
       0.14968266 0.21373239 0.077239044 -0.06493249
0001e0 bb 27 cf 3d 29 da 0e be bb 7d 4a 3d 8e e0 10 3d
       0.10115 -0.13950409 0.049436312 0.035370402
0001f0 74 5e d3 bc d6 41 4a 3e cf 8d 92 3d 75 2f c5 bd
       -0.025801875 0.19751677 0.07155954 -0.09628192
000200 0d 18 97 bd e6 27 f3 3d fa 56 e5 bd 14 72 30 bd
       -0.07377634 0.118728444 -0.1119823 -0.043077543
000210 40 9a 49 be fe b8 0c be cc 6d 75 3d 40 07 f0 bd
       -0.19687748 -0.13742444 0.059919164 -0.11720133
000220 02 42 96 bd 8d 65 41 be 51 f0 66 bd d0 20 b0 3d
       -0.07336809 -0.18886395 -0.056381527 0.086000085
000230 99 e7 ea 3c 08 90 0c be 04 6f 8a 3c 07 fd 89 bd
       0.028674887 -0.13726819 0.01689864 -0.06737714
000240 98 8d 8f 3d e7 24 58 bd 7c 71 72 bc 84 31 22 bd
       0.07009429 -0.052769568 -0.014797565 -0.039598003
000250 ad 54 b6 bb 76 48 a2 bd 01 cf be 3d e2 24 02 be
       -0.0055642934 -0.07923977 0.093168266 -0.12709382
000260 0a 61 42 3c 25 72 94 3d 97 43 a8 3e 18 10 a0 3e
       0.011863956 0.07248334 0.32864067 0.3126228
000270 1c a0 bb bd 4d 42 c5 bd 2c ec f1 3c fc 06 96 3c
       -0.09161398 -0.096317865 0.02953156 0.018313877
000280 9e 2e 04 3e ec 6a 0b 3d 68 cb c2 bd 86 24 3b bc
       0.12908408 0.034037516 -0.09511453 -0.011422282
000290 68 3f 6f be 6d 01 f3 bd 2e 5b bd bc 06 25 32 bc
       -0.23364031 -0.11865506 -0.023114767 -0.010873085
0002a0 f0 f5 f2 3d da 58 e9 3c 48 2a 83 3e 00 fc 42 3c
       0.11863315 0.02848475 0.25618196 0.011900902
0002b0 05 7e 51 3d 98 59 47 3d 3e a0 23 bb 3d b6 dd bc
       0.051145572 0.048669428 -0.0024967338 -0.027064437
0002c0 58 d6 d7 bc eb 95 de bd 41 53 28 be 59 e8 16 bd
       -0.026347324 -0.10868438 -0.16438009 -0.036842678
0002d0 13 fd 36 3c f5 47 23 3d 7b ee 64 3e 54 b2 14 be
       0.011168736 0.039863545 0.22356598 -0.14521152
0002e0 93 1c 47 be 3a 56 5e be cc 7f 11 bd ad e7 95 bd
       -0.19444494 -0.2171258 -0.035522267 -0.07319579
0002f0 4c 5c 85 be 0d e7 01 3c f0 f9 77 3e 14 0d b7 bd
       -0.2604698 0.007928622 0.24216437 -0.08938041
000300 c9 81 dc bb 28 1a 80 3e fd d8 30 be 8a 7f 1a 3f
       -0.006729339 0.25019956 -0.17270274 0.6035086
000310 d1 ae ba 3d 78 c8 45 bd 44 bc 2f bd e6 3e e2 bd
       0.09115375 -0.048286885 -0.042904153 -0.11047153
000320 59 0c 55 bd 9c f7 4a 3e b7 62 6a bd 5a b0 fd bd
       -0.05201373 0.19821018 -0.057223048 -0.12387152
000330 28 96 96 3d 71 c7 04 3e 18 59 dc 3d 92 2a 17 3d
       0.07352859 0.12966706 0.10759181 0.036905833
000340 c2 bd 7e 3d 88 a5 4f 3e 02 d9 59 bd 73 23 4a be
       0.062192686 0.20277989 -0.05318547 -0.19740085
000350 3d 17 02 be 16 cc c8 bb 09 80 88 be 36 e6 3c 3c
       -0.12704177 -0.0061278446 -0.26660183 0.011529496
000360 be bf e3 3d 56 a6 44 bc a0 0a cd 3d a2 93 ff 3c
       0.11120556 -0.012002548 0.10011792 0.031198326
000370 a0 15 89 3d 54 a2 8a 3d af ef 6c bc 51 34 82 3d
       0.06693578 0.06769243 -0.014461442 0.06357635
000380 eb ef be bc c9 04 d1 bd c7 14 c2 bc 4c d7 98 3d
       -0.023307761 -0.10205991 -0.023691548 0.074629396
000390 4c b0 3c 3e 85 fe 76 3e 19 a2 2a 3d 3f f8 f7 3d
       0.18426627 0.24120529 0.041658495 0.12107896
0003a0 c2 ad 02 3e 02 a3 29 3e 65 c4 1c 3e cc b6 d6 3d
       0.12761596 0.16566089 0.15309294 0.104840845
0003b0 8a 9b 24 bd 53 b5 47 bc db e0 d9 bd fa db 31 3e
       -0.040187396 -0.012189227 -0.10638591 0.1736907
0003c0 63 01 de 3d 5b d5 53 3d de 40 b2 bd b4 ee 69 3e
       0.10840108 0.051717144 -0.08703779 0.22844964
0003d0 03 d1 ba 3e d0 92 ac bd 02 56 11 be 57 6f ea bc
       0.36487588 -0.0842644 -0.14192966 -0.028617544
0003e0 42 6a 03 3c e6 99 c0 3c b8 4e 7e 3d 5e 2f d2 3e
       0.008020939 0.023510884 0.06208679 0.41051763
0003f0 a4 19 a5 3e 3a 03 7c 3d 6a 86 08 bf 38 76 db 3d
       0.32246125 0.061526515 -0.533301 0.10715908

fc3.bias f4 [8]
000000 ba c6 61 3e 6b 66 35 3d ba 20 70 3d 15 6a e6 3e
       0.22048464 0.044287127 0.05862496 0.4500281
000010 d8 28 09 3e d4 01 0a 3e d1 79 81 3e a9 77 12 3e
       0.13394487 0.1347726 0.2528825 0.14303459
