examples/carla_scenic/Carla_Challenge/trained_model_2022-06-11/agent_speed/policy_net_500.pt (torch, 77911 bytes, 6 tensors)

fc1.weight f4 [64, 4]
0	0xbeb19aee	-0.34688514
1	0xbdba6731	-0.091017134
2	0xbc52b645	-0.012860839
3	0x3c734004	0.0148468055
4	0xbfc2ae7f	-1.5209502
5	0xbeb61bef	-0.35568187
6	0x3e9721fa	0.2951811
7	0xbd7030cd	-0.05864029
8	0x3d97cd6f	0.0741223
9	0x3d858284	0.065190345
10	0xbdc29db2	-0.09502734
11	0xbe11ce49	-0.14238848
12	0xbd457876	-0.048210584
13	0x3d836ec6	0.06417613
14	0xbc87b2f6	-0.016564827
15	0x3c823503	0.015894419
16	0xbeeb2cfb	-0.45932755
17	0xbdd5e74e	-0.104445085
18	0x3e1090a0	0.1411767
19	0x3d59a495	0.053135473
20	0xbf5f7c4f	-0.87299055
21	0x3f11eda5	0.5700324
22	0x3cfd840b	0.030946752
23	0xbe43f5d4	-0.19136745
24	0xbd5833f6	-0.05278393
25	0xc0160832	-2.3442502
26	0x3d81817f	0.063235275
27	0xbe1c77f6	-0.15280136
28	0xbde3893d	-0.111101605
29	0xbcb87d5e	-0.022520717
30	0xbd239b1f	-0.039942857
31	0xbd3a3e59	-0.045469616
32	0xbe835886	-0.25653476
33	0x3e816f83	0.2528039
34	0x3e0f4904	0.13992697
35	0xbeb88197	-0.3603637
36	0xbf9fd7ea	-1.2487767
37	0x3f77bfb0	0.96776867
38	0xbea528bd	-0.32257643
39	0xbcd9040a	-0.026491184
40	0xc00b185f	-2.1733625
41	0x3ff39e01	1.9032594
42	0x3df7e8de	0.12104963
43	0xbc80d0e8	-0.015724614
44	0xbecf0776	-0.4043538
45	0xbe3bc30e	-0.18336126
46	0x3c0118d3	0.007879454
47	0x3b3fc476	0.0029261387
48	0x3de483e8	0.111579716
49	0x3dc72b59	0.09725065
50	0xbcbd36c1	-0.023097398
51	0xbe47c9b7	-0.19510542
52	0xbcd14e68	-0.025550082
53	0xbc71fd30	-0.014769837
54	0xbda1020b	-0.07861718
55	0xbc6f0667	-0.014588929
56	0x3ed25a6b	0.41084608
57	0xbf1c648f	-0.6109094
58	0xbe106eb0	-0.14104724
59	0xbcd7fa03	-0.026364332
60	0x3bb9002f	0.005645774
61	0x3e8578eb	0.26068816
62	0xbce331c9	-0.0277337
63	0xbcb18646	-0.021670472
64	0xbea7ea82	-0.32796103
65	0x3d343190	0.04399258
66	0xbce0cc4d	-0.027441168
67	0x3c480eb8	0.0122105405
68	0x3eb65a0c	0.35615575
69	0x3d844b7b	0.06459709
70	0xbccf9302	-0.025338653
71	0xbe312694	-0.17299873
72	0xbfe12c27	-1.7591599
73	0x3fb86460	1.4405632
74	0xbcc9b7b1	-0.024623724
75	0xbd7dd872	-0.061973996
76	0x3dd3d68b	0.10343655
77	0xbdb05a88	-0.086110175
78	0x3cec6857	0.028858347
79	0xbe7f2b47	-0.24918853
80	0xbea630f8	-0.32459235
81	0xbddd3865	-0.10801772
82	0xbcf44c17	-0.029821439
83	0x3c67d40e	0.014149679
84	0x39041656	0.00012596822
85	0x3ca71619	0.02039628
86	0xbdc9c28d	-0.09851561
87	0xbd8c3ef3	-0.06847944
88	0xbf0e8f52	-0.5568744
89	0x3f07699c	0.5289552
90	0x3da22c0e	0.07918559
91	0xbe7c538a	-0.24641243
92	0x3fc15663	1.5104488
93	0xc06d9d9d	-3.712745
94	0x3e373a03	0.17893223
95	0x3dde4387	0.108527236
96	0x3eec17d5	0.46111932
97	0xbeb643a5	-0.35598484
98	0xbc2c56fb	-0.010518785
99	0xbb885b33	-0.0041612624
100	0xbcb8978c	-0.0225332
101	0xbe07248a	-0.13197532
102	0xbdf43cb7	-0.11925643
103	0xbd83771b	-0.06419202
104	0x3fcc3448	1.5953455
105	0xbf89ba67	-1.076001
106	0xbefce428	-0.4939282
107	0x3e174057	0.14770637
108	0xbe5c2889	-0.21499838
109	0xbe6b36ff	-0.22970198
110	0x3b643a22	0.003482469
111	0x3aced110	0.0015778858
112	0xbfe2bde5	-1.7714201
113	0x3fd6e7d1	1.6789495
114	0x3cfe25a6	0.031023812
115	0xbe11c25b	-0.14234297
116	0xbe4342fc	-0.19068521
117	0x3ddc05c5	0.10743288
118	0x3c6f3cd8	0.014601909
119	0xbe6e7a07	-0.23288737
120	0xbea9be85	-0.33153167
121	0x3ee14d91	0.4400449
122	0x3dfb9c69	0.12285692
123	0xbeaf2ea4	-0.3421527
124	0xbdc60aea	-0.096700504
125	0x3e3a73d6	0.1820825
126	0x3bb6363c	0.0055606645
127	0xbe14f759	-0.1454748
128	0x3dc861cc	0.09784278
129	0xbf2b169d	-0.6683138
130	0x3d8700c1	0.06591941
131	0xbe5759f4	-0.21030408
132	0xbf82ceab	-1.021932
133	0x3e4e4193	0.20142202
134	0x3e8d4e48	0.27598786
135	0xbeaaade8	-0.33335805
136	0xbeb4b694	-0.35295546
137	0xbde48555	-0.111582436
138	0x3bc53483	0.006018223
139	0xbcb423f3	-0.021989798
140	0x3e61707a	0.22015563
141	0xbf6ee9cb	-0.9332549
142	0xbfa3e330	-1.2803707
143	0x3cb1835d	0.021669084
144	0x3e280cf6	0.16411194
145	0xbddff609	-0.10935599
146	0xbdb9ba11	-0.090686925
147	0xbb888bad	-0.0041670413
148	0xc02cdc74	-2.7009554
149	0xc05491cf	-3.3213995
150	0xbfbafb65	-1.460797
151	0x3d776bb4	0.060405448
152	0xbf249d7b	-0.64302796
153	0xbc899e1f	-0.01679903
154	0xbca542e0	-0.02017349
155	0x3c0ad1f2	0.008472906
156	0xbfd9e296	-1.7022274
157	0x3f81f105	1.0151678
158	0x3ed18cf4	0.4092785
159	0xbe383b05	-0.17991264
160	0xbebe10d6	-0.3712222
161	0xbd7996b3	-0.060934734
162	0xbf85f660	-1.0465813
163	0xbbac8209	-0.005264525
164	0xbf5777aa	-0.8416697
165	0xbe02b450	-0.12764096
166	0x3e71b6b4	0.23604852
167	0x3e332a39	0.17496575
168	0xbec970a8	-0.39343762
169	0x3e1dba3b	0.15403073
170	0xbd12ee70	-0.035871923
171	0xbb654c03	-0.0034987933
172	0xbe12637b	-0.14295761
173	0x3d67057f	0.056401726
174	0xbc498810	-0.012300506
175	0x3b7619e9	0.0037552065
176	0x3df5add0	0.11996043
177	0xbde32a7f	-0.1109209
178	0xbe3f901b	-0.18707316
179	0xbd0b4630	-0.034002483
180	0xbe91589a	-0.2838791
181	0xc00a1daf	-2.1580617
182	0xbdc92ac6	-0.098226115
183	0x3e2a9735	0.16659243
184	0x3d3de9b7	0.046365466
185	0x3d7bfdf6	0.061521493
186	0xbd85f60c	-0.0654107
187	0x3b97f24e	0.0046370393
188	0xbdbef13c	-0.093233556
189	0x3d496763	0.049170863
190	0xbc7dd0e8	-0.015491702
191	0xba24dcb7	-0.00062889926
192	0xbf58a173	-0.8462135
193	0x3b463ef9	0.0030249937
194	0xbef9c12a	-0.48780185
195	0x3be36ed6	0.006940703
196	0xbda57f34	-0.08080903
197	0xbed79690	-0.42107058
198	0xbdb0a0c7	-0.08624416
199	0x3a37d358	0.00070123887
200	0x3e88f8f8	0.26752448
201	0xbf0d303b	-0.5515172
202	0xbf14fe8b	-0.582009
203	0x3d8d7861	0.06907726
204	0x3d4d6327	0.050143387
205	0xbe895ceb	-0.26828703
206	0xbea24174	-0.31690562
207	0x3c2b78df	0.01046583
208	0xbf3443e5	-0.704161
209	0x3fbbbde1	1.4667321
210	0xbe1180d6	-0.14209303
211	0xbd8664e7	-0.06562214
212	0x3d215a19	0.039392564
213	0xbdaa1eee	-0.083066806
214	0xbdb5c0f3	-0.08874693
215	0xbd8b93ce	-0.06815301
216	0xbfc56160	-1.5420341
217	0x3fc4e772	1.5383132
218	0x3e8edcfa	0.27902967
219	0xbd250b58	-0.04029402
220	0x3df77bb0	0.120841384
221	0xbdf82c5d	-0.121178366
222	0x3b58470f	0.0033001339
223	0xbba5252c	-0.0050398316
224	0xbecd640d	-0.40115395
225	0x3d775281	0.060381416
226	0xbe93808c	-0.2880901
227	0xbc607d2a	-0.013701716
228	0xbd60f7db	-0.054923873
229	0xbdcb6167	-0.099306874
230	0xbd6b0c47	-0.057384755
231	0xbe5da620	-0.21645403
232	0xbf83ea7e	-1.0305936
233	0x3fe2b160	1.771038
234	0x3ec1ae80	0.37828445
235	0xbe9b858d	-0.3037533
236	0xbfd28208	-1.6445932
237	0xbef9b392	-0.48769814
238	0x3e15adc8	0.14617074
239	0x3bf1cb1a	0.007378948
240	0x3d8d99a3	0.069140695
241	0x3d8de36f	0.06928145
242	0x3c80de01	0.01573086
243	0xbe10b3b3	-0.1413105
244	0x3dc35364	0.0953739
245	0x3d4a9857	0.04946169
246	0xbe90a7cc	-0.2825302
247	0x3c14ff5d	0.0090940865
248	0xbe01f174	-0.12689763
249	0xbdc34b21	-0.09535814
250	0xbc189959	-0.009313905
251	0x3bf5acc4	0.007497402
252	0x3e1d0dca	0.15337291
253	0x3e2842a8	0.16431677
254	0x3d8c2e2d	0.06844745
255	0xbe3f373f	-0.18673418

fc1.bias f4 [64]
0	0xbee77c4c	-0.45212018
1	0x3dea84e8	0.11451131
2	0x3e769500	0.24080276
3	0xbf0c35cb	-0.5476958
4	0x3ee44901	0.44586948
5	0x3e16f97f	0.14743613
6	0xbf328b8c	-0.6974418
7	0xbed108b0	-0.4082694
8	0xbf3f9f68	-0.7485261
9	0xbe32a7f7	-0.17446886
10	0xbedf3554	-0.43595374
11	0xbf16a47a	-0.5884472
12	0x3e9d568c	0.30730093
13	0x3e4f6550	0.20253491
14	0x3ea631a7	0.32459757
15	0x3ea5620c	0.32301366
16	0xbed258f7	-0.410835
17	0xbed5a63e	-0.41728395
18	0x3eacffb4	0.33788836
19	0x3e0b2838	0.13589561
20	0xbeda482a	-0.42633182
21	0xbe9688f4	-0.29401362
22	0xbe916101	-0.2839432
23	0x3f0012ac	0.5002849
24	0xbeb9682a	-0.36212283
25	0x3eb958f0	0.36200666
26	0xbdd6cf9e	-0.104888186
27	0xbe46aba7	-0.19401418
28	0x3e39c960	0.18143225
29	0xbdb17560	-0.08664966
30	0xbef183b7	-0.47170803
31	0xbd1f4fa5	-0.038894314
32	0xbef5e9dd	-0.48029986
33	0xbe7b7dfa	-0.24559775
34	0x3e1661f1	0.14685799
35	0xbe34d53b	-0.17659466
36	0xbe1ec5ac	-0.15505093
37	0xbef398e9	-0.475776
38	0xbe914163	-0.283702
39	0x3d5c52c7	0.05378988
40	0x3e155c6d	0.14586039
41	0x3e87b700	0.26506805
42	0xbd86f791	-0.06590188
43	0xbe2d8863	-0.16946559
44	0x3e751f90	0.23937821
45	0x3e96e586	0.29471987
46	0xbe5257cf	-0.20541309
47	0xbd5541e2	-0.052064784
48	0xbe62f63c	-0.22164243
49	0xbcc63176	-0.024193507
50	0x3f09c52d	0.5381649
51	0xbedd6fd6	-0.43249387
52	0x3e86aef8	0.26305366
53	0x3eecc21a	0.46241838
54	0xbe854229	-0.2602704
55	0xbe9d639a	-0.30740052
56	0x3eb33648	0.3500235
57	0xbd5670e0	-0.05235374
58	0x3ed558f0	0.41669416
59	0x3e2e8669	0.17043461
60	0xbe975a00	-0.29560852
61	0xbeceef14	-0.40416777
62	0xbe6a6fc3	-0.22894196
63	0xbf2c0631	-0.6719695

fc2.weight f4 [256, 64]
0	0x3dfcd2df	0.12344908
1	0x3b82f44d	0.003996408
2	0x3dc0afbb	0.09408518
3	0x3aad583b	0.0013225147
4	0xbd3207ac	-0.043464348
5	0xbd5bc3d5	-0.053653557
6	0xbdc89bfb	-0.09795376
7	0x3d51ede5	0.051252265
8	0xbd8a3ce3	-0.067498945
9	0xbe425526	-0.18977794
10	0xbdab988c	-0.083787054
11	0x3d3e51d0	0.04646474
12	0xbbfa1dcd	-0.007632947
13	0xbddfafe3	-0.109222196
14	0x3e3e022b	0.18555515
15	0xbe2c22b0	-0.16810107
16	0xbbffb43d	-0.0078034685
17	0xbdf49645	-0.11942724
18	0xbc820d3c	-0.015875451
19	0x3b227ab3	0.0024792373
20	0xbb2a623b	-0.0025998491
21	0x3dc51329	0.09622795
22	0xbcb38e73	-0.021918511
23	0xbdf0ec6a	-0.117638424
24	0x3dfc5f98	0.123229206
25	0x3d0a1914	0.033715323
26	0xbd0dafa2	-0.034591325
27	0x3e07717e	0.13226888
28	0xbe05eb81	-0.13078119
29	0x3e509b3f	0.20371722
30	0x3d474b8a	0.048656024
31	0x3d554c8d	0.052074958
32	0x3aff437e	0.001947507
33	0xbe0f7b8c	-0.14011973
34	0xbe2c2d6a	-0.16814199
35	0xbe1df6ff	-0.15426253
36	0xbca6e697	-0.020373626
37	0xbcac2619	-0.02101426
38	0x3ca70526	0.020388197
39	0x3de67bd7	0.11254089
40	0xbd0fdd0b	-0.035122912
41	0xbdbe453a	-0.09290548
42	0xbdcbef2a	-0.09957726
43	0xbd9f80c3	-0.07788231
44	0xbc79fde7	-0.015258289
45	0x3d59ae4d	0.05314474
46	0x3e02ad2d	0.12761374
47	0xbd1d8ec7	-0.03846624
48	0xbcf77f90	-0.030212194
49	0x3ce77cb7	0.02825771
50	0x3d883380	0.06650448
51	0xbd40c01d	-0.047058214
52	0xbda73d72	-0.08166017
53	0xbdee1be7	-0.11626416
54	0xbe2d1266	-0.1690155
55	0xbdb286ef	-0.08717143
56	0xbd9ce881	-0.07661534
57	0x3d38ff07	0.045165088
58	0x3e49f7e2	0.19723466
59	0xbe4d1240	-0.20026493
60	0xbdc01351	-0.09378684
61	0xbe27881f	-0.1636052
62	0xbe3db73d	-0.18526931
63	0xbca3b648	-0.01998438
64	0xbde19bad	-0.11016021
65	0xbd79efa9	-0.061019573
66	0x3c674e73	0.014117825
67	0x3c913422	0.017725054
68	0xbe437ec2	-0.19091323
69	0x3da3b2e3	0.07993104
70	0xbdd5cb76	-0.10439198
71	0xbc03f371	-0.008053646
72	0x3d419a05	0.047266025
73	0xbd2f51fb	-0.042802792
74	0xbe27f719	-0.16402854
75	0x3d89a183	0.06720259
76	0x3bc7c381	0.006096304
77	0x3e447be3	0.19187884
78	0xbd0bb7b4	-0.03411074
79	0xbbf73b01	-0.0075448756
80	0xbda370ff	-0.07980537
81	0xbd8a5cbb	-0.06755968
82	0xbe0aee8c	-0.13567561
83	0x3d61ac1d	0.05509578
84	0x3d8c0dc6	0.068385646
85	0xba569a47	-0.0008186441
86	0xbc760ba8	-0.0150174275
87	0xbddd9f93	-0.10821452
88	0x3b64c79f	0.0034909023
89	0xbd7997a0	-0.060935616
90	0xbdd71762	-0.10502507
91	0x3d824c2a	0.063621834
92	0x3d86f718	0.06590098
93	0xbd02b390	-0.031909525
94	0x3ca02889	0.019550579
95	0x3c8252c2	0.015908603
96	0x3ddb2738	0.1070084
97	0xbe3e5824	-0.1858831
98	0xbdf568f8	-0.11982912
99	0xbd34d771	-0.044150773
100	0xbd481b03	-0.048853885
101	0x3d600512	0.054692335
102	0xbe120a2d	-0.14261694
103	0xbd58c996	-0.052926622
104	0x3dcfc928	0.101457894
105	0xbe96b652	-0.29435974
106	0xbd470998	-0.048593134
107	0xbb205833	-0.0024466633
108	0x3d311547	0.043233182
109	0x3c6392ea	0.0138900075
110	0x3cd82cd7	0.026388569
111	0x3e39fb69	0.18162312
112	0xbe106516	-0.14101061
113	0xbe1ecf5e	-0.15508792
114	0xbdefffae	-0.11718689
115	0xbe12a2d1	-0.14319922
116	0xbacf9f75	-0.0015840369
117	0xbe18c5fb	-0.14919274
118	0xbdfb72a7	-0.122777276
119	0xbe95888f	-0.29205748
120	0xbea1d73d	-0.31609526
121	0x3b0a01f4	0.0021058293
122	0x3d3fbcde	0.046810977
123	0xbd916d12	-0.07100882
124	0xbcec8f0a	-0.0288768
125	0x3c95de26	0.018294405
126	0x3dafd73c	0.085859746
127	0xbd449724	-0.0479957
128	0xbccdd5ea	-0.025126416
129	0x3c01c881	0.007921339
130	0xbd037cdc	-0.032101497
131	0xbe28f0f0	-0.1649816
132	0xbda3b8b9	-0.079942174
133	0x3bc60f61	0.006044314
134	0xbd779f88	-0.060454875
135	0x3c9c3b2c	0.019071184
136	0x3da0ff31	0.07861174
137	0xbd7926ac	-0.060827896
138	0xbd696162	-0.056977637
139	0xbc7b0a56	-0.0153222885
140	0x3d5b635b	0.05356155
141	0xbdec13db	-0.11527225
142	0x3cc58317	0.02411036
143	0x3c7a163a	0.015264088
144	0xbe15535a	-0.14582577
145	0xbd991254	-0.07474199
146	0x3db93fc3	0.09045365
147	0x3d4cb3b5	0.04997607
148	0x3d3483ba	0.044070937
149	0xbd1f505f	-0.038895007
150	0xbe87196d	-0.26386586
151	0xba498aac	-0.0007688205
152	0xbe17b0e4	-0.14813572
153	0xbdf5db2d	-0.12004695
154	0xbbef70e7	-0.00730716
155	0x3e2fa54b	0.17152898
156	0xbe2ea217	-0.1705402
157	0xbdce2895	-0.10066334
158	0x3e36a3c8	0.17835915
159	0x3dcdfb0a	0.100576475
160	0xbe2f0374	-0.17091161
161	0xbcac0696	-0.020999234
162	0xbc104fc3	-0.008808079
163	0xbb9244d3	-0.004463771
164	0xbd9f2bd1	-0.07772029
165	0xbe3b75b4	-0.18306619
166	0xbdb9f1ae	-0.090793
167	0x3c4332b7	0.011913947
168	0xbd78a943	-0.060708296
169	0xbcef4f15	-0.029212514
170	0x3da397b0	0.079879165
171	0x3dcaa38a	0.09894474
172	0x3db70c27	0.08937865
173	0xbd5aed3b	-0.053448897
174	0x3c8888ca	0.016666789
175	0xbb685110	-0.0035448708
176	0x3bf42bc7	0.0074515077
177	0x3c93e5d2	0.018053923
178	0xbd9b60b8	-0.07586807
179	0x3d48bfff	0.049011227
180	0x3d9bd5de	0.07609151
181	0xbbe18e37	-0.0068834084
182	0xbc8cb199	-0.017174529
183	0xbe0a661e	-0.13515517
184	0xbcb2e2b3	-0.021836614
185	0x3c3d5cf4	0.011557806
186	0xbd975f42	-0.07391216
187	0xbda61e7f	-0.081112854
188	0x3d9b9793	0.0759727
189	0x3dcaea3b	0.09907957
190	0x3deb8d55	0.11501566
191	0x3d971f33	0.07378998
192	0xbdba4c8d	-0.09096632
193	0xbe0bc469	-0.13649143
194	0x3e6123bf	0.21986292
195	0xbda18087	-0.07885843
196	0xbe254a7a	-0.16141692
197	0x3d7ebd30	0.062192142
198	0xbdfa6c6e	-0.122277126
199	0xbdd35095	-0.10318104
200	0xbccf7d89	-0.025328415
201	0x3d1126e4	0.03543748
202	0xbbd5a7fd	-0.00652027
203	0x3d0f2430	0.03494662
204	0x3b84880b	0.004044538
205	0xbd88d1b3	-0.06680622
206	0x3c10fbb4	0.008849073
207	0xbd9c6c3c	-0.076378316
208	0x3c444563	0.011979434
209	0x3c043993	0.008070367
210	0x3de570a3	0.112031244
211	0x3d2e0f73	0.042495202
212	0xbdfbb86e	-0.122910365
213	0x3d08d36f	0.033404764
214	0xbd808da4	-0.06277016
215	0xbd754669	-0.0598816
216	0xbdc1d1c6	-0.09463839
217	0x3d061287	0.032732513
218	0x3d7f2d92	0.06229932
219	0xbe4d88fe	-0.2007179
220	0x3d9ee2e6	0.07758121
221	0xbe12b293	-0.14325933
222	0x3d605bf2	0.054775186
223	0x3c0d8365	0.008637284
224	0xbdb7caa7	-0.089742
225	0xbd32de38	-0.043668956
226	0xbc3cd754	-0.011525948
227	0xbe00dfd3	-0.12585382
228	0x3e5d6ede	0.21624324
229	0x3de4b180	0.11166668
230	0xbd9c7d04	-0.07641032
231	0xbdd00c7f	-0.101586334
232	0x3de9c6ad	0.114148475
233	0xbced6fb4	-0.028983928
234	0x3da8b982	0.08238508
235	0xbd5d886a	-0.054085173
236	0x3bed6c8b	0.0072456053
237	0x3d5f1a15	0.054468233
238	0xbdc4d174	-0.096102625
239	0x3cea8e65	0.028632352
240	0x3cee9a90	0.029126436
241	0x3dcde794	0.10053936
242	0xbda520ee	-0.080629215
243	0x3ca260a2	0.019821469
244	0x3d337896	0.04381617
245	0x3d9803c9	0.07422597
246	0xbd171f1b	-0.0368949
247	0xbd4692f9	-0.048480008
248	0xbe1751d1	-0.14777304
249	0xbd56f69b	-0.052481275
250	0xbcf53980	-0.029934645
251	0x3cd492e2	0.025948945
252	0x3db545da	0.08851214
253	0x3ba71bac	0.0050997343
254	0xbbc40420	-0.005981937
255	0xbdf6eda8	-0.12057048

fc2.bias f4 [256]
0	0xbe183c83	-0.14866833
1	0xbd77639d	-0.060397733
2	0xbe1040d4	-0.1408723
3	0xbe16e200	-0.1473465
4	0x3e0aa414	0.13539153
5	0x3f25238f	0.64507383
6	0x3d4e485a	0.05036197
7	0xbb7c5a44	-0.003850595
8	0xbd82473c	-0.06361243
9	0xbd28f268	-0.0412468
10	0xbe6f2680	-0.2335453
11	0x3a66dc0d	0.0008806594
12	0xbdc90803	-0.09815981
13	0x3ad40fac	0.0016178987
14	0xbd820e9e	-0.06350444
15	0xbdcdc834	-0.10047951
16	0xbeb1490e	-0.3462605
17	0xbe13024b	-0.14356343
18	0x3e1f6ab3	0.15568046
19	0xbe7bbf5e	-0.2458472
20	0xbc02f601	-0.007993222
21	0xbd635163	-0.05549754
22	0xbe0dbff9	-0.13842763
23	0xbe1efd05	-0.15526207
24	0x3cde5c5f	0.027143655
25	0x3d71a950	0.05899936
26	0x3eded193	0.43519267
27	0xbd30f07d	-0.043198097
28	0xbdc049bd	-0.093890645
29	0xbe196ede	-0.14983699
30	0xbe37c66c	-0.17946786
31	0xbd5539e0	-0.052057147
32	0xbdb988c6	-0.090592906
33	0x3c896e1a	0.016776133
34	0xbe2fc58d	-0.17165203
35	0xbd26466e	-0.04059451
36	0x3daed8bb	0.08537432
37	0xbe44d4bc	-0.19221777
38	0xbcb8d865	-0.022564122
39	0xbe1fa6dc	-0.15590996
40	0xbf04c1c5	-0.5185817
41	0x3cbde4b5	0.023180345
42	0xbe0ab97c	-0.13547319
43	0xbe2d2334	-0.1690796
44	0xbd2c3abd	-0.042048205
45	0xbe0831b5	-0.13300212
46	0x3cfcf9ba	0.030880798
47	0xbe6189b3	-0.22025184
48	0xbe18c5be	-0.14919183
49	0xbd6f7bdd	-0.058467735
50	0xbe1eca15	-0.15506776
51	0xbd5957fb	-0.05306242
52	0x3de097b4	0.10966435
53	0x3c7ddd98	0.015494727
54	0xbd9ea213	-0.07745757
55	0xbe02b1e9	-0.1276318
56	0xbe01ef35	-0.12688906
57	0xbe356e58	-0.17717874
58	0xbe35fd2c	-0.17772359
59	0xbd8d9bb4	-0.06914464
60	0xbd9667f0	-0.07344043
61	0xbf160858	-0.5860648
62	0x3da1a71f	0.07893204
63	0xbc2def05	-0.010616069
64	0xbe1ad54a	-0.15120426
65	0x3bb49df7	0.005511995
66	0xbe053afa	-0.13010779
67	0xbd2b7a84	-0.041864887
68	0x3c470ca8	0.012149014
69	0xbe349813	-0.17636137
70	0xbe218883	-0.15774731
71	0xbe22311f	-0.1583905
72	0xbd541f10	-0.051787436
73	0xbd9baaa1	-0.07600904
74	0xbebe8599	-0.37211302
75	0xbe407ff1	-0.18798806
76	0x3bdc28cd	0.006718731
77	0xbdda12dc	-0.106481284
78	0x3d5a6f41	0.053328756
79	0x3cd8fcd6	0.02648775
80	0x3e3e3de6	0.185783
81	0x3d445eb1	0.047941867
82	0xbe3a6ac4	-0.1820479
83	0x3ccf39ad	0.025296057
84	0xbd202739	-0.039099906
85	0x3e0c0457	0.1367353
86	0xbc4d34f4	-0.012524832
87	0xbcee14c1	-0.02906263
88	0x3e1804e0	0.1484561
89	0xbe2d3c02	-0.16917422
90	0xbb5aa98a	-0.0033365213
91	0xbe1be1bb	-0.15222828
92	0xbda4c5e0	-0.08045554
93	0x3c9988fa	0.018742073
94	0xbe088893	-0.13333349
95	0x3e21e634	0.15810472
96	0xbe85b36e	-0.26113456
97	0xbdec5962	-0.11540486
98	0x3d0affc6	0.03393533
99	0xbcc8ee8a	-0.024527807
100	0xbd9ed94b	-0.07756289
101	0x3b9cfbec	0.0047907736
102	0xbde62e9a	-0.11239357
103	0x3d702fa4	0.058639184
104	0xbe15f0c6	-0.14642629
105	0xbd1af6c1	-0.03783298
106	0xbe93c9c5	-0.28864875
107	0x3d3e2740	0.04642415
108	0xbdad2ca9	-0.08455784
109	0x3d1eae15	0.038740236
110	0xbd887459	-0.066628166
111	0xbe0bfcb1	-0.13670613
112	0xbdd12af8	-0.10213274
113	0x3ce937e0	0.028469026
114	0xbce5f340	-0.028070092
115	0xbdf7ac3c	-0.12093398
116	0x3eced101	0.40393832
117	0x3f0519f5	0.5199273
118	0xbd9e3415	-0.077247776
119	0x3ce0a34b	0.027421614
120	0x3d722644	0.059118524
121	0xbe47d778	-0.19515789
122	0x3d4ef970	0.05053085
123	0x3ca46197	0.020066066
124	0xbd6f8a38	-0.058481425
125	0x3ca9ff83	0.02075172
126	0xbceec1f0	-0.029145211
127	0xbdee7ac1	-0.11644507
128	0xbcd6527f	-0.026162384
129	0x3e88f36e	0.26748222
130	0x3d46558a	0.04842142
131	0xbdfc43d5	-0.123176254
132	0xbe905398	-0.28188777
133	0xbd5b33c3	-0.05351616
134	0xbdf1d055	-0.11807314
135	0xbde02116	-0.10943811
136	0xbc43beae	-0.011947317
137	0xbe60a9af	-0.21939729
138	0xbd452755	-0.048133213
139	0xbd92a4fc	-0.071603745
140	0x3b270c0b	0.0025489356
141	0x3d130ac6	0.035898946
142	0xbe47eda5	-0.19524248
143	0xbd774538	-0.060368747
144	0xbe9ef393	-0.31045207
145	0xbe2fe146	-0.17175779
146	0xbe0669f9	-0.13126363
147	0x3da773e1	0.08176399
148	0xbe87e85a	-0.26544458
149	0x3c0c8893	0.008577484
150	0x3ef06703	0.46953592
151	0xbc0c1fec	-0.008552533
152	0xbe2d9586	-0.1695157
153	0xbe04fa7f	-0.12986182
154	0xbd863749	-0.065535136
155	0x3f0ee2f1	0.55815035
156	0x3d2345e5	0.03986158
157	0xbe8c97dd	-0.27459612
158	0x3b81b2dc	0.0039580893
159	0xbd03cc91	-0.03217751
160	0x3e870e06	0.26377887
161	0xbe0d4191	-0.13794543
162	0xbd9ffd59	-0.07811994
163	0xbd22a049	-0.03970364
164	0xbe115db5	-0.14195903
165	0xbc0eb807	-0.008710868
166	0xbe6267b8	-0.22109878
167	0x3d86993a	0.065721944
168	0xbcef1b3f	-0.029187797
169	0xbdf99ccc	-0.1218811
170	0x3edbd025	0.4293224
171	0xbdfc71c4	-0.123263866
172	0x3bc1d35e	0.0059150895
173	0xbf79fe5e	-0.9765376
174	0xbd6c41a2	-0.05767978
175	0x3d476d91	0.048688475
176	0x3d322a24	0.04349722
177	0xbb2bec40	-0.0026233345
178	0x3d5c31b4	0.053758338
179	0xbe5c9fb9	-0.21545304
180	0x3cadd34c	0.021218918
181	0xbe0f9d13	-0.14024763
182	0x3ef933f2	0.48672444
183	0x3cf67799	0.030086325
184	0xbe4b724e	-0.19867823
185	0xbcf4f247	-0.029900683
186	0xbdcb338a	-0.0992194
187	0x3e60b920	0.2194562
188	0xbec9e79d	-0.3943452
189	0x3bf83871	0.0075750877
190	0x3eb5da2e	0.3551802
191	0xbe0525fe	-0.13002774
192	0xbde209dd	-0.110370375
193	0xbdc9b5e5	-0.09849147
194	0xbd7a307e	-0.061081402
195	0x3ea5631b	0.32302174
196	0xbdbcbd2a	-0.09215768
197	0x3cf1522d	0.02945813
198	0x3d1305ca	0.035894193
199	0xbe269b42	-0.16270164
200	0xbe37347c	-0.17891115
201	0xbcd23f64	-0.025664993
202	0x3d5b67a2	0.05356563
203	0x3c85d684	0.01633764
204	0xbd57a1f3	-0.05264468
205	0x3ce89e8e	0.028395917
206	0xbd3e38fa	-0.046441056
207	0xbd5c87bb	-0.05384038
208	0x3c2f22d8	0.01068946
209	0x3e440769	0.19143452
210	0x3eb197be	0.34686083
211	0xbdf682a3	-0.12036636
212	0xbe3afa8b	-0.18259637
213	0xbe1af8b3	-0.15133934
214	0xbead68b8	-0.33868957
215	0xbd3be7d1	-0.045875374
216	0xbe6e1ddb	-0.23253576
217	0x3dfe1f76	0.124083444
218	0x3eab7f88	0.33495736
219	0x3d582d7e	0.05277776
220	0xbd031947	-0.03200653
221	0x3c47d71f	0.012197285
222	0x3d8c0cce	0.0683838
223	0x3d9c88d3	0.07643285
224	0xbdd9e511	-0.10639394
225	0xbe37fffa	-0.17968741
226	0xbdb63c96	-0.088982746
227	0xbe0abc19	-0.13548316
228	0x3e806e30	0.25084066
229	0x3ea540f7	0.32276127
230	0xbe009c4e	-0.12559626
231	0xbd53d8b0	-0.05172032
232	0xbe6541f5	-0.22388442
233	0xbdf3b66a	-0.11900027
234	0xbd3a6455	-0.04550584
235	0xbe06b44e	-0.13154718
236	0xbe14e190	-0.1453917
237	0xbd87de62	-0.06634213
238	0x3dc1de16	0.09466188
239	0xbcb9d355	-0.022683779
240	0x3c50d72e	0.012746615
241	0x3ccdca04	0.025120743
242	0xbe51eb58	-0.20499933
243	0x3e8b1768	0.27166295
244	0x3f46957a	0.77571833
245	0xbe79fc65	-0.24412687
246	0xbe099f79	-0.1343974
247	0xbd7892fc	-0.06068705
248	0x3dbc966f	0.092083804
249	0xbdc45252	-0.09586014
250	0xbc4de475	-0.012566675
251	0xbe6e67db	-0.23281805
252	0xbeef82c4	-0.46779454
253	0xbca75412	-0.02042583
254	0x3e3ab123	0.18231635
255	0x3d1440a1	0.036194447

fc3.weight f4 [8, 256]
0	0x3d04c72f	0.03241652
1	0xbd4fc1eb	-0.050722044
2	0x3d16f451	0.036854092
3	0xbe06cb3a	-0.13163462
4	0x3e0bbc79	0.13646115
5	0x3e9d8dfe	0.30772394
6	0x3de5afb5	0.11215154
7	0xbdafd6f6	-0.085859224
8	0x3da22123	0.079164766
9	0xbd73c11d	-0.05951034
10	0xbd378453	-0.04480393
11	0x3bff9a72	0.0078003937
12	0xbe25bba8	-0.16184866
13	0xbdef4246	-0.116825625
14	0x3dab9fcb	0.083800875
15	0x3d957215	0.0729715
16	0x3ef4c376	0.47805375
17	0xbd531fb4	-0.051543906
18	0x3e88c910	0.267159
19	0x3c52ce6e	0.0128665995
20	0xbc5885c3	-0.013215485
21	0xbdda818a	-0.10669239
22	0xbcb55825	-0.022136757
23	0x3d96ebca	0.07369192
24	0xbb9758d7	-0.004618745
25	0xbe8964c2	-0.26834685
26	0x3e3e6683	0.18593793
27	0x3d332fd5	0.043746788
28	0xbc7c3725	-0.015394007
29	0xbd2752e7	-0.040850546
30	0x3e7102af	0.2353618
31	0x3cc55190	0.024086744
32	0x3dbb6f9d	0.09152148
33	0xbd3d1343	-0.046160948
34	0x3e09aebc	0.13445562
35	0xbe66d7ff	-0.22543333
36	0x3d970d8d	0.073756315
37	0xbdfd96b8	-0.12382263
38	0x3d0fa7ac	0.035072014
39	0x3e08e711	0.13369395
40	0x3ee4d67e	0.44694895
41	0x3dbbe466	0.09174423
42	0xbdc98a4f	-0.098408334
43	0x3d515a32	0.051111408
44	0xbd940a84	-0.07228568
45	0xbe4e7cfe	-0.20164868
46	0x3cbe9481	0.023264172
47	0x3e4aa5eb	0.19789855
48	0x3d92e61d	0.07172797
49	0xbd8c26ef	-0.068433635
50	0x3d39873b	0.04529498
51	0xbb26c67d	-0.0025447898
52	0xbd8af7f8	-0.067855775
53	0x3d22451e	0.039616697
54	0xba4ad6f8	-0.00077377213
55	0x3bbfdf61	0.0058554863
56	0xbbf7923d	-0.0075552748
57	0xbd847e17	-0.06469362
58	0x3cf4e009	0.029891985
59	0xbc35a4da	-0.011086667
60	0x3dd0562e	0.101726875
61	0xbf082335	-0.5317872
62	0xbf272b69	-0.65300614
63	0x3e1c3f1d	0.15258451
64	0x3d10d46e	0.03535884
65	0x3cc37380	0.023858786
66	0xbe8f562c	-0.2799543
67	0x3cd6ce17	0.026221318
68	0xbe1b0cd9	-0.1514162
69	0xbb9d51bc	-0.0048010033
70	0xbd10894e	-0.035287194
71	0x3e57af62	0.21062997
72	0xbd1836f4	-0.037161782
73	0xbdbb081b	-0.09132405
74	0x3e6b57ff	0.22982787
75	0x3b6d3582	0.0036195223
76	0x3d0a7c5b	0.03381
77	0x3e818948	0.2530005
78	0x3d51e80e	0.051246695
79	0x3e2e5b03	0.17026906
80	0x3d59569d	0.053061116
81	0xbd966fc5	-0.07345537
82	0xbe6204f0	-0.22072196
83	0xbd4bc717	-0.049750414
84	0x3e3256e3	0.17415957
85	0x3f13c735	0.5772584
86	0xbdc76691	-0.0973636
87	0x3c07fb14	0.008299608
88	0x3c6a4414	0.014298458
89	0x3bb42e6b	0.0054986975
90	0x3cf9e788	0.03050591
91	0xbcdf791d	-0.027279431
92	0xbdd55540	-0.10416651
93	0x3de7ff6f	0.11328017
94	0xbe4db274	-0.20087606
95	0x3ea313b6	0.31850976
96	0x3ddbce4a	0.10732706
97	0x3d33fe3c	0.04394363
98	0x3c66d75d	0.014089433
99	0x3c8ed958	0.017437622
100	0x3d57d4f8	0.052693337
101	0x3dfb7a57	0.12279194
102	0xbc1a9645	-0.009435241
103	0xbe2625e5	-0.16225393
104	0x3c540a95	0.012941976
105	0xbd8050b3	-0.06265392
106	0xbe9fb8c7	-0.3119566
107	0xbbf5a21c	-0.0074961316
108	0x3e50579a	0.20345917
109	0xbd404c0e	-0.04694753
110	0x3d96f558	0.07371014
111	0xbea9a696	-0.33134907
112	0xbe3e056a	-0.18556753
113	0x3c01335f	0.007885783
114	0x3e0fd0ed	0.14044543
115	0x3ddcd221	0.107822664
116	0x3eb42bc9	0.35189655
117	0x3e57f30b	0.21088807
118	0x3d9e2f81	0.077239044
119	0xbd84fb53	-0.06493249
120	0x3dcf27bb	0.10115
121	0xbdb5edcc	-0.08883247
122	0x3d4a7dbb	0.049436312
123	0x3c950f2e	0.018195715
124	0xbcd35e74	-0.025801875
125	0xbd1ee74e	-0.038794808
126	0x3d230296	0.039797388
127	0xbd845170	-0.064608455
128	0xbd97180d	-0.07377634
129	0xbcf6eeac	-0.030143104
130	0xbde556fa	-0.1119823
131	0xbd307214	-0.043077543
132	0xbe29136d	-0.16511317
133	0xbe0cb8fe	-0.13742444
134	0x3d756dcc	0.059919164
135	0x3ecc5b0d	0.39913216
136	0xbd61d870	-0.05513805
137	0xbe7c335a	-0.24628964
138	0xbd66f051	-0.056381527
139	0x3d5eb1c8	0.054368764
140	0x3ceae799	0.028674887
141	0xbdcf8aed	-0.1013392
142	0x3d66ce2d	0.05634897
143	0xbd89fd07	-0.06737714
144	0x3bbaedf4	0.0057046358
145	0xbc9e4017	-0.01931767
146	0xbc72717c	-0.014797565
147	0xbd223184	-0.039598003
148	0xbbb654ad	-0.0055642934
149	0xbda24876	-0.07923977
150	0x3e81eabf	0.2537441
151	0xbe0224e2	-0.12709382
152	0xbce0ae02	-0.027426723
153	0x3d947225	0.07248334
154	0x3ea2f37d	0.31826392
155	0x3ee88073	0.454105
156	0xbdbba01c	-0.09161398
157	0x3b0eeb77	0.0021807828
158	0x3cf1ec2c	0.02953156
159	0x3c9606fc	0.018313877
160	0x3da3931f	0.079870455
161	0x3cd86731	0.026416393
162	0xbe835db7	-0.25657436
163	0xbc3b2486	-0.011422282
164	0xbe6f3f68	-0.23364031
165	0xbdf3016d	-0.11865506
166	0xbcbd5b2e	-0.023114767
167	0xbc322506	-0.010873085
168	0x3df2f5f0	0.11863315
169	0x3ce958da	0.02848475
170	0x3e4e80a9	0.20166267
171	0x3cf3e834	0.029773809
172	0x3b825637	0.0039775628
173	0x3f03fde8	0.51559305
174	0xbb23a03e	-0.0024967338
175	0xbcddb63d	-0.027064437
176	0xbdac20a7	-0.084046654
177	0xbdd12ce6	-0.10213642
178	0xbe285341	-0.16438009
179	0xbd16e859	-0.036842678
180	0x3c36fd13	0.011168736
181	0x3d2347f5	0.039863545
182	0x3e353f2f	0.17699884
183	0xbe14b254	-0.14521152
184	0xbdb494ea	-0.088174656
185	0xbe0fb682	-0.14034465
186	0xbd89b4dc	-0.06723949
187	0xbe8a1132	-0.26966244
188	0xbe6a32bd	-0.22870918
189	0x3c01e70d	0.007928622
190	0x3ed5c173	0.41749153
191	0xbdb70d14	-0.08938041
192	0xbbdc81c9	-0.006729339
193	0x3e5aca52	0.21366242
194	0xbe30d8fd	-0.17270274
195	0x3f53b853	0.8270313
196	0x3dbaaed1	0.09115375
197	0xbdc0466c	-0.09388432
198	0xbd2fbc44	-0.042904153
199	0xbde23ee6	-0.11047153
200	0xbd550c59	-0.05201373
201	0x3e4af79c	0.19821018
202	0xbcd0e548	-0.025499955
203	0xbd9acc28	-0.07558471
204	0x3d969628	0.07352859
205	0x3e27eadc	0.16398185
206	0x3e0dace9	0.13835491
207	0x3d8c97b7	0.06864875
208	0xbd49c4f4	-0.049260095
209	0xbe307f86	-0.17236146
210	0x3d03f5d5	0.032216866
211	0xbe4a2373	-0.19740085
212	0xbe02173d	-0.12704177
213	0xbbc8cc16	-0.0061278446
214	0xbe888009	-0.26660183
215	0x3c3ce636	0.011529496
216	0x3de3bfbe	0.11120556
217	0xbc44a656	-0.012002548
218	0x3c929298	0.017892167
219	0x3cff93a2	0.031198326
220	0x3d8915a0	0.06693578
221	0x3d8aa254	0.06769243
222	0xbc6cefaf	-0.014461442
223	0xbd102242	-0.03518892
224	0xbcbeefeb	-0.023307761
225	0xbd8c5102	-0.068513885
226	0x3b94fe9f	0.0045469548
227	0x3d98d74c	0.074629396
228	0x3dc25e25	0.09490613
229	0x3eee3ee2	0.4653235
230	0x3d2aa219	0.041658495
231	0x3df7f83f	0.12107896
232	0x3da81e53	0.08208909
233	0x3e29a302	0.16566089
234	0x3e1cc465	0.15309294
235	0x3dd6b6cc	0.104840845
236	0xbd249b8a	-0.040187396
237	0x3c9c0dc4	0.019049533
238	0xbdd9e0db	-0.10638591
239	0x3ecd29c2	0.4007092
240	0x3dde0163	0.10840108
241	0x3d53d55b	0.051717144
242	0xbdb240de	-0.08703779
243	0x3e49b6ec	0.19698685
244	0x3ec7673e	0.38945955
245	0xbdac92d0	-0.0842644
246	0xbe115602	-0.14192966
247	0xbcea6f57	-0.028617544
248	0x3c036a42	0.008020939
249	0x3cc099e6	0.023510884
250	0x3d7e4eb8	0.06208679
251	0x3ed22f5e	0.41051763
252	0x3e9310fe	0.28723902
253	0x3d7c033a	0.061526515
254	0xbf2df28e	-0.67948234
255	0x3ddb7638	0.10715908

fc3.bias f4 [8]
0	0x3f44d3d6	0.76885736
1	0x3ed30b3a	0.41219503
2	0x3e672b44	0.22575098
3	0x3f1d193d	0.61366636
4	0x3e5186fa	0.20461646
5	0x3ee881e5	0.45411602
6	0x3e6aa4fc	0.22914499
7	0x3e8318fb	0.25604996
