examples/carla_scenic/Carla_Challenge/trained_model_2022-06-11/agent_speed/target_net_1200.pt (torch, 77911 bytes, 6 tensors)

fc1.weight f4 [64, 4]
0	0xbeb19aee	-0.34688514
1	0xbdba6731	-0.091017134
2	0xbc52b645	-0.012860839
3	0x3c734004	0.0148468055
4	0xc08a3c44	-4.3198566
5	0x3f36a532	0.7134582
6	0x3f2f0ac9	0.6837583
7	0x3ceaeeea	0.028678376
8	0x3d97cd6f	0.0741223
9	0x3d858284	0.065190345
10	0xbdc29db2	-0.09502734
11	0xbe11ce49	-0.14238848
12	0xbd457876	-0.048210584
13	0x3d836ec6	0.06417613
14	0xbc87b2f6	-0.016564827
15	0x3c823503	0.015894419
16	0xbfc99649	-1.5748988
17	0x3f816b0b	1.0110792
18	0xbcb6f462	-0.022333328
19	0xbde68314	-0.1125547
20	0xbf5f7c4f	-0.87299055
21	0x3f11eda5	0.5700324
22	0x3cfd840b	0.030946752
23	0xbe43f5d4	-0.19136745
24	0x3e97085c	0.29498565
25	0xc01c2c4e	-2.4402041
26	0x3eb6dc87	0.35715124
27	0xbe8e38e7	-0.27777788
28	0xbde3893d	-0.111101605
29	0xbcb87d5e	-0.022520717
30	0xbd239b1f	-0.039942857
31	0xbd3a3e59	-0.045469616
32	0xbe835886	-0.25653476
33	0x3e41d4a3	0.1892877
34	0x3d9c7546	0.07639556
35	0xbed908b4	-0.42389452
36	0xbf9fd7ea	-1.2487767
37	0x3f77bfb0	0.96776867
38	0xbea528bd	-0.32257643
39	0xbcd9040a	-0.026491184
40	0xc0bad014	-5.8379
41	0x40afbda0	5.4918976
42	0x3f765ca3	0.962351
43	0x3dea0cdb	0.11428233
44	0xbecf0776	-0.4043538
45	0xbe5c0cdc	-0.2148928
46	0xbcc3abe6	-0.023885678
47	0xbcec3de3	-0.028838104
48	0x3de483e8	0.111579716
49	0x3dc72b59	0.09725065
50	0xbcbd36c1	-0.023097398
51	0xbe47c9b7	-0.19510542
52	0xbcd14e68	-0.025550082
53	0xbc71fd30	-0.014769837
54	0xbda1020b	-0.07861718
55	0xbc6f0667	-0.014588929
56	0x3ed25a6b	0.41084608
57	0xbf1c648f	-0.6109094
58	0xbe106eb0	-0.14104724
59	0xbcd7fa03	-0.026364332
60	0x3bb9002f	0.005645774
61	0x3e8578eb	0.26068816
62	0xbce331c9	-0.0277337
63	0xbcb18646	-0.021670472
64	0xbea7ea82	-0.32796103
65	0x3d343190	0.04399258
66	0xbce0cc4d	-0.027441168
67	0x3c480eb8	0.0122105405
68	0x3eb65a0c	0.35615575
69	0x3d844b7b	0.06459709
70	0xbccf9302	-0.025338653
71	0xbe312694	-0.17299873
72	0xbfe12c27	-1.7591599
73	0x3fb86460	1.4405632
74	0xbcc9b7b1	-0.024623724
75	0xbd7dd872	-0.061973996
76	0x3dd3d68b	0.10343655
77	0xbdb05a88	-0.086110175
78	0x3cec6857	0.028858347
79	0xbe7f2b47	-0.24918853
80	0xbea630f8	-0.32459235
81	0xbddd3865	-0.10801772
82	0xbcf44c17	-0.029821439
83	0x3c67d40e	0.014149679
84	0x39041656	0.00012596822
85	0x3ca71619	0.02039628
86	0xbdc9c28d	-0.09851561
87	0xbd8c3ef3	-0.06847944
88	0xbf0e8f52	-0.5568744
89	0x3efe9248	0.4972098
90	0x3d423b79	0.04742
91	0xbe8e6d49	-0.27817753
92	0x403395d1	2.806019
93	0xc07b21fd	-3.9239495
94	0x3ba75869	0.005106975
95	0x3f0dfc0d	0.55462724
96	0x3eec17d5	0.46111932
97	0xbeb643a5	-0.35598484
98	0xbc2c56fb	-0.010518785
99	0xbb885b33	-0.0041612624
100	0xbcb8978c	-0.0225332
101	0xbe07248a	-0.13197532
102	0xbdf43cb7	-0.11925643
103	0xbd83771b	-0.06419202
104	0x40be25ba	5.9421053
105	0xc0ae40d7	-5.445415
106	0xbf817db7	-1.011649
107	0x3f286f45	0.65794784
108	0xbe5c2889	-0.21499838
109	0xbe85daa3	-0.2614337
110	0xbce7b241	-0.02828324
111	0xbcf74c32	-0.0301877
112	0xbfe2bde5	-1.7714201
113	0x3fd18ed7	1.6371716
114	0xbbb3c531	-0.0054861535
115	0xbe3c8b35	-0.18412478
116	0xbe4342fc	-0.19068521
117	0x3ddc05c5	0.10743288
118	0x3c6f3cd8	0.014601909
119	0xbe6e7a07	-0.23288737
120	0xc012950b	-2.2903469
121	0x3f96cfa2	1.1782115
122	0x3ed07563	0.4071456
123	0xbea78176	-0.32715958
124	0xbdc60aea	-0.096700504
125	0x3e3a73d6	0.1820825
126	0x3bb6363c	0.0055606645
127	0xbe14f759	-0.1454748
128	0x3dc861cc	0.09784278
129	0xbf333832	-0.7000762
130	0x3d0be4ad	0.03415363
131	0xbe77e124	-0.24206978
132	0xc00f6e78	-2.2411175
133	0x40065d3d	2.0994408
134	0x3f00794b	0.5018508
135	0xbdbe4361	-0.09290195
136	0x3ee77816	0.45208806
137	0x3eb85a1c	0.36006248
138	0x3f47df01	0.7807465
139	0x3df95c59	0.12175817
140	0x3e506cf1	0.20354058
141	0xbf7778e2	-0.9666883
142	0xbfa520ce	-1.2900636
143	0xbabfee27	-0.0014643118
144	0x3e280cf6	0.16411194
145	0xbddff609	-0.10935599
146	0xbdb9ba11	-0.090686925
147	0xbb888bad	-0.0041670413
148	0xc0822613	-4.0671477
149	0xc0c45399	-6.135205
150	0xbf5ec1b1	-0.870143
151	0x3c65c811	0.01402475
152	0xbf249d7b	-0.64302796
153	0xbc899e1f	-0.01679903
154	0xbca542e0	-0.02017349
155	0x3c0ad1f2	0.008472906
156	0xbfc49f24	-1.5361066
157	0x403f7a6b	2.9918468
158	0x3ec9617a	0.3933218
159	0xbe069d62	-0.13145974
160	0xbebe10d6	-0.3712222
161	0xbd7996b3	-0.060934734
162	0xbf85f660	-1.0465813
163	0xbbac8209	-0.005264525
164	0xbfac3ab5	-1.3455416
165	0x402b3c38	2.6755505
166	0x3f865e89	1.04976
167	0x3f368b72	0.71306527
168	0xbec970a8	-0.39343762
169	0x3e1dba3b	0.15403073
170	0xbd12ee70	-0.035871923
171	0xbb654c03	-0.0034987933
172	0xbe12637b	-0.14295761
173	0x3d67057f	0.056401726
174	0xbc498810	-0.012300506
175	0x3b7619e9	0.0037552065
176	0x3df5add0	0.11996043
177	0xbde32a7f	-0.1109209
178	0xbe3f901b	-0.18707316
179	0xbd0b4630	-0.034002483
180	0xbf7814af	-0.9690656
181	0xc03524e3	-2.8303764
182	0xc0091842	-2.1421056
183	0x3ee9c980	0.45661545
184	0x3d3de9b7	0.046365466
185	0x3d7bfdf6	0.061521493
186	0xbd85f60c	-0.0654107
187	0x3b97f24e	0.0046370393
188	0xbdbef13c	-0.093233556
189	0x3d496763	0.049170863
190	0xbc7dd0e8	-0.015491702
191	0xba24dcb7	-0.00062889926
192	0xbf58a173	-0.8462135
193	0x3b463ef9	0.0030249937
194	0xbef9c12a	-0.48780185
195	0x3be36ed6	0.006940703
196	0xbda57f34	-0.08080903
197	0xbed79690	-0.42107058
198	0xbdb0a0c7	-0.08624416
199	0x3a37d358	0.00070123887
200	0x3df7f719	0.12107677
201	0xbf1ab9a9	-0.60439545
202	0xbf868662	-1.050976
203	0xbcce6388	-0.025193945
204	0x3d4d6327	0.050143387
205	0xbe895ceb	-0.26828703
206	0xbea24174	-0.31690562
207	0x3c2b78df	0.01046583
208	0xbf3443e5	-0.704161
209	0x3fbbbde1	1.4667321
210	0xbe1180d6	-0.14209303
211	0xbd8664e7	-0.06562214
212	0x3d215a19	0.039392564
213	0xbdaa1eee	-0.083066806
214	0xbdb5c0f3	-0.08874693
215	0xbd8b93ce	-0.06815301
216	0xbf88d910	-1.0691242
217	0x3fbf0934	1.4924684
218	0x3da00b33	0.07814636
219	0xbebe28fe	-0.3714065
220	0x3df77bb0	0.120841384
221	0xbdf82c5d	-0.121178366
222	0x3b58470f	0.0033001339
223	0xbba5252c	-0.0050398316
224	0xbecd640d	-0.40115395
225	0x3d775281	0.060381416
226	0xbe93808c	-0.2880901
227	0xbc607d2a	-0.013701716
228	0xbd60f7db	-0.054923873
229	0xbdcb6167	-0.099306874
230	0xbd6b0c47	-0.057384755
231	0xbe5da620	-0.21645403
232	0xc016962d	-2.352916
233	0x4084c03b	4.1484656
234	0xbeb0f98b	-0.34565386
235	0xbdbe9172	-0.09305085
236	0xc04a61cd	-3.1622193
237	0x3f35defd	0.7104338
238	0x3f82b3e5	1.021115
239	0x3d8f1392	0.069861546
240	0x3d8d99a3	0.069140695
241	0x3d8de36f	0.06928145
242	0x3c80de01	0.01573086
243	0xbe10b3b3	-0.1413105
244	0x3dc35364	0.0953739
245	0x3d4a9857	0.04946169
246	0xbe90a7cc	-0.2825302
247	0x3c14ff5d	0.0090940865
248	0xbe01f174	-0.12689763
249	0xbdc34b21	-0.09535814
250	0xbc189959	-0.009313905
251	0x3bf5acc4	0.007497402
252	0x3e1d0dca	0.15337291
253	0x3e07550c	0.13216037
254	0x3d3ae33e	0.04562687
255	0xbe6021f8	-0.21887958

fc1.bias f4 [64]
0	0xbee77c4c	-0.45212018
1	0x3e4eac8e	0.20183012
2	0x3e769500	0.24080276
3	0xbf0c35cb	-0.5476958
4	0x3e8f7305	0.2801744
5	0x3e16f97f	0.14743613
6	0xbf528a4d	-0.8224228
7	0xbed108b0	-0.4082694
8	0xbf4fe1f9	-0.8120418
9	0xbe32a7f7	-0.17446886
10	0xbe9ca44c	-0.305941
11	0xbf1ec328	-0.62016535
12	0x3e9d568c	0.30730093
13	0x3e4f6550	0.20253491
14	0x3ea631a7	0.32459757
15	0x3ea5620c	0.32301366
16	0xbed258f7	-0.410835
17	0xbed5a63e	-0.41728395
18	0x3eacffb4	0.33788836
19	0x3e0b2838	0.13589561
20	0xbeda482a	-0.42633182
21	0xbe9688f4	-0.29401362
22	0xbea1a1ef	-0.31568858
23	0x3f72463f	0.9463844
24	0xbeb9682a	-0.36212283
25	0x3eb958f0	0.36200666
26	0x3ecf8a95	0.40535417
27	0xbe673119	-0.22577323
28	0x3e0f0106	0.13965234
29	0xbdb17560	-0.08664966
30	0xbee9d778	-0.45672202
31	0xbd1f4fa5	-0.038894314
32	0xbf031685	-0.5120624
33	0xbba88d53	-0.0051438003
34	0x3e94ca02	0.2906037
35	0xbe4c8588	-0.19972813
36	0xbe1ec5ac	-0.15505093
37	0xbf05abbb	-0.52215165
38	0xbe914163	-0.283702
39	0x3dd163e0	0.10224128
40	0x3e155c6d	0.14586039
41	0x3f4d9c20	0.8031635
42	0xbd86f791	-0.06590188
43	0xbe2d8863	-0.16946559
44	0x3e751f90	0.23937821
45	0x3f15b124	0.5847342
46	0xbe5257cf	-0.20541309
47	0xbd5541e2	-0.052064784
48	0xbe62f63c	-0.22164243
49	0xbcc63176	-0.024193507
50	0x3ee345b7	0.44389126
51	0xbedd6fd6	-0.43249387
52	0x3e86aef8	0.26305366
53	0x3eecc21a	0.46241838
54	0xbf175da6	-0.5912727
55	0xbe9d639a	-0.30740052
56	0x3eb33648	0.3500235
57	0xbd5670e0	-0.05235374
58	0x3f209da3	0.62740535
59	0x3e6e82c5	0.23292072
60	0xbe975a00	-0.29560852
61	0xbeceef14	-0.40416777
62	0xbe6a6fc3	-0.22894196
63	0xbf344193	-0.7041256

fc2.weight f4 [256, 64]
0	0x3dfcd2df	0.12344908
1	0x3b82f44d	0.003996408
2	0x3dc0afbb	0.09408518
3	0x3aad583b	0.0013225147
4	0xbd3207ac	-0.043464348
5	0xbd5bc3d5	-0.053653557
6	0xbdc89bfb	-0.09795376
7	0x3d51ede5	0.051252265
8	0xbd8a3ce3	-0.067498945
9	0xbe425526	-0.18977794
10	0xbdab988c	-0.083787054
11	0x3d3e51d0	0.04646474
12	0xbbfa1dcd	-0.007632947
13	0xbddfafe3	-0.109222196
14	0x3e3e022b	0.18555515
15	0xbe2c22b0	-0.16810107
16	0xbbffb43d	-0.0078034685
17	0xbdf49645	-0.11942724
18	0xbc820d3c	-0.015875451
19	0x3b227ab3	0.0024792373
20	0xbb2a623b	-0.0025998491
21	0x3dc51329	0.09622795
22	0xbcb38e73	-0.021918511
23	0xbdf0ec6a	-0.117638424
24	0x3dfc5f98	0.123229206
25	0x3d0a1914	0.033715323
26	0xbd0dafa2	-0.034591325
27	0x3e07717e	0.13226888
28	0xbe05eb81	-0.13078119
29	0x3e509b3f	0.20371722
30	0x3d474b8a	0.048656024
31	0x3d554c8d	0.052074958
32	0x3aff437e	0.001947507
33	0xbe0f7b8c	-0.14011973
34	0xbe2c2d6a	-0.16814199
35	0xbe1df6ff	-0.15426253
36	0xbca6e697	-0.020373626
37	0xbcac2619	-0.02101426
38	0x3ca70526	0.020388197
39	0x3de67bd7	0.11254089
40	0xbd0fdd0b	-0.035122912
41	0xbdbe453a	-0.09290548
42	0xbdcbef2a	-0.09957726
43	0xbd9f80c3	-0.07788231
44	0xbc79fde7	-0.015258289
45	0x3d59ae4d	0.05314474
46	0x3e02ad2d	0.12761374
47	0xbd1d8ec7	-0.03846624
48	0xbcf77f90	-0.030212194
49	0x3ce77cb7	0.02825771
50	0x3d883380	0.06650448
51	0xbd40c01d	-0.047058214
52	0xbda73d72	-0.08166017
53	0xbdee1be7	-0.11626416
54	0xbe2d1266	-0.1690155
55	0xbdb286ef	-0.08717143
56	0xbd9ce881	-0.07661534
57	0x3d38ff07	0.045165088
58	0x3e49f7e2	0.19723466
59	0xbe4d1240	-0.20026493
60	0xbdc01351	-0.09378684
61	0xbe27881f	-0.1636052
62	0xbe3db73d	-0.18526931
63	0xbca3b648	-0.01998438
64	0xbde19bad	-0.11016021
65	0xbd79efa9	-0.061019573
66	0x3c674e73	0.014117825
67	0x3c913422	0.017725054
68	0xbe437ec2	-0.19091323
69	0x3da3b2e3	0.07993104
70	0xbdd5cb76	-0.10439198
71	0xbc03f371	-0.008053646
72	0x3d419a05	0.047266025
73	0xbd2f51fb	-0.042802792
74	0xbe27f719	-0.16402854
75	0x3d89a183	0.06720259
76	0x3bc7c381	0.006096304
77	0x3e447be3	0.19187884
78	0xbd0bb7b4	-0.03411074
79	0xbbf73b01	-0.0075448756
80	0xbda370ff	-0.07980537
81	0xbd8a5cbb	-0.06755968
82	0xbe0aee8c	-0.13567561
83	0x3d61ac1d	0.05509578
84	0x3d8c0dc6	0.068385646
85	0xba569a47	-0.0008186441
86	0xbc760ba8	-0.0150174275
87	0xbddd9f93	-0.10821452
88	0x3b64c79f	0.0034909023
89	0xbd7997a0	-0.060935616
90	0xbdd71762	-0.10502507
91	0x3d824c2a	0.063621834
92	0x3d86f718	0.06590098
93	0xbd02b390	-0.031909525
94	0x3ca02889	0.019550579
95	0x3c8252c2	0.015908603
96	0x3ddb2738	0.1070084
97	0xbe3e5824	-0.1858831
98	0xbdf568f8	-0.11982912
99	0xbd34d771	-0.044150773
100	0xbd481b03	-0.048853885
101	0x3d600512	0.054692335
102	0xbe120a2d	-0.14261694
103	0xbd58c996	-0.052926622
104	0x3dcfc928	0.101457894
105	0xbe96b652	-0.29435974
106	0xbd470998	-0.048593134
107	0xbb205833	-0.0024466633
108	0x3d311547	0.043233182
109	0x3c6392ea	0.0138900075
110	0x3cd82cd7	0.026388569
111	0x3e39fb69	0.18162312
112	0xbe106516	-0.14101061
113	0xbe1ecf5e	-0.15508792
114	0xbdefffae	-0.11718689
115	0xbe12a2d1	-0.14319922
116	0xbacf9f75	-0.0015840369
117	0xbe18c5fb	-0.14919274
118	0xbdfb72a7	-0.122777276
119	0xbe95888f	-0.29205748
120	0xbea1d73d	-0.31609526
121	0x3b0a01f4	0.0021058293
122	0x3d3fbcde	0.046810977
123	0xbd916d12	-0.07100882
124	0xbcec8f0a	-0.0288768
125	0x3c95de26	0.018294405
126	0x3dafd73c	0.085859746
127	0xbd449724	-0.0479957
128	0xbccdd5ea	-0.025126416
129	0x3c01c881	0.007921339
130	0xbd037cdc	-0.032101497
131	0xbe28f0f0	-0.1649816
132	0xbda3b8b9	-0.079942174
133	0x3bc60f61	0.006044314
134	0xbd779f88	-0.060454875
135	0x3c9c3b2c	0.019071184
136	0x3da0ff31	0.07861174
137	0xbd7926ac	-0.060827896
138	0xbd696162	-0.056977637
139	0xbc7b0a56	-0.0153222885
140	0x3d5b635b	0.05356155
141	0xbdec13db	-0.11527225
142	0x3cc58317	0.02411036
143	0x3c7a163a	0.015264088
144	0xbe15535a	-0.14582577
145	0xbd991254	-0.07474199
146	0x3db93fc3	0.09045365
147	0x3d4cb3b5	0.04997607
148	0x3d3483ba	0.044070937
149	0xbd1f505f	-0.038895007
150	0xbe87196d	-0.26386586
151	0xba498aac	-0.0007688205
152	0xbe17b0e4	-0.14813572
153	0xbdf5db2d	-0.12004695
154	0xbbef70e7	-0.00730716
155	0x3e2fa54b	0.17152898
156	0xbe2ea217	-0.1705402
157	0xbdce2895	-0.10066334
158	0x3e36a3c8	0.17835915
159	0x3dcdfb0a	0.100576475
160	0xbe2f0374	-0.17091161
161	0xbcac0696	-0.020999234
162	0xbc104fc3	-0.008808079
163	0xbb9244d3	-0.004463771
164	0xbd9f2bd1	-0.07772029
165	0xbe3b75b4	-0.18306619
166	0xbdb9f1ae	-0.090793
167	0x3c4332b7	0.011913947
168	0xbd78a943	-0.060708296
169	0xbcef4f15	-0.029212514
170	0x3da397b0	0.079879165
171	0x3dcaa38a	0.09894474
172	0x3db70c27	0.08937865
173	0xbd5aed3b	-0.053448897
174	0x3c8888ca	0.016666789
175	0xbb685110	-0.0035448708
176	0x3bf42bc7	0.0074515077
177	0x3c93e5d2	0.018053923
178	0xbd9b60b8	-0.07586807
179	0x3d48bfff	0.049011227
180	0x3d9bd5de	0.07609151
181	0xbbe18e37	-0.0068834084
182	0xbc8cb199	-0.017174529
183	0xbe0a661e	-0.13515517
184	0xbcb2e2b3	-0.021836614
185	0x3c3d5cf4	0.011557806
186	0xbd975f42	-0.07391216
187	0xbda61e7f	-0.081112854
188	0x3d9b9793	0.0759727
189	0x3dcaea3b	0.09907957
190	0x3deb8d55	0.11501566
191	0x3d971f33	0.07378998
192	0xbdba4c8d	-0.09096632
193	0xbe0bc469	-0.13649143
194	0x3e6123bf	0.21986292
195	0xbda18087	-0.07885843
196	0xbe45c439	-0.19313134
197	0x3d7ebd30	0.062192142
198	0xbdfa6c6e	-0.122277126
199	0xbdd35095	-0.10318104
200	0xbccf7d89	-0.025328415
201	0x3d1126e4	0.03543748
202	0x3d0a7b92	0.033809252
203	0x3d0f2430	0.03494662
204	0x3b84880b	0.004044538
205	0xbd88d1b3	-0.06680622
206	0x3c10fbb4	0.008849073
207	0xbd9c6c3c	-0.076378316
208	0x3c444563	0.011979434
209	0x3c043993	0.008070367
210	0x3de570a3	0.112031244
211	0x3d2e0f73	0.042495202
212	0xbdfbb86e	-0.122910365
213	0x3d08d36f	0.033404764
214	0xbd808da4	-0.06277016
215	0xbdfa3166	-0.12216453
216	0xbdc1d1c6	-0.09463839
217	0x3d061287	0.032732513
218	0x3b8f3cba	0.004371253
219	0xbe4d88fe	-0.2007179
220	0x3d9ee2e6	0.07758121
221	0xbe12b293	-0.14325933
222	0x3d605bf2	0.054775186
223	0x3c0d8365	0.008637284
224	0xbdb7caa7	-0.089742
225	0xbd32de38	-0.043668956
226	0xbc3cd754	-0.011525948
227	0xbe00dfd3	-0.12585382
228	0x3e5d6ede	0.21624324
229	0x3da3b75c	0.079939574
230	0xbd9c7d04	-0.07641032
231	0xbdd00c7f	-0.101586334
232	0x3de9c6ad	0.114148475
233	0xbda4c49f	-0.08045315
234	0x3da8b982	0.08238508
235	0xbd5d886a	-0.054085173
236	0x3bed6c8b	0.0072456053
237	0x394846f7	0.00019099923
238	0xbdc4d174	-0.096102625
239	0x3cea8e65	0.028632352
240	0x3cee9a90	0.029126436
241	0x3dcde794	0.10053936
242	0xbde60e68	-0.112332165
243	0x3ca260a2	0.019821469
244	0x3d337896	0.04381617
245	0x3d9803c9	0.07422597
246	0xbd171f1b	-0.0368949
247	0xbd4692f9	-0.048480008
248	0xbe1751d1	-0.14777304
249	0xbd56f69b	-0.052481275
250	0xbcf53980	-0.029934645
251	0xbbbb8884	-0.005723061
252	0x3db545da	0.08851214
253	0x3ba71bac	0.0050997343
254	0xbbc40420	-0.005981937
255	0xbdf6eda8	-0.12057048

fc2.bias f4 [256]
0	0xbe183c83	-0.14866833
1	0xbd77639d	-0.060397733
2	0xbe1040d4	-0.1408723
3	0xbe4eba68	-0.20188296
4	0x3d7974c8	0.060902387
5	0x3f968e25	1.1762129
6	0x3d4e485a	0.05036197
7	0xbb7c5a44	-0.003850595
8	0xbd82473c	-0.06361243
9	0xbd28f268	-0.0412468
10	0xbe87d008	-0.26525903
11	0xbd087da8	-0.03332296
12	0x3f0a2274	0.5395882
13	0x3ad40fac	0.0016178987
14	0xbde4eda4	-0.11178139
15	0xbdcdc834	-0.10047951
16	0xbeb1490e	-0.3462605
17	0xbe13024b	-0.14356343
18	0x3e1f6ab3	0.15568046
19	0xbeb8779c	-0.36028755
20	0xbc02f601	-0.007993222
21	0xbd635163	-0.05549754
22	0xbe2e46ae	-0.1701915
23	0xbe29f222	-0.16596273
24	0x3cde5c5f	0.027143655
25	0x3d71a950	0.05899936
26	0x3f203816	0.6258558
27	0xbd9980d3	-0.074952744
28	0xbe0a06b3	-0.13479118
29	0xbe196ede	-0.14983699
30	0xbe92550a	-0.28580505
31	0x3f243628	0.64145136
32	0xbe1dd1ca	-0.1541206
33	0x3c896e1a	0.016776133
34	0xbe4d8d5f	-0.2007346
35	0xbd26466e	-0.04059451
36	0x3d27f57c	0.041005597
37	0xbe44d4bc	-0.19221777
38	0xbcb8d865	-0.022564122
39	0xbe3d4eb6	-0.18487057
40	0xbf0cbaa6	-0.549723
41	0x3cbde4b5	0.023180345
42	0xbe57455f	-0.21022557
43	0xbe2d2334	-0.1690796
44	0xbd93b313	-0.0721189
45	0xbe28b8ba	-0.16476718
46	0x3cfcf9ba	0.030880798
47	0xbe732733	-0.23745422
48	0xbe18c5be	-0.14919183
49	0xbd6f7bdd	-0.058467735
50	0xbe1eca15	-0.15506776
51	0xbdad62fc	-0.084661454
52	0x3de097b4	0.10966435
53	0x3c7ddd98	0.015494727
54	0xbd9ea213	-0.07745757
55	0xbe58e135	-0.2117966
56	0xbe01ef35	-0.12688906
57	0xbe356e58	-0.17717874
58	0xbe35fd2c	-0.17772359
59	0xbd8d9bb4	-0.06914464
60	0xbe064a67	-0.1311432
61	0xbf2972cb	-0.66190785
62	0x3d92fca6	0.07177095
63	0xbc2def05	-0.010616069
64	0xbe3b55d6	-0.18294463
65	0x3bb49df7	0.005511995
66	0xbe244521	-0.16041996
67	0xbd96cb34	-0.07362977
68	0xbca0aec2	-0.019614581
69	0xbe694716	-0.22781023
70	0xbe365b77	-0.17808329
71	0xbe3a2e89	-0.18181814
72	0xbd541f10	-0.051787436
73	0x3f123079	0.57105213
74	0xbebe8599	-0.37211302
75	0xbe407ff1	-0.18798806
76	0x3d5f5984	0.054528728
77	0xbe111158	-0.14166772
78	0xbe09df05	-0.13463981
79	0xbda78050	-0.081787705
80	0xbda8aa61	-0.08235622
81	0x3d445eb1	0.047941867
82	0xbe3a6ac4	-0.1820479
83	0x3ccf39ad	0.025296057
84	0xbd67a928	-0.056557804
85	0x3d5e36a7	0.05425134
86	0xbc4d34f4	-0.012524832
87	0xbd7911d6	-0.060808025
88	0x3deefb95	0.11669079
89	0xbe2d3c02	-0.16917422
90	0xbd88e092	-0.066834584
91	0xbe1be1bb	-0.15222828
92	0x3dd1fdf9	0.102535196
93	0xbc547be1	-0.012968988
94	0xbe088893	-0.13333349
95	0x3de67d70	0.11254394
96	0xbea2c2bb	-0.31789193
97	0xbe37225b	-0.178842
98	0x3d0affc6	0.03393533
99	0xbcc8ee8a	-0.024527807
100	0xbddd563b	-0.10807463
101	0x3b9cfbec	0.0047907736
102	0xbe30100f	-0.17193626
103	0x3d702fa4	0.058639184
104	0xbe15f0c6	-0.14642629
105	0xbd1af6c1	-0.03783298
106	0xbeaac3c2	-0.33352476
107	0x3c735329	0.01485137
108	0xbdad2ca9	-0.08455784
109	0x3d1eae15	0.038740236
110	0xbd887459	-0.066628166
111	0x3d42fc65	0.047603983
112	0xbeaf82ce	-0.34279484
113	0x3ce937e0	0.028469026
114	0xbe110d8b	-0.14165322
115	0xbe1d146a	-0.15339819
116	0x3f57ff7f	0.8437423
117	0x3f025948	0.5091748
118	0x3dbbefa7	0.091765694
119	0xbb8e4f11	-0.0043429215
120	0x3d722644	0.059118524
121	0xbe47d778	-0.19515789
122	0x3c99bc6c	0.018766604
123	0x3ca46197	0.020066066
124	0xbd6f8a38	-0.058481425
125	0xbc2fd8cf	-0.010732844
126	0xbceec1f0	-0.029145211
127	0xbdee7ac1	-0.11644507
128	0xbcd6527f	-0.026162384
129	0x3e88f36e	0.26748222
130	0x3d46558a	0.04842142
131	0xbe1e9e03	-0.15489964
132	0xbe905398	-0.28188777
133	0xbd5b33c3	-0.05351616
134	0xbe196eed	-0.14983721
135	0xbe1f43a3	-0.15553145
136	0xbd3306ca	-0.043707646
137	0xbe3fba4f	-0.18723415
138	0xbda39fca	-0.07989462
139	0xbd92a4fc	-0.071603745
140	0xbceeb6fa	-0.029139984
141	0x3d130ac6	0.035898946
142	0xbc49a823	-0.012308153
143	0xbd774538	-0.060368747
144	0xbe9ef393	-0.31045207
145	0xbe635969	-0.22202076
146	0xbe223c04	-0.15843207
147	0x3d4a8558	0.049443573
148	0xbe87e85a	-0.26544458
149	0x3c0c8893	0.008577484
150	0x3ea666c6	0.32500285
151	0xbd2520b1	-0.04031438
152	0xbe2d9586	-0.1695157
153	0xbe257c10	-0.16160607
154	0xbd863749	-0.065535136
155	0x3edcc8de	0.43122
156	0xbcaaa82f	-0.02083215
157	0xbe9cdb52	-0.30636078
158	0xbc547824	-0.012968097
159	0xbd03cc91	-0.03217751
160	0x3e4d0f2f	0.20025323
161	0xbe0d4191	-0.13794543
162	0xbd492d9d	-0.049115766
163	0xbd22a049	-0.03970364
164	0xbe115db5	-0.14195903
165	0xbd259f0e	-0.04043489
166	0xbe848733	-0.258844
167	0x3d86993a	0.065721944
168	0xbd6676b3	-0.056265544
169	0xbe1d0811	-0.15335108
170	0xbe9d0b49	-0.30672672
171	0xbe29d1f0	-0.16583991
172	0xbca5378c	-0.020168088
173	0xbf815226	-1.0103195
174	0xbd6c41a2	-0.05767978
175	0xbc851f26	-0.016250204
176	0x3c78893d	0.015169439
177	0xbb2bec40	-0.0026233345
178	0x3d5c31b4	0.053758338
179	0xbe5c9fb9	-0.21545304
180	0x3cadd34c	0.021218918
181	0xbe5b1795	-0.21395715
182	0x3f9e21e9	1.2354099
183	0x3cf67799	0.030086325
184	0xbeb9c4b2	-0.3628288
185	0xbd17eda5	-0.03709187
186	0xbe133e1a	-0.14379159
187	0x3e40329d	0.18769307
188	0xbec9e79d	-0.3943452
189	0xbcdcdf26	-0.026961874
190	0x3e359f52	0.17736557
191	0xbe0525fe	-0.13002774
192	0xbde209dd	-0.110370375
193	0xbdc9b5e5	-0.09849147
194	0xbd7a307e	-0.061081402
195	0x3dacbc40	0.08434343
196	0xbdbcbd2a	-0.09215768
197	0xbd34dbe5	-0.04415502
198	0x3d1305ca	0.035894193
199	0xbe269b42	-0.16270164
200	0xbe37347c	-0.17891115
201	0xbd6b257e	-0.057408802
202	0x3d5b67a2	0.05356563
203	0xbc7c2a5e	-0.0153909605
204	0x3ebdb02f	0.3704848
205	0x3ce89e8e	0.028395917
206	0x3f42ffba	0.7617146
207	0xbd5c87bb	-0.05384038
208	0x3c2f22d8	0.01068946
209	0x3e440769	0.19143452
210	0x3eb197be	0.34686083
211	0xbe3c4a20	-0.18387651
212	0xbdc37be2	-0.09545113
213	0xbe1af8b3	-0.15133934
214	0xbec2c55e	-0.38041204
215	0xbd3be7d1	-0.045875374
216	0xbe6e1ddb	-0.23253576
217	0x3dfe1f76	0.124083444
218	0x3eab7f88	0.33495736
219	0x3cc32a21	0.0238238
220	0xbd031947	-0.03200653
221	0x3c47d71f	0.012197285
222	0x3d8c0cce	0.0683838
223	0x3d9c88d3	0.07643285
224	0xbe4e7840	-0.20163059
225	0xbe690570	-0.2275598
226	0xbdb63c96	-0.088982746
227	0xbeb7dcdc	-0.3591069
228	0x3e1093d5	0.14118893
229	0x3e995b19	0.29952314
230	0xbe009c4e	-0.12559626
231	0xbd53d8b0	-0.05172032
232	0xbe796bd9	-0.24357547
233	0xbdf3b66a	-0.11900027
234	0xbd9e3c5c	-0.077263564
235	0xbe06b44e	-0.13154718
236	0xbe6016da	-0.21883717
237	0xbd87de62	-0.06634213
238	0x3ce0356b	0.027369222
239	0xbdff08b5	-0.124528326
240	0xbd076d8e	-0.033063464
241	0xbdd0b7df	-0.10191321
242	0xbe588334	-0.211438
243	0x3e8b1768	0.27166295
244	0x3fef6637	1.8703068
245	0xbe8d2bbf	-0.27572438
246	0xbe099f79	-0.1343974
247	0xbe9dcf70	-0.30822325
248	0x3d85855a	0.065195754
249	0xbdc45252	-0.09586014
250	0xbc4de475	-0.012566675
251	0xbe6e67db	-0.23281805
252	0xbeef82c4	-0.46779454
253	0xbca75412	-0.02042583
254	0x3e1a2abd	0.15055366
255	0x3b912fcd	0.004430747

fc3.weight f4 [8, 256]
0	0x3d04c72f	0.03241652
1	0xbd4fc1eb	-0.050722044
2	0x3d16f451	0.036854092
3	0xbd9b93ae	-0.07596527
4	0x3f14e3dc	0.58160186
5	0x3f8ee99d	1.1165043
6	0x3de5afb5	0.11215154
7	0xbdafd6f6	-0.085859224
8	0x3da22123	0.079164766
9	0xbd73c11d	-0.05951034
10	0xbd378453	-0.04480393
11	0x3ddaabd6	0.10677306
12	0x3e44ddd3	0.19225244
13	0xbdef4246	-0.116825625
14	0x3deb058b	0.114756666
15	0x3d957215	0.0729715
16	0x3ef4c376	0.47805375
17	0xbd531fb4	-0.051543906
18	0x3e88c910	0.267159
19	0x3dae27b4	0.085036665
20	0xbc5885c3	-0.013215485
21	0xbdda818a	-0.10669239
22	0xbcb55825	-0.022136757
23	0x3d96fc39	0.073723264
24	0xbb9758d7	-0.004618745
25	0xbe8964c2	-0.26834685
26	0x3e98ed96	0.29868764
27	0x3d332fd5	0.043746788
28	0xbd86336e	-0.06552778
29	0xbd2752e7	-0.040850546
30	0x3e7102af	0.2353618
31	0x3f23c421	0.63971144
32	0x3dbb6f9d	0.09152148
33	0xbd3d1343	-0.046160948
34	0x3e09aebc	0.13445562
35	0xbe66d7ff	-0.22543333
36	0x3d97490e	0.07386981
37	0xbdfd96b8	-0.12382263
38	0x3d0fa7ac	0.035072014
39	0x3e594c5a	0.21220532
40	0x3ecdce9c	0.40196693
41	0x3dbbe466	0.09174423
42	0xbf0746e7	-0.52842563
43	0x3d515a32	0.051111408
44	0xbd940a84	-0.07228568
45	0xbe6eb5d0	-0.23311543
46	0x3cbe9481	0.023264172
47	0x3e8196c4	0.25310338
48	0x3d92e61d	0.07172797
49	0xbd8c26ef	-0.068433635
50	0x3d39873b	0.04529498
51	0x3cef24c0	0.029192328
52	0xbd8af7f8	-0.067855775
53	0x3d22451e	0.039616697
54	0xba4ad6f8	-0.00077377213
55	0xbcd263d9	-0.025682377
56	0xbbf7923d	-0.0075552748
57	0xbd847e17	-0.06469362
58	0x3cf4e009	0.029891985
59	0xbc35a4da	-0.011086667
60	0x3e0cc273	0.13746051
61	0xbf25d385	-0.6477588
62	0xbef6c32a	-0.48195773
63	0x3e1c3f1d	0.15258451
64	0x3d10d46e	0.03535884
65	0x3cc37380	0.023858786
66	0xbea5ee5b	-0.32408413
67	0x3cd6ce17	0.026221318
68	0xbe1b0cd9	-0.1514162
69	0xbd37ec80	-0.04490328
70	0xbd10894e	-0.035287194
71	0x3e37470d	0.17898197
72	0xbd1836f4	-0.037161782
73	0x3f4dfbab	0.8046214
74	0x3e6b57ff	0.22982787
75	0x3b6d3582	0.0036195223
76	0x3e82c3b2	0.2553993
77	0x3e4fdc37	0.20298849
78	0x3e893929	0.26801422
79	0x3dddf830	0.10838354
80	0x3ec43816	0.3832404
81	0xbd966fc5	-0.07345537
82	0xbe6204f0	-0.22072196
83	0xbd4bc717	-0.049750414
84	0x3e3256e3	0.17415957
85	0x3f158650	0.5840807
86	0xbdc76691	-0.0973636
87	0x3c9b8c86	0.018987905
88	0x3c6a4414	0.014298458
89	0x3bb42e6b	0.0054986975
90	0x3cf9e788	0.03050591
91	0xbcdf791d	-0.027279431
92	0xbf0ba491	-0.54547983
93	0x3de7ff6f	0.11328017
94	0xbe4db274	-0.20087606
95	0x3ea313b6	0.31850976
96	0x3ddbce4a	0.10732706
97	0x3d75bf5a	0.05999694
98	0x3c66d75d	0.014089433
99	0x3c8ed958	0.017437622
100	0x3d57d4f8	0.052693337
101	0x3dfb7a57	0.12279194
102	0xbc1a9645	-0.009435241
103	0xbe2625e5	-0.16225393
104	0x3c540a95	0.012941976
105	0xbd8050b3	-0.06265392
106	0xbe9fb8c7	-0.3119566
107	0x3cc51bd5	0.024061123
108	0x3e50579a	0.20345917
109	0xbd404c0e	-0.04694753
110	0x3d96f558	0.07371014
111	0x3ec565e4	0.385543
112	0xbea42eed	-0.32067052
113	0x3c01335f	0.007885783
114	0x3ed814f8	0.42203498
115	0x3e15ed5b	0.14641325
116	0xbf062d7e	-0.52413166
117	0x3e1a5b32	0.15073851
118	0xbf16aa95	-0.5885404
119	0xbd84fb53	-0.06493249
120	0x3dcf27bb	0.10115
121	0xbdb5edcc	-0.08883247
122	0x3d4a7dbb	0.049436312
123	0x3c950f2e	0.018195715
124	0xbcd35e74	-0.025801875
125	0xbd1ee74e	-0.038794808
126	0x3d230296	0.039797388
127	0xbd845170	-0.064608455
128	0xbd97180d	-0.07377634
129	0xbcf6eeac	-0.030143104
130	0xbde556fa	-0.1119823
131	0xbc3bb038	-0.011455588
132	0xbe29136d	-0.16511317
133	0xbe0cb8fe	-0.13742444
134	0x3d756dcc	0.059919164
135	0x3ea68b36	0.32528085
136	0xbd61d870	-0.05513805
137	0xbe20a27c	-0.15686983
138	0xbcc9d451	-0.024637373
139	0x3d5eb1c8	0.054368764
140	0x3ceae799	0.028674887
141	0xbdcf8aed	-0.1013392
142	0xbe8d97dd	-0.27654925
143	0xbd89fd07	-0.06737714
144	0x3bbaedf4	0.0057046358
145	0xbdc51167	-0.0962246
146	0xbd7edf3b	-0.062224608
147	0x3c01ffc8	0.007934518
148	0xbbb654ad	-0.0055642934
149	0xbda24876	-0.07923977
150	0x3eb0a7fd	0.34503165
151	0xbe0224e2	-0.12709382
152	0xbce0ae02	-0.027426723
153	0x3d947225	0.07248334
154	0x3ea2f37d	0.31826392
155	0x3ea29f19	0.31762007
156	0xbd995340	-0.07486582
157	0x3b0eeb77	0.0021807828
158	0x3d9fd8a9	0.078049965
159	0x3c9606fc	0.018313877
160	0x3d45147e	0.048115246
161	0x3cd86731	0.026416393
162	0xbed88e4a	-0.42296058
163	0xbc3b2486	-0.011422282
164	0xbe6f3f68	-0.23364031
165	0xbdf3016d	-0.11865506
166	0x3d6f8689	0.058477912
167	0xbc322506	-0.010873085
168	0x3e0d95dd	0.138267
169	0x3ce958da	0.02848475
170	0x3ec949ca	0.3931411
171	0x3d7bf168	0.06150952
172	0xbce39245	-0.027779708
173	0x3ef78967	0.48347017
174	0xbb23a03e	-0.0024967338
175	0xbdd32636	-0.103100225
176	0xbd563480	-0.05229616
177	0xbdd12ce6	-0.10213642
178	0xbe285341	-0.16438009
179	0xbd16e859	-0.036842678
180	0x3c36fd13	0.011168736
181	0xbe06ca96	-0.13163218
182	0x3f318a0b	0.6935126
183	0xbe14b254	-0.14521152
184	0xbde87b3a	-0.113516286
185	0x3f162b41	0.5865975
186	0xbd29e1c9	-0.04147509
187	0xbe73c65b	-0.23806135
188	0xbe6a32bd	-0.22870918
189	0xbc3d125e	-0.011540024
190	0x3e845b1b	0.25850758
191	0xbdb70d14	-0.08938041
192	0xbbdc81c9	-0.006729339
193	0x3e5aca52	0.21366242
194	0xbe30d8fd	-0.17270274
195	0x3f686160	0.9077358
196	0x3dbaaed1	0.09115375
197	0xbdc0466c	-0.09388432
198	0xbd2fbc44	-0.042904153
199	0xbde23ee6	-0.11047153
200	0xbd550c59	-0.05201373
201	0x3e4af79c	0.19821018
202	0xbcd0e548	-0.025499955
203	0xbd9acc28	-0.07558471
204	0x3e150139	0.14551248
205	0x3e27eadc	0.16398185
206	0x3f21b8f7	0.6317286
207	0x3d8c97b7	0.06864875
208	0xbd49c4f4	-0.049260095
209	0xbe307f86	-0.17236146
210	0x3d03f5d5	0.032216866
211	0xbe2a5b08	-0.16636288
212	0x3f236a99	0.6383453
213	0xbbc8cc16	-0.0061278446
214	0xbe82be6f	-0.25535914
215	0x3c3ce636	0.011529496
216	0x3de3bfbe	0.11120556
217	0xbc44a656	-0.012002548
218	0x3c929298	0.017892167
219	0x3d89f3b7	0.06735938
220	0x3d8915a0	0.06693578
221	0x3d8aa254	0.06769243
222	0xbc6cefaf	-0.014461442
223	0xbd102242	-0.03518892
224	0xbcbeefeb	-0.023307761
225	0xbda20cf7	-0.07912629
226	0x3b94fe9f	0.0045469548
227	0xbd927571	-0.071513064
228	0x3dc25e25	0.09490613
229	0x3edd0551	0.4316812
230	0x3d2aa219	0.041658495
231	0x3df7f83f	0.12107896
232	0x3efe8a24	0.49714768
233	0x3e29a302	0.16566089
234	0x3e1cc465	0.15309294
235	0x3dd6b6cc	0.104840845
236	0xbd925dec	-0.071468204
237	0x3c9c0dc4	0.019049533
238	0xbe27ddff	-0.16393279
239	0x3eaf3c01	0.34225467
240	0x3dd49acb	0.10381087
241	0x3d53d55b	0.051717144
242	0xbd6efefa	-0.058348633
243	0x3e49b6ec	0.19698685
244	0x3f2d709e	0.67749965
245	0xbdac92d0	-0.0842644
246	0xbe115602	-0.14192966
247	0x3d869952	0.06572212
248	0x3d22ce07	0.039747264
249	0x3cc099e6	0.023510884
250	0x3d7e4eb8	0.06208679
251	0x3ed22f5e	0.41051763
252	0x3e9310fe	0.28723902
253	0x3d7c033a	0.061526515
254	0xbf2df28e	-0.67948234
255	0x3ddb7638	0.10715908

fc3.bias f4 [8]
0	0x3f527205	0.8220523
1	0x3f7254f6	0.9466089
2	0x3f8e8a93	1.113604
3	0x40262689	2.596102
4	0x3f801bf0	1.0008526
5	0x3f6bb777	0.9207682
6	0x3f0358e3	0.51307505
7	0x3f140e7f	0.5783462
