examples/carla_scenic/Carla_Challenge/policy_agent_0_episode_0.pt (torch, 6559 bytes, 4 tensors)

fc1.weight f4 [64, 10]
-0.02713151 0.14476612 -0.049690317 0.043720063 0.09559222 -0.057959635 -0.11777806 0.030946279
0.11732755 -0.14464568 -0.019202653 0.15078127 -0.101056576 0.02123358 0.0652713 0.09580877
-0.042002495 0.002740461 0.04435228 -0.063478954 0.18470751 -0.09543092 -0.062173557 -0.080791645
-0.016346727 0.08317753 -0.04486549 -0.019220814 -0.012198043 -0.10863762 -0.013182858 -0.022689933
0.12550396 0.27737725 -0.06788192 0.023933945 0.1544128 -0.09122851 0.06605839 0.027904434
0.040660635 0.07890611 0.0117661385 0.22878383 -0.097253494 -0.033791803 -0.018782072 -0.18299302
0.044582605 -0.028186275 0.13716447 -0.005534071 -0.06724232 0.1264806 0.18882893 -0.07413507
0.026073763 -0.062451452 0.06837137 0.08168336 -0.15446338 0.09598058 0.12894782 0.034967873
-0.04164303 0.0065361517 -0.05634871 0.047529545 -0.09245265 -0.033325315 -0.14827274 -0.01327768
-0.12795345 0.017033052 0.16629523 -0.15062939 0.0012261741 -0.054732174 0.1547888 0.081651956
-0.08788135 0.030241976 -0.012304606 0.0072795423 -0.020900149 -0.09902859 -0.08282359 -0.107122615
-0.027941883 0.054481722 0.050113734 -0.0027088756 -0.13296676 -0.014544782 0.085296325 -0.10000135
-0.11628991 -0.15996683 -0.15574144 -0.13443951 -0.016464999 -0.017280858 -0.11259867 0.014198716
-0.27749217 -0.0055137863 0.051412147 0.051894356 -0.008006945 0.07972113 0.10301562 0.079841204
-0.035384078 -0.05265341 -0.0765814 -0.10795941 0.11788764 0.10587019 0.06515025 0.022981932
0.11833521 0.007690725 -0.16533628 -0.045204572 0.030184293 -0.10613245 -0.1385986 -0.037881073
-0.05130213 -0.00079910096 0.2391723 0.103706434 -0.0493734 -0.13845336 -0.118895866 0.07143249
0.16653106 0.1523426 0.12557438 0.08237616 -0.025098596 -0.09345221 0.23136552 0.058199327
0.011764564 -0.06385638 0.11783043 -0.0126960715 -0.17105035 -0.055520255 -0.3418098 0.05367223
0.1418241 -0.12873249 -0.112389974 0.17410249 0.1590076 0.069018945 0.17443962 0.2243598
-0.04495993 0.012847751 0.05854692 -0.07516133 0.13972862 -0.29154786 -0.05227212 -0.060975727
-0.08069031 -0.048616618 0.016656654 -0.026325613 -0.015648149 0.04180286 0.04316181 0.0011418937
-0.081194416 -0.05934846 -0.010268479 0.05762257 -0.09083685 0.07971234 0.043716256 0.124817885
0.033288524 -0.032080777 -0.06851463 -0.08483579 -0.25629744 -0.120412126 0.0064805113 0.11405782
0.043840524 -0.08244912 -0.05352973 0.0092188185 -0.034973115 0.08683136 0.031372305 -0.11542255
-0.011740885 -0.12843381 0.05695812 0.0042015794 0.20594792 0.07053025 0.0004002682 0.052833624
-0.0023410134 0.0011195628 -0.055318214 0.0024105106 -0.07722252 -0.12491182 -0.12037497 -0.024967628
-0.020266695 0.062993765 0.03490956 -0.11988907 0.16026738 0.09463666 -0.12290382 -0.08379407
-0.1087779 0.09079566 -0.1280493 0.0100399535 0.03811214 0.15188716 0.035398904 0.011673705
-0.1892324 -0.24084161 -0.13977425 0.037842657 -0.09526687 -0.020482754 0.19610731 0.002705073
-0.088008404 0.1113001 -0.14972173 0.14626396 -0.00712995 0.17859162 0.024820777 0.026515368
0.09671005 0.041928675 0.0010443389 -0.046103664 -0.05137081 0.026976397 0.16170286 0.036335256
00000000: e742 debc 923d 143e 1388 4bbd cf13 333d
00000010: dbc5 c33d 1567 6dbd a035 f1bd 0d83 fd3c
00000020: 6d49 f03d ff1d 14be e24e 9dbc 6866 1a3e
00000030: c0f6 cebd 0bf2 ad3c f6ac 853d 6337 c43d
00000040: cf0a 2cbd 4e99 333b bdaa 353d 4101 82bd
00000050: f723 3d3e 4971 c3bd b3a9 7ebd 1776 a5bd
00000060: 92e9 85bc fb58 aa3d e0c4 37bd f874 9dbc
00000070: 4dda 47bc 677d debd eafc 57bc 3de0 b9bc
00000080: 1c84 003e 6404 8e3e ad05 8bbd 1f11 c43c
00000090: 641e 1e3e 03d6 babd 9f49 873d d797 e43c
000000a0: c48b 263d 8799 a13d c3c6 403c 4f46 6a3e
000000b0: d72c c7bd 4669 0abd dcdc 99bc 8662 3bbe
000000c0: 409c 363d e7e6 e6bc d874 0c3e 2757 b5bb
000000d0: 57b6 89bd 2184 013e 5f5c 413e 21d4 97bd
000000e0: a598 d53c 18cd 7fbd 4a06 8c3d 9b49 a73d
000000f0: a62b 1ebe 7791 c43d e60a 043e 793a 0f3d
00000100: e291 2abd 372d d63b e8cd 66bd 57ae 423d
00000110: d157 bdbd 2080 08bd cfd4 17be a08a 59bc
00000120: 3b06 03be e688 8b3c 4c49 2a3e 973e 1abe
00000130: 93b7 a03a d82e 60bd f580 1e3e 2439 a73d
00000140: 23fb b3bd 05be f73c 4299 49bc 3a89 ee3b
00000150: ca36 abbc 80cf cabd 6a9f a9bd 1a63 dbbd
00000160: 60e6 e4bc 3a28 5f3d 0f44 4d3d 6487 31bb
00000170: 7028 08be 3d4d 6ebc d7af ae3d 82cd ccbd
00000180: 6829 eebd 58ce 23be af7a 1fbe 83aa 09be
00000190: 9be1 86bc 9690 8dbc 229a e6bd bba1 683c
000001a0: 7413 8ebe feac b4bb 8b95 523d 2d8f 543d
000001b0: 902f 03bc d544 a33d daf9 d23d c983 a33d
000001c0: e5ee 10bd 1aab 57bd b6d6 9cbd d319 ddbd
000001d0: 136f f13d 78d2 d83d 7f6d 853d 9b44 bc3c
000001e0: bb59 f23d 7a02 fc3b ea4d 29be 6e28 39bd
000001f0: 0d45 f73c f85b d9bd cbec 0dbe 2f29 1bbd
00000200: 2f22 52bd c27a 51ba 95e9 743e 0a64 d43d
00000210: c33b 4abd b8c6 0dbe ad7f f3bd 334b 923d
00000220: 1e87 2a3e b3ff 1b3e 9296 003e d5b4 a83d
00000230: 929b cdbc df63 bfbd 15eb 6c3e 6b62 6e3d
00000240: 28c0 403c 22c7 82bd 1551 f13d 2f03 50bc
00000250: d327 2fbe 3569 63bd b201 afbe 6ad7 5b3d
00000260: 563a 113e 73d2 03be b72c e6bd ec47 323e
00000270: e3d2 223e ce59 8d3d 4da0 323e 93be 653e
00000280: e727 38bd 607f 523c e5ce 6f3d 2fee 99bd
00000290: 0515 0f3e c345 95be 4a1b 56bd afc1 79bd
000002a0: f640 a5bd 3822 47bd 8973 883c d0a8 d7bc
000002b0: 8c30 80bc 7a39 2b3d 70ca 303d 98ab 953a
000002c0: 4249 a6bd 5f17 73bd 1f3d 28bc a505 6c3d
000002d0: ac08 babd 3940 a33d d10f 333d 85a0 ff3d
000002e0: 8c59 083d 2267 03bd 6651 8cbd 63be adbd
000002f0: 6b39 83be a29a f6bd 785a d43b 2597 e93d
00000300: 1f92 333d 16db a8bd fd41 5bbd 870a 173c
00000310: f83f 0fbd a4d4 b13d 3f80 003d a862 ecbd
00000320: d75c 40bc 2784 03be eb4c 693d 67ad 893b
00000330: 03e4 523e 2a72 903d 17db d139 1268 583d
00000340: b06b 19bb 4bbe 923a 5a95 62bd a8f9 1d3b
00000350: d726 9ebd c5d1 ffbd 2787 f6bd e988 ccbc
00000360: 5706 a6bc e002 813d 54fd 0e3d 6788 f5bd
00000370: 221d 243e ddd0 c13d ffb4 fbbd 3a9c abbd
00000380: f3c6 debd 13f3 b93d 5b1f 03be 9e7e 243c
00000390: 7a1b 1c3d 4f88 1b3e 71fe 103d 1143 3f3c
000003a0: 23c6 41be 2f9f 76be fb20 0fbe e700 1b3d
000003b0: 471b c3bd 73cb a7bc 5bd0 483e 9847 313b
000003c0: c03d b4bd 4ff1 e33d a750 19be 38c6 153e
000003d0: 5ba2 e9bb b9e0 363e f154 cb3c c236 d93c
000003e0: eb0f c63d 67bd 2b3d 33e2 883a 32d7 3cbd
000003f0: 336a 52bd 9bfd dc3c 6f95 253e 47d4 143d

fc1.bias f4 [64]
-0.080147415 0.18261066 -0.124062225 -0.2717447 0.30400315 0.04109001 -0.10255784 -0.23344056
0.03737864 -0.18226457 0.21605048 0.124001086 0.28533933 -0.2419965 0.0010803044 0.058662713
0.28100416 -0.141967 0.058591038 -0.16649573 -0.28108892 -0.058519483 -0.3091416 -0.21594375
0.058775246 -0.21785301 0.15846318 0.07479116 0.021580309 -0.13432682 -0.19673893 -0.16776438
-0.044194043 0.2526025 -0.06645048 -0.03578049 -0.017244399 -0.14264227 0.06850767 -0.010898501
0.2933891 -0.13697939 -0.0061379373 -0.09967178 0.012123942 -0.07186976 -0.098835796 -0.10131085
-0.2868368 0.15785724 0.08962843 -0.2329324 0.2568129 0.23996422 -0.30791777 -0.18965799
-0.084048435 0.06914529 -0.3019802 -0.019243687 -0.22559433 -0.15182827 0.2749516 -0.04519728
00000000: 5424 a4bd 4afe 3a3e 5614 febd 1f22 8bbe
00000010: 4da6 9b3e 004e 283d d809 d2bd 0b0b 6fbe
00000020: 581a 193d 90a3 3abe 563c 5d3e 48f4 fd3d
00000030: ff17 923e eecd 77be 0099 8d3a 5048 703d
00000040: c7df 8f3e cc5f 11be 28fd 6f3d db7d 2abe
00000050: e3ea 8fbe 20b2 6fbd cf47 9ebe 5c20 5dbe
00000060: 50be 703d dc14 5fbe 2c44 223e 1c2c 993d
00000070: 30c9 b03c f88c 09be ee75 49be 6dca 2bbe
00000080: d004 35bd 1d55 813e 3017 88bd 908e 12bd
00000090: 2044 8dbc d110 12be c04d 8c3d a08f 32bc
000000a0: 1937 963e 5344 0cbe c020 c9bb b820 ccbd
000000b0: 80a3 463c 7430 93bd 6c6a cabd 107c cfbd
000000c0: 46dc 92be 54a5 213e 1c8f b73d d585 6ebe
000000d0: fb7c 833e 2eb9 753e 66a7 9dbe b435 42be
000000e0: 9621 acbd 0c9c 8d3d 269d 9abe f0a4 9dbc
000000f0: 3302 67be df78 1bbe 75c6 8c3e c820 39bd

fc2.weight f4 [9, 64]
0.0029392715 -0.21055861 0.015807925 0.069414966 -0.057016134 -0.0072761998 -0.0054927366 -0.01028614
0.12973969 -0.023778481 -0.07661886 0.045783725 -0.011921128 -0.08847703 -0.13374656 0.035471685
-0.053220343 -0.2668993 0.10613507 0.031295963 -0.11653632 0.19308713 0.015815036 -0.17075326
0.040306307 0.0687519 -0.13563754 0.009556777 -0.1961966 0.07348413 0.12705258 -0.098960795
0.030243522 0.12860227 0.121880345 -0.040765107 -0.03286656 -0.28308627 -0.023506204 0.084197395
0.012339247 -0.03383245 -0.16648488 0.16949868 -0.11027167 -0.08484533 -0.0125894 0.06532759
0.021893758 0.10338558 0.031120334 0.040499743 -0.13551426 -0.034960683 -0.15329947 0.0027500119
-0.09026007 0.23464882 0.1308073 -0.118429124 0.014839035 0.01533436 0.10373123 0.16369432
-0.10966259 0.0041968124 0.109400846 -0.079622924 -0.23289691 -0.09551961 0.16310866 -0.003408008
-0.038652025 -0.01496423 -0.055163085 -0.14550084 0.09062119 -0.15971951 0.025433812 0.07763269
0.05502637 -0.17382006 0.11287079 0.10486513 0.029968802 -0.10002724 -0.06394307 0.020585615
-0.006901917 0.06407859 -0.06382409 0.0148774255 -0.024108337 0.12501357 0.032572255 0.107324205
-0.06255537 0.12571546 -0.064986125 0.013150555 0.18000814 -0.1444986 -0.21418937 0.027003953
0.15859239 -0.17139493 -0.061435502 0.004797655 -0.019636257 -0.11078481 -0.13103102 -0.13014644
0.044193137 -0.2112491 0.007842648 0.14283682 -0.04322143 0.122577585 0.049558498 0.042579412
-0.07479166 -0.024977727 -0.022493878 -0.07819302 -0.007184844 0.011178599 0.06080797 0.037287258
-0.2763763 -0.062385093 0.03841107 0.004739375 -0.03281283 -0.061492383 -0.09672871 -0.0861107
-0.026791258 0.034218453 -0.03628747 0.1631514 0.21473674 0.011149559 -0.0940721 -0.08062778
0.06423145 0.09886675 -0.033119842 0.013996931 -0.09221165 0.008040688 0.06576002 0.06702673
0.18068175 -0.010337618 0.0038959072 -0.006652936 -0.104903 -0.0077625164 0.104575574 -0.097533174
0.14770314 -0.096503444 -0.10250469 -0.18497598 0.11742612 -0.040245578 0.109691024 0.03544595
-0.0029406885 0.035807554 0.16711317 0.10091629 0.009347304 0.09080019 -0.04898731 -0.15440628
-0.016151583 -0.07492035 -0.014985636 0.070875816 0.1304658 0.046191085 -0.0028658304 -0.14297853
0.027334008 0.007243186 0.056564625 -0.03698483 -0.0016342197 0.03895276 0.010892406 0.038148202
0.14349858 -0.08965459 -0.077367015 0.16259211 0.04876911 -0.041733503 0.1259844 0.0794703
-0.2080473 -0.010970696 -0.17456448 -0.11704459 -0.044293195 0.014396501 0.005033414 -0.0090323975
-0.11501936 0.083188176 0.12969875 0.05057636 -0.15775849 -0.05645255 0.082431555 -0.0030661176
0.048719198 -0.09695889 -0.09519796 0.14190528 0.25489473 0.14545473 -0.044921756 0.08088842
-0.13587819 0.043925315 0.030692581 -0.12524955 0.03966404 0.18366966 -0.08337263 0.0061701196
-0.19441368 -0.09970423 -0.0007633422 -0.18958123 0.064906664 -0.21222134 -0.057863094 -0.007254015
-0.17345922 0.18847428 0.0122305285 -0.05745119 -0.0023801022 0.025396243 -0.028220832 -0.0043029217
0.0100759985 0.12954004 -0.053011376 -0.061428256 0.031323638 -0.07113939 -0.04663777 -0.12201917
00000000: cba0 403b ad9c 57be 9f7f 813c 6f29 8e3d
00000010: c089 69bd 306d eebb 6afc b3bb 3387 28bc
00000020: 7bda 043e 17cb c2bc 59ea 9cbd b787 3b3d
00000030: d650 43bc 7233 b5bd dcf4 08be c24a 113d
00000040: 93fd 59bd 06a7 88be 585d d93d 3230 003d
00000050: 98aa eebd a2b8 453e 898e 813c f1d9 2ebe
00000060: 3a18 253d cccd 8c3d 91e4 0abe 0794 1c3c
00000070: c3e7 48be d97e 963d 121a 023e f5ab cabd
00000080: 43c1 f73c 50b0 033e 679c f93d 50f9 26bd
00000090: 169f 06bd aff0 90be 1590 c0bc af6f ac3d
000000a0: 8e2a 4a3c e593 0abd 037b 2abe 1091 2d3e
000000b0: 1dd6 e1bd 63c3 adbd c543 4ebc 79ca 853d
000000c0: 8a5a b33c d2bb d33d 12f0 fe3c 0fe3 253d
000000d0: 40c4 0abe ef32 0fbd 89fa 1cbe 8b39 343b
000000e0: 46da b8bd c847 703e 59f2 053e f88a f2bd
000000f0: 6d1f 733c f83c 7b3c 0a71 d43d 7c9f 273e
00000100: c896 e0bd 6a85 893b 8d0d e03d 5811 a3bd
00000110: 877c 6ebe c99f c3bd f505 273e e358 5fbb
00000120: 9651 1ebd 882c 75bc b0f2 61bd 2cfe 14be
00000130: 9a97 b93d 838d 23be 925a d03c e3fd 9e3d
00000140: 5563 613d e3fd 31be cd28 e73d 87c3 d63d
00000150: 2281 f53c 15db ccbd 96f4 82bd 2aa3 a83c
00000160: 7a29 e2bb a33b 833d 34b6 82bd 72c0 733c
00000170: d97e c5bc 8f03 003e 7c6a 053d cbcc db3d
00000180: 081d 80bd 8ebb 003e 7217 85bd 6d75 573c
00000190: 0e54 383e 71f7 13be 7554 5bbe 6537 dd3c
000001a0: 0b66 223e 2782 2fbe cba3 7bbd a635 9d3b
000001b0: 37dc a0bc 25e3 e2bd ff2c 06be 1c45 05be
000001c0: dd03 353d af51 58be 737e 003c d143 123e
000001d0: f408 31bd f509 fb3d dafd 4a3d c067 2e3d
000001e0: 5f2c 99bd 179e ccbc 1545 b8bc a923 a0bd
000001f0: d76e ebbb 7126 373c c711 793d 86ba 183d
00000200: 3281 8dbe 8387 7fbd ed54 1d3d c24c 9b3b
00000210: bf66 06bd 70df 7bbd b419 c6bd cf5a b0bd
00000220: 5779 dbbc a628 0c3d 2ca2 14bd 2911 273e
00000230: f3e3 5b3e a4ac 363c e0a8 c0bd 2d20 a5bd
00000240: c78b 833d a77a ca3d aca8 07bd 6253 653c
00000250: 76d9 bcbd 17bd 033c 30ad 863d 4f45 893d
00000260: a304 393e 1d5f 29bc 7a52 7f3b df00 dabb
00000270: 62d7 d6bd b55c febb b82b d63d 79bf c7bd
00000280: 7e3f 173e 99a3 c5bd fbed d1bd 586a 3dbe
00000290: 1b7d f03d 8cd8 24bd b0a5 e03d c62f 113d
000002a0: 91b8 40bb f1aa 123d b71f 2b3e 33ad ce3d
000002b0: 6f25 193c 73f5 b93d eba6 48bd ae1c 1ebe
000002c0: 5350 84bc d76f 99bd 5086 75bc 5727 913d
000002d0: d498 053e dd32 3d3d a8d0 3bbb f768 12be
000002e0: 92eb df3c 3f58 ed3b 4fb0 673d 687d 17bd
000002f0: 5033 d6ba ee8c 1f3d 1076 323c 4a41 1c3d
00000300: 4bf1 123e d39c b7bd 9972 9ebd 8c7e 263e
00000310: 1ec2 473d c0f0 2abd 0e02 013e 53c1 a23d
00000320: 5a0a 55be 6fbe 33bc 08c1 32be 13b5 efbd
00000330: c86c 35bd 4ddf 6b3c 56ef a43b 9ffc 13bc
00000340: 458f ebbd 905e aa3d c0cf 043e 2829 4f3d
00000350: 718b 21be ca3a 67bd e0d1 a83d ebf0 48bb
00000360: c88d 473d 6292 c6bd 26f7 c2bd 9e4f 113e
00000370: 9081 823e 16f2 143e e0ff 37bd d4a8 a53d
00000380: a723 0bbe 08eb 333d 026f fb3c 6b41 00be
00000390: c376 223d e613 3c3e 45bf aabd b72e ca3b
000003a0: 6114 47be bb31 ccbd 071b 48ba 9521 42be
000003b0: c9ed 843d 8d50 59be da01 6dbd 17b3 edbb
000003c0: 4b9f 31be 67ff 403e 8e62 483c f051 6bbd
000003d0: 7dfb 1bbb c80b d03c 602f e7bc 86ff 8cbb
000003e0: cd15 253c 25a6 043e 7522 59bd 329c 7bbd
000003f0: 374d 003d 87b1 91bd 3f07 3fbd 30e5 f9bd

fc2.bias f4 [9]
0.036942795 0.05732669 -0.05499573 0.061351553 0.12233953 -0.11436249 -0.055653542 -0.008331329
-0.06512594
00000000: 5451 173d 64cf 6a3d 3443 61bd c44b 7b3d
00000010: 268d fa3d e236 eabd f8f4 63bd 2080 08bc
00000020: c060 85bd
