examples/carla_scenic/Carla_Challenge/policy_agent_0_episode_2.pt (torch, 6559 bytes, 4 tensors)

fc1.weight f4 [64, 10]
0	0x3d89285b	0.0669715
1	0x3c423cb4	0.011855293
2	0x3c844e1f	0.016150532
3	0x3d04d36a	0.032428183
4	0xbe20a169	-0.15686573
5	0x3d809973	0.06279268
6	0x3c816e35	0.015799621
7	0xbd244de5	-0.04011335
8	0x3db8ed34	0.09029618
9	0xbd8d983d	-0.06913803
10	0xbda10735	-0.07862703
11	0xbc9a6bd6	-0.018850248
12	0xbad3668a	-0.0016128581
13	0xbe17f5de	-0.14839885
14	0x3e1f5cdf	0.15562771
15	0xbdbab137	-0.09115832
16	0x3d5a6742	0.05332113
17	0xbdc8eedd	-0.098111846
18	0x3e22f6af	0.15914415
19	0xbe779c17	-0.24180637
20	0x3e705b6d	0.23472376
21	0xbd5f0008	-0.05444339
22	0xbd883ec5	-0.06652597
23	0x3e40579b	0.18783419
24	0xbe40ae6b	-0.18816535
25	0x3ca65b3e	0.02030718
26	0xbd31d052	-0.04341156
27	0xbccf4c10	-0.025304824
28	0xbcff3f43	-0.031158095
29	0x3dd5e3ed	0.10443864
30	0xbc8d1987	-0.017224086
31	0xbdac6217	-0.08417147
32	0xbe3dd10b	-0.18536775
33	0x3c637485	0.013882761
34	0xbda8efa8	-0.08248836
35	0xbe3641f5	-0.17798598
36	0x3d4e42cf	0.050356682
37	0x3e071c4d	0.1319439
38	0xbd9aaa97	-0.07552069
39	0x3e002ec4	0.1251784
40	0x3d4e38cf	0.050347146
41	0x3ca4295b	0.020039251
42	0xbcb65a3b	-0.022259822
43	0xbc2989fb	-0.0103478385
44	0x3d51b890	0.051201403
45	0xbd0e5aa7	-0.03475442
46	0x3e76d562	0.24104837
47	0x3dc45a86	0.095875785
48	0x3bb5df45	0.0055502974
49	0xbd9f13f8	-0.077674806
50	0xbe0bc7b2	-0.13650396
51	0x3b9c7d0b	0.0047756485
52	0x3d231a45	0.039819974
53	0xbd8beddf	-0.0683248
54	0xbd9918e5	-0.074754514
55	0x3defdbb7	0.11711829
56	0x3db30593	0.087412976
57	0x3da3afce	0.079925165
58	0x3e643945	0.22287472
59	0x3cb10bbc	0.02161204
60	0x3d57fec0	0.052733183
61	0x3e09a3cb	0.13441388
62	0x3de851af	0.11343705
63	0xbad42bad	-0.0016187333
64	0x3be2ccb2	0.0069213742
65	0xbe288575	-0.1645716
66	0xbd44c3e7	-0.04803839
67	0x3e3b9b11	0.18320872
68	0xbe08ba06	-0.13352212
69	0x3cf8f840	0.030391812
70	0xbbe5cff2	-0.0070133144
71	0x3e2154ab	0.15754955
72	0x3dd8fce5	0.10595111
73	0xbd33b77e	-0.043876164
74	0x3cd825c5	0.026385197
75	0x3e47c45e	0.19508502
76	0x3d9568b6	0.07295363
77	0xbc8cbf93	-0.017181193
78	0xbd4a8442	-0.049442537
79	0xbdd175b7	-0.102275304
80	0x3d781b85	0.06057312
81	0xbdb5b95f	-0.08873247
82	0xbd0cc2c6	-0.034365438
83	0x3e72d19d	0.23712774
84	0xbc96d39f	-0.018411456
85	0x3bb93832	0.005652451
86	0x3e2b878a	0.16750923
87	0x3c7f73ba	0.015591556
88	0xbdbe3edb	-0.092893325
89	0x3e6845f2	0.22682932
90	0x3e020b36	0.12699589
91	0x3d73e5e5	0.059545416
92	0xbdb6146f	-0.08890616
93	0x3dc02b80	0.09383297
94	0x3d0b90ea	0.034073748
95	0x3e09f943	0.13473992
96	0xbe327b57	-0.17429863
97	0x3ca875ff	0.020564077
98	0xbde79f1d	-0.11309645
99	0xbd5a8faa	-0.053359665
100	0xbdfd4c48	-0.12368065
101	0xbc082b36	-0.008311084
102	0xbdaf9be1	-0.085746534
103	0xbd06d9e8	-0.032922655
104	0x3cbd98bc	0.023144118
105	0xbe14f946	-0.14548215
106	0xbcfc3975	-0.030789116
107	0x3d8a79db	0.06761523
108	0x3db28320	0.08716416
109	0x3dfbe558	0.12299603
110	0xbd19fb29	-0.03759304
111	0xbb3c4a7f	-0.0028730927
112	0x3e353ae9	0.17698254
113	0xbe16b602	-0.14717868
114	0xbe0d8b98	-0.13822782
115	0xbaf0d110	-0.0018372852
116	0xbe255d56	-0.16148886
117	0x3d3e6493	0.046482634
118	0x3d79cff3	0.06098933
119	0xbe09f241	-0.13471319
120	0xbc3217d7	-0.010869942
121	0x3d599840	0.053123713
122	0xbd4ccdaa	-0.050000824
123	0xbe848161	-0.25879958
124	0x3e0c9e6b	0.13732307
125	0x39a2e84f	0.0003107213
126	0x3d4c84b7	0.049931254
127	0xbe6d7d2d	-0.23192282
128	0x3ac1c00d	0.0014781967
129	0x3dab84c1	0.0837493
130	0xbcb5ceea	-0.02219339
131	0x3ddfb798	0.109236896
132	0xbdce3552	-0.10068764
133	0x3e4f4128	0.20239699
134	0x3de9052f	0.11377942
135	0x3e3923df	0.1808009
136	0xbd14d97b	-0.036340218
137	0x3cc664a3	0.02421791
138	0x3cf1de52	0.029524956
139	0xbc1a116d	-0.009403569
140	0xbe0edd59	-0.13951625
141	0xbced7eaa	-0.028991062
142	0xbd4b7a09	-0.04967693
143	0xbde4e135	-0.11175767
144	0xbd20c80a	-0.039253272
145	0xbdc11ceb	-0.09429344
146	0xbdd15038	-0.10220379
147	0x3cdcbd43	0.026945716
148	0xbdab0804	-0.08351138
149	0xbda2417f	-0.07922649
150	0xbd9cdc41	-0.076591976
151	0x3d8a5cee	0.06756006
152	0x3c94bf9f	0.018157778
153	0xbd137d08	-0.03600791
154	0x3d8cfa57	0.06883686
155	0x3c5e92cd	0.013584805
156	0xbb776277	-0.0037747899
157	0xbbdb5e7a	-0.006694612
158	0xbc46305d	-0.012096492
159	0x3e1508bd	0.14554115
160	0x3d10aae7	0.035319235
161	0x3d778f00	0.06043911
162	0x3d819e2d	0.06328998
163	0xbd8fd036	-0.07022135
164	0x3d83a213	0.064273976
165	0x3d8bf43d	0.06833694
166	0xbe0084a8	-0.12550604
167	0xbdad1f2c	-0.08453211
168	0xbd4e33aa	-0.05034224
169	0xbcea366f	-0.02859041
170	0x3e10a8fd	0.14126964
171	0xbc3717c7	-0.011175103
172	0x3e28a7b3	0.16470222
173	0x3cbc9afa	0.023023117
174	0x3d742cf7	0.059613194
175	0x3c6e77eb	0.014554958
176	0xbdf0e963	-0.11763265
177	0x3dbae141	0.09124995
178	0xbe08c990	-0.1335814
179	0x3e4a469c	0.19753498
180	0x3cba4934	0.022739984
181	0x3c6c59d3	0.014425713
182	0xbdbfa61f	-0.09357857
183	0x3da173c8	0.07883412
184	0xbe5f5613	-0.21810178
185	0xbe0114a9	-0.12605537
186	0xbd294673	-0.04132695
187	0xbe004307	-0.12525569
188	0xbd9246a3	-0.07142379
189	0x3d8cab55	0.068686165
190	0xbd273adb	-0.040827613
191	0xbd3253c3	-0.043536913
192	0x3dfce407	0.1234818
193	0xbb012927	-0.0019708367
194	0xbd7f1de2	-0.062284358
195	0xbd1e2344	-0.03860785
196	0x3d731897	0.059349623
197	0x3d6df3a7	0.058093693
198	0xbd00245f	-0.031284686
199	0xbde61ac5	-0.11235575
200	0x3da3b73b	0.07993933
201	0xbe733b90	-0.2375319
202	0xbc4e0607	-0.012574679
203	0x3dd1903b	0.10232588
204	0xbdec45e0	-0.11536765
205	0xbdd4c70d	-0.103895284
206	0xbc9642a6	-0.018342327
207	0x3d506ca7	0.05088487
208	0x3dc3b673	0.09556284
209	0x3d518827	0.051155236
210	0xbda5584b	-0.08073481
211	0x3d7e9bdf	0.06216037
212	0x3cdcbbaf	0.026944963
213	0x3da03a44	0.07823613
214	0x3e36e89e	0.17862174
215	0xbd9d7a2f	-0.0768932
216	0x3d09b9f7	0.033624616
217	0x3d9e1f47	0.077208094
218	0x3e4c71f4	0.19965345
219	0x3bdf92e7	0.006822932
220	0xbe13c27e	-0.14429662
221	0x3d89a5c7	0.06721073
222	0xbe0f66cf	-0.14004062
223	0xbd915413	-0.07096114
224	0xbe3cc34d	-0.18433876
225	0x3dca20ad	0.09869514
226	0x3ded2efa	0.11581226
227	0xbcec1310	-0.028817683
228	0x3dd3078f	0.10304176
229	0xbda8c4ff	-0.08240699
230	0xbc45708d	-0.01205076
231	0x3db11044	0.086456805
232	0xbd223680	-0.039602757
233	0x3e9ce6c5	0.30644813
234	0xbdd015fd	-0.10160444
235	0x3de16a35	0.110065855
236	0x3c66a83a	0.014078194
237	0xbdd6ceb3	-0.104886435
238	0x3cd6436f	0.026155202
239	0x3e264c59	0.16240062
240	0x3cbd7103	0.023125177
241	0x3d45d0a7	0.04829469
242	0xbd0c06f8	-0.034186333
243	0xbd264799	-0.040595625
244	0xbe034017	-0.12817417
245	0xbd6a624f	-0.05722266
246	0xbdfc3708	-0.12315184
247	0x3e1abd2c	0.15111226
248	0xbcf4d11b	-0.029884866
249	0x3a803e83	0.0009784255
250	0x3ce13c6d	0.027494634
251	0x3d8a9aee	0.06767832
252	0xbd222b33	-0.03959198
253	0xbc8fb9f7	-0.01754473
254	0x3e5cb02f	0.21551584
255	0xbd87cf3a	-0.06631322

fc1.bias f4 [64]
0	0x3ea1134b	0.31460032
1	0x3dae51b4	0.085116774
2	0xbd96d5ec	-0.07365021
3	0xbe8085f8	-0.2510221
4	0xbe233f59	-0.15942134
5	0x3e5eff42	0.2177706
6	0x3c7bbce0	0.0153648555
7	0xbdbf1cb4	-0.093316466
8	0x3e9229b1	0.28547433
9	0x3e8b5ddd	0.2722005
10	0xbe28d8ab	-0.16488902
11	0xbe383454	-0.17988712
12	0xbcaf4f20	-0.021400034
13	0x3e622db6	0.2208775
14	0x3e3af06a	0.18255773
15	0xbe810303	-0.2519761
16	0xbe8ab0d3	-0.2708803
17	0xbe760514	-0.24025375
18	0x3e9d40f3	0.30713615
19	0xbdef8532	-0.11695327
20	0x3e512af6	0.20426545
21	0xbe149681	-0.14510538
22	0xbe8d96c1	-0.2765408
23	0x3cf660d0	0.03007546
24	0x3dedc014	0.116089016
25	0x3e54de8a	0.20788017
26	0xbb9844c0	-0.0046468675
27	0xbe96b538	-0.29435134
28	0x3e92263d	0.28544798
29	0x3e79f68a	0.24410453
30	0xbea1e003	-0.3161622
31	0xbe91bee0	-0.2846594
32	0x3e8202af	0.25392672
33	0x3d8907dc	0.06690952
34	0xbe028f08	-0.12749875
35	0xbdf35ae8	-0.11882573
36	0x3dad2c3c	0.08455703
37	0x3e03f43a	0.12886134
38	0xbe53d9fb	-0.20688622
39	0xbe5779a8	-0.21042502
40	0xbd9a620c	-0.07538232
41	0xbe698e34	-0.22808152
42	0x3ddde18c	0.10834035
43	0x3de72ec0	0.11288214
44	0xbe73328e	-0.23749754
45	0xbe5f2094	-0.21789771
46	0xbe9593cd	-0.29214326
47	0xbe3c9f89	-0.18420233
48	0xbc9cdd80	-0.019148588
49	0x3d67e5f0	0.05661577
50	0xbe2c4f92	-0.16827229
51	0xbdecfea0	-0.11572003
52	0xbea071ed	-0.31336918
53	0xbdb0a876	-0.086258814
54	0xbe5aa826	-0.21353206
55	0xbe2c693c	-0.16837019
56	0xbe1b48b0	-0.15164447
57	0x3e5683ce	0.20948717
58	0x3c219580	0.009862304
59	0x3e9cc359	0.30617788
60	0x3b567580	0.0032723844
61	0xbdf64308	-0.12024504
62	0x3e336ffa	0.17523184
63	0x3dfeae4c	0.12435588

fc2.weight f4 [9, 64]
0	0x3c82f317	0.015985055
1	0xbca0be77	-0.01962207
2	0x3d3d843c	0.046268687
3	0x3da0822f	0.078373305
4	0xb995502e	-0.00028479233
5	0x3d40e422	0.047092564
6	0x3d75d76b	0.06001989
7	0x3da43b87	0.080191664
8	0xbd2c4d5b	-0.04206596
9	0xbd93d990	-0.07219231
10	0x3c4b0c2e	0.012393041
11	0xbd8f6b0c	-0.070028394
12	0xbde28e5f	-0.110623114
13	0xbdcf67b2	-0.101272
14	0xbd033f96	-0.032043062
15	0x3e102d8c	0.14079875
16	0x3ca4b5e7	0.020106269
17	0x3cdf6bf8	0.027273163
18	0xbde35462	-0.11100079
19	0xbe06dc59	-0.13169993
20	0xbdda30ba	-0.10653825
21	0xbd117f8a	-0.03552202
22	0x3e5c195d	0.2149405
23	0xbd43f7ef	-0.04784387
24	0xbddf3373	-0.10898485
25	0x3d696b3f	0.056987043
26	0x3e1085c7	0.14113532
27	0xbd03de37	-0.032194342
28	0xbe00e487	-0.12587176
29	0xbca026fd	-0.019549841
30	0xbe02cd5f	-0.12773655
31	0xbe40f4c3	-0.18843369
32	0xbc9796f4	-0.018504597
33	0x3dfabab0	0.12242639
34	0xbde8a8f3	-0.113603495
35	0xbdb30371	-0.08740891
36	0x3d6a2ba3	0.05717052
37	0xbd1c3834	-0.038139537
38	0x3df174d3	0.117898606
39	0xbd2510fc	-0.0402994
40	0x3dcbe897	0.09956472
41	0xbe762aa5	-0.24039705
42	0x3e4c74e9	0.19966473
43	0x3daa0a94	0.08302799
44	0x3d95a0df	0.07306074
45	0xbcac6864	-0.021045871
46	0x3cad7283	0.021172768
47	0x3d027f0c	0.031859443
48	0x3e05f662	0.13082269
49	0xbe01f8d9	-0.12692584
50	0x3e0ed43e	0.13948151
51	0x3dc4b2b7	0.096044
52	0xbd830eb5	-0.063992895
53	0x3daa3d79	0.08312506
54	0xbd26293b	-0.040566664
55	0xbddf707d	-0.10910127
56	0xbd079e18	-0.033109754
57	0xbd8a7c5b	-0.06762
58	0x3ca4f91f	0.020138321
59	0x3de9b668	0.11411744
60	0xbdbfab32	-0.09358825
61	0x3cd25c13	0.02567867
62	0x3c36b126	0.011150634
63	0x3c9d6a43	0.019215709
64	0x3e30b66a	0.17257085
65	0x3d966452	0.07343353
66	0x3dbe6563	0.09296682
67	0x3c459714	0.012059946
68	0xbd26308f	-0.040573653
69	0xbca27e14	-0.01983551
70	0xbbd72487	-0.0065656337
71	0x3ce732a3	0.028222388
72	0x3da28811	0.07936109
73	0xbddf9078	-0.10916227
74	0xbdc6f65f	-0.0971496
75	0xbdb4b495	-0.08823506
76	0xbd65a4a7	-0.056065228
77	0x3c8af6b6	0.016963344
78	0x3e69b577	0.2282313
79	0xbe12831b	-0.14307825
80	0xbda2eed7	-0.07955711
81	0x3d12a5db	0.035802703
82	0xbb28163f	-0.0025648025
83	0xbdef16cd	-0.11674271
84	0xbd06f377	-0.03294703
85	0x3dcd42ea	0.100225285
86	0xbcbc8a60	-0.023015201
87	0x3dd46495	0.10370747
88	0xbdbbfb03	-0.09178736
89	0x3dc3a077	0.095520906
90	0xbd363d78	-0.044492215
91	0x3cec0feb	0.028816184
92	0x3dda2ac3	0.106526874
93	0xbdbf12a7	-0.093297295
94	0x3c82f892	0.015987668
95	0xbe1a9e94	-0.15099555
96	0x3e3084ed	0.17238207
97	0xbe491b3f	-0.196393
98	0x3d94703c	0.072479695
99	0xbdac87c1	-0.084243305
100	0x3e2992fa	0.16559973
101	0xbd1dabfd	-0.0384941
102	0x3d055200	0.032548904
103	0xbdabe3b6	-0.08393042
104	0xbcaacd5f	-0.020849882
105	0xbd4f8145	-0.05066039
106	0xbdd0f400	-0.10202789
107	0x3d86ce43	0.0658231
108	0x3c7d373a	0.015455062
109	0xbe9f8810	-0.31158495
110	0x3deb28dd	0.114824034
111	0xbe310d4a	-0.17290226
112	0xbde60a10	-0.11232388
113	0xbda1998e	-0.07890616
114	0x3b7112d2	0.00367849
115	0xbe4292aa	-0.1900126
116	0x3dd66e08	0.104702055
117	0x3d13e0df	0.036103126
118	0x3de4859b	0.11158296
119	0xbc822b29	-0.015889721
120	0xbe971637	-0.29509136
121	0x3de69683	0.112591766
122	0xbe90085c	-0.28131378
123	0x3e08786b	0.13327186
124	0xbdf7599d	-0.12077639
125	0x3e3e2f27	0.18572675
126	0xbdb02d0f	-0.08602344
127	0x3e17e5d4	0.14833766
128	0xbd84e554	-0.06489053
129	0x3d0c98f7	0.034325566
130	0xbdc878db	-0.09788676
131	0xbca06010	-0.019577056
132	0x3d4cec18	0.050029844
133	0x3df97e52	0.12182297
134	0xbb9a985f	-0.004717871
135	0x3d8be63f	0.06831025
136	0x3c17c6d9	0.009263718
137	0x3d767eab	0.060179394
138	0x3d9df605	0.0771294
139	0xbd93f99b	-0.07225343
140	0x3dee9beb	0.11650833
141	0x3dbe9b7a	0.093069986
142	0xbe00630f	-0.12537788
143	0xbdd2d802	-0.102951065
144	0x3cad344b	0.0211431
145	0x3d84bb77	0.064810686
146	0x3ce95d07	0.028486742
147	0x3dd9eefb	0.10641285
148	0xbd874431	-0.06604803
149	0x3dbea029	0.09307892
150	0x3cda3bfa	0.026639927
151	0x3d673c47	0.05645397
152	0xbd3f3727	-0.046683457
153	0xbe09bf9e	-0.13452002
154	0x3db5222d	0.08844409
155	0x3d923650	0.071392655
156	0xbd2cc0e6	-0.04217615
157	0xbceba3b2	-0.02876458
158	0x3d4eb4f2	0.05046553
159	0x3d760a22	0.060068257
160	0x3d3c8a26	0.046030186
161	0x3c350db6	0.011050632
162	0xbe5eeb4d	-0.21769448
163	0x3d937a5b	0.07201072
164	0xbd58e3ba	-0.052951552
165	0xbd77c9d5	-0.060495216
166	0x3e569997	0.20957027
167	0xbdd00957	-0.101580314
168	0xbdd98fa0	-0.106230974
169	0xbde1bcdf	-0.110223524
170	0x3ce9541f	0.028482495
171	0xbe079421	-0.132401
172	0x3d231f5a	0.03982482
173	0xbce451b8	-0.027870998
174	0xbd8142a7	-0.06311541
175	0x3d9cc733	0.07655182
176	0x3d64e01f	0.0558778
177	0xbdf46200	-0.119327545
178	0xbdc74784	-0.097304374
179	0xbc976d9f	-0.018484889
180	0x3c056e34	0.00814395
181	0x3e68a902	0.22720721
182	0x3d89efde	0.06735204
183	0x3c10db75	0.008841385
184	0xbe3cfc5b	-0.18455641
185	0xbde46528	-0.111521065
186	0xbd504edb	-0.050856452
187	0xbe3a91a4	-0.1821962
188	0xbc36e94f	-0.011164024
189	0xbdb31138	-0.087435186
190	0xbd662d0a	-0.056195296
191	0xbc459e39	-0.012061649
192	0x3c18e5a4	0.009332094
193	0x3d74b222	0.059740193
194	0xbd986552	-0.074412
195	0x3b9e1c0b	0.0048251203
196	0xbc942d55	-0.018088022
197	0x3e105fe7	0.14099084
198	0xbdaf937d	-0.08573053
199	0xbdc7e0e5	-0.09759692
200	0xbadbc768	-0.0016767802
201	0xbe033486	-0.12813005
202	0xbe3ff3e8	-0.18745387
203	0x3cfed42f	0.031107036
204	0x3a951ea7	0.0011376933
205	0xbd985557	-0.07438152
206	0x3e524c1b	0.20536844
207	0xbd0dcbcf	-0.034618195
208	0xbd810090	-0.062989354
209	0x3dc5ae46	0.09652381
210	0x3d2cea95	0.042215902
211	0xbd879bbd	-0.066215016
212	0x3e92151f	0.2853174
213	0x3ddadd8f	0.1068679
214	0xbdc3888a	-0.09547527
215	0x3dd1cf4f	0.10244619
216	0xbc00a1bd	-0.007851061
217	0xbd721605	-0.05910303
218	0x3ceb2ceb	0.028707942
219	0xbdde40d5	-0.108522095
220	0x3ad526db	0.001626219
221	0xbe38708f	-0.18011688
222	0x3da5e155	0.08099619
223	0x3b3a8e84	0.0028466294
224	0xbe05d570	-0.13069701
225	0xbdc41957	-0.09575146
226	0x3e2fc7f2	0.17166117
227	0xbd791503	-0.060811054
228	0xbde75250	-0.11294997
229	0xbdcfae43	-0.1014066
230	0x3c18168b	0.009282718
231	0x3de83678	0.11338514
232	0xbe04c983	-0.12967496
233	0xbdc91b99	-0.09819717
234	0xbbc33d73	-0.005958253
235	0xbd2af937	-0.041741576
236	0x3dc2ca22	0.0951121
237	0x3db08e7e	0.08620928
238	0x3d0946e6	0.03351488
239	0xbc662da5	-0.014048968
240	0x3d122500	0.035679817
241	0x3d3f1190	0.04664761
242	0xbd2eed0b	-0.04270653
243	0x3e3b6c0f	0.1830294
244	0x3d7f78df	0.06237113
245	0xbd12e604	-0.03586389
246	0xbe0a38d3	-0.13498239
247	0xbcea8fc3	-0.028633004
248	0x3dd42bf2	0.103599444
249	0x3dd183bf	0.10230207
250	0x3e0866a9	0.13320412
251	0xbda3003a	-0.079590276
252	0xbb306a92	-0.002691899
253	0xbd7ddf1b	-0.061980348
254	0xbd8c6598	-0.06855315
255	0xbd662097	-0.056183424

fc2.bias f4 [9]
0	0x3d9a876a	0.075453594
1	0x3b2ec7c0	0.0026669353
2	0xbd317154	-0.04332097
3	0x3ddb4d82	0.10708143
4	0x3dbf82c8	0.093511164
5	0x3db47966	0.088122174
6	0xbd8c2bb4	-0.06844273
7	0x3ce66900	0.02812624
8	0xbd3091c0	-0.043107748
