examples/carla_scenic/Carla_Challenge/policy_agent_1_episode_0.pt (torch, 6559 bytes, 4 tensors)

fc1.weight f4 [64, 10]
-0.13430469 0.082154505 -0.09084214 0.10816572 0.05715975 -0.08483889 0.20564277 0.029958082
0.07054134 0.14667834 -0.18493022 -0.035110958 0.17061284 0.104691304 0.13982242 0.0066390485
-0.028388783 0.07995961 0.058662783 -0.07702479 0.012776591 -0.043102477 0.027383579 -0.046566866
-0.13966604 0.09967714 0.021852141 -0.0060587022 0.14940302 -0.04152663 0.26415247 0.003658287
0.0018440246 -0.21229286 -0.0982972 -0.1778674 0.05009658 -0.00838264 -0.065555155 0.0017022301
-0.029085714 0.09782567 0.030320948 0.07100356 0.0900794 -0.009284893 0.0085337255 -0.074815385
-0.14622693 -0.016634833 -0.044684537 0.026167622 0.11015149 -0.17825095 -0.09476394 0.18640195
0.17273717 -0.040783923 0.036307048 -0.03266826 -0.11263235 -0.014911066 0.0051640905 0.13194314
-0.0067954846 -0.018488145 -0.078555375 -0.049529973 -0.0003273237 -0.08842038 0.11570054 -0.15624031
0.2197855 0.14620523 -0.15178233 -0.07349454 -0.076612204 0.14430188 0.121000074 -0.011038279
-0.12683165 0.031841617 0.025855556 0.0005438239 -0.0075163855 0.074026555 -0.15015325 0.03098662
-0.10757215 -0.082748316 0.18871574 0.0117059 -0.14048038 0.0004202368 -0.053078618 0.14808246
0.01555718 0.20524831 -0.28774974 -0.10137987 -0.09243315 0.17211775 -0.033004817 -0.12529366
-0.13149615 0.10032735 0.0363619 -0.14058673 0.026742866 -0.03166025 0.12374561 0.12260721
0.07332283 -0.13895273 0.07063011 -0.011095307 -0.15802838 0.05297141 -0.069780536 -0.119775236
-0.18778363 -0.0012707734 0.039963994 0.15022352 -0.18252487 -0.074415915 0.029713977 -0.08318201
0.16967104 0.084764116 0.01693843 -0.008228542 -0.077134505 -0.054945923 0.03984059 -0.18895909
0.04822981 0.03358017 -0.04820665 -0.018135717 -0.049259316 -0.028749114 -0.040293023 -0.12189602
-0.012280567 -0.050596494 -0.09009443 -0.047746304 -0.007940405 0.046092506 -0.1781553 0.113158666
0.12936164 0.01101071 0.11227349 0.031668853 0.030390969 0.010638115 -0.031374972 0.060547408
-0.17159297 -0.017507045 0.046676446 0.10779144 0.0634303 0.13599116 -0.07869338 0.017218823
0.09827614 -0.05362902 0.060553826 0.2068348 0.016630583 -0.04484117 -0.11711701 0.07291575
-0.098807774 -0.09381229 0.2256954 -0.019741734 0.051285695 -0.14818376 0.06870964 0.076817684
-0.016445896 -0.03669408 -0.1409046 0.115653135 0.111621834 -0.049836557 0.08467853 -0.109313846
0.06833855 -0.09424859 0.098164506 0.1177445 -0.07239412 -0.06570924 -0.14751443 -0.008238202
0.11433581 0.031402443 0.055363465 0.11885468 0.067791216 0.043667443 -0.027376238 0.009879091
-0.033411093 0.03673188 -0.016734153 -0.12580499 0.07450432 0.03365354 -0.2078762 -0.061906267
0.11993217 -0.06716554 0.016929008 -0.111157656 -0.22441855 -0.15558155 0.023306886 -0.30554318
0.10305237 -0.015009411 -0.16180968 0.039174363 -0.015897272 -0.13978092 0.046533585 -0.07172483
-0.0058514145 0.012206295 -0.018445408 -0.060360897 -0.037935603 -0.11440406 -0.20541547 0.059131462
0.010320283 -0.15146276 0.05701084 -0.22618368 -0.01556364 -0.049859833 0.071400404 -0.11662065
-0.08998453 -0.1127454 0.25780174 -0.01780693 0.11501189 -0.18792526 -0.020294208 0.039814796
00000000: 2b87 09be 9f40 a83d 720b babd fd85 dd3d
00000010: 5820 6a3d 03c0 adbd 0594 523e a76a f53c
00000020: fa77 903d d932 163e 595e 3dbe 82d0 0fbd
00000030: 22b5 2e3e 6568 d63d 9c2d 0f3e 608c d93b
00000040: 988f e8bc ddc1 a33d 6348 703d 2cbf 9dbd
00000050: e854 513c 398c 30bd 8753 e03c e6bc 3ebd
00000060: 9d04 0fbe 8723 cc3d 4303 b33c 1488 c6bb
00000070: 1bfd 183e d417 2abd fe3e 873e dfbf 6f3b
00000080: 33b3 f13a 4d63 59be 0b50 c9bd df22 36be
00000090: 1232 4d3d 5757 09bc c841 86bd 5d1d df3a
000000a0: 2a45 eebc d358 c83d a363 f83c 516a 913d
000000b0: 8c7b b83d aa1f 18bc 0ad1 0b3c cf38 99bd
000000c0: 83bc 15be c645 88bc 2207 37bd 7b5d d63c
000000d0: 1b97 e13d 6b87 36be 9913 c2bd 27e0 3e3e
000000e0: 03e2 303e 0b0d 27bd b3b6 143d 27cf 05bd
000000f0: caab e6bd 8b4d 74bc 8837 a93b 1a1c 073e
00000100: a8ac debb 7374 97bc a4e1 a0bd f1df 4abd
00000110: a59c abb9 bf15 b5bd 68f4 ec3d 76fd 1fbe
00000120: 730f 613e d3b6 153e d46c 1bbe 4e84 96bd
00000130: dce6 9cbd dfc3 133e e3ce f73d e6d9 34bc
00000140: 28e0 01be 5b6c 023d 08cf d33c 678f 0e3a
00000150: 034c f6bb 3c9b 973d c6c1 19be a7d7 fd3c
00000160: ca4e dcbd f377 a9bd b33e 413e 1aca 3f3c
00000170: 17da 0fbe 3b53 dc39 f768 59bd eea2 173e
00000180: 8be3 7e3c 9d2c 523e ef53 93be 40a0 cfbd
00000190: 974d bdbd a33f 303e 0f30 07bd fb4c 00be
000001a0: eda6 06be 6d78 cd3d 37f0 143d f8f5 0fbe
000001b0: db13 db3c 2eae 01bd 576e fd3d 7d19 fb3d
000001c0: 482a 963d a049 0ebe 85a6 903d 17c9 35bc
000001d0: 31d2 21be 8df8 583d 19e9 8ebd b84c f5bd
000001e0: 5a4a 40be 1490 a6ba 49b1 233d 32d4 193e
000001f0: cde7 3abe 5f67 98bd ba6a f33c 545b aabd
00000200: 3fbe 2d3e cf98 ad3d 76c2 8a3c 02d1 06bc
00000210: b2f8 9dbd fa0e 61bd e32f 233d 7e7e 41be
00000220: 9f8c 453d 5c8b 093d 5674 45bd 5b91 94bc
00000230: 23c4 49bd 4383 ebbc 4c0a 25bd 9fa4 f9bd
00000240: 6e34 49bc 453e 4fbd 6e83 b8bd a191 43bd
00000250: 7918 02bc 7fcb 3c3d 586e 36be bbbf e73d
00000260: 6177 043e 4466 343c a5ef e53d 33b7 013d
00000270: 7bf6 f83c 7d4b 2e3c 0b83 00bd 8f00 783d
00000280: 11b6 2fbe ef6a 8fbc cd2f 3f3d c2c1 dc3d
00000290: bfe7 813d 4441 0b3e ff29 a1bd 7d0e 8d3c
000002a0: 0045 c93d 1aaa 5bbd 4a07 783d 80cc 533e
000002b0: dc3c 883c 60ab 37bd 0bdb efbd da54 953d
000002c0: bb5b cabd a820 c0bd b21c 673e 6bb9 a1bc
000002d0: f310 523d 7cbd 17be a4b7 8c3d 9752 9d3d
000002e0: 8bb9 86bc 884c 16bd 4c49 10be 8ddb ec3d
000002f0: fd99 e43d 6b21 4cbd f06b ad3d f0df dfbd
00000300: 15f5 8b3d 6805 c1bd 790a c93d 0724 f13d
00000310: 5e43 94bd 9192 86bd 060e 17be 86f9 06bc
00000320: e528 ea3d d99f 003d cdc4 623d 156a f33d
00000330: 1fd6 8a3d a2dc 323d 2244 e0bc e9db 213c
00000340: 12da 08bd 2b74 163d 1016 89bc 06d3 00be
00000350: b995 983d 4bd8 093d 80dd 54be 6d91 7dbd
00000360: ff9e f53d 168e 89bd b4ae 8a3c a0a6 e3bd
00000370: facd 65be c550 1fbe 15ee be3c 2870 9cbe
00000380: 1f0d d33d 08ea 75bc 70b1 25be 4c75 203d
00000390: ff3a 82bc bb22 0fbe 009a 3e3d 78e4 92bd
000003a0: 39bd bfbb e9fc 473c d31a 97bc fd3c 77bd
000003b0: 5d62 1bbd ad4c eabd 6f58 52be d533 723d
000003c0: 6716 293c 0e19 1bbe 3384 693d b29c 67be
000003d0: a3fe 7ebc d339 4cbd 603a 923d cfd6 eebd
000003e0: cf49 b8bd 0fe7 e6bd 97fe 833e d7df 91bc
000003f0: 5b8b eb3d 7b6f 40be 0a40 a6bc d714 233d

fc1.bias f4 [64]
-0.1383947 0.3141831 0.19167468 0.027718961 -0.1546681 -0.13434426 -0.07592569 -0.08342764
0.15370223 -0.124717444 0.12345138 0.09387773 0.19981518 -0.21700889 0.26870802 0.14079389
-0.2270548 -0.20351356 0.17716956 0.15225986 0.024245083 -0.3044103 -0.21176314 -0.0038338602
-0.1976897 -0.13688028 0.17494166 -0.13989483 0.1292516 0.19544014 0.25503704 0.031956077
-0.13821085 -0.043355584 -0.09571059 0.23318979 0.22917089 0.24381718 0.09390673 0.05579251
-0.23622379 0.12983337 -0.1442423 0.034424365 0.0484052 -0.28328168 0.30512467 -0.084485546
0.08726835 -0.09843139 -0.16120946 0.09158763 -0.11100486 0.05419174 -0.2642771 -0.08002421
-0.2909466 0.29156885 -0.10111396 0.13770062 0.020681947 -0.116441414 0.099142194 -0.21332902
00000000: 57b7 0dbe 9bdc a03e 5e46 443e e012 e33c
00000010: 5061 1ebe 8b91 09be ee7e 9bbd 1cdc aabd
00000020: 1e64 1d3e dc6b ffbd 14d4 fc3d f842 c03d
00000030: 5a9c 4c3e 9437 5ebe 1994 893e 462c 103e
00000040: 0e81 68be dc65 50be f06b 353e 02ea 1b3e
00000050: a09d c63c abdb 9bbe 70d8 58be 8041 7bbb
00000060: 2b6f 4abe 582a 0cbe e823 333e 9740 0fbe
00000070: 885a 043e 7621 483e 3794 823e 60e4 023d
00000080: 2587 0dbe a095 31bd ea03 c4bd 4ec9 6e3e
00000090: c6ab 6a3e 36ab 793e 2c52 c03d b086 643d
000000a0: a6e4 71be 0af3 043e 41b4 13be 9000 0d3d
000000b0: 8844 463d 4c0a 91be 4d39 9c3e c206 adbd
000000c0: c0b9 b23d 6696 c9bd 1814 25be 4c92 bb3d
000000d0: 8456 e3bd 28f8 5d3d 544f 87be bce3 a3bd
000000e0: f4f6 94be 8348 953e d614 cfbd 6401 0d3e
000000f0: 306d a93c d678 eebd 100b cb3d ec72 5abe

fc2.weight f4 [9, 64]
0.061823655 -0.099900745 -0.0072435564 0.0035752286 -0.043264993 -0.006101637 -0.03733012 0.03557476
0.0028026912 -0.01016648 0.12753256 -0.031647597 -0.036615428 -0.043697592 0.20168221 0.006325599
-0.051231872 -0.076571055 0.012034101 0.07381798 0.09316211 0.14511485 0.22293253 0.14228116
-0.04392075 0.10169091 -0.08513325 -0.057424188 0.027944598 -0.1284148 -0.057704248 0.038855765
0.17259298 -0.16158435 -0.052278757 0.05360883 -0.045691513 0.10671635 -0.06634125 0.0037076566
-0.0265113 -0.24945974 -0.15806533 0.06400468 0.03505047 0.18023197 -0.1267885 0.044723764
0.18152575 0.0028547056 0.027648998 0.121145524 -0.21588679 0.081941724 -0.011422828 -0.070998736
0.081033334 -0.0441954 0.025237415 -0.14163072 -0.0029260397 0.10503324 -0.03822387 0.1182813
0.12916541 0.15512292 -0.13198875 0.11010164 0.11294023 -0.0039576916 0.008330828 0.1320483
0.044936184 0.014609846 -0.1531248 -0.022108585 0.07245269 0.047347628 0.10971297 0.037279367
0.027426288 0.015470387 0.0011699268 0.10264466 0.15807353 0.028412754 0.06108428 -0.11114637
-0.099318154 -0.055326648 0.12136626 0.19260912 0.078380734 -0.030456861 0.01967459 0.24302585
-0.007931797 -0.12746644 0.006285128 -0.18174283 0.003113069 0.053666305 0.1160923 -0.045710128
-0.02062867 0.12223401 0.046536632 0.0028903533 0.11695385 0.30022454 0.04404699 -0.08930325
-0.019519022 0.05288284 0.12786356 0.084073335 -0.05365619 -0.02117983 -0.08868742 -0.14345253
0.12766011 0.034414746 0.13277586 0.02672948 0.18141656 -0.14841487 0.014306492 0.057997555
0.20349006 0.046052974 -0.037885465 -0.036614902 -0.06264145 -0.255801 -0.034135927 -0.21046038
-0.12759334 -0.10588061 0.17158721 -0.10204973 0.012778157 -0.046794113 -0.17332263 0.03459445
0.02082202 -0.020513957 0.020599384 0.12393588 -0.17375918 -0.21318348 -0.015604012 -0.050107636
0.16579305 -0.15121238 0.094150744 0.030523693 0.016498009 0.021528328 -0.13325109 0.08742015
0.14985077 0.054131925 0.019382736 -0.035364937 0.08769224 0.07377138 -0.0785371 -0.008883158
0.099650554 0.1372417 -0.09973692 -0.22726965 -0.11562046 0.014499122 0.1408902 -0.05074786
0.2516869 0.2646589 0.053028047 0.007526605 -0.047842726 0.112477615 0.024352252 0.042196333
-0.08173357 -0.1877711 0.08354946 -0.03244111 0.015143432 -0.004531457 0.020090485 -0.07427217
-0.081633106 -0.048816092 -0.16125897 0.048678957 0.0765767 0.13497494 -0.12521356 -0.0587998
0.010491537 -0.15592016 -0.14947027 0.03528741 0.107596934 0.08713331 0.07690502 0.10655719
-0.0017764968 0.05705688 0.09240471 -0.11856332 0.08511558 -0.075413875 0.17303638 0.08697272
0.16650325 0.023417126 0.076071344 -0.041225072 -0.03254902 0.050118964 0.24182253 -0.1186501
0.06849176 -0.007983652 -0.045208655 0.028494403 0.1787659 -0.035850387 -0.041796878 -0.029235763
0.03273384 0.13759737 0.08765148 -0.28160635 0.083247826 -0.045382027 -0.013269464 -0.010488341
0.0633685 0.12083986 -0.11527874 -0.21716058 0.052239724 0.113086425 -0.0737428 -0.12491864
-0.29411256 -0.017262362 0.05185576 -0.10159452 0.08349212 0.21772389 -0.016798181 -0.095759206
00000000: cd3a 7d3d c398 ccbd 5b5b edbb 624e 6a3b
00000010: a236 31bd 3ef0 c7bb 78e7 18bd d7b6 113d
00000020: 5bad 373b 4f91 26bc e597 023e e9a0 01bd
00000030: 0ffa 15bd 3ffc 32bd c885 4e3e f846 cf3b
00000040: 83d8 51bd 49d1 9cbd ae2a 453c e22d 973d
00000050: c7cb be3d fd98 143e 6d48 643e 27b2 113e
00000060: 3fe6 33bd 5343 d03d 575a aebd a035 6bbd
00000070: 12ec e43c 2b7f 03be 4a5b 6cbd 3927 1f3d
00000080: 37bc 303e 5e76 25be 4022 56bd ef94 5b3d
00000090: 0627 3bbd 1a8e da3d ecdd 87bd 28fc 723b
000000a0: 3a2e d9bc 6072 7fbe e1db 21be e314 833d
000000b0: 1591 0f3d bb8e 383e d8d4 01be 4430 373d
000000c0: e3e1 393e 0316 3b3b 2780 e23c 251b f83d
000000d0: 6d11 5dbe 10d1 a73d d026 3bbc c967 91bd
000000e0: cef4 a53d 3c06 35bd b2be ce3c a507 11be
000000f0: cdc2 3fbb ab1b d73d a290 1cbd 773d f23d
00000100: f043 043e 8bd8 1e3e 0f28 07be f87c e13d
00000110: 354d e73d 86af 81bb 067e 083c ab37 073e
00000120: 010f 383d 235e 6f3c bfcc 1cbe 101d b5bc
00000130: 1362 943d 96ef 413d 32b1 e03d 40b2 183d
00000140: 18ad e03c 8277 7d3c 3b58 993a 5d37 d23d
00000150: 07de 213e ddc1 e83c 8333 7a3d b5a0 e3bd
00000160: 5167 cbbd 329e 62bd e08e f83d 533b 453e
00000170: 1486 a03d ab80 f9bc 9b2c a13c c5db 783e
00000180: 5ef4 01bc 9086 02be 7af3 cd3b cb1a 3abe
00000190: a204 4c3b 33d1 5b3d cdc1 ed3d 8b3a 3bbd
000001a0: 75fd a8bc d355 fa3d 329d 3e3d 156c 3d3b
000001b0: 8085 ef3d 08b7 993e 9e6a 343d 9fe4 b6bd
000001c0: 5be6 9fbc ad9b 583d aaee 023e a42e ac3d
000001d0: 98c6 5bbd 5381 adbc c0a1 b5bd 38e5 12be
000001e0: 55b9 023e 7af6 0c3d 65f6 073e c8f7 da3c
000001f0: 43c5 393e 11fa 17be c765 6a3c d88e 6d3d
00000200: b35f 503e 0ba2 3c3d ca2d 1bbd 82f9 15bd
00000210: 294a 80bd 59f8 82be 1dd2 0bbd ed82 57be
00000220: d4a7 02be efd7 d8bd 8fb4 2f3e 73ff d0bd
00000230: 7a5b 513c 2fab 3fbd 7d7b 31be e9b2 0d3d
00000240: f192 aa3c e30c a8bc 0ac0 a83c 18d2 fd3d
00000250: eded 31be c54c 5abe f8a7 7fbc aa3d 4dbd
00000260: a7c5 293e 6bd7 1abe 1bd2 c03d d30c fa3c
00000270: d526 873c 2d5c b03c f972 08be 5609 b33d
00000280: 7b72 193e 70b9 5d3d 8bc8 9e3c d3da 10bd
00000290: fd97 b33d 7315 973d 0fd8 a0bd aa8a 11bc
000002a0: 9715 cc3d 1789 0c3e df42 ccbd 60b9 68be
000002b0: 6bca ecbd ba8d 6d3c 8545 103e fddc 4fbd
000002c0: 1bdd 803e 5f81 873e f033 593d bda1 f63b
000002d0: bcf6 43bd aa5a e63d 607e c73c 10d6 2c3d
000002e0: ee63 a7bd 1147 40be fb1b ab3d f8e0 04bd
000002f0: 281c 783c 9e7c 94bb cd94 a43c 021c 98bd
00000300: 422f a7bd 62f3 47bd 1221 25be 9663 473d
00000310: 3fd4 9c3d df36 0a3e fc37 00be 0fd8 70bd
00000320: b2e4 2b3c 89a9 1fbe bc0e 19be 8889 103d
00000330: c85b dc3d f372 b23d 6180 9d3d a83a da3d
00000340: 57d9 e8ba 7ab4 693d ae3e bd3d 53d1 f2bd
00000350: 1451 ae3d 9772 9abd 7330 313e c11e b23d
00000360: d47f 2a3e 46d5 bf3c 4bcb 9b3d 9fdb 28bd
00000370: 1f52 05bd 8b49 4d3d 53a0 773e d3fe f2bd
00000380: 6845 8c3d ddcd 02bc b62c 39bd 186d e93c
00000390: 680e 373e dbd7 12bd 3433 2bbd d77f efbc
000003a0: eb13 063d 53e6 0c3e 9f82 b33d b52e 90be
000003b0: d67d aa3d 81e2 39bd 2a68 59bc 4ad7 2bbc
000003c0: 58c7 813d e37a f73d 4317 ecbd 585f 5ebe
000003d0: 52f9 553d db99 e73d 7706 97bd 58d5 ffbd
000003e0: ec95 96be cc69 8dbc b566 543d ca10 d0bd
000003f0: ebfd aa3d 03f3 5e3e 579c 89bc 671d c4bd

fc2.bias f4 [9]
0.106769934 -0.11775322 -0.015386373 0.06483008 0.03723927 0.062205955 -0.0863999 0.091801256
-0.005754158
00000000: 32aa da3d 9a28 f1bd 2017 7cbc a2c5 843d
00000010: 3488 183d accb 7e3d 6ef2 b0bd 4c02 bc3d
00000020: 608d bcbb
