examples/carla_scenic/Carla_Challenge/target_agent_0_episode_2.pt (torch, 6559 bytes, 4 tensors)

fc1.weight f4 [64, 10]
-0.116769135 -0.10555507 -0.08519374 0.2764832 0.11659457 -0.061768193 0.03226411 -0.0854565
0.08709801 -0.010844098 -0.12026675 0.12184995 0.062151875 0.004833535 -0.03051939 -0.09755205
-0.03622654 0.1329179 0.037245464 0.12699533 -0.06357146 0.11186401 0.07633217 -0.076220654
0.18035741 0.048475336 0.014062126 0.14095 -0.04077081 0.032225385 -0.055662204 0.093212165
-0.038339283 -0.03164552 0.05535189 0.045959063 0.1360476 0.04346096 -0.0589281 -0.07525727
0.11804155 0.025606815 0.14787994 -0.18374704 0.27554962 0.075432085 -0.0044320184 0.16220582
-0.09867378 0.02636402 0.07943271 -0.081186555 0.065956704 0.021871818 0.032775402 -0.098145895
-0.0026479631 -0.0046827155 -0.26121512 -0.11481972 0.06912338 0.09642884 0.0012453556 0.11049082
0.18970296 -0.016098214 0.041525934 -0.053453375 -0.0017655803 -0.0939622 -0.027822882 -0.08910611
0.10580327 0.08864327 -0.086268485 0.08080461 -0.08156052 -0.091419026 -0.069721125 -0.056765985
-0.2440108 0.09999473 0.088927016 0.049868207 -0.13180688 0.018413607 -0.032176282 0.15885474
-0.031976048 0.08572566 -0.010999716 -0.12912492 0.027185103 -0.11581029 -0.0437233 -0.10698326
0.20892015 -0.03133366 -0.09576198 0.0067064613 0.021342698 0.02248649 -0.05453673 -0.059249897
0.077338174 -0.054977573 -0.09153024 -0.029979264 -0.019188285 -0.1604263 0.08302861 -0.11374829
-0.19615267 -0.094259255 -0.09780713 -0.008552874 -0.0543119 0.09152948 -0.1356009 0.019067436
-0.02784245 -0.101861 -0.08498475 0.08539558 0.025326958 -0.035409883 -0.049027514 0.059186857
-0.11194625 0.1088776 0.033941165 -0.21130733 -0.07400665 -0.0646933 0.07157053 -0.027110353
-0.0151523445 -0.15634675 -0.074119955 0.14472651 0.04562236 0.25804743 0.18312861 0.019255161
0.27337542 0.0608776 -0.06162102 -0.07126011 0.12632813 -0.066853665 -0.05727152 0.06788793
0.004019666 -0.010157447 -0.011865901 0.0029118184 -0.09810937 0.08313987 -0.095358096 -0.13944028
-0.16458136 -0.009935579 -0.055030372 0.20011666 0.19702774 0.14141361 -0.0981205 -0.27821314
0.078426495 0.032675933 0.23068063 -0.13496451 -0.029664526 -0.18091545 0.081102975 0.07408986
0.30528578 0.11215533 0.05910453 -0.078118555 -0.071809255 -0.07884907 -0.016009746 0.080222145
0.121298574 0.09856627 -0.09299033 -0.15404478 0.036978137 0.049436025 0.050555844 -0.19982348
0.17537996 0.14545736 -0.12592743 0.083226025 0.13367663 -0.08990737 -0.115260355 -0.06618922
0.16279231 0.091607325 -0.0097346185 0.018509433 0.24835324 -0.03217284 -0.07852332 0.12630746
0.0696176 0.08948272 0.027989162 0.058734506 0.042487197 0.11861884 -0.05858299 0.22672573
-0.074231796 -0.08130711 -0.13038932 -0.054392245 -0.090150885 0.060050916 0.16063835 -0.021746589
-0.08255593 -0.08032792 0.0053852526 -0.044491064 0.26415235 0.02314668 -0.15814514 0.073249266
0.1666368 -0.062375512 0.058610864 0.08427482 -0.1919543 0.07885536 -0.008073304 -0.15773034
0.06417078 -0.03755159 -0.06885322 -0.05179521 0.057350077 0.13511887 -0.086938255 0.10371436
0.17546648 0.05669993 -0.09256174 0.011770713 -0.038105484 0.05317245 0.08526593 -0.034196924
00000000: a824 efbd 422d d8bd 0e7a aebd 358f 8d3e
00000010: 22c9 ee3d a500 7dbd 5f27 043d d103 afbd
00000020: 7160 b23d 72ab 31bc 6a4e f6bd 778c f93d
00000030: f792 7e3d a162 9e3b cd03 fabc 5fc9 c7bd
00000040: 4862 14bd a11b 083e b38e 183d 100b 023e
00000050: c131 82bd f518 e53d 0a54 9c3d 9319 9cbd
00000060: 9daf 383e 138e 463d d564 663c 3255 103e
00000070: 4bff 26bd c4fe 033d 0dfe 63bd 05e6 be3d
00000080: a709 1dbd bc9e 01bd aab8 623d 923f 3c3d
00000090: 1050 0b3e 1f04 323d 975e 71bd 7c20 9abd
000000a0: c5bf f13d 62c5 d13c d76d 173e 2f28 3cbe
000000b0: d714 8d3e 237c 9a3d 773a 91bb 4819 263e
000000c0: 7b15 cabd 5bf9 d73c 9ead a23d 2345 a6bd
000000d0: 4f14 873d 872c b33c 803f 063d b700 c9bd
000000e0: 7389 2dbb 7771 99bb fdbd 85be 9a26 ebbd
000000f0: 8f90 8d3d 7c7c c53d 333b a33a 0349 e23d
00000100: 7e41 423e 67e0 83bc 1917 2a3d edf1 5abd
00000110: 0b6b e7ba 416f c0bd d0ec e3bc 447d b6bd
00000120: 63af d83d 9a8a b53d 88ad b0bd e37c a53d
00000130: 3409 a7bd e639 bbbd f3c9 8ebd 7383 68bd
00000140: f8dd 79be 09ca cc3d 5e1f b63d 9b42 4c3d
00000150: 62f8 06be 22d8 963c 47cb 03bd d1aa 223e
00000160: 51f9 02bd ef90 af3d 2738 34bc 5339 04be
00000170: 4bb3 de3c f22d edbd 3417 33bd 0a1a dbbd
00000180: 2aef 553e b957 00bd db1e c4bd e0c1 db3b
00000190: e2d6 ae3c 9635 b83c e861 5fbd 05b0 72bd
000001a0: 7a63 9e3d 2a30 61bd 3574 bbbd 1397 f5bc
000001b0: c030 9dbc cb46 24be e70a aa3d ddf4 e8bd
000001c0: 3fdc 48be ff0a c1bd 1b4f c8bd 5b21 0cbc
000001d0: 2876 5ebd cf73 bb3d f6da 0abe 5033 9c3c
000001e0: da15 e4bc 809c d0bd 7c0c aebd e1e3 ae3d
000001f0: 7b7a cf3c f409 11bd 13d1 48bd eb6d 723d
00000200: 1344 e5bd 38fb de3d e405 0b3d f360 58be
00000210: cc90 97bd ec7d 84bd 9293 923d 8816 debc
00000220: 8a41 78bc 5d19 20be 34cc 97bd 3033 143e
00000230: 83de 3a3d cb1e 843e 1186 3b3e 00bd 9d3c
00000240: ddf7 8b3e ca5a 793d 5366 7cbd d2f0 91bd
00000250: 295c 013e 93ea 88bd 8b95 6abd d408 8b3d
00000260: 67b7 833b 6c6b 26bc 3269 42bc 35d4 3e3b
00000270: 91ed c8bd 3c45 aa3d 1b4b c3bd 6fc9 0ebe
00000280: 0488 28be d7c8 22bc 8767 61bd 62eb 4c3e
00000290: a4c1 493e bbce 103e 67f3 c8bd f471 8ebe
000002a0: 129e a03d 33d7 053d 8b37 6c3e 2334 0abe
000002b0: 0503 f3bc e641 39be 5119 a63d 6dbc 973d
000002c0: 6b4e 9c3e b2b1 e53d 9717 723d 9ffc 9fbd
000002d0: bb10 93bd 9f7b a1bd df26 83bc 824b a43d
000002e0: 636b f83d 1ddd c93d b771 bebd eabd 1dbe
000002f0: 6376 173d 6e7d 4a3d a513 4f3d 879e 4cbe
00000300: ce96 333e c6f2 143e 1ff3 00be 6872 aa3d
00000310: 87e2 083e 5b21 b8bd 9f0d ecbd 378e 87bd
00000320: 07b3 263e 9f9c bb3d f37d 1fbc 18a1 973c
00000330: 5050 7e3e abc7 03bd d6d0 a0bd be56 013e
00000340: ac93 8e3d b742 b73d 8749 e53c 9893 703d
00000350: 0e07 2e3d 6fee f23d b8f4 6fbd ca2a 683e
00000360: d706 98bd 5884 a6bd c784 05be 67ca 5ebd
00000370: 07a1 b8bd f3f7 753d 617e 243e e725 b2bc
00000380: 1513 a9bd f782 a4bd c676 b03b 433c 36bd
00000390: fa3e 873e 1b9e bd3c cdf0 21be b603 963d
000003a0: d6a2 2a3e 777d 7fbd f211 703d 4798 ac3d
000003b0: ab8f 44be eb7e a13d e445 04bc 1084 21be
000003c0: f86b 833d b2cf 19bd eb02 8dbd 3727 54bd
000003d0: eae7 6a3d 9a5c 0a3e af0c b2bd 3268 d43d
000003e0: 7cad 333e 303e 683d 0291 bdbd f3d9 403c
000003f0: 7f14 1cbd 5bcb 593d e79f ae3d 1312 0cbd

fc1.bias f4 [64]
0.054918677 -0.14792502 -0.18734345 0.041098803 0.017400473 -0.18585362 0.058838993 -0.25352904
-0.20264207 -0.046987355 -0.054093868 0.2972605 0.17149156 0.0566521 0.19866583 0.23350641
-0.16390306 -0.09660895 -0.20405696 -0.11711499 0.22487202 0.17355582 0.02165088 0.10360786
-0.08613181 0.27471927 0.2882819 0.31112745 -0.17278905 -0.31201276 0.31585428 -0.11762744
0.092528075 0.062719226 -0.18096243 -0.07435314 -0.013687283 0.23478177 -0.07389027 0.18377885
0.20651922 -0.04859972 0.094471216 -0.19011688 -0.19966398 0.060253203 0.14865717 0.24977794
0.2683185 -0.23014635 -0.19841903 0.12758356 -0.06347591 -0.19482368 -0.28015226 0.3083783
0.27991793 -0.161803 -0.2196297 -0.24018838 -0.056933016 -0.036805093 0.1650641 0.19670925
00000000: 68f2 603d a879 17be f6d6 3fbe 3857 283d
00000010: 708b 8e3c 6950 3ebe 2801 713d 8fce 81be
00000020: 6781 4fbe d075 40bd 8891 5dbd 8732 983e
00000030: 7c9b 2f3e 080c 683d 0e6f 4b3e 4e1c 6f3e
00000040: 34d6 27be eada c5bd 4ff4 50be fcd9 efbd
00000050: da44 663e 9eb8 313e 305d b13c 5c30 d43d
00000060: e065 b0bd 01a8 8c3e af99 933e 194c 9f3e
00000070: 9def 30be 23c0 9fbe a7b7 a13e a8e6 f0bd
00000080: 5c7f bd3d f072 803d 374e 39be 7646 98bd
00000090: a040 60bc a26a 703e c853 97bd 8630 3c3e
000000a0: c679 533e 8010 47bd 207a c13d 00ae 42be
000000b0: b774 4cbe 10cc 763d 9639 183e cac5 7f3e
000000c0: 0b61 893e 7cab 6bbe 5c2e 4bbe 44a5 023e
000000d0: a8ff 81bd dc7f 47be 1e70 8fbe c3e3 9d3e
000000e0: 6751 8f3e b0af 25be 9ce6 60be f1f3 75be
000000f0: 9832 69bd f0c0 16bd 9006 293e 266e 493e

fc2.weight f4 [9, 64]
0.093446545 -0.08716328 -0.07117548 0.011429536 0.11454427 -0.004817457 -0.0069290027 0.052210964
-0.02119719 0.06851543 -0.18366311 0.004346076 0.02067428 -0.11069101 0.109321944 -0.06144153
-0.009941782 -0.06707645 -0.19549032 0.12375937 0.011274858 0.03264787 -0.06099179 0.041935008
-0.05030153 0.0020692828 0.0801699 -0.087447815 0.06109832 -0.13032667 0.005677753 0.11694391
-0.042236965 0.098515354 -0.05252266 0.05811618 0.10268318 -0.13123764 0.11774844 0.08619638
-0.15251116 0.020784132 -0.21917258 -0.18723468 -0.108723365 0.12808052 0.1839472 -0.05772065
0.0876352 -0.09734525 -0.0220904 0.0941863 0.034869935 -0.045495138 -0.11755101 0.012499407
-0.20190744 0.1515099 0.019538937 -0.11288184 0.20915747 -0.073039785 0.062619366 0.039397724
-0.017186703 -0.03102324 -0.01984616 0.09663801 -0.094292454 -0.2171764 0.11050017 0.21645115
-0.16850528 0.09375989 0.053971674 -0.0073977844 0.061666824 -0.09978878 -0.03951368 -0.0442808
0.1570886 0.026513258 0.12859051 -0.12336935 -0.012284407 0.26646608 -0.00042266367 -0.13471799
-0.014606965 0.07347792 -0.15517183 -0.13243611 0.10103633 0.21799937 -0.031981643 0.023074407
-0.09851365 -0.046996225 0.10084075 0.08175292 -0.018483331 -0.14269876 -0.20919327 -0.0706274
-0.08641376 -0.0330511 -0.019477995 0.027810795 -0.10925283 -0.06247666 0.143833 -0.003576218
0.012033321 -0.0016282735 0.12331929 0.04950063 -0.13733378 0.033635 0.03394427 0.027233023
-0.053389292 -0.0019893688 -0.021585612 0.059586473 0.033320647 -0.039490666 0.122298315 0.09481334
0.14543755 -0.06503315 0.10214607 0.084573686 0.0597375 0.098116 0.016678909 0.024299774
-0.026612554 -0.1545269 -0.11586869 0.09107066 -0.08837157 0.15617071 -0.20170033 0.044690028
0.04675541 -0.10017057 -0.041868545 0.0012481663 -0.02129632 -0.03359251 -0.050944623 -0.08793276
-0.08241823 -0.058154505 -0.031030137 0.07618093 -0.113151625 0.04710817 0.01702363 0.033129122
-0.10424613 0.0078047635 -0.04017386 0.1719589 0.12030502 -0.19327909 0.010168592 0.15144898
0.07428112 -0.091811635 -0.07027829 -0.054238982 0.06900968 0.0994769 0.12561493 -0.054829456
0.008871333 0.018155186 -0.079781495 0.13777931 0.07569628 0.083511434 -0.020783775 -0.06431891
0.053569045 0.051570624 0.020708116 0.14443955 -0.13266657 0.01830788 0.12582988 0.10093464
-0.022102214 -0.08447128 -0.08971616 0.0052119168 0.0074082585 0.022773858 0.16447122 -0.12804319
0.07272089 -0.18541694 -0.13043056 -0.07147403 0.09604663 0.015104294 0.036328826 0.000209166
0.17902534 -0.09874024 0.144289 0.0632887 0.0026572226 0.116240256 -0.063774355 0.03309294
-0.09871303 -0.07903632 0.20144098 -0.095088966 -0.21914975 0.010635994 -0.06346192 -0.059773684
-0.06662007 0.024367284 0.025737355 -0.015567142 0.08399759 -0.16255642 -0.105065785 -0.08052483
-0.14877458 0.008000762 0.1872215 -0.10342822 -0.053185053 -0.10839069 0.007099412 0.016465388
-0.14260781 0.18835871 -0.010326947 -0.12819195 0.019197628 -0.22356503 0.044873882 0.17638311
-0.009109199 -0.08969186 -0.009826778 0.077937014 -0.016047131 0.14734037 -0.23458545 -0.003851375
00000000: e760 bf3d a982 b2bd 73c4 91bd f342 3b3c
00000010: 3096 ea3d c2db 9dbb b00c e3bb 2adb 553d
00000020: bba5 adbc d151 8c3d 2f12 3cbe 8769 8e3b
00000030: 1c5d a93c f8b1 e2bd 2fe4 df3d 1daa 7bbd
00000040: dbe2 22bc 615f 89bd 9d2e 48be 8d75 fd3d
00000050: 2fba 383c c6b9 053d 87d2 79bd 0bc4 2b3d
00000060: fa08 4ebd ce9c 073b 1e30 a43d d717 b3bd
00000070: 3b42 7a3d 5b74 05be 720c ba3b 4a80 ef3d
00000080: ab00 2dbd 6bc2 c93d 0022 57bd 3b0b 6e3d
00000090: 8f4b d23d 2963 06be 1826 f13d ba87 b03d
000000a0: e32b 1cbe 7c43 aa3c c76e 60be 73ba 3fbe
000000b0: 5baa debd 8a27 033e a85c 3c3e 7d6c 6cbd
000000c0: 157a b33d f25c c7bd edf6 b4bc bfe4 c03d
000000d0: c7d3 0e3d 1c59 3abd 95be f0bd 50ca 4c3c
000000e0: d3c0 4ebe 6925 1b3e 1f10 a03c 982e e7bd
000000f0: 602d 563e e295 95bd 953e 803d 825f 213d
00000100: 21cb 8cbc 7324 febc 6a94 a2bc 26ea c53d
00000110: 671c c1bd 7d63 5ebe ea4d e23d 5fa5 5d3e
00000120: a68c 2cbe 2f05 c03d 6711 5d3d 1d69 f2bb
00000130: 5a96 7c3d 0f5e ccbd 19d9 21bd c95f 35bd
00000140: d5db 203e 5532 d93c 3bad 033e 12a9 fcbd
00000150: 8a44 49bc 3e6e 883e f598 ddb9 83f3 09be
00000160: 0d52 6fbc 977b 963d 5de5 1ebe 559d 07be
00000170: 23ec ce3d 3a3b 5f3e 2fff 02bd 8a06 bd3c
00000180: 86c1 c9bd 1d7f 40bd 9885 ce3d 136e a73d
00000190: 5b6a 97bc a01f 12be c336 56be 19a5 90bd
000001a0: b3f9 b0bd 9760 07bd 5190 9fbc 77d3 e33c
000001b0: f3bf dfbd 87e7 7fbd f548 133e fb5e 6abb
000001c0: 6827 453c cb6b d5ba d38e fc3d 2cc1 4a3d
000001d0: 3aa1 0cbe dbc4 093d 2609 0b3d ca17 df3c
000001e0: bbae 5abd 1260 02bb 4fd4 b0bc f210 743d
000001f0: 3b7b 083d f7c0 21bd 8a77 fa3d 7f2d c23d
00000200: 95ed 143e 1a30 85bd f531 d13d f834 ad3d
00000210: 4faf 743d 0bf1 c83d 35a2 883c 5210 c73c
00000220: 9202 dabc 4d3c 1ebe 904c edbd 4183 ba3d
00000230: 27fc b4bd 37eb 1f3e 888a 4ebe e40c 373d
00000240: 9a82 3f3d 3a26 cdbd 5a7e 2bbd 8399 a33a
00000250: 9f75 aebc 4d98 09bd 4fab 50bd 1716 b4bd
00000260: e4ca a8bd 6b33 6ebd ea32 febc bf04 9c3d
00000270: 0abc e7bd 7ff4 403d 2475 8b3c 67b2 073d
00000280: ff7e d5bd 1abf ff3b 588d 24bd fe15 303e
00000290: 7a62 f63d f4ea 45be 2b9a 263c 7115 1b3e
000002a0: b320 983d bd07 bcbd 10ee 8fbd b229 5ebd
000002b0: f254 8d3d 8cba cb3d 33a1 003e da94 60bd
000002c0: 1159 113c 2fba 943c 7b64 a3bd 0516 0d3e
000002d0: a706 9b3d 0b08 ab3d bc42 aabc a2b9 83bd
000002e0: 376b 5b3d b83b 533d 11a4 a93c f6e7 133e
000002f0: bfd9 07be 68fa 953c 8cd9 003e d2b6 ce3d
00000300: b40f b5bc 47ff acbd 1bbd b7bd bac8 aa3b
00000310: fac0 f23b 3e90 ba3c 256b 283e c11d 03be
00000320: b1ee 943d f0dd 3dbe 978f 05be fa60 92bd
00000330: 18b4 c43d 0078 773c 89cd 143d 9253 5b39
00000340: 6b52 373e 5338 cabd 7fc0 133e 829d 813d
00000350: cc24 2e3b 5f0f ee3d 219c 82bd 768c 073d
00000360: 0f2a cabd cbdd a1bd 8b46 4e3e 01be c2bd
00000370: cb68 60be 9842 2e3c 53f8 81bd 40d5 74bd
00000380: 1a70 88bd e69d c73c 25d7 d23c 530d 7fbc
00000390: ee06 ac3d 3175 26be bb2c d7bd 34ea a4bd
000003a0: 5d58 18be a115 033c feb6 3f3e 2dd2 d3bd
000003b0: 92d8 59bd f0fb ddbd 2fa2 e83b 6ce2 863c
000003c0: c807 12be 1be1 403e 5b32 29bc c044 03be
000003d0: 5844 9d3c 3bee 64be adcd 373d c69d 343e
000003e0: c03e 15bc 5eb0 b7bd 7f00 21bc 719d 9f3d
000003f0: 4675 83bc 65e0 163e 2b37 70be 5a67 7cbb

fc2.bias f4 [9]
-0.041444838 -0.07631278 0.044048026 -0.0939475 0.07575889 0.03077659 0.09863636 -0.038164318
0.039963424
00000000: 10c2 29bd e049 9cbd b46b 343d 8c67 c0bd
00000010: 7a27 9b3d 301f fc3c dc01 ca3d 3052 1cbd
00000020: b0b0 233d
