examples/carla_scenic/Carla_Challenge/target_agent_1_episode_0.pt (torch, 6559 bytes, 4 tensors)

fc1.weight f4 [64, 10]
000000 54 93 a7 bd 10 8d d9 bd df 70 68 bc 45 03 43 3e
       -0.081823975 -0.10622609 -0.014187067 0.19044216
000010 b2 a3 dd bd 03 b4 05 3e 90 64 65 bb 10 80 5b 3e
       -0.10822238 0.1305695 -0.0035002567 0.2143557
000020 13 dc b6 3d cf 34 c4 bc 09 89 aa bd 55 79 53 bd
       0.089286946 -0.023950962 -0.08326919 -0.051629383
000030 a0 92 5f be 10 f2 ea bd 87 ae 7d 3c ff af 2f be
       -0.21833277 -0.11471951 0.015483505 -0.17156981
000040 3d a5 13 bc 80 05 82 bd d0 3e ca 3d 77 2c 7d 3b
       -0.009011564 -0.06348705 0.09875262 0.003863124
000050 3f 59 03 bb de 2a 8f bd d5 e0 ef bd fa ee 39 bd
       -0.0020042208 -0.06990598 -0.11712805 -0.04539392
000060 89 b0 85 3e f7 1f 6d bd 65 04 9f 3d 60 87 cd 3c
       0.26111248 -0.057891812 0.0776451 0.025088966
000070 0a 14 e8 3d 0b 1d c2 3d 40 03 98 bd 31 c1 20 3e
       0.11331947 0.09478196 -0.07422495 0.15698697
000080 e5 0c 59 3c 6a 25 e1 3d 04 74 bf 3d 62 b4 bf 3c
       0.013247703 0.10993464 0.093483 0.023401443
000090 c5 81 19 3e 5c db 81 bc bf 15 9c 3c 53 71 12 3e
       0.1499091 -0.015851669 0.019053338 0.14301042
0000a0 b4 63 2d 3c 7c f4 0e 3d 63 23 d0 bd fb 07 25 be
       0.010582853 0.034901127 -0.101629995 -0.16116326
0000b0 41 9d b4 3d 76 d1 1c be 93 d9 98 bc 6f 20 f9 3a
       0.08819056 -0.15314278 -0.018658435 0.0019006858
0000c0 0a a1 95 3d 27 69 55 3d cf 8c 01 3e ed d2 06 bc
       0.073061064 0.052102234 0.1265137 -0.008229
0000d0 73 c3 c2 3d 5f af ab bb 1a b2 92 3d 23 15 9b 3d
       0.09509935 -0.0052394117 0.071628764 0.07572391
0000e0 57 29 e2 bb 83 ce 5f 3c ab 78 60 3e ce fb 1f 3e
       -0.0069019007 0.013660076 0.21921031 0.156234
0000f0 f0 39 ba bd 8d 45 e4 3d d9 a7 c4 3d 4b 2f 4b 3d
       -0.09093082 0.11146078 0.09602327 0.04960565
000100 de e3 27 3a e3 84 c1 bd 2e 3c 46 3d 20 42 b6 3d
       0.0006404499 -0.09449174 0.048397236 0.08899331
000110 7a 78 d4 bc a1 d6 35 bd 3e 5e 11 be d8 89 d8 bd
       -0.025936354 -0.04439414 -0.14196107 -0.105731666
000120 97 ca 8d 3d 9b 9f ec bd e3 b5 a8 bc 20 61 15 be
       0.069234066 -0.1155388 -0.020594543 -0.14587831
000130 d4 95 45 3d e5 01 62 be 4a 35 f4 3d f1 e0 0e be
       0.04823859 -0.22071035 0.119242266 -0.13952996
000140 38 72 40 3c 86 19 c6 3c 47 dc 37 bc 34 36 19 3e
       0.011745982 0.024182092 -0.011221952 0.14962083
000150 17 3b a8 bd 53 fe 8b 3d ef 4a 44 bd 11 d4 8c bd
       -0.082143955 0.06835618 -0.047923025 -0.06876386
000160 78 bd 44 3e e7 40 53 bd 03 29 26 bd 92 a5 ec 3d
       0.19212902 -0.051575568 -0.040566456 0.115550175
000170 58 23 60 3b 37 e5 2d 3e aa 17 17 be be 7f 84 3d
       0.0034200754 0.1698197 -0.14755121 0.064696774
000180 ff 56 83 bd 82 b4 07 bb 77 4c d5 3d a1 df 14 be
       -0.064130776 -0.0020706956 0.10414975 -0.14538433
000190 77 be dc 3d d5 37 7a bd a8 1f 87 3d 6c 2a c7 3d
       0.10778516 -0.0610884 0.06597835 0.09724888
0001a0 33 ed c7 3a 58 b9 b0 bd 85 69 9f 3c 3d 84 05 3e
       0.0015253186 -0.086291015 0.019459495 0.13038726
0001b0 0b 58 01 3e 64 12 a8 bd 01 fb 92 bd 5f f0 e8 bc
       0.12631242 -0.08206633 -0.071767814 -0.02843493
0001c0 db 27 40 be 85 dd 54 bd e6 e3 c3 3c 57 96 da 3d
       -0.18765204 -0.05196907 0.023912381 0.10673206
0001d0 fe 75 a3 bd 49 93 0a 3d c4 36 8e 3d 78 7e fa bd
       -0.079814896 0.03383187 0.069440395 -0.12231153
0001e0 90 73 2d be 36 43 05 bd 0f f5 43 be 43 49 0d bd
       -0.16938615 -0.0325348 -0.19136451 -0.034493696
0001f0 d0 bc ea 3c cf 0e e7 bd e3 90 6f 3c 8b 17 2d 3e
       0.028654486 -0.112821214 0.014621946 0.16903512
000200 e5 2f ea 3b eb 0d f5 bc ed 4a 1b be 00 64 6f 3e
       0.0071468228 -0.029913863 -0.151653 0.2337799
000210 e0 d6 11 be 17 d0 4f 3d e9 1a 96 bd 22 dd 1b be
       -0.14242125 0.05073556 -0.073293515 -0.15221074
000220 60 39 f9 3d 88 eb fc 3c 5b b0 e9 3d 5f cc a1 bd
       0.121691465 0.030874029 0.1141059 -0.07900309
000230 b7 af e5 3c e3 fb 0e bd 40 0d 0a 3d ad c6 1d bd
       0.028037889 -0.034908187 0.033704042 -0.03851955
000240 74 46 98 bd 77 08 90 3e b2 09 af 3c 97 11 6b 3c
       -0.07435313 0.28131458 0.021366928 0.014347455
000250 17 d0 0c be 68 af 6f bd f3 96 9a bc 7a ca 49 3d
       -0.13751255 -0.05851689 -0.018870806 0.049265362
000260 64 28 b7 bd cf 3d 22 be 7b df 72 bc 15 ed 88 3d
       -0.08943251 -0.1584389 -0.01482379 0.06685845
000270 76 a7 b5 bd 49 f0 19 3d c7 0c a9 3d 6f 54 ca bc
       -0.08869831 0.03758267 0.0825439 -0.024698464
000280 30 e1 74 bd 8a f9 90 bd 13 c7 18 3e ba f9 e8 bd
       -0.059785068 -0.07078846 0.14919691 -0.113757566
000290 97 cb 2b 3d af 06 c7 3c 2f fb 47 bb f3 b9 09 3e
       0.041942205 0.02429518 -0.0030514707 0.1344984
0002a0 87 c7 94 bd 0f a3 03 bd 4b 88 58 bd c9 47 b2 bb
       -0.07264619 -0.032137927 -0.052864354 -0.0054406864
0002b0 f3 55 65 3e f4 3f 12 3e a8 1e 71 bd c8 3c 38 be
       0.22396068 0.14282209 -0.058867127 -0.17991936
0002c0 e2 9e 34 3d 6a 8c ef 3d bf 3e 12 3d 45 00 25 3d
       0.044096835 0.11696704 0.03570437 0.04028346
0002d0 03 3a 81 bd 80 66 22 3d b2 6c cf 3c f3 8e b0 bd
       -0.06309893 0.039648533 0.025320385 -0.086210154
0002e0 a7 91 39 3d fb e4 18 bc ef e8 80 3d 70 cc 33 be
       0.04530492 -0.009331937 0.062944286 -0.17558455
0002f0 02 ba 50 be ed ff de bc 6b 77 18 be f2 5b af 3a
       -0.20383456 -0.027221644 -0.14889304 0.0013378842
000300 e5 20 4f 3d a3 5c 3c bd ca ba 2a bd 78 c0 10 3e
       0.05056848 -0.045986783 -0.041682042 0.14135921
000310 73 a6 47 3e 5f 4f a1 bc 9a af b9 bd 3b 26 3e 3d
       0.19497089 -0.019691167 -0.090666965 0.04642318
000320 67 ad f0 bd 50 6d 94 3b 51 1d 2a bd eb a7 db 3a
       -0.11751824 0.0045296326 -0.041531865 0.0016758417
000330 2e 9e a3 3c bd 55 d8 3b 83 f7 69 3d b0 76 74 3d
       0.019972887 0.0066020177 0.05712081 0.0596835
000340 cc 8d 45 be 73 29 44 3c 4f f3 5f bc 50 c7 5d 3d
       -0.19292372 0.011972773 -0.013668849 0.054145157
000350 9e 52 33 3e a1 8c 8b bb 1d fd e4 3d ca b6 b2 bb
       0.17511985 -0.0042587076 0.1118109 -0.005453919
000360 fd 48 1d bc df 8b c1 3d de 2d 2b 3e fb 04 1b 3d
       -0.009599921 0.094505064 0.16716716 0.037846547
000370 bd a9 f3 3b 53 e6 d0 bd d3 cb 47 be 0d 8e 71 bb
       0.007436006 -0.10200181 -0.19511347 -0.003685835
000380 47 35 f9 3c 0b d3 af bd e9 6f 2a bd e8 00 f8 bd
       0.030420912 -0.08585175 -0.041610632 -0.12109548
000390 b5 81 11 be cd a3 6d 3e 87 b4 a9 3d 4c b5 26 3d
       -0.14209636 0.23207016 0.08286386 0.040700242
0003a0 62 7b 53 3d d9 07 28 3e a0 b6 6f bd 60 b4 a9 3c
       0.05163134 0.16409244 -0.058523774 0.020715892
0003b0 d9 db 8e bd f3 c8 05 bc f3 c4 0a 3e fe f0 2b 3d
       -0.06975526 -0.008165586 0.13551693 0.041977875
0003c0 c8 ee cf bd 70 8d 69 3d f8 4f 7c 3d 83 e7 a5 bd
       -0.10152966 0.05701965 0.0615997 -0.08100798
0003d0 ba 66 08 3d 93 f0 80 be df 7a 92 3e 74 41 06 bd
       0.033301093 -0.25183544 0.28609368 -0.032777265
0003e0 6f 91 d1 3d 55 d4 17 bd e7 bf 2a be b9 28 0e be
       0.102328174 -0.03706773 -0.16674767 -0.13882722
0003f0 f0 53 62 3d 80 eb e8 3c 20 2b 0f 3e f7 de e0 3d
       0.05525583 0.028432608 0.13981295 0.10980027

fc1.bias f4 [64]
000000 a0 ba 9a be c2 08 6b be 15 0e 0c be 78 b4 39 bd
       -0.3022051 -0.2295256 -0.13677247 -0.045338124
000010 97 7d 9a 3e 70 09 ad 3d 00 dc 72 be 88 44 26 3e
       0.30173942 0.08449066 -0.23716736 0.1623708
000020 6e 46 1a 3e a8 0f 92 3d 0f d6 38 be 93 9c 95 be
       0.1506593 0.071318924 -0.18050407 -0.2922102
000030 90 ee 4b 3d 18 bc 19 bd 28 a6 b0 3d d9 ff 07 be
       0.049788058 -0.037532896 0.08625442 -0.13281192
000040 82 05 4d be 34 63 2f be b8 e5 ef 3d 44 1a a6 3d
       -0.20021632 -0.17127687 0.11713737 0.081104785
000050 00 d1 ba bc e0 40 9f bc b9 f2 07 be 0a 5e 8e bd
       -0.022804737 -0.019440114 -0.13276185 -0.0695153
000060 c0 f0 33 bd 34 40 c9 3d 00 e9 76 be 84 25 b8 3d
       -0.04393077 0.09826699 -0.2411232 0.089915305
000070 ee 42 98 be f8 72 ff 3d 0b 31 12 be 0e a3 0e 3e
       -0.29738563 0.124731004 -0.14276521 0.13929388
000080 94 50 91 bd a3 52 83 3e 9d 00 84 be 5b c8 9b 3e
       -0.07095447 0.25648984 -0.25781718 0.30426297
000090 66 6a 55 3e 5e 08 3f 3e 1c 11 82 bd 04 47 4d be
       0.20841369 0.18655536 -0.063509196 -0.20046622
0000a0 18 11 53 bd e7 63 91 3e c6 b4 62 3e 64 9e 14 3e
       -0.051529974 0.28396532 0.22139272 0.14513546
0000b0 72 05 30 3e f0 8b 8b bc d2 9d 14 3e d6 85 22 3e
       0.17189577 -0.0170345 0.14513329 0.15871367
0000c0 14 d5 9b bd 63 54 87 3e 12 58 7a 3e d0 91 ab 3c
       -0.07609001 0.2643157 0.24447659 0.020943552
0000d0 28 ae ca 3d 60 ae 5e 3c 78 6c 87 bd 9c c6 07 3e
       0.09896499 0.013591379 -0.06612486 0.13259357
0000e0 b0 51 2e be fe 29 4a 3e 80 cc bb bc e1 7f 87 3e
       -0.17023349 0.19742581 -0.022924662 0.2646475
0000f0 54 a5 58 be 44 98 f2 bd 30 52 db 3d 82 71 43 3e
       -0.21156818 -0.118454486 0.107090354 0.19086269

fc2.weight f4 [9, 64]
000000 9b 17 64 be 56 5c 88 be 9b 58 18 3e 53 b8 69 3d
       -0.2227463 -0.26632947 0.1487755 0.05706055
000010 97 11 a8 3d 7f 16 0b bd a8 79 76 3c c6 8b 30 be
       0.0820648 -0.033957 0.015043654 -0.1724082
000020 68 d3 ff 3d 87 b7 66 bc 12 27 c1 bb 8f 0b 32 3e
       0.124914944 -0.014081842 -0.00589455 0.17387222
000030 0c 6d 82 3d a3 f8 aa bc aa 45 ed 3d 28 d0 8e 3d
       0.06368455 -0.020870512 0.11585553 0.069732964
000040 1c e4 08 3e 13 a3 aa bd b7 5e df bd 19 00 1b 3e
       0.13368267 -0.08331885 -0.10906737 0.15136756
000050 6f 6f aa bd bf db 9e bd 53 37 29 be 78 b6 c8 bc
       -0.083220355 -0.07756757 -0.16525011 -0.02450107
000060 90 4c 0d bd d3 38 57 bd a7 83 46 3c 69 8d 17 3e
       -0.034496844 -0.052544426 0.012116349 0.14800037
000070 73 70 6e 3e de 20 9b 3d 80 b6 50 be fd 9c 46 3e
       0.23285083 0.07574628 -0.20382118 0.19395824
000080 17 74 90 bd f5 a5 db ba 3f c5 77 be dd b0 e8 bd
       -0.070533924 -0.0016757833 -0.24196337 -0.11361859
000090 1a ad 20 3d 57 59 cd bd d0 b7 b8 3d 13 c1 e8 bb
       0.039227583 -0.10026806 0.090194345 -0.0071030944
0000a0 29 01 a5 bd 8c 52 01 3e 84 19 ae 3d 41 34 42 bd
       -0.08056862 0.12629145 0.085009605 -0.047413114
0000b0 8d eb ed 3d 55 e0 76 bb 82 d2 90 bd 63 42 72 bc
       0.11617193 -0.0037670333 -0.07071401 -0.014786336
0000c0 5f 99 4f 3d 95 a5 d6 39 2a 20 77 3d 3a 62 23 3e
       0.050683375 0.0004094063 0.06033341 0.15955439
0000d0 02 af f3 bc 77 b3 09 3e 6c 6d 92 bd 15 3f c9 3e
       -0.029746536 0.13447367 -0.07149777 0.3930594
0000e0 ed c1 01 3e 32 bd e3 bd ec d6 b2 3d f2 00 f5 3d
       0.12671633 -0.111200705 0.08732399 0.11963071
0000f0 f3 18 71 3d e7 d7 15 be 3f 49 34 bd 6a b1 e4 3d
       0.058861684 -0.14633141 -0.044015165 0.111666515
000100 da 91 84 3c 07 78 5a 3d a5 42 e2 bd 8a 2b e4 bd
       0.016182829 0.053337123 -0.11047868 -0.11141117
000110 85 05 a0 bc 75 cd 44 3e 71 49 1b be b3 15 e2 3c
       -0.019533882 0.19219 -0.15164734 0.027598238
000120 48 23 83 bd 15 39 0a 3e 5f 80 94 bd 87 94 d4 bc
       -0.06403214 0.13498338 -0.07251047 -0.02594973
000130 e7 08 89 bd 8f 43 2c bd e5 d6 2f bd ba 4c ce 3c
       -0.06691151 -0.042056616 -0.04292955 0.02518307
000140 07 43 2a be bb 70 cc bd b0 5a 76 3d 24 99 ab bd
       -0.16627131 -0.09982439 0.06014508 -0.08378819
000150 91 fa 21 bd 4b b8 b1 3c f7 56 2d bc e6 a7 af bd
       -0.0395456 0.021694323 -0.010579816 -0.08576946
000160 b4 db b1 bc 0f 66 65 bd ee 2a b2 3d 71 3f 0d bd
       -0.021711208 -0.056005534 0.086995944 -0.03448433
000170 61 e5 27 be 4f c3 91 bd cb 5a 76 bd 32 e4 ea bd
       -0.16396095 -0.0711733 -0.06014518 -0.11469306
000180 61 f0 8b 3d ce 75 9b bd 07 6e d3 bd 5b e8 92 be
       0.06832958 -0.07590829 -0.103237204 -0.28692898
000190 90 e9 42 bd cc ab 29 3e 08 e7 69 bd 5f 33 0b 3e
       -0.047586024 0.16569442 -0.057105094 0.13593815
0001a0 15 bd 5c be 3e 84 8c 3d b3 2d 7a be af 48 35 3c
       -0.21556504 0.06861161 -0.24431495 0.011064692
0001b0 38 87 da 3c 7b 62 dc bc 60 ed ee bc 67 a4 ec bd
       0.026675805 -0.026902428 -0.029165924 -0.11554795
0001c0 d5 1e c5 3d ed 6c 7d be fb fb c5 3d 25 45 f3 3c
       0.09625021 -0.24748583 0.09667202 0.029696057
0001d0 42 ec f2 bb 23 90 66 bd 43 14 fe 3d 90 e5 52 3d
       -0.007413418 -0.056289803 0.12406208 0.05148846
0001e0 00 36 39 3e db 14 8d bc 7a e2 a4 3d c5 bf 79 bc
       0.18087006 -0.017221859 0.080510095 -0.015243475
0001f0 a3 18 7e bc 1c 01 a1 3b a7 fa 32 3e 4a 3e 7b bd
       -0.015508804 0.0049134623 0.17478429 -0.0613387
000200 66 95 30 3e 5f ff b2 bd d3 4e cb 3d 0a 18 c0 3d
       0.17244491 -0.087401144 0.09927144 0.09379585
000210 47 fc 8f ba 46 fa 31 bd c0 4a c4 3d a7 29 5a 3d
       -0.0010985219 -0.04345157 0.0958457 0.05326238
000220 3f 9d ac 3b 3b 7d af 3c 10 1d d4 bd 5c 60 8c bc
       0.0052677686 0.02142202 -0.10357106 -0.017135791
000230 e8 b0 42 3d 57 6c f0 bc a2 ce 51 3e fb d8 c6 bd
       0.047531992 -0.029348535 0.2048898 -0.097093545
000240 be bc 8c bd 4a 28 0c 3e ef 69 81 3d 99 9d 00 bd
       -0.06871937 0.13687244 0.06319033 -0.031400297
000250 1c 2c 1f 3d e2 75 e2 bd 63 d0 94 3d 4b fb c5 3d
       0.038860425 -0.110576406 0.07266309 0.09667071
000260 6b dd ba 3d c2 60 b8 3d d3 a8 9e bd 7f 34 3d bd
       0.091242634 0.0900283 -0.077470444 -0.046192642
000270 15 71 45 bd 12 93 35 bd 6b cb 39 3e 7d 0e 81 3d
       -0.048203547 -0.04432971 0.18144004 0.063015915
000280 44 e2 b8 3d f0 86 a3 3d 73 9f 77 3d f6 56 81 bc
       0.09027532 0.07984722 0.060454797 -0.015788537
000290 80 31 8d 3d db 87 d2 bc 45 ac fd bd 33 17 4e bd
       0.06894207 -0.025699547 -0.123863734 -0.050315093
0002a0 52 9c 01 be 81 df 98 3b 55 e5 8e 3e 0d 99 59 3d
       -0.12657288 0.0046653156 0.2790934 0.053124476
0002b0 0c 7b 00 3d e2 1a 26 bd fa 94 96 39 4f 67 d7 bd
       0.031367347 -0.04055298 0.00028721226 -0.105177514
0002c0 f1 d8 06 3e 8a 10 13 3e 65 45 9a 3d 46 db 42 bd
       0.13168694 0.14361778 0.07532767 -0.047572397
0002d0 a3 6e d8 3d 6f 4c 3b bd 77 88 f8 3d a8 bf 00 be
       0.10567977 -0.04572719 0.121354036 -0.12573111
0002e0 ef 3c b1 bc 6b 2b 9b 3c 88 77 26 3d f3 8f b5 bc
       -0.0216355 0.018941602 0.040641338 -0.022163367
0002f0 20 81 c5 3c 43 b6 4c bc 22 40 8a 3d df 7a 32 be
       0.024109423 -0.012494626 0.067505136 -0.17429684
000300 38 54 94 bd 1b 85 8c bd d6 23 93 bd e2 1e dd bd
       -0.07242626 -0.06861325 -0.071845695 -0.10796906
000310 38 a7 9a bd 6f 75 db ba 30 f2 11 bd 83 23 00 be
       -0.07551426 -0.0016743372 -0.03563136 -0.12513547
000320 d5 ff 6f 3c 03 b9 09 be 70 27 72 3d 43 6e 18 3d
       0.014648397 -0.13449483 0.05911964 0.03721453
000330 fb 1f be bd b5 e7 fa 3d a0 06 6e 3d e2 d8 06 3e
       -0.092834435 0.12251226 0.058111787 0.13168672
000340 27 59 15 be af 4c 8a 3d 7f 5c 75 3e ab cb 50 3d
       -0.1458479 0.067529075 0.23961066 0.050975483
000350 a9 d2 c1 bb b7 a9 e8 3d b5 fe c2 3d 8f 08 62 3d
       -0.005915005 0.113604955 0.09521238 0.055183943
000360 2f a6 f4 bc da 3a 7f bd f7 81 f3 bd 96 67 85 bd
       -0.029864399 -0.062311985 -0.11890023 -0.06513898
000370 6d 62 f8 bd 1a 34 6e bd 6b eb 8d bc 6b 4e a9 bd
       -0.12128148 -0.058155157 -0.01732417 -0.0826691
000380 90 c0 aa bc fd 07 5b 3d 4a 6c 5e be 9a 99 c5 bd
       -0.020843774 0.053474415 -0.21720996 -0.09648438
000390 cf 07 02 be 3b 84 26 3e a3 2b 1b be df 4e e6 bc
       -0.12698291 0.1626138 -0.15153365 -0.02811378
0003a0 c0 f9 4d 3d 8f 66 2a 3d 97 d9 81 be cc 95 ac bd
       0.05028701 0.041601714 -0.2536132 -0.08427009
0003b0 10 57 6d 3d c8 d4 ef bd a9 06 b6 bd c8 3b fd bd
       0.057944357 -0.11710507 -0.08887989 -0.12364918
0003c0 b5 fa 4d 3c 77 df b9 bc b6 df 4b 3b 4d 12 bc bc
       0.01257198 -0.022689564 0.0031108684 -0.022957945
0003d0 c7 1c 0b 3e 3e f6 2f bd bd 66 52 be 0a a6 52 bd
       0.13585196 -0.042959444 -0.20547004 -0.05142788
0003e0 cb 45 9f bc 7b 3c 85 3d f7 aa 99 bd d3 66 ae bb
       -0.01944246 0.06505676 -0.07503312 -0.005322316
0003f0 bf 18 86 bd ff e1 5c 3c d2 12 8c 3e 67 93 4a 3d
       -0.06547689 0.013481616 0.2735811 0.04945698

fc2.bias f4 [9]
000000 42 bb e6 bd 80 35 43 bb 88 f9 d3 bd 20 31 4d 3c
       -0.11266185 -0.0029786527 -0.10350329 0.012523919
000010 38 dd 2f bd 2a 63 f5 bd b4 67 f2 bd 74 42 92 3d
       -0.04293558 -0.11981805 -0.11836186 0.07141581
000020 70 0d f3 3d
       0.118677974
