examples/carla_scenic/Carla_Challenge/target_agent_1_episode_0.pt (torch, 6559 bytes, 4 tensors)

fc1.weight f4 [64, 10]
0.06524753 0.040975478 0.010214812 -0.006202432 0.021385925 0.12799561 0.106337085 -0.15938944
0.14426118 0.08327022 0.19217443 -0.10692059 -0.03053124 -0.13944393 -0.025998557 -0.027762294
0.10643456 0.18752359 0.012123051 0.0035518582 -0.09466572 -0.116626576 0.014215353 0.09014465
0.19714174 -0.06384793 0.08201181 0.033551972 0.083650105 -0.04864138 0.11563758 -0.20295215
-0.12073784 -0.08273383 0.10081712 0.1445881 0.030109301 -0.035103288 -0.116721034 -0.06737712
0.07427799 0.12570648 -0.13685693 -0.087086335 -0.07316513 -0.049508937 0.019954093 -0.047139935
0.09081363 -0.06787711 0.039516073 0.09978743 -0.050054032 0.039556373 0.033951458 -0.16335844
-0.14137954 0.08188552 -0.094901025 0.035466895 0.059953954 0.123621725 0.040498227 -0.10631541
0.13983943 -0.073998556 -0.09480067 0.013427423 -0.16591804 0.041965343 0.1535391 0.07431527
-0.1409649 -0.06747407 -0.05291874 -0.16711657 -0.04542222 0.017064922 0.08831983 0.09582534
0.02996019 0.06568634 0.17902501 -0.14579563 -0.048258454 -0.19721496 0.089220345 0.098578826
0.038481936 -0.07324638 -0.050644107 -0.061264742 -0.068680674 -0.08576591 0.06502631 0.10380323
-0.06430481 0.0469402 0.13186291 -0.06852698 -0.13168661 0.10352764 0.05422023 -0.058923554
0.12854412 0.017788615 0.0776257 -0.13641338 0.12388767 -0.11207032 -0.13319765 -0.02392449
0.08755676 -0.14214149 0.12617698 0.18882713 0.15668106 -0.048525587 -0.05681252 0.07025587
-0.1639544 -0.07837254 -0.015924867 0.01313092 0.20496252 -0.16400354 -0.058769982 0.019884631
0.01565912 -0.004962386 -0.035233054 0.030105544 0.005918104 0.13655595 0.16300206 0.09080821
-0.11602024 -0.12748346 0.00595851 -0.0175869 -0.076482885 -0.09820707 -0.018088019 -0.09486018
0.05353892 0.016949458 -0.026312906 -0.081529744 0.0020634106 0.11202923 0.08153062 -0.013731504
0.04278056 -0.26277676 0.19136043 0.045495864 0.018238213 -0.19083454 -0.062399454 -0.11575393
0.22261544 0.0076495106 0.03726218 0.004479773 0.010964976 -0.0061107255 -0.14388643 0.043534663
-0.02424306 0.05183349 0.041448664 0.09766422 -0.122548774 0.048030276 0.03665104 -0.19340687
-0.020770319 0.06477405 -0.108966045 -0.0348249 0.05393634 -0.15005836 0.0013312733 -0.17396724
-0.013319117 -0.09693515 -0.13861081 0.037015952 -0.051677685 -0.15672377 -0.027006641 0.06164329
0.06588379 -0.022819998 -0.10020419 0.18004625 0.078176565 -0.04486495 -0.03643693 -0.16773058
0.06218635 -0.13243358 -0.011537329 0.041103724 -0.01925131 0.0043724584 0.025455108 0.014329793
0.18286623 0.078144394 0.27801266 -0.12287358 0.048848204 -0.14400077 0.06864243 0.08527755
-0.044731673 -0.03785004 0.048909616 0.011387505 -0.18225917 -0.06922176 0.065601856 -0.10561799
-0.17600064 0.12306304 -0.12498257 -0.22403012 -0.071118675 0.12608987 -0.015694113 -0.08117028
-0.044141226 0.12526216 0.08578108 -0.0005066956 0.12813698 0.07803989 -0.07963543 -0.06271546
0.08146992 -0.051793195 0.13268054 0.045135442 0.020697286 -0.013433444 0.08162145 -0.07007987
0.081841126 0.063754916 0.027557796 -0.003697576 -0.07439147 -0.11915717 -0.17981948 -0.01052701
00000000: 7fa0 853d e7d5 273d 075c 273c c53d cbbb
00000010: 8931 af3c 4811 033e 42c7 d93d fc36 23be
00000020: 34b9 133e 9489 aa3d 60c9 443e 2ff9 dabd
00000030: a71c fabc 64ca 0ebe edfa d4bc c06d e3bc
00000040: 5dfa d93d 2f06 403e c39f 463c 4bc6 683b
00000050: 1ae0 c1bd ead9 eebd 83e7 683c c29d b83d
00000060: 86df 493e b4c2 82bd cff5 a73d cb6d 093d
00000070: bf50 ab3d 2f3c 47bd 65d3 ec3d b0d2 4fbe
00000080: 6745 f7bd 5b70 a9bd 3579 ce3d e70e 143e
00000090: c8a7 f63c 77c8 0fbd 700b efbd 04fd 89bd
000000a0: 0f1f 983d 33b9 003e 3924 0cbe 525a b2bd
000000b0: 9ad7 95bd e2c9 4abd c476 a33c ce15 41bd
000000c0: 7ffc b93d 2703 8bbd 9bdb 213d 5a5d cc3d
000000d0: 7505 4dbd dd05 223d af10 0b3d 6f47 27be
000000e0: ccc5 10be 98b3 a73d 785b c2bd bc45 113d
000000f0: 4792 753d 632d fd3d 78e1 253d e5bb d9bd
00000100: 1132 0f3e 8e8c 97bd db26 c2bd b2fe 5b3c
00000110: 6be6 29be dae3 2b3d 5b39 1d3e 9b32 983d
00000120: 1a59 10be d82f 8abd 52c1 58bd 9b20 2bbe
00000130: a60c 3abd bccb 8b3c 07e1 b43d 1340 c43d
00000140: 136f f53c 8f86 863d 5552 373e 734b 15be
00000150: a8aa 45bd b8f2 49be 28b9 b63d b2e3 c93d
00000160: 3c9f 1d3d 3302 96bd 3270 4fbd bdf0 7abd
00000170: 74a8 8cbd 0aa6 afbd 842c 853d ca96 d43d
00000180: 3db2 83bd 5e44 403d 1207 073e e057 8cbd
00000190: dbd8 06be 4d06 d43d 0816 5e3d d359 71bd
000001a0: 12a1 033e 6eb9 913c 39fa 9e3d f3af 0bbe
000001b0: d2b8 fd3d 2085 e5bd f764 08be 4bfd c3bc
000001c0: f550 b33d 8a8d 11be 8a34 013e e65b 413e
000001d0: 0071 203e c4c2 46bd 3fb4 68bd 4fe2 8f3d
000001e0: aae3 27be c881 a0bd de74 82bc 1223 573c
000001f0: b2e1 513e 8bf0 27be cbb8 70bd 18e5 a23c
00000200: 8e47 803c 839b a2bb 8950 10bd e79f f63c
00000210: a8ec c13b 53d5 0b3e 03ea 263e a8f9 b93d
00000220: 059c edbd 068b 02be 9b3f c33b 6712 90bc
00000230: 0fa3 9cbd ca20 c9bd 532d 94bc 0e46 c2bd
00000240: a04b 5b3d 97d9 8a3c 2a8e d7bc 11f9 a6bd
00000250: 493a 073b 956f e53d 87f9 a63d 1afa 60bc
00000260: ab3a 2f3d ad8a 86be fdf3 433e df59 3a3d
00000270: 4e68 953c 216a 43be 9296 7fbd 6510 edbd
00000280: 4df5 633e bfa8 fa3b 3aa0 183d 0fcb 923b
00000290: 71a6 333c 7b3c c8bb f756 13be 6751 323d
000002a0: 6299 c6bc 5b4f 543d 13c6 293d 2e04 c83d
000002b0: dafa fabd 65bb 443d 671f 163d 730c 46be
000002c0: 8426 aabc 42a8 843d 9729 dfbd 8ea4 0ebd
000002d0: 5aec 5c3d e6a8 19be 1f7e ae3a 7824 32be
000002e0: 6d38 5abc f085 c6bd feef 0dbe 0a9e 173d
000002f0: fbab 53bd 327c 20be 083d ddbc ad7d 7c3d
00000300: 15ee 863d 01f1 babc db37 cdbd 0b5e 383e
00000310: 091b a03d 4fc4 37bd e43e 15bd 91c1 2bbe
00000320: 1db7 7e3d ab9c 07be 1107 3dbc 615c 283d
00000330: ecb4 9dbc d746 8f3b 3b87 d03c 82c7 6a3c
00000340: 4941 3b3e 2b0a a03d ad57 8e3e 25a5 fbbd
00000350: 0e15 483d f074 13be 6794 8c3d ffa5 ae3d
00000360: 8f38 37bd a508 1bbd 7355 483d a892 3a3c
00000370: 26a2 3abe 23c4 8dbd 445a 863d 3f4e d8bd
00000380: 8339 34be 7a08 fc3d ddf6 ffbd 2768 65be
00000390: aba6 91bd b41d 013e f190 80bc 9b3c a6bd
000003a0: 6ecd 34bd b944 003e fead af3d c4d3 04ba
000003b0: 5736 033e 61d3 9f3d e617 a3bd f770 80bd
000003c0: b4d9 a63d 1a25 54bd 68dd 073e f1df 383d
000003d0: 5b8d a93c f317 5cbc 2629 a73d 0986 8fbd
000003e0: 529c a73d f091 823d e3c0 e13c 0853 72bb
000003f0: 8e5a 98bd ad08 f4bd 9922 38be 7b79 2cbc

fc1.bias f4 [64]
-0.018223554 -0.08338557 0.2182785 0.2986698 -0.017522752 -0.08489406 -0.006702125 0.18561575
-0.12690158 -0.2513007 0.05500886 -0.11188397 -0.2424522 0.23545662 -0.07366882 0.042172372
-0.16609715 0.007106513 -0.26844713 0.30491003 -0.06671587 -0.003139019 -0.23742396 0.27199253
0.089049995 -0.025840878 0.2717814 0.09563097 0.015423775 -0.14395 0.019142807 -0.031730413
0.056785524 -0.24128276 -0.23808604 0.30465415 -0.15109879 -0.1723437 0.1446164 0.20877811
-0.03348604 -0.18660666 0.27156284 0.11161786 0.28661934 0.23155871 0.08394247 -0.09438281
-0.19074228 -0.2928257 -0.26118067 -0.31220773 -0.21412772 -0.16947995 -0.041215926 -0.27257022
-0.24419187 -0.19552848 0.08804956 0.22185579 -0.28522447 0.06281996 -0.06660515 -0.044028044
00000000: 9049 95bc 0ec6 aabd 6684 5f3e 3feb 983e
00000010: e08b 8fbc f0dc adbd 809d dbbb 0e12 3e3e
00000020: 7df2 01be 7caa 80be f850 613d 6c23 e5bd
00000030: 6445 78be 8a1b 713e aedf 96bd f0bc 2c3d
00000040: 5f15 2abe c0dd e83b e771 89be 2b1d 9c3e
00000050: 54a2 88bd 00b8 4dbb 441f 73be 9b42 8b3e
00000060: d85f b63d 40b0 d3bc ef26 8b3e 2cda c33d
00000070: 00b4 7c3c a167 13be 60d1 9c3c c0f7 01bd
00000080: f097 683d d412 77be d4cc 73be a1fb 9b3e
00000090: a4b9 1abe de7a 30be 5216 143e eec9 553e
000000a0: a828 09bd d115 3fbe 490a 8b3e e897 e43d
000000b0: c5bf 923e ba1d 6d3e 08ea ab3d c64b c1bd
000000c0: f251 43be 40ed 95be 79b9 85be b1d9 9fbe
000000d0: 4c44 5bbe 278c 2dbe 08d2 28bd 538e 8bbe
000000e0: 6f0d 7abe 9e38 48be 5453 b43d 2a2e 633e
000000f0: f108 92be c0a7 803d 4868 88bd c056 34bd

fc2.weight f4 [9, 64]
-0.032968912 0.0059893155 -0.007535096 0.01819977 0.36136246 0.01731225 -0.21007995 -0.22559865
0.14688303 0.042703107 -0.051262584 0.15184082 0.09339131 0.16116637 -0.010992452 0.131371
0.024007613 0.11042207 0.17568676 0.12392912 -0.05944099 0.11373214 0.13638352 -0.009879282
-0.053976625 0.042519018 0.033215024 0.008276404 -0.076142415 0.072761565 -0.11178094 0.13940547
0.09304837 -0.075572275 0.18274309 0.044673815 0.0015640416 -0.056906033 0.01397372 0.19905077
-0.016972229 -0.044764027 -0.042841457 -0.0016546672 0.12716036 -0.049942255 -0.047946583 -0.006341374
0.21556841 -0.009993731 -0.0076042595 0.2169239 -0.25757775 -0.011322807 -0.019998467 -0.0356795
-0.16040337 -0.10041233 0.06878622 -0.1221476 0.03541166 -0.016995214 0.08235115 0.003106488
0.2984844 0.01807347 -0.0417778 0.023213392 -0.059613355 0.023091009 0.07258608 0.037261147
0.099620394 0.0140745435 0.071200274 0.03749219 -0.07364472 -0.12942353 0.17071487 0.027288929
-0.026532803 -0.051681634 -0.024433166 0.06620829 -0.1076045 -0.074583605 0.18796991 0.016985338
0.05146542 -0.111729465 0.08837906 0.062069606 0.025783394 0.0882809 -0.060944736 0.015768705
-0.03386643 0.06309123 -0.094990574 0.092067175 0.057922553 -0.12536862 -0.041874837 -0.0034592145
-0.054894537 0.049040627 0.10216568 -0.13846122 0.039149415 0.12083187 0.09753515 0.0055939923
0.12990265 -0.11964333 0.1249571 0.12645136 0.126745 0.080064304 0.12172778 -0.10539442
0.14420088 0.09958664 -0.07302789 -0.064189225 0.085414164 -0.061934184 0.13845852 -0.020037068
-0.0087927915 -0.031848412 -0.11070769 0.12686446 -0.011818878 0.08680577 -0.014505709 -0.049771566
-0.11393284 0.024551554 0.034166053 -0.05239135 -0.05799926 -0.10886275 0.13358225 -0.23407367
-0.10552841 -0.15035497 0.05293591 0.007739298 -0.22080794 0.12789144 -0.18027166 0.017610213
0.022157876 0.06043281 0.10481065 0.05312827 0.26005128 -0.04310198 0.039586537 0.01022754
0.011174618 0.119484894 0.07400508 -0.10465902 0.08128234 -0.11448666 0.17400621 0.017910548
0.08092623 -0.045041587 -0.077366926 -0.07224386 -0.045294862 -0.036524817 -0.021852521 0.062061913
0.19705068 -0.03942568 0.0907739 0.15924264 0.0022319052 0.12678681 -0.14486471 0.09065467
-0.19172767 -0.030166764 0.029396847 -0.1061238 -0.10415342 0.10501955 0.018154426 0.012640192
-0.045188963 -0.07807908 -0.016428484 0.05761699 0.19598944 0.15264733 0.022232892 0.073923044
0.007816723 0.003056786 -0.020864885 -0.018547548 0.05960828 0.010518441 -0.054373283 -0.24539125
-0.014666473 0.057543505 0.04513791 -0.018716097 -0.01295819 0.11888275 0.070420615 0.07215925
-0.08723932 -0.18643636 -0.12003454 -0.13753562 -0.040730078 0.07222633 0.045003872 -0.1292901
-0.026055327 -0.03840107 0.03901793 0.022133611 0.08507718 0.05545357 0.044267274 0.020601278
-0.0293457 -0.17289633 0.08175875 0.23219557 -0.22565989 0.17129081 -0.034340233 -0.00913413
-0.11089984 0.093641765 -0.05436947 0.023873469 -0.010110533 -0.010036754 -0.063858785 0.0027100022
-0.028756583 0.11122494 -0.14572404 0.08994431 -0.0313452 -0.0333712 0.04566455 0.07218581
00000000: 690a 07bd 0542 c43b f7e8 f6bb af17 953c
00000010: 8004 b93e 6bd2 8d3c 331f 57be 5503 67be
00000020: 8168 163e 74e9 2e3d b7f8 51bd 297c 1b3e
00000030: f143 bf3d cc08 253e af19 34bc 1f86 063e
00000040: 9dab c43c f724 e23d 3be7 333e 8dce fd3d
00000050: 6578 73bd 65ec e83d 1fa8 0b3e b6dc 21bc
00000060: 9816 5dbd 6c28 2e3d 7a0c 083d c199 073c
00000070: 8ef0 9bbd 0404 953d 68ed e4bd 4fc0 0e3e
00000080: 2590 be3d a3c5 9abd 0121 3b3e e4fb 363d
00000090: 8700 cd3a 4d16 69bd 08f2 643c f7d3 4b3e
000000a0: 5809 8bbc 7c5a 37bd 867a 2fbd 6be1 d8ba
000000b0: 5336 023e 4090 4cbd a363 44bd 4dcb cfbb
000000c0: f7bd 5c3e bfbc 23bc 272d f9bb 4d21 5e3e
000000d0: 3be1 83be 4b83 39bc d3d3 a3bc ab24 12bd
000000e0: c840 24be fba4 cdbd cadf 8c3d 8528 fabd
000000f0: d10b 113d 8c39 8bbc b8a7 a83d 3896 4b3b
00000100: f3d2 983e d00e 943c 331f 2bbd 032a be3c
00000110: 222d 74bd 5b29 bd3c 03a8 943d 259f 183d
00000120: c705 cc3d ea98 663c 73d1 913d 6991 193d
00000130: 0bd3 96bd 9a87 04be e1cf 2e3e 088d df3c
00000140: 525b d9bc 1fb0 53bd 1028 c8bc 3698 873d
00000150: c05f dcbd 4abf 98bd 2f7b 403e d624 8b3c
00000160: 67cd 523d 6bd2 e4bd 1500 b53d b33c 7e3d
00000170: b237 d33c 9ecc b43d 30a1 79bd 5f2d 813c
00000180: 87b7 0abd fa35 813d 6b8a c2bd b78d bc3d
00000190: 3340 6d3d a260 00be f384 2bbd fdb3 62bb
000001a0: 18d9 60bd d3de 483d 3d3c d13d c7c8 0dbe
000001b0: 235b 203d b376 f73d 82c0 c73d cf4d b73b
000001c0: 3305 053e 9007 f5bd 82e9 ff3d 777c 013e
000001d0: 71c9 013e c1f8 a33d 6a4c f93d 08d9 d7bd
000001e0: 65a9 133e 15f4 cb3d a58f 95bd a475 83bd
000001f0: 9fed ae3d b3ae 7dbd 12c8 0d3e c724 a4bc
00000200: a40f 10bc 7b73 02bd b7ba e2bd c2e8 013e
00000210: f8a3 41bc 39c7 b13d 5aa9 6dbc 45dd 4bbd
00000220: 9f55 e9bd 5720 c93c b4f1 0b3d 5098 56bd
00000230: a290 6dbd 6ff3 debd c9c9 083e 02b1 6fbe
00000240: 471f d8bd a7f6 19be 53d3 583d f099 fd3b
00000250: 7a1b 62be f9f5 023e 2299 38be 4b43 903c
00000260: 6f84 b53c 6588 773d f7a6 d63d 079d 593d
00000270: 7125 853e b48b 30bd 7e25 223d 6991 273c
00000280: bf15 373c 7fb4 f43d fa8f 973d 7857 d6bd
00000290: 5b77 a63d fb77 eabd af2e 323e 24b9 923c
000002a0: a7bc a53d 877d 38bd 8d72 9ebd 97f4 93bd
000002b0: 1b87 39bd 0c9b 15bd 0f04 b3bc a234 7e3d
000002c0: a7c7 493e d27c 21bd abe7 b93d 8110 233e
000002d0: 2845 123b 67d4 013e 6a57 14be 28a9 b93d
000002e0: 4254 44be 4a20 f7bc a8d1 f03c 6f57 d9bd
000002f0: 634e d5bd 7d14 d73d 97b8 943c cf18 4f3c
00000300: 1018 39bd ede7 9fbd 0795 86bc cbff 6b3d
00000310: 75b1 483e 954f 1c3e c121 b63c f764 973d
00000320: b611 003c 5c54 483b d6ec aabc 07f1 97bc
00000330: d027 743d 8a55 2c3c 85b6 5ebd d847 7bbe
00000340: a54b 70bc bdb2 6b3d 87e2 383d 8052 99bc
00000350: 974e 54bc cd78 f33d af38 903d 3bc8 933d
00000360: 87aa b2bd 2ce9 3ebe abd4 f5bd 23d6 0cbe
00000370: 95d4 26bd 66eb 933d fb55 383d a064 04be
00000380: fb71 d5bc 714a 1dbd 44d1 1f3d 8c51 b53c
00000390: f23c ae3d 4823 633d 9a51 353d 03c4 a83c
000003a0: 6566 f0bc bc0b 31be 2271 a73d adc4 6d3e
000003b0: 6313 67be dc66 2f3e 58a8 0cbd 51a7 15bc
000003c0: 751f e3bd 41c7 bf3d 85b2 5ebd 4b92 c33c
000003d0: a6a6 25bc 3371 24bc 65c8 82bd 4b9a 313b
000003e0: ed92 ebbc e7c9 e33d af38 15be b934 b83d
000003f0: d363 00bd 3db0 08bd c00a 3b3d 27d6 933d

fc2.bias f4 [9]
0.114486754 0.06508638 -0.117231 0.10506047 -0.0041955262 0.12114623 0.084505245 0.0062835217
-0.038200885
00000000: 0878 ea3d 024c 853d ce16 f0bd f229 d73d
00000010: a07a 89bb 841b f83d 1611 ad3d 00e6 cd3b
00000020: 8878 1cbd
